denoisers/multi_scale/celebA_160x160_gray/noise_range_0to255_RF_5x5_scale_1/model.pt (torch, 358994 bytes, 59 tensors)

module.conv_layers.0.weight f4 [64, 4, 3, 3]
-0.09670838 -0.15214998 0.24389376 0.1715684 0.073905416 0.41999945 -0.38258478 0.01636044
-0.19482546 0.3993397 0.3221317 0.2902892 0.038031768 -0.069778994 -0.3261814 0.0068649068
-0.07351652 0.1347037 -0.24619545 0.24166498 -0.1986097 0.14218497 -0.12510622 -0.015236046
-0.03783404 0.086273186 -0.014743853 0.5037251 -0.396381 0.01889696 0.0770097 0.17083964
-0.33688185 -0.21002531 -0.5102874 -0.17593002 0.2905161 0.13861464 -0.18845913 -0.2344348
0.3341062 -0.3451066 -0.04144257 0.2758064 -0.14165384 0.059185203 -0.03912942 0.1791568
-0.15831213 0.22609967 0.101430826 -0.13764536 0.013102669 -0.01598918 0.11272133 0.27393928
0.007070436 -0.21213709 0.096312575 -0.14892657 0.02409456 0.2694647 0.14411475 0.16497047
0.21741049 -0.044543654 -0.60081714 -0.34444073 0.031119274 0.3185041 0.41670522 -0.5557785
0.2282945 -0.11265457 0.52722 -0.112728186 -0.102819666 0.028777163 -0.19430782 -0.32527128
-0.03078441 -0.004380338 -0.053214155 -0.5076202 -0.18672638 0.70402974 0.031030348 -0.039304063
-0.14967325 0.0008727927 -0.06482095 0.3138102 0.060560632 -0.012697404 0.19846515 -0.09898926
-0.002408479 0.14681989 -0.14626206 -0.36572045 -0.29725116 -0.19576299 -0.22623014 -0.29204413
-0.34073663 -0.09916422 -0.11283098 -0.076716855 -0.08527321 -0.19875841 -0.2487437 -0.13320933
0.6088752 0.100417756 -0.2407572 0.029326387 -0.048378475 0.15268266 -0.046565056 -0.1753111
0.21890514 -0.061826732 -0.15068792 -0.147185 0.27144444 -0.113408834 -0.13879293 0.024357907
-0.080984026 0.11541093 0.10075459 -0.47093427 0.17809953 0.23830375 -0.02479901 -0.38841555
-0.49338126 -0.20690711 0.333563 -0.4382313 0.21751203 -0.011095346 -0.067612454 -0.11042385
0.13624063 -0.4506368 -0.39949614 0.17944868 -0.26200294 -0.05489966 -0.13712257 0.2648268
0.33618307 0.22246733 0.2714554 -0.36055505 -0.10958411 -0.093704164 -0.36970186 0.10490333
-0.026947787 0.025311634 -0.007947871 -0.14734057 -0.045978837 -0.09579408 0.21205102 0.31165335
-0.03881548 -0.32324857 0.2157448 -0.12702051 -0.35411176 0.32758796 0.10835205 -0.7374274
0.27717102 0.49017563 -0.10475009 0.09522413 0.17062537 -0.12609419 0.34323883 0.122509375
-0.10953232 -0.026100772 0.088671535 -0.16459754 0.28136495 -0.47159004 0.037345532 -0.16188164
0.13146824 -0.19121255 0.069516525 0.31876844 -0.20357825 -0.11057313 0.051544372 -0.07374258
0.020687023 -0.15228753 0.54473484 0.39024085 0.0014993248 -0.14542498 -0.024238432 0.19548234
0.06811568 0.019564565 -0.07575576 -0.54886436 -0.19570896 0.16595407 -0.23048624 -0.15816925
-0.21552949 -0.20813519 -0.33785447 0.017151792 0.66814554 0.21358125 0.1826246 -0.33312443
-0.048674997 0.05768207 0.11435865 0.18009172 -0.24623778 -0.32713863 -0.27502024 0.28382117
0.034124054 -0.13248274 -0.09762158 -0.18622026 0.12536936 0.37956026 -0.5549515 0.14140646
0.031852238 0.23411125 -0.22921428 -0.06289812 -0.24454862 -0.21364677 0.47061393 -0.13254504
-0.3891493 -0.039489467 0.36917308 -0.48638135 -0.49523816 0.028866937 -0.13497962 0.5359154
00000000: 0b0f c6bd 34cd 1bbe 49bf 793e a0af 2f3e
00000010: b95b 973d 2b0a d73e 27e2 c3be 5406 863c
00000020: 5380 47be 4176 cc3e 72ee a43e c9a0 943e
00000030: 33c7 1b3d 4ae8 8ebd 4001 a7be 03f3 e03b
00000040: d48f 96bd c4ef 093e a91a 7cbe 0677 773e
00000050: 5760 4bbe f098 113e d81b 00be 9ca0 79bc
00000060: def7 1abd ffaf b03d 3490 71bc 21f4 003f
00000070: 73f2 cabe cccd 9a3c 43b7 9d3d 96f0 2e3e
00000080: c77b acbe e010 57be 32a2 02bf 0027 34be
00000090: 87be 943e fff0 0d3e 6efb 40be ad0f 70be
000000a0: f80f ab3e d0b1 b0be afbf 29bd 7f36 8d3e
000000b0: b40d 11be 2f6c 723d 2c46 20bd e174 373e
000000c0: 931c 22be ac86 673e f7ba cf3d e8f2 0cbe
000000d0: 94ac 563c befb 82bc 71da e63d c541 8c3e
000000e0: 1eaf e73b 773a 59be 873f c53d 3580 18be
000000f0: f461 c53c 47f7 893e d192 133e 05ee 283e
00000100: dba0 5e3e 6873 36bd 27cf 19bf 895a b0be
00000110: d9ed fe3c f812 a33e 635a d53e 8047 0ebf
00000120: 09c6 693e 70b7 e6bd e4f7 063f 09de e6bd
00000130: 1e93 d2bd 16be eb3c a1f8 46be f589 a6be
00000140: 962f fcbc f088 8fbb 16f7 59bd 66f3 01bf
00000150: 3335 3fbe 4b3b 343f 5b33 fe3c 4cfd 20bd
00000160: f243 19be 20cc 643a d9c0 84bd bbab a03e
00000170: 6d0e 783d c608 50bc 733a 4b3e e2ba cabd
00000180: 93d7 1dbb f457 163e b9c5 15be b63f bbbe
00000190: 4e31 98be 1876 48be e0a8 67be cf86 95be
000001a0: 0875 aebe 9c16 cbbd ee13 e7bd ba1d 9dbd
000001b0: b9a3 aebd 5387 4bbe abb6 7ebe 0768 08be
000001c0: 3fdf 1b3f d3a7 cd3d 0e89 76be e43d f03c
000001d0: 8228 46bd d858 1c3e 00bb 3ebd c184 33be
000001e0: ab28 603e 073e 7dbd ef4d 1abe aab7 16be
000001f0: c4fa 8a3e e442 e8bd bc1f 0ebe 3c8a c73c
00000200: f4da a5bd 915c ec3d 6c58 ce3d 4c1e f1be
00000210: b95f 363e e605 743e 4b27 cbbc 67de c6be
00000220: 789c fcbe 75df 53be c5c8 aa3e da5f e0be
00000230: 79bb 5e3e 41c9 35bc 6678 8abd e625 e2bd
00000240: aa82 0b3e deb9 e6be c28a ccbe 65c1 373e
00000250: 4025 86be 77de 60bd dc69 0cbe 6197 873e
00000260: 3020 ac3e 7ace 633e 34fc 8a3e ac9a b8be
00000270: a26d e0bd f8e7 bfbd 9049 bdbe 8fd7 d63d
00000280: 9bc1 dcbc 585a cf3c ca37 02bc 72e0 16be
00000290: 4e54 3cbd b02f c4bd e723 593e 0791 9f3e
000002a0: fbfc 1ebd d680 a5be 34ec 5c3e aa11 02be
000002b0: 234e b5be 9cb9 a73e aee7 dd3d 0bc8 3cbf
000002c0: 5ce9 8d3e 4df8 fa3e 3787 d6bd de04 c33d
000002d0: 6bb8 2e3e d61e 01be 00bd af3e 32e6 fa3d
000002e0: 7b52 e0bd 49d1 d5bc 6c99 b53d 428c 28be
000002f0: 110f 903e 4074 f1be a1f7 183d 4dc4 25be
00000300: 9c9f 063e 39cd 43be ae5e 8e3d 9e35 a33e
00000310: d176 50be 2a74 e2bd 3120 533d 5a06 97bd
00000320: d577 a93c 43f1 1bbe be73 0b3f a6cd c73e
00000330: fe84 c43a 49ea 14be ad8f c6bc 862c 483e
00000340: 3c80 8b3d de45 a03c d625 9bbd 6082 0cbf
00000350: ee67 48be ddef 293e 9604 6cbe 1ff7 21be
00000360: c3b3 5cbe 6421 55be 43fb acbe ea81 8c3c
00000370: 960b 2b3f 0bb5 5a3e f101 3b3e 498f aabe
00000380: 6f5f 47bd 0944 6c3d de34 ea3d f769 383e
00000390: c225 7cbe b77e a7be 74cf 8cbe 0251 913e
000003a0: aac5 0b3d 8ea9 07be d3ed c7bd 86b0 3ebe
000003b0: d360 003e b955 c23e 4d11 0ebf dbcc 103e
000003c0: 7e77 023d dcba 6f3e 26b7 6abe bbd0 80bd
000003d0: f46a 7abe 38c6 5abe 4ff4 f03e e3b9 07be
000003e0: 943e c7be b5bf 21bd 4104 bd3e fa06 f9be
000003f0: db8f fdbe 5b7a ec3c 1938 0abe c031 093f

module.conv_layers.1.weight f4 [64, 64, 1, 1]
-0.21622644 0.4721119 0.025381971 -0.031123258 0.30504712 0.14724533 0.5714315 -0.13365765
-0.09991985 0.08421215 -0.009918898 -0.2218363 -0.012352666 -0.018293032 0.116720326 -0.09122113
0.05850677 -0.30215278 -0.02855322 -0.24385956 0.110893734 -0.29727277 0.020549754 -0.40430358
-0.20610517 0.22668743 -0.47912282 0.106261164 0.09135967 0.01598977 -0.020706683 -0.26937717
0.12723936 0.043593302 0.22610886 0.28752998 0.25346953 0.29423827 0.28086576 0.06945861
0.23115577 -0.1536058 0.06886125 -0.01551238 -0.09764741 0.1873027 0.19690692 -0.47545564
0.14757693 -0.098183826 0.19439705 0.33009025 0.044609778 -0.24172974 -0.010741594 -0.08810677
-0.28818882 -0.15998332 0.02816127 0.014875444 0.30194712 -0.16613878 0.22390589 0.2501283
-0.26483324 -0.03304148 -0.030790472 -0.23208699 0.4073911 0.23461302 -0.30240312 -0.06917412
-0.29462454 0.079580314 -0.2061951 -0.08470169 0.16985337 0.09045669 -0.09846763 0.43754253
0.40865687 -0.22016391 -0.18889503 0.06826262 -0.43062973 0.027637705 -0.03895211 0.22217214
0.023941401 0.50332695 -0.10860186 0.1259214 0.0664325 0.86559933 -0.3355103 -0.07494945
-0.07347838 0.08959023 -0.032529928 0.07566118 -0.45842713 -0.25452638 0.08137404 -0.25108987
0.22498374 0.26276982 0.28584707 -0.025317244 0.032969445 -0.17150004 -0.029050816 -0.033543974
-0.13447987 0.39408043 0.0317064 0.010646272 -0.12762617 0.19037029 -0.00261379 -0.11373759
0.086659305 -0.14318058 0.119625725 0.34202474 -0.072185345 0.25353387 -0.03415214 -0.2774887
0.23294686 0.2625742 0.33118352 -0.17877765 -0.123558395 -0.02866157 0.35006306 -0.32384372
-0.11874919 0.18932484 -0.12286458 0.059186887 -0.40289292 0.08530175 0.26535124 -0.030093364
-0.25464955 0.1398585 0.034561314 -0.16052435 -0.5937627 0.10750267 -0.19139996 0.6030112
0.29729605 0.13267328 0.38647497 0.045385264 -0.15717432 0.12430508 0.33683667 0.009187823
-0.032044474 0.028820766 0.0045110392 -0.13139883 0.2140995 -0.120504215 -0.049565814 0.22857353
-0.07364992 0.08078099 -0.063433945 0.14290617 -0.10262692 0.11925652 -0.020489743 0.16543326
0.1371863 -0.03099392 0.21029368 -0.009596565 0.093314625 0.3472025 0.16828121 -0.12849174
-0.04938346 0.07748873 -0.24259429 0.3025222 -0.23489685 -0.12110999 0.3766778 0.04077582
-0.38940448 -0.50427645 -0.01991311 0.14113541 -0.06795167 -0.1697481 0.35327935 0.2916944
-0.28999975 -0.049399644 0.11867208 -0.106735826 0.005184693 0.16744952 0.07449094 -0.24148943
0.051430393 0.27224576 -0.19691965 0.13926834 -0.2174986 0.099789046 -0.013789673 -0.1509199
-0.28644663 -0.19514985 -0.09699096 0.23032692 -0.3020265 0.48594484 -0.049925767 0.054084864
0.17029509 0.03897544 -0.20767343 -0.15443392 -0.20470342 0.1269903 -0.29265872 0.3449068
-0.18913531 -0.09848607 -0.08429973 -0.26713562 -0.045780845 -0.09647671 -0.20800363 -0.17655484
-0.038176954 0.0059185512 -0.49419978 -0.19675396 -0.120412044 0.06454661 -0.13439837 0.13102797
0.13789427 0.048053324 0.35150856 -0.056915723 -0.08709631 0.12055382 -0.05863687 -0.18874532
00000000: 776a 5dbe a7b8 f13e daed cf3c 34f6 febc
00000010: 232f 9c3e 7bc7 163e 5649 123f 8ddd 08be
00000020: c7a2 ccbd 6b77 ac3d e082 22bc 0e29 63be
00000030: d662 4abc 45db 95bc 110b ef3d 25d2 babd
00000040: cba4 6f3d c5b3 9abe 71e8 e9bc 52b6 79be
00000050: 411c e33d 2334 98be f557 a83c e100 cfbe
00000060: 3c0d 53be c020 683e 964f f5be 749f d93d
00000070: c71a bb3d fafc 823c 10a1 a9bc ceeb 89be
00000080: 094b 023e e48e 323d 1589 673e 2137 933e
00000090: c2c6 813e 66a6 963e a3cd 8f3e 5140 8e3d
000000a0: 19b4 6c3e d74a 1dbe 2107 8d3d a327 7ebc
000000b0: 5efb c7bd 47cc 3f3e f8a1 493e ec6e f3be
000000c0: 681e 173e 9a14 c9bd 0510 473e 9701 a93e
000000d0: beb8 363d 0088 77be 83fd 2fbc 5271 b4bd
000000e0: 7c8d 93be abd2 23be 77b2 e63c 22b8 733c
000000f0: d098 9a3e 4920 2abe 9647 653e d110 803e
00000100: 3998 87be 8156 07bd 4d3c fcbc 36a8 6dbe
00000110: 9195 d03e 653e 703e 95d4 9abe 29ab 8dbd
00000120: 07d9 96be 01fb a23d cf24 53be 1478 adbd
00000130: 0bee 2d3e 5b41 b93d 66a9 c9bd 9305 e03e
00000140: 793b d13e a672 61be b36d 41be 46cd 8b3d
00000150: 807b dcbe 7868 e23c 3f8c 1fbd 1881 633e
00000160: c220 c43c 09da 003f a76a debd 8af1 003e
00000170: c30d 883d eb97 5d3f 02c8 abbe 197f 99bd
00000180: d57b 96bd 157b b73d 1a3e 05bd 40f4 9a3d
00000190: f6b6 eabe 4851 82be 6fa7 a63d da8e 80be
000001a0: 2362 663e c489 863e 8c5a 923e 1c66 cfbc
000001b0: f80a 073d b59d 2fbe fafb edbc 6865 09bd
000001c0: 17b5 09be e9c4 c93e 92de 013d b46d 2e3c
000001d0: 6fb0 02be 6ef0 423e 1f4c 2bbb 41ef e8bd
000001e0: 6f7a b13d ee9d 12be 55fe f43d de1d af3e
000001f0: e9d5 93bd 31cf 813e 1de3 0bbd 0013 8ebe
00000200: 9f89 6e3e 2070 863e e390 a93e 7d11 37be
00000210: 2f0c fdbd abcb eabc 773b b33e d8ce a5be
00000220: c632 f3bd 5fde 413e 6da0 fbbd f36d 723d
00000230: fb47 cebe afb2 ae3d 1edc 873e 5c86 f6bc
00000240: 6d61 82be 1137 0f3e 2a90 0d3d 7f60 24be
00000250: d500 18bf 5c2a dc3d 5afe 43be f15e 1a3f
00000260: 3037 983e 81db 073e 0ce0 c53e e6e5 393d
00000270: 4ef2 20be a993 fe3d db75 ac3e 8688 163c
00000280: 1141 03bd 8719 ec3c 57d1 933b 6a8d 06be
00000290: e63c 5b3e eaca f6bd 8605 4bbd 2e0f 6a3e
000002a0: c5d5 96bd 8170 a53d a8e9 81bd ff55 123e
000002b0: 102e d2bd c33c f43d 1bda a7bc 5667 293e
000002c0: 917a 0c3e f6e6 fdbc 3a57 573e e93a 1dbc
000002d0: bd1b bf3d 87c4 b13e e951 2c3e 5793 03be
000002e0: 5046 4abd 69b2 9e3d a36a 78be 31e4 9a3e
000002f0: cd88 70be 8408 f8bd eadb c03e 8c04 273d
00000300: 0660 c7be 4318 01bf d220 a3bc cd85 103e
00000310: 3f2a 8bbd 72d2 2dbe 08e1 b43e f858 953e
00000320: d97a 94be 4857 4abd 590a f33d 5098 dabd
00000330: 5be4 a93b e377 2b3e b58e 983d 0149 77be
00000340: ada8 523d cc63 8b3e 4ea5 49be 5c9c 0e3e
00000350: f4b7 5ebe 335e cc3d 15ee 61bc bf8a 1abe
00000360: 22a9 92be 5dd5 47be 32a3 c6bd d2da 6b3e
00000370: 38a3 9abe c3cd f83e f67e 4cbd 1788 5d3d
00000380: d661 2e3e b6a4 1f3d 58a8 54be ed23 1ebe
00000390: c69d 51be bf09 023e 5dd7 95be a097 b03e
000003a0: b0ac 41be 11b3 c9bd 56a5 acbd 00c6 88be
000003b0: b284 3bbd 9595 c5bd e7fe 54be cbca 34be
000003c0: 705f 1cbd 68f0 c13b c107 fdbe df79 49be
000003d0: 979a f6bd 0331 843d ba9f 09be 322c 063e
000003e0: 2834 0d3e 90d3 443d eef8 b33e 7620 69bd
000003f0: 8d5f b2bd ece4 f63d 372d 70bd 7446 41be

module.conv_layers.2.weight f4 [64, 64, 1, 1]
-0.1805463 0.010277706 0.026565973 -0.02420428 -0.00659451 -0.13089414 -0.4137294 0.119348526
0.049440734 0.2015857 -0.0007646774 -0.065402664 -2.843142e-05 0.0022263 0.004822863 0.047022913
0.0034026457 -0.03476875 0.38077366 0.31534106 -0.012334521 0.02428248 -0.013533515 0.374837
0.03477402 -0.0019825941 0.004510126 0.0032385106 -0.034693226 0.000721265 0.009106572 -0.004616974
0.0389107 0.0026550374 -0.050379537 -0.014093112 -0.06426672 0.055575088 -0.070809245 -0.19915551
-0.25729913 0.0117634935 -0.004365651 0.1535367 -0.0046453457 -0.003156525 -0.11968191 0.06501776
0.14732899 0.0034764935 -0.003232355 0.02018981 -0.4580775 -0.03474348 0.014911052 -0.037581988
-0.119130425 -0.257016 0.18949302 -0.1335261 0.022709267 0.11841501 0.01643168 0.077084765
0.14895129 0.19693436 -0.21169347 -0.14494635 -0.013214094 0.15278572 0.030732451 -0.0435889
-0.099328876 -0.1127415 -0.20012666 0.3238354 -0.008103762 -0.5206997 -0.4551733 -0.31666878
-0.12502187 -0.04949895 -0.13986886 -0.024979163 0.033130135 0.6461673 0.2073316 0.13323177
0.03965439 0.0024329901 -0.016291033 0.00035579028 0.10852263 -0.0050098635 0.06861728 -0.015358809
-0.104369394 0.14601475 -0.63071126 0.0969426 -0.13842754 0.09497438 0.4167515 0.032579772
-0.06997839 0.1721104 -0.2636991 -0.1955809 0.09211831 -0.04305457 0.25972646 -0.08311704
-0.30721092 0.07345978 -0.007118947 -0.021486469 -0.090253875 0.04208721 -0.41984212 -0.0038406705
0.017361661 0.0052140593 0.18924136 0.18357915 0.375165 -0.0016535026 -0.13816047 0.1146356
0.10686634 0.18549573 -0.47551733 -0.16985267 -0.122721516 0.20724176 -0.41041702 -0.13367608
-0.2061138 -0.3618863 -0.05625345 -0.13497025 -0.061007235 0.023391033 -0.11338397 -0.13637637
-0.18595321 -0.018287282 0.023216927 -0.064873666 0.021666033 -0.16594304 0.30044478 -0.33097288
0.116855286 -0.09041358 -0.11023959 -0.10354913 -0.2714602 -0.08299935 -0.18258095 0.039518442
-0.092826575 0.024348369 -0.13053527 -0.32334337 0.06706087 0.35948753 0.22802697 -0.08703605
0.17480953 -0.051387686 0.10440915 0.258845 -0.019313056 -0.049557347 0.068144076 -0.26061353
-0.0074157403 -0.04239241 0.03039392 -0.2845939 -0.07073527 -0.34674987 -0.13492362 -0.14938413
-0.2368353 0.041369174 -0.12787212 -0.16778596 -0.23297265 -0.18636382 -0.22025567 0.0047140345
0.0504267 0.047274318 0.09210446 0.078043334 0.040525492 -0.51571476 -0.12639846 0.08435883
0.010834194 -0.033150155 -0.7579331 -0.26884967 -0.8387183 -0.12807685 0.6383248 0.1968604
-0.0030818987 0.003006259 0.07088379 0.08483546 -0.04232529 -4.9153332e-05 -0.1983301 0.1342438
-0.020292742 -1.2718327 0.062811926 0.04990855 0.04763944 0.049211923 0.13216239 0.1139798
0.041954394 0.2440205 -0.13100065 0.07968712 0.1540289 -0.58717465 -0.12240024 -0.21510056
-0.071192056 -0.040693816 0.077714525 0.061510913 -0.13131775 -0.2932145 -0.15487565 0.13353667
-0.11710383 -1.0219448 0.067326695 0.26137987 -0.12758736 0.12004129 -0.4142544 -0.48915368
-0.037454497 -0.035324927 0.053248864 0.097349115 0.26122752 0.016589396 0.2080754 -0.34009838
00000000: 21e1 38be d363 283c e2a0 d93c 0e48 c6bc
00000010: c216 d8bb 1d09 06be 57d4 d3be 006d f43d
00000020: 5e82 4a3d 7b6c 4e3e a274 48ba d5f1 85bd
00000030: 0280 eeb7 1ee7 113b 1b09 9e3b 199b 403d
00000040: ecfe 5e3b ad69 0ebd c4f4 c23e 6274 a13e
00000050: bb16 4abc 0dec c63c adbb 5dbc a3ea bf3e
00000060: 346f 0e3d 69ee 01bb aec9 933b 313d 543b
00000070: 7c1a 0ebd 4613 3d3a bb33 153c fc49 97bb
00000080: d360 1f3d 2300 2e3b c65a 4ebd cce6 66bc
00000090: 459e 83bd b4a2 633d 7004 91bd 6cef 4bbe
000000a0: b6bc 83be abbb 403c bc0d 8fbb ba38 1d3e
000000b0: fc37 98bb b4dd 4ebb ca1b f5bd 0828 853d
000000c0: 69dd 163e e2d5 633b ebd5 53bb 1a65 a53c
000000d0: 2289 eabe 2e4f 0ebd 7c4d 743c 92ef 19bd
000000e0: a7fa f3bd 9a97 83be 750a 423e 11bb 08be
000000f0: c908 ba3c 9283 f23d bb9b 863c 9ede 9d3d
00000100: b086 183e 29a9 493e 2cc6 58be d16c 14be
00000110: ed7f 58bc dc73 1c3e 9fc2 fb3c 468a 32bd
00000120: f06c cbbd 04e5 e6bd 01ee 4cbe c1cd a53e
00000130: a4c5 04bc 934c 05bf 7a0c e9be 6922 a2be
00000140: bc05 00be 69bf 4abd c839 0fbe 1aa1 ccbc
00000150: 77b3 073d 386b 253f bc4e 543e e96d 083e
00000160: a46c 223d cd72 1f3b c674 85bc 5d89 ba39
00000170: 1d41 de3d c829 a4bb 3787 8c3d 84a3 7bbc
00000180: 9fbf d5bd e484 153e 4b76 21bf d889 c63d
00000190: f3bf 0dbe ee81 c23d 7460 d53e 5e72 053d
000001a0: d550 8fbd b53d 303e 9203 87be 5c46 48be
000001b0: 86a8 bc3d fd59 30bd defa 843e 4439 aabd
000001c0: c04a 9dbe 1572 963d 0e46 e9bb 6404 b0bc
000001d0: 06d7 b8bd a363 2c3d 8cf5 d6be c2b3 7bbb
000001e0: 0b3a 8e3c b3da aa3b 7dc8 413e 2cfc 3b3e
000001f0: a015 c03e 57ba d8ba f079 0dbe 12c6 ea3d
00000200: bddc da3d 98f2 3d3e 0277 f3be dced 2dbe
00000210: 6b55 fbbd 2f37 543e 2e22 d2be 62e2 08be
00000220: 7f0f 53be 2949 b9be 056a 66bd a435 0abe
00000230: b9e2 79bd 8d9e bf3c db35 e8bd 3fa6 0bbe
00000240: 856a 3ebe 36cf 95bc 6d31 be3c 7cdc 84bd
00000250: f77c b13c f9ec 29be e6d3 993e 4775 a9be
00000260: d351 ef3d c12a b9bd 4bc5 e1bd 9111 d4bd
00000270: d5fc 8abe 90fb a9bd 80f6 3abe 17de 213d
00000280: dc1b bebd 3b76 c73c 0aab 05be 438d a5be
00000290: 3657 893d c00e b83e e77f 693e f53f b2bd
000002a0: 4501 333e e57b 52bd 77d4 d53d 5587 843e
000002b0: 6a36 9ebc a5fc 4abd 1f8f 8b3d 236f 85be
000002c0: bdff f2bb aaa3 2dbd acfc f83c 4bb6 91be
000002d0: a7dd 90bd 3389 b1be 6b29 0abe 27f8 18be
000002e0: f484 72be b972 293d e9f0 02be 15d0 2bbe
000002f0: 6290 6ebe 28d6 3ebe b48a 61be 3078 9a3b
00000300: 3a8c 4e3d b7a2 413d 43a1 bc3d 2fd5 9f3d
00000310: 0ffe 253d e205 04bf 996e 01be 52c4 ac3d
00000320: e781 313c 75c8 07bd e707 42bf aaa6 89be
00000330: 3eb6 56bf 9426 03be 4169 233f c695 493e
00000340: aef9 49bb a804 453b 852b 913d 37be ad3d
00000350: 495d 2dbd fd29 4eb8 0c17 4bbe 3577 093e
00000360: f73c a6bc 6acb a2bf 8aa3 803d e86c 4c3d
00000370: 9321 433d 7192 493d 9455 073e 3e6e e93d
00000380: 5fd8 2b3d 83e0 793e 0925 06be 0033 a33d
00000390: c1b9 1d3e 1451 16bf faac fabd 5243 5cbe
000003a0: 24cd 91bd 8fae 26bd cb28 9f3d def2 7b3d
000003b0: 2978 06be 3620 96be b997 1ebe d6bd 083e
000003c0: 22d4 efbd 16cf 82bf 94e2 893d 95d3 853e
000003d0: 43a6 02be 35d8 f53d 2719 d4be 5a72 fabe
000003e0: e369 19bd dfb0 10bd 7b1b 5a3d f95e c73d
000003f0: 9dbf 853e 7ce6 873c b811 553e 6021 aebe

module.conv_layers.3.weight f4 [64, 64, 1, 1]
0.073979855 0.14940283 0.03739407 -0.07141242 -0.012509122 -0.06427901 0.36279178 0.5286608
-0.002118711 0.2758663 0.19798338 0.22202624 0.22958384 -0.13968937 -0.39609957 0.113441624
0.013725208 0.020571906 0.26920748 0.12305881 -0.04533853 -0.03853313 -0.032261785 0.045835122
0.0016966778 0.3177287 0.35357782 -0.0851852 0.074018575 0.028112326 0.025024688 -0.1723308
-0.26518935 -0.085174255 -0.13656841 -0.15875973 0.020383654 0.23643184 -0.09146319 0.15219405
-0.2786215 -0.08482462 0.36943504 0.29065213 -0.082688265 -0.18045172 0.35258886 -0.15615855
0.26430413 -0.015111769 -0.06212392 0.18492505 -0.32044837 -0.035535324 -0.05615174 0.04950713
0.09292853 0.07044923 0.09054171 0.35553798 0.17331287 0.23043713 -0.18389045 -0.09399339
-0.21557042 0.0885317 0.19561577 -0.27447045 -0.22311397 -0.054590024 0.10563821 0.19930653
-0.037479095 -0.16648328 -0.29373237 0.21395311 -0.19499247 -0.09691157 -0.016032344 -0.21881807
0.012266097 -0.053826556 0.21406934 -0.42134848 -0.14017978 -0.08842667 -0.024079282 -0.10617622
-0.11606595 -0.19396369 -0.025694823 0.18615378 0.045407966 0.18652101 0.2760005 0.15882634
-0.09332236 0.019870495 -0.11283678 0.52941823 -0.08935673 -0.10211594 -0.022015072 0.120034456
0.24817948 -0.057860527 0.21583624 -0.06780207 -0.03887556 -0.4194365 -0.09508354 -0.3291411
-0.3096531 -0.20195499 0.23106642 0.55859625 0.100574784 0.13359822 0.011066752 0.2216677
-0.40515253 0.074368335 -0.25788325 -0.11353384 -0.20369096 0.08665937 0.18961933 0.05943281
0.07441614 -0.30356085 -0.1474828 -0.39229965 0.3207465 0.25856712 -0.7865983 -0.1329741
-0.77353066 0.24733087 0.19930646 -0.6450118 0.0008223058 -0.23009686 0.012583416 -0.51813704
0.047395535 0.03075084 0.038277984 0.4909333 0.14861311 0.10615012 0.1933339 -0.26159933
-0.234589 0.3347276 -0.07859865 -0.08531432 -0.25085846 -0.0020146517 0.03133107 -0.09528865
0.23170482 -0.3356415 -0.10171523 -0.4589424 0.016615199 0.47574556 -0.04840003 -0.2366017
-0.049957182 0.2591258 0.6130636 -0.22282685 0.07720959 0.08026088 0.28236747 0.33959353
-0.13939837 -0.31566605 0.28647685 0.03428711 -0.12232675 0.061954696 -0.15824997 0.19449668
-0.3861547 0.63555986 0.33944857 0.038936734 -0.06021363 0.12655473 -0.38352147 -0.058939043
-0.13799736 -1.2288184 0.15572198 0.08971813 -0.15234059 0.16026998 -0.27895242 -0.19645649
0.005330163 -0.13240366 0.17524606 0.34251398 0.019955816 -0.08199683 0.070230044 0.35844916
0.36587662 0.18532267 -0.44604993 0.023016289 0.19157271 -0.016551131 -0.14657435 -0.06997679
0.17408113 -0.75485235 0.24940036 -0.23604974 0.14986226 0.18233843 0.030746574 0.12503393
-0.09892456 -0.20049022 -0.34053147 -0.36434978 -0.096849404 0.33212957 -0.16437952 -0.038290385
-0.112475134 0.9206617 0.34267834 -0.11962165 -0.014525537 -0.22389153 -0.014794082 -0.4496561
-0.65201014 0.13032097 -0.23617522 -0.21613042 0.05147541 0.56195426 -0.18404824 -0.23560534
-0.27806967 -0.40717852 0.09086771 -0.113354236 -0.46341893 0.009240786 -0.15454929 -0.632333
00000000: c082 973d 0efd 183e 862a 193d ad40 92bd
00000010: 0ff3 4cbc b7a4 83bd d8bf b93e 5056 073f
00000020: 12da 0abb 593e 8d3e 28bc 4a3e d95a 633e
00000030: 0718 6b3e bb0a 0fbe 90cd cabe 1554 e83d
00000040: b2df 603c 6a86 a83c 90d5 893e 4206 fc3d
00000050: e5b4 39bd ead4 1dbd ef24 04bd 9cbd 3b3d
00000060: 0f63 de3a 56ad a23e 2708 b53e 9475 aebd
00000070: 0d97 973d d24b e63c 9300 cd3c 7c77 30be
00000080: e6c6 87be d76f aebd 97d8 0bbe e991 22be
00000090: 9ffb a63c 301b 723e 0e51 bbbd c2d8 1b3e
000000a0: 7aa7 8ebe 88b8 adbd 9726 bd3e 5bd0 943e
000000b0: 7758 a9bd 56c8 38be 8786 b43e 07e8 1fbe
000000c0: df52 873e 5a97 77bc a775 7ebd fe5c 3d3e
000000d0: cf11 a4be 7d8d 11bd 5eff 65bd fdc7 4a3d
000000e0: 5051 be3d b047 903d ef6d b93d 1309 b63e
000000f0: ee78 313e b6f7 6b3e c74d 3cbe 9b7f c0bd
00000100: 7ebe 5cbe 1c50 b53d 804f 483e 6487 8cbe
00000110: fd77 64be ca99 5fbd d958 d83d 0317 4c3e
00000120: ae83 19bd 987a 2abe 1764 96be 8616 5b3e
00000130: 1bac 47be 9379 c6bd 4356 83bc d811 60be
00000140: bdf7 483c 3c79 5cbd fe34 5b3e fdba d7be
00000150: 4a8b 0fbe 0b19 b5bd ea41 c5bc eb72 d9bd
00000160: fcb3 edbd 6b9e 46be f37d d2bc 199f 3e3e
00000170: b4fd 393d 5dff 3e3e f04f 8d3e 5fa3 223e
00000180: cb1f bfbd 73c7 a23c f816 e7bd f487 073f
00000190: a900 b7bd 2922 d1bd f458 b4bc a0d4 f53d
000001a0: c322 7e3e 29ff 6cbd 2d04 5d3e d0db 8abd
000001b0: fb3b 1fbd 62c0 d6be 29bb c2bd 2f85 a8be
000001c0: da8a 9ebe 4acd 4ebe ad9c 6c3e 2a00 0f3f
000001d0: 27fa cd3d f9cd 083e 5251 353c dcfc 623e
000001e0: 2770 cfbe 6d4e 983d 4609 84be 6e84 e8bd
000001f0: 5d94 50be 787a b13d 922b 423e d16f 733d
00000200: 7d67 983d 546c 9bbe bb05 17be 80db c8be
00000210: e338 a43e e962 843e 825e 49bf 5d2a 08be
00000220: 1b06 46bf 4e44 7d3e fe16 4c3e 7e1f 25bf
00000230: 0290 573a 839e 6bbe ac2a 4e3c a1a4 04bf
00000240: d221 423d 30e9 fb3c 60c9 1c3d 9c5b fb3e
00000250: 092e 183e 3c65 d93d 52f9 453e 59f0 85be
00000260: 1938 70be 6a61 ab3e 54f8 a0bd 46b9 aebd
00000270: 8570 80be 3f08 04bb 0255 003d b226 c3bd
00000280: 0744 6d3e 34d9 abbe 1350 d0bd 80fa eabe
00000290: 991c 883c ec94 f33e 1c3f 46bd b747 72be
000002a0: e79f 4cbd 23ac 843e bcf1 1c3f b92c 64be
000002b0: 1020 9e3d d15f a43d 7892 903e 34df ad3e
000002c0: 72be 0ebe fb9e a1be 18ad 923e a470 0c3d
000002d0: 7286 fabd 35c4 7d3d 480c 22be 232a 473e
000002e0: 12b6 c5be 0db4 223f 34cc ad3e 207c 1f3d
000002f0: 91a2 76bd 9097 013e ed5c c4be 116a 71bd
00000300: 2e4f 0dbe ec49 9dbf 9575 1f3e 24be b73d
00000310: 2cff 1bbe d01d 243e dad2 8ebe e42b 49be
00000320: a6a8 ae3b d394 07be b473 333e fe5d af3e
00000330: 617a a33c f4ed a7bd c5d4 8f3d a686 b73e
00000340: 2e54 bb3e 3ac5 3d3e a860 e4be a88c bc3c
00000350: a32b 443e 3d96 87bc 9617 16be fe4f 8fbd
00000360: 5342 323e 013e 41bf cf62 7f3e 06b7 71be
00000370: 7e75 193e edb6 3a3e 3de0 fb3c e508 003e
00000380: f698 cabd 4f4d 4dbe 245a aebe 0e8c babe
00000390: fb58 c6bd e30c aa3e 1b53 28be 61d6 1cbd
000003a0: 5d59 e6bd 7cb0 6b3f 8973 af3e 32fc f4bd
000003b0: 85fc 6dbc d243 65be e162 72bc 5339 e6be
000003c0: 23ea 26bf dc72 053e ebd7 71be 4b51 5dbe
000003d0: e1d7 523d 3cdc 0f3f 2477 3cbe 8742 71be
000003e0: 265f 8ebe b479 d0be da18 ba3d 4426 e8bd
000003f0: 3f45 edbe aa66 173c 2b42 1ebe 93e0 21bf

module.conv_layers.4.weight f4 [64, 64, 1, 1]
0.0037996878 -0.11700215 0.097874746 0.07985191 0.12880225 0.118199974 0.0963792 0.052608956
-0.011898339 0.015524566 0.10402121 -0.39900705 -0.0957293 0.12607025 0.12570447 -0.07452907
0.09218373 -0.16614175 0.29476777 0.108512804 -0.24398619 -0.07865451 0.14282452 -0.03715353
-0.11979334 -0.049419142 0.16708341 -0.19603436 -0.033352856 0.08795687 -0.10757195 -0.26855466
0.36207214 -0.040745195 -0.30639786 -0.10726603 -0.36888167 -0.19096528 -0.2578637 0.16332641
0.06710184 0.1714719 -0.13160263 0.3151055 0.10657563 -0.013150027 0.036637034 -0.33576763
-0.038857345 -0.09530345 -0.030893356 -0.15231526 0.13309313 0.08775126 -0.031038294 -0.22487897
-0.054868497 -0.12922196 0.03090986 0.056026455 -0.25198016 0.083438925 0.06713915 -0.11901958
-0.2314707 -0.05870234 0.053542092 -0.15716404 -0.12601852 0.12134846 0.009063139 -0.040142447
-0.29993102 -0.16707224 -0.005942162 -0.1660309 0.405139 0.21193232 0.07923728 0.432363
-0.059554648 -0.17685288 0.045366246 0.005272785 -0.27427748 0.13119711 0.12738241 0.12395912
-0.048749916 0.041502766 0.12440985 0.06928725 0.14374961 -0.20867625 -0.18184486 -0.0051627546
-0.14062366 -0.014409577 0.29744452 -0.021835813 -0.14385642 0.093778156 0.1806178 -0.16696292
-0.054662175 -0.006594807 0.023978427 0.03815751 0.013517826 0.0036421455 -0.45641863 -0.035766684
-0.04323884 0.005210826 -0.229273 -0.08746341 0.38516876 0.01776384 -0.0192458 -0.038439907
0.06381662 -0.22317447 0.024615413 -0.004149484 0.08309481 -0.043116555 0.0741667 -0.059869867
-0.077061534 -0.07063112 0.49224865 0.17962469 0.3303723 0.48657563 -0.026090875 -0.36449844
0.07018434 -0.13834962 -0.68988854 0.110769704 0.16451342 0.034297686 -0.37578863 0.03016818
-0.20586038 -0.60123706 -0.54280174 0.43990046 -0.38902488 -0.259231 0.31929344 -0.17108832
0.32880053 0.6692972 -0.1058646 -0.071330555 -0.24211253 -0.029723464 -0.015717013 0.16384313
-0.13121766 -0.2705214 0.14346048 0.02002021 0.1592414 -0.08429057 0.32752633 -0.21126004
0.15795718 -0.325941 -0.09675961 0.08081705 0.32235038 0.50491685 0.83417857 -0.15293857
-0.039227348 0.20287319 -0.200895 0.28366092 0.38463026 0.057476692 -0.31404796 0.020726481
-0.14029045 0.22445099 -0.15776344 -0.3826387 0.16498144 -0.3104102 -0.023667779 -0.096402906
-0.14451872 0.16652551 0.04038762 0.10107488 0.20470436 -0.19870628 -0.016493186 0.15737583
-0.021953052 0.27320093 -0.09697077 0.11067202 0.0677966 -0.05092152 -0.18085232 0.1394289
0.10076924 -0.20699766 0.03967159 0.0035065138 -0.28646907 -0.17423695 -0.11480085 -0.15450546
0.0468599 -0.07587224 0.21416172 -0.135548 0.085626945 -0.0966412 0.049180683 0.06866198
0.26639864 0.28054965 -0.022903534 0.07550158 -0.17260896 0.43077445 -0.35809866 0.10078332
0.17431122 0.027803808 0.19379349 0.120862976 0.25898522 0.17204759 0.266896 -0.015830847
-0.3355277 0.2378454 -0.09935009 0.0036582605 -0.1613107 -0.16790147 -0.011469444 -0.12773073
0.27245116 -0.28696337 0.30479097 0.34385246 0.1360241 -0.063900374 0.01894811 0.13278805
00000000: 2f04 793b d39e efbd 8e72 c83d 6689 a33d
00000010: bde4 033e d412 f23d 7562 c53d 7d7c 573d
00000020: 40f1 42bc c05a 7e3c 1209 d53d a74a ccbe
00000030: b90d c4bd 8f18 013e acb8 003e b2a2 98bd
00000040: d3ca bc3d 1021 2abe cdeb 963e f63b de3d
00000050: 84d7 79be 9e15 a1bd 9740 123e 4d2e 18bd
00000060: 3656 f5bd ba6b 4abd ea17 2b3e 3bbd 48be
00000070: 019d 08bd bb22 b43d af4e dcbd ff7f 89be
00000080: 8561 b93e 6fe4 26bd 2ee0 9cbe 4bae dbbd
00000090: 0fde bcbe 678c 43be b606 84be 0a3f 273e
000000a0: b16c 893d 5496 2f3e d7c2 06be 8255 a13e
000000b0: 5344 da3d 3673 57bc b710 163d bce9 abbe
000000c0: e128 1fbd 752e c3bd 1014 fdbc 88f8 1bbe
000000d0: 9149 083e efb6 b33d 0544 febc ac46 66be
000000e0: cabd 60bd c352 04be ad36 fd3c ff7b 653d
000000f0: 8b03 81be 07e2 aa3d 4080 893d 8ac0 f3bd
00000100: a806 6dbe dd71 70bd f44e 5b3d 9cef 20be
00000110: 000b 01be 8b85 f83d 8f7d 143c 686c 24bd
00000120: 8f90 99be fc14 2bbe 78b6 c2bb 0104 2abe
00000130: 616e cf3e c904 593e 2847 a23d af5e dd3e
00000140: 93ef 73bd ec18 35be f5d1 393d 54c7 ac3b
00000150: 196e 8cbe 8958 063e 8970 023e 47de fd3d
00000160: fead 47bd cefe 293d 97ca fe3d 79e6 8d3d
00000170: 1933 133e 3aaf 55be 8a35 3abe 532c a9bb
00000180: a6ff 0fbe 2516 6cbc a64a 983e 05e1 b2bc
00000190: 194f 13be c30e c03d dff3 383e 54f8 2abe
000001a0: 72e5 5fbd 4019 d8bb 686e c43c 0d4b 1c3d
000001b0: df79 5d3c 10b1 6e3b b4af e9be 1680 12bd
000001c0: 361b 31bd 94bf aa3b 8bc6 6abe 0420 b3bd
000001d0: d734 c53e 7985 913c 5ea9 9dbc 2a73 1dbd
000001e0: 4ab2 823d d987 64be 43a6 c93c 65f8 87bb
000001f0: 9d2d aa3d fc9a 30bd b6e4 973d 1b3a 75bd
00000200: 70d2 9dbd 0ca7 90bd 0408 fc3e 89ef 373e
00000210: 8f26 a93e 7120 f93e 88bc d5bc 8a9f babe
00000220: cfbc 8f3d 86ab 0dbe 899c 30bf 3adb e23d
00000230: 3576 283e bb7b 0c3d 5e67 c0be 4223 f73c
00000240: 10cd 52be acea 19bf 0ef5 0abf a23a e13e
00000250: 452e c7be edb9 84be 6e7a a33e c731 2fbe
00000260: 8b58 a83e 1057 2b3f 8acf d8bd c115 92bd
00000270: 59ec 77be 9f7e f3bc f7c0 80bc 7ec6 273e
00000280: ec5d 06be c881 8abe 4ee7 123e 6c01 a43c
00000290: 2d10 233e 89a0 acbd 88b1 a73e 8d54 58be
000002a0: 87bf 213e bde1 a6be e729 c6bd 6983 a53d
000002b0: 1c0b a53e 3b42 013f ba8c 553f ee9b 1cbe
000002c0: dbac 20bd fdbd 4f3e 6bb7 4dbe 013c 913e
000002d0: 42ee c43e ae6c 6b3d e5ca a0be 95ca a93c
000002e0: 4da8 0fbe 7bd6 653e bd8c 21be 38e9 c3be
000002f0: e5f0 283e 16ee 9ebe eee2 c1bc e36e c5bd
00000300: b7fc 13be aa85 2a3e 7d6d 253d 5900 cf3d
00000310: 059e 513e a979 4bbe b81c 87bc 2127 213e
00000320: e3d6 b3bc fee0 8b3e 9c98 c6bd 03a8 e23d
00000330: f2d8 8a3d 1593 50bd 5a31 39be 73c6 0e3e
00000340: 1a60 ce3d 32f7 53be ad7e 223d 8acd 653b
00000350: 13ac 92be 2c6b 32be b51c ebbd ae36 1ebe
00000360: 2bf0 3f3d e862 9bbd 364d 5b3e 18cd 0abe
00000370: 2e5d af3d d2eb c5bd af71 493d a79e 8c3d
00000380: 6765 883e 34a4 8f3e 31a0 bbbc 93a0 9a3d
00000390: 67c0 30be 788e dc3e b558 b7be 7c67 ce3d
000003a0: a47e 323e d0c4 e33c cd71 463e 0287 f73d
000003b0: b699 843e 3e2d 303e 98a6 883e b1af 81bc
000003c0: 49ca abbe bf8d 733e 0f78 cbbd 6dbf 6f3b
000003d0: a22e 25be 5dee 2bbe 56ea 3bbc d8cb 02be
000003e0: b87e 8b3e ddec 92be 900d 9c3e 6e0d b03e
000003f0: e749 0b3e 33de 82bd 1139 9b3c 97f9 073e

module.conv_layers.5.weight f4 [64, 64, 1, 1]
-0.11816551 -0.07941805 -0.059127793 0.15627633 0.21334258 0.21203838 -0.038947646 0.09708776
0.16024601 -0.01792823 0.12552117 -0.34345222 -0.18090841 0.39757937 0.1754203 -0.18101302
0.38007313 0.21048765 0.01495687 -0.11547539 -0.21797924 -0.029447196 -0.20457079 -0.052657
-0.22806245 0.09206068 -0.013882082 0.06984091 0.08686418 0.022657126 -0.17359999 0.18823625
0.010485817 0.05911663 0.0037857469 0.17938372 -0.030641392 0.016179902 0.33063307 -0.3399767
0.098668955 -0.0074801994 0.019653631 -0.15552516 -0.2284468 0.25318176 0.04870718 0.18748102
0.09454842 -0.00037943618 0.049945656 -0.23056419 0.008293841 0.4624679 0.029933048 -0.25789633
-0.07673243 0.047396336 0.14899042 -0.0957343 0.006626927 -0.17687362 0.25491557 -0.0059709046
-0.03681431 -0.09396899 0.115536995 0.12498829 0.2304795 0.045189504 -0.32226834 -0.0023426835
0.13412365 -0.07674409 0.13202569 0.14709164 0.56955105 -0.040272713 0.10730874 0.037994523
0.026393048 0.28556708 -0.047002 0.037326887 0.10805304 -0.2166464 0.3057004 0.17933361
0.027700419 -0.34176636 0.26071596 -0.009636148 0.095547155 -0.17227043 -0.27775997 -0.05635428
0.09039696 0.0026810807 0.020379575 -0.48482496 -0.075909585 0.31489843 -0.14700782 0.1687722
-0.29414824 0.0820501 0.084775664 0.58324945 -0.21642764 0.10870071 -0.0021868995 0.36274827
-0.124644704 0.027464338 -0.053178284 0.19051294 -0.03890718 -0.18010199 0.1104838 0.30395666
-0.08029114 -0.42233452 -0.028811354 -0.081049986 -0.115938544 -0.009594232 0.08129844 -0.31904164
0.17041998 -0.01916403 0.29344407 -0.22966644 -0.29322386 -0.08213688 -0.08720094 -0.23285547
-0.31703877 0.10149826 -0.22309636 -1.6843182 0.39150134 0.047058694 -0.048931707 -0.20510204
0.10810122 0.028148603 0.01859654 -0.36911637 -0.07718816 -0.23151441 -0.27091327 0.20475373
0.085988395 -0.061862364 0.051041853 -0.14694369 -0.21226524 -0.09105084 -0.2652224 0.036665067
-0.28033158 -0.053109515 -0.022098444 -0.17789935 -0.025720032 0.28349996 -0.08027306 -0.09791535
0.123873845 0.22872254 0.017152196 -0.30342314 -0.06915184 -0.079583235 0.16711076 0.13771062
-0.0078496775 -0.09232802 0.030664736 0.1329022 0.17899941 -0.8011461 0.05774574 0.04061835
0.13347585 -0.34841368 0.18557882 0.029363088 -0.26957816 0.0676641 -0.28021652 -0.14260562
-0.52670836 0.37190956 0.43519342 -0.051252715 0.1262268 0.25373912 -0.09508667 -0.26997468
0.5394389 -0.20052351 0.07256869 -0.4251846 0.058470007 -0.203066 0.09357899 0.1831289
0.22754149 -0.24590708 -0.22019261 0.3140997 -0.45948756 0.0706138 0.08232755 -0.03006873
0.048277322 -0.18193474 0.27197513 -0.059569158 0.14194283 0.788428 -0.09292673 -0.044487607
0.49699786 -0.034846693 -0.16935405 0.21763816 -0.010261122 0.2662283 0.050065152 0.13570227
-0.088016324 -0.024382493 -0.2459142 0.001320947 -0.18605383 -0.13825513 0.32865727 -0.24308562
-0.26043758 0.14482766 0.05335214 0.179696 -0.12931702 0.006527014 0.06592197 -0.27724788
-0.09810652 -0.3413376 0.030315802 0.09281656 -0.0731724 -0.066183455 0.013183838 0.30315268
00000000: c200 f2bd eea5 a2bd fc2f 72bd e706 203e
00000010: 7a76 5a3e 9720 593e 9187 1fbd f3d5 c63d
00000020: 8817 243e 39de 92bc 9f88 003e f8d8 afbe
00000030: 0e40 39be 868f cb3e 61a1 333e 7a5b 39be
00000040: f298 c23e 138a 573e a90d 753c 5c7e ecbd
00000050: f335 5fbe 3f3b f1bc 017b 51be deae 57bd
00000060: 3489 69be 4f8a bc3d ac71 63bc c008 8f3d
00000070: d9e5 b13d 709b b93c 32c4 31be 01c1 403e
00000080: b4cc 2b3c 4824 723d 4b1a 783b 5eb0 373e
00000090: a803 fbbc b78b 843c bd48 a93e 6d11 aebe
000000a0: f312 ca3d 761c f5bb a700 a13c fd41 1fbe
000000b0: f5ed 69be 0aa1 813e 2e81 473d 06fb 3f3e
000000c0: 9aa2 c13d 10ef c6b9 d193 4c3d 0519 6cbe
000000d0: e4e2 073c 98c8 ec3e 2736 f53c fd0a 84be
000000e0: e425 9dbd a922 423d f290 183e 5810 c4bd
000000f0: b126 d93b 5c1e 35be 4b84 823e 94a7 c3bb
00000100: 9aca 16bd d072 c0bd a99e ec3d dcf9 ff3d
00000110: d102 6c3e a118 393d 5b00 a5be b587 19bb
00000120: b657 093e 012c 9dbd be31 073e 319f 163e
00000130: 19ce 113f 00f5 24bd afc4 db3d 25a0 1b3d
00000140: 3c36 d83c d935 923e 2b85 40bd 14e4 183d
00000150: ea4a dd3d 8ed8 5dbe c384 9c3e 3ba3 373e
00000160: fdeb e23c 00fc aebe 907c 853e efe0 1dbc
00000170: 3aae c33d a967 30be 8e36 8ebe bfd3 66bd
00000180: 0b22 b93d 12b5 2f3b 11f3 a63c fa3a f8be
00000190: 7c76 9bbd 5e3a a13e 3889 16be 9fd2 2c3e
000001a0: 999a 96be e209 a83d dd9e ad3d d64f 153f
000001b0: 359f 5dbe 7a9e de3d 1652 0fbb 24ba b93e
000001c0: b945 ffbd e4fc e03c 79d1 59bd d315 433e
000001d0: 235d 1fbd a86c 38be 5545 e23d 35a0 9b3e
000001e0: ae6f a4bd 3b3c d8be ca05 ecbc 89fd a5bd
000001f0: 3071 edbd 2031 1dbc cc7f a63d 6d59 a3be
00000200: 9382 2e3e e2fd 9cbc 4d3e 963e ae2d 6bbe
00000210: 7021 96be 6137 a8bd 6896 b2bd aa71 6ebe
00000220: e852 a2be 52de cf3d 5f73 64be bd97 d7bf
00000230: dd72 c83e 9ec0 403d 9d6c 48bd 4506 52be
00000240: 2c64 dd3d e697 e63c c557 983c d2fc bcbe
00000250: d314 9ebd 1d12 6dbe 25b5 8abe f6aa 513e
00000260: af1a b03d 6463 7dbd 4311 513d 6878 16be
00000270: 0f5c 59be dd78 babd 3bcb 87be 1c2e 163d
00000280: 9f87 8fbe 5d89 59bd cc07 b5bc 3f2b 36be
00000290: d1b2 d2bc e826 913e 3466 a4bd d887 c8bd
000002a0: 92b1 fd3d 3e36 6a3e c382 8c3c 475a 9bbe
000002b0: 7b9f 8dbd 89fc a2bd 151f 2b3e 0304 0d3e
000002c0: ef9b 00bc 7916 bdbd 9d34 fb3c 8417 083e
000002d0: 9f4b 373e e917 4dbf cc86 6c3d 6d5f 263d
000002e0: e5ad 083e 4763 b2be 6008 3e3e dc8a f03c
000002f0: 2606 8abe 7a93 8a3d 8a78 8fbe 3507 12be
00000300: 5cd6 06bf ee6a be3e acd1 de3e 5eee 51bd
00000310: 9941 013e 18ea 813e cdbc c2bd 1f3a 8abe
00000320: ab18 0a3f 0956 4dbe e59e 943d ccb1 d9be
00000330: 3f7e 6f3d 89f0 4fbe 57a6 bf3d 2486 3b3e
00000340: a300 693e 11cf 7bbe 2c7a 61be add1 a03e
00000350: f441 ebbe f89d 903d 599b a83d b252 f6bc
00000360: 71be 453d 1a4d 3abe 5340 8b3e cafe 73bd
00000370: 7659 113e 6bd6 493f 5f50 bebd a338 36bd
00000380: 8176 fe3e 68bb 0ebd 266b 2dbe 8adc 5e3e
00000390: 441e 28bc 134f 883e 1e11 4d3d 89f5 0a3e
000003a0: e741 b4bd cbbd c7bc efd0 7bbe a023 ad3a
000003b0: e584 3ebe c192 0dbe c445 a83e 70eb 78be
000003c0: 1358 85be b44d 143e c687 5a3d 3a02 383e
000003d0: ae6b 04be 90e0 d53b 1902 873d 6ff3 8dbe
000003e0: 12ec c8bd cdc3 aebe d858 f83c 9c16 be3d
000003f0: 69db 95bd 318b 87bd 0601 583c d436 9b3e

module.conv_layers.6.weight f4 [64, 64, 1, 1]
-0.119336054 -0.14609191 -0.2950497 0.032355372 0.22059633 0.10427977 0.08888463 -0.42049843
0.06576088 -0.3229735 0.17758054 0.025149344 -0.37020358 -0.3450599 0.20591085 0.15775755
-0.056094225 -0.067267105 -0.07008976 0.16968404 -0.061017036 -0.108913735 -0.37195432 0.103028715
0.18804763 -0.09991351 -0.31786293 0.13491525 0.0014563394 0.15662052 0.0616177 0.10779488
0.18360706 0.48251924 0.31218615 0.14198561 0.035368077 0.15057085 -0.14005424 -0.10038819
-0.09670065 -0.14952956 -0.27404824 -0.13315232 0.16272785 -0.118361115 0.17316781 -0.2739397
0.2937791 0.06701331 -0.07959866 0.010291028 -0.2704306 -0.066150695 0.103221774 -0.0009729655
0.27120796 0.08519315 0.4570673 -0.11676131 0.048603524 -0.19466573 -0.04787028 -0.045121636
-0.22639948 -0.069280215 0.002547499 -0.098370835 0.13072826 -0.0440452 -0.06514372 -0.36233902
0.20471567 0.14295407 0.2532247 -0.15053286 0.36693648 0.12702018 -0.15264885 -0.04489938
-0.19899464 -0.109708965 0.15724224 0.3777521 -0.035953846 0.08179946 0.20121466 0.28016806
-0.12492751 -0.089740984 0.04218318 0.00084529835 -0.14271703 0.058185987 -0.27826735 -0.08670859
-0.10503819 -0.09768061 0.22747932 -0.03595726 0.06885687 0.30485553 0.013310945 0.01613714
0.04392761 0.14549857 -0.029583093 0.12558725 0.16096188 -0.10242286 -0.16125558 -0.045579676
0.13474393 -0.1474265 -0.022443993 0.0017787855 0.25300363 -0.09767559 -0.3145275 -0.37717092
0.2858533 -0.10582291 -0.1658111 0.1057041 0.1911985 0.0002474503 -0.030156512 -0.15347776
0.13935132 0.4065734 -0.05961336 0.15950371 0.13355379 -0.26934 -0.09115431 0.06345099
0.056261446 -0.29310825 0.088082165 0.07678091 0.01956983 0.12810196 -0.29223868 -0.075220965
0.061923772 -0.12189441 0.27486745 0.06288931 0.13083434 -0.19024497 -0.024187956 -0.13688357
0.106064886 0.100677215 -0.15846735 -0.32917154 0.15759532 0.12785845 -0.23137547 -0.25001183
-0.14830731 -0.13793325 -0.041945264 0.015301786 -0.076168254 0.17282647 0.14748369 -0.045435753
-0.12844345 -0.044211548 0.10105319 -0.024889298 0.108243614 -0.17578621 0.18380368 -0.18951747
-0.027959155 0.33811685 -0.04155002 -0.2692168 -0.011474963 -0.39058545 0.07963267 0.010596462
-0.13905372 -0.13755746 -0.111010134 -0.01609015 -0.0939214 -0.04190311 0.096677214 -0.09609666
-0.044922683 0.11204778 -0.2752422 -0.10055191 0.13714038 -0.04269814 0.1596705 0.29386583
0.4886574 0.114555255 -0.09069998 0.42569724 -0.17079554 -0.40707985 0.042905223 -0.23244582
0.038518682 0.26684523 0.023951432 -0.01584838 0.055431437 -0.32406938 -0.35520038 0.14203177
0.23529437 0.18183886 -0.39702684 -0.32836145 0.34006363 -0.12185263 -0.53727806 -0.051291138
0.24132875 0.041708954 -0.13538472 0.15630081 -0.3029257 -0.1581977 0.017574051 -0.21644942
0.97040147 0.5402413 0.06334235 0.23705707 -0.2923501 0.38779637 0.022016825 -0.24605687
-0.07613772 -0.2413017 -0.106492065 0.28163135 0.017676592 -0.27225354 -0.6291085 -0.12523635
0.2686866 -0.05845532 -0.061649013 -0.057987783 0.12914337 -0.03276838 -0.10846723 0.04505661
00000000: 7666 f4bd 1e99 15be c110 97be 1187 043d
00000010: 01e4 613e a290 d53d 2509 b63d 924b d7be
00000020: a4ad 863d c85c a5be acd7 353e ff05 ce3c
00000030: 538b bdbe b1ab b0be 4bda 523e 328b 213e
00000040: 0fc3 65bd 56c3 89bd 388b 8fbd a7c1 2d3e
00000050: 00ed 79bd 2a0e dfbd cc70 bebe b800 d33d
00000060: 8f8f 403e 749f ccbd eebe a2be 3927 0a3e
00000070: a4e2 be3a 2161 203e d762 7c3d 90c3 dc3d
00000080: 7d03 3c3e c30c f73e ddd6 9f3e ad64 113e
00000090: 1ede 103d 3f2f 1a3e 616a 0fbe 5398 cdbd
000000a0: fe0a c6bd 471e 19be 0d50 8cbe 1559 08be
000000b0: 21a2 263e 5067 f2bd e752 313e d341 8cbe
000000c0: 376a 963e 463e 893d 9f04 a3bd b39b 283c
000000d0: e175 8abe 047a 87bd f065 d33d 9c0e 7fba
000000e0: c5db 8a3e bf79 ae3d ba04 ea3e 8e20 efbd
000000f0: 7d14 473d 7456 47be a013 44bd 77d1 38bd
00000100: 44d5 67be c9e2 8dbd f1f3 263b a676 c9bd
00000110: a1dd 053e bd68 34bd 126a 85bd 8084 b9be
00000120: fca0 513e 8d62 123e aba6 813e 4925 1abe
00000130: 19df bb3e 9411 023e fb4f 1cbe 6ae8 37bd
00000140: 40c5 4bbe 18af e0bd 1c04 213e b968 c13e
00000150: 5744 13bd 7a86 a73d 370b 4e3e 3072 8f3e
00000160: ffd9 ffbd 1fca b7bd 45c8 2c3d 0397 5d3a
00000170: 6a24 12be 6e54 6e3d 0f79 8ebe 4694 b1bd
00000180: 431e d7bd c60c c8bd 57f0 683e eb47 13bd
00000190: d504 8d3d 0616 9c3e 2616 5a3c 0932 843c
000001a0: 70ed 333d 94fd 143e 3e58 f2bc f299 003e
000001b0: 31d3 243e 14c3 d1bd 2f20 25be c1b1 3abd
000001c0: 50fa 093e f9f6 16be 77dc b7bc 2326 e93a
000001d0: b189 813e 240a c8bd c009 a1be 8c1c c1be
000001e0: 5d5b 923e afb9 d8bd 63ca 29be 647b d83d
000001f0: 8ac9 433e 38bc 8139 ca0a f7bc 4629 1dbe
00000200: 1db2 0e3e 642a d03e 232d 74bd f154 233e
00000210: 53c2 083e efe6 89be 1caf babd 98f2 813d
00000220: 6772 663d 4912 96be 6c64 b43d 4f3f 9d3d
00000230: e850 a03c 292d 033e 4fa0 95be 730d 9abd
00000240: c8a3 7d3d c7a3 f9bd 6dbb 8c3e 1ccc 803d
00000250: 70f9 053e 94cf 42be d225 c6bc 352b 0cbe
00000260: 8c38 d93d db2f ce3d 4445 22be 2c89 a8be
00000270: ab60 213e 53ed 023e b1ed 6cbe 8d01 80be
00000280: dfdd 17be 603e 0dbe ccce 2bbd 58b4 7a3c
00000290: 1afe 9bbd 6cf9 303e f705 173e d71a 3abd
000002a0: ae86 03be 2b17 35bd faf4 ce3d a4e4 cbbc
000002b0: d4ae dd3d 4d01 34be 0837 3c3e de10 42be
000002c0: 990a e5bc a71d ad3e 5b30 2abd c9d6 89be
000002d0: 7c01 3cbc d1fa c7be 7416 a33d c89c 2d3c
000002e0: 1964 0ebe dddb 0cbe 4859 e3bd 7ecf 83bc
000002f0: dd59 c0bd 98a2 2bbd b4fe c53d 53ce c4bd
00000300: d900 38bd 4e79 e53d 8cec 8cbe 29ee cdbd
00000310: 876e 0c3e 3fe4 2ebd aa80 233e 9575 963e
00000320: 4d31 fa3e f29b ea3d e9c0 b9bd fdf4 d93e
00000330: 07e5 2ebe c56c d0be 63bd 2f3d 4706 6ebe
00000340: c4c5 1d3d f09f 883e cb35 c43c 76d4 81bc
00000350: 130c 633d 6cec a5be d3dc b5be c770 113e
00000360: 02f1 703e f733 3a3e 1a47 cbbe fe1e a8be
00000370: d21c ae3e df8d f9bd 0e8b 09bf a816 52bd
00000380: e21e 773e 02d7 2a3d 4ba2 0abe 520d 203e
00000390: 1419 9bbe 94fe 21be 75f7 8f3c eba4 5dbe
000003a0: 3b6c 783f 414d 0a3f a2b9 813d 17bf 723e
000003b0: eaae 95be 3f8d c63e a15c b43c 55f6 7bbe
000003c0: 18ee 9bbd cb17 77be 8318 dabd fc31 903e
000003d0: 80ce 903c d164 8bbe 410d 21bf f53d 00be
000003e0: 4a91 893e d86e 6fbd ad83 7cbd 9984 6dbd
000003f0: 293e 043e 2338 06bd 1124 debd 488d 383d

module.conv_layers.7.weight f4 [64, 64, 1, 1]
-0.02063747 -0.16305768 -0.05906509 0.13076466 0.057507295 -0.28091094 0.15100162 0.104502045
0.30127272 0.057564843 -0.667746 -0.03989625 -0.2138366 -0.48502553 0.20549864 0.2775985
-0.11804865 0.32336074 -0.2319063 -0.23356825 0.15738986 0.20551737 -0.017589485 -0.20165919
0.049083207 -0.21888733 -0.07996027 -0.28567323 0.067800164 0.06710925 0.14347155 -0.026135225
-0.15157786 -0.0039884443 0.13247432 0.13391382 -0.3011698 -0.23008049 -0.16850543 -0.16419046
0.31409678 0.54777163 -0.1040937 -0.1642454 -0.047373056 0.03836025 0.6031186 0.2733483
0.14843853 0.087565824 -0.117640026 -0.19782239 0.20010498 -0.02028165 0.10694304 0.398805
-0.21589634 -0.4433068 0.16761066 0.11437293 0.08179728 0.07266408 0.30198118 -0.008877408
-0.16227625 -0.49819994 -0.032868687 0.25983346 -0.1077881 -0.003391675 -0.44349292 0.013516224
-0.07026645 0.06240734 0.30294397 0.16866232 0.30125198 0.09078636 -0.50524634 0.031086199
0.11057732 0.011954423 -0.051072724 0.09053595 -0.011855093 -0.16400513 0.15255538 -0.07091382
-0.40523916 0.004234148 0.012553278 -0.39154318 0.00810114 -0.24462947 0.1485297 -0.38050917
-0.0034526358 0.16816059 -0.12323067 -0.5635386 0.008725007 0.11407015 0.26186666 -0.045690518
-0.42255303 0.1638926 0.029844487 0.13240376 -0.15358438 -0.01074556 -0.009468625 -0.09776571
0.057994235 0.3021844 0.23579359 0.21422136 0.2590523 0.033243377 -0.42054397 -0.21888222
-0.07233085 -0.20759472 -0.37340504 0.38864484 -0.1233696 0.24203293 -0.2115928 -0.28796065
-0.24355008 -0.2394164 0.2803434 0.53668404 0.12770021 -0.08778861 -0.08916114 0.11557285
-0.086257644 -0.19787954 0.018083274 -0.09865653 0.055126313 -0.18842721 0.06903251 0.28738344
0.15209405 -0.36322215 0.01066589 0.058284696 -0.06106447 0.04837713 0.1367909 -0.024552247
-0.052720185 -0.3460559 -0.1276912 -0.030466575 0.1317986 0.31678942 -0.24612466 -0.1749565
0.18393701 0.08616998 -0.11592212 -0.12069008 0.023791764 -0.020494312 -0.10889747 0.062726706
-0.14354832 0.15807483 0.015131078 -0.42928746 -0.17204885 0.30430686 -0.16309722 -0.4437812
0.009461327 0.31124094 0.19635119 -0.26900497 -0.16294584 0.13469526 -0.088330895 -0.1384577
0.039401136 0.13080385 0.038877066 0.44398314 -0.13788882 -0.28661203 -0.0033963337 0.29217353
-0.064147234 -0.09409973 0.34912962 0.38515994 0.010187952 0.026155645 -0.12527819 -0.4207326
-0.834456 0.22791156 0.17921938 0.083861746 0.28029287 0.004435928 0.16945532 0.44498584
-0.1837461 0.09195535 0.13675793 -0.19160904 -0.19539905 -0.15509944 -0.050976202 0.19211982
0.13307641 -0.08072686 0.19199762 0.29447174 0.03225397 0.17101987 -0.20667532 -0.03330724
0.4551229 -0.10065874 -0.09306575 -0.0032089062 0.32486492 0.17092137 -0.08253223 -0.15118396
-0.16071074 -0.73211735 -0.12805717 0.21986914 0.08096675 0.032625865 -0.07441897 0.26829845
-0.26578027 -0.8845181 0.06734472 0.36483362 0.1522002 0.19284262 -0.19842765 0.28216785
-0.05740895 0.096655056 -0.035962764 -0.17780985 0.109707974 0.2544083 -0.3483919 0.34916782
00000000: e90f a9bc 98f8 26be 3cee 71bd 2ce7 053e
00000010: c58c 6b3d 8fd3 8fbe 2ba0 1a3e 2b05 d63d
00000020: 6b40 9a3e 1dc9 6b3d 67f1 2abf 406a 23bd
00000030: fbf7 5abe 4455 f8be 3c6e 523e 6421 8e3e
00000040: 7ec3 f1bd 8a8f a53e d878 6dbe 842c 6fbe
00000050: cf2a 213e 2573 523e d317 90bc bf7f 4ebe
00000060: 790b 493d 0024 60be 36c2 a3bd c343 92be
00000070: d0da 8a3d 9370 893d 35ea 123e 8a19 d6bc
00000080: 3a37 1bbe 7fb1 82bb 59a7 073e b420 093e
00000090: ee32 9abe 389a 6bbe b08c 2cbe 8b21 28be
000000a0: 4bd1 a03e c33a 0c3f 142f d5bd f22f 28be
000000b0: 400a 42bd a31f 1d3d fb65 1a3f 4ff4 8b3e
000000c0: 4500 183e b655 b33d 41ed f0bd f491 4abe
000000d0: 52e8 4c3e b425 a6bc f404 db3d 2b30 cc3e
000000e0: ee13 5dbe 1cf9 e2be 21a2 2b3e 5b3c ea3d
000000f0: 5585 a73d e8d0 943d 479d 9a3e 8c72 11bc
00000100: bf2b 26be 1014 ffbe 51a1 06bd e408 853e
00000110: 02c0 dcbd dd46 5ebb 8111 e3be 2773 5d3c
00000120: dbe7 8fbd d79e 7f3d 791b 9b3e d1b5 2c3e
00000130: b33d 9a3e 33ee b93d d357 01bf 7ca8 fe3c
00000140: 5d76 e23d 7cdc 433c a231 51bd ea6a b93d
00000150: dd3b 42bc f6f0 27be 7a37 1c3e 443b 91bd
00000160: 827b cfbe 9cbe 8a3b 44ac 4d3c 5978 c8be
00000170: a5ba 043c 2680 7abe 2b18 183e 19d2 c2be
00000180: 9e45 62bb 4a32 2c3e 5d60 fcbd 1144 10bf
00000190: 55f3 0e3c 9c9d e93d 6313 863e fb25 3bbd
000001a0: df58 d8be 76d3 273e 6d7c f43c da94 073e
000001b0: 3945 1dbe 250e 30bc 4b22 1bbc 6339 c8bd
000001c0: 5d8b 6d3d eab7 9a3e e073 713e d85c 5b3e
000001d0: 81a2 843e 352a 083d 8a51 d7be a922 60be
000001e0: 3222 94bd b693 54be f22e bfbe 75fc c63e
000001f0: 33a9 fcbd 7bd7 773e c8ab 58be 946f 93be
00000200: 3165 79be 9329 75be 2c89 8f3e 2064 093f
00000210: d8c3 023e 84ca b3bd 1e9a b6bd 75b1 ec3d
00000220: d9a7 b0bd efa0 4abe 6023 943c 6f0c cabd
00000230: 21cc 613d 10f3 40be eb60 8d3d ec23 933e
00000240: 8bbe 1b3e 41f8 b9be fcbf 2e3c efbb 6e3d
00000250: bd1e 7abd 1927 463d ea12 0c3e cb21 c9bc
00000260: 1ff1 57bd 3d2e b1be 7bc1 02be 0a95 f9bc
00000270: 36f6 063e 3932 a23e 1a08 7cbe cc27 33be
00000280: fc59 3c3e e379 b03d 9468 edbd 5c2c f7bd
00000290: f2e6 c23c b0e3 a7bc a305 dfbd dc76 803d
000002a0: 55fe 12be 5ede 213e 57e8 773c 91cb dbbe
000002b0: 932d 30be 1cce 9b3e f502 27be 4a37 e3be
000002c0: af03 1b3c f95a 9f3e 4910 493e 05bb 89be
000002d0: 46db 26be 8eed 093e d4e6 b4bd dbc7 0dbe
000002e0: 1663 213d 72f1 053e 8f3d 1f3d c251 e33e
000002f0: ba32 0dbe d0be 92be 0695 5ebb c597 953e
00000300: a05f 83bd 5cb7 c0bd 1ec1 b23e af33 c53e
00000310: 5eeb 263c 5d44 d63c ed48 00be 436a d7be
00000320: e99e 55bf a661 693e 4985 373e b5bf ab3d
00000330: 8c82 8f3e 435b 913b b285 2d3e 2fd5 e33e
00000340: f027 3cbe 1653 bc3d 450a 0c3e 2935 44be
00000350: b016 48be 63d2 1ebe 6ccc 50bd 0fbb 443e
00000360: 2f45 083e 2054 a5bd 069b 443e 00c5 963e
00000370: bd1c 043d d51f 2f3e b2a2 53be 2c6d 08bd
00000380: de05 e93e 2b26 cebd 4299 bebd 834c 52bb
00000390: b254 a63e 0306 2f3e a806 a9bd f8cf 1abe
000003a0: 5b91 24be 0b6c 3bbf 6b21 03be 6025 613e
000003b0: e5d1 a53d b3a2 053d f968 98bd 6a5e 893e
000003c0: 5a14 88be c76f 62bf 07ec 893d 79cb ba3e
000003d0: 5fda 1b3e 8978 453e 9e30 4bbe 4e78 903e
000003e0: a625 6bbd 16f3 c53d b14d 13bd c913 36be
000003f0: 93ae e03d ce41 823e 6c60 b2be 20c6 b23e
