denoisers/multi_scale/celebA_160x160_gray/noise_range_0to255_RF_13x13_scale_0/model.pt (torch, 883282 bytes, 59 tensors)

module.conv_layers.0.weight f4 [64, 4, 3, 3]
0.01413946 0.00443718 -0.2847551 -0.20098802 0.7844749 -0.124249056 -0.5466615 0.29585248
-0.06480845 -0.17286277 0.0140742455 0.20368108 0.14854921 0.4665638 -0.035167884 0.19353421
0.036379226 0.061950736 -0.18298791 0.055983987 0.16239445 0.2681778 0.29452905 0.00066953234
0.34401178 0.15940088 -0.06623081 -0.020447599 0.07765272 -0.16632555 -0.15843034 0.50864214
0.2294545 -0.065384604 0.09855571 0.084898375 -0.07760201 0.08685668 0.06057325 -0.15778962
0.51510173 -0.089133814 0.424136 -0.43759388 0.21882342 0.29682988 0.16288024 0.13024089
-0.35435057 -0.32787156 0.3961858 0.24446066 -0.3454657 0.03171857 0.10823628 0.25628203
0.046598017 0.07302647 -0.50669813 -0.0704811 0.101433195 0.31651434 -0.2568977 -0.369277
0.15826625 0.036075387 0.54195344 -0.5997205 0.38404223 0.20771222 0.2696539 -0.15118858
-0.22739835 -0.41013154 -0.18406221 0.14972411 0.12272055 0.42343342 0.2709902 -0.28820822
0.12789446 -0.13682218 -0.08516246 0.2222158 -0.1902304 0.024669852 0.2328568 -0.24273829
0.081350595 0.11635191 -0.37071607 -0.13291587 0.20223977 -0.40288448 0.29858488 0.0897263
0.03750945 -0.20171665 0.25267383 -0.47977978 -0.39688623 0.053520557 -0.060774058 0.012713527
-0.33202296 -0.05640877 0.013276471 -0.08699612 -0.11406758 0.2313997 -0.092331186 -0.2069609
-0.27821687 0.09490849 0.20197988 0.20655574 -0.022609977 0.17513646 -0.12481219 0.089287125
-0.3565712 -0.05527053 -0.033569656 -0.0036666908 -0.2673203 -0.11517643 -0.10738356 0.041241646
0.0071941256 -0.616798 -0.5092357 -0.1931356 0.43711329 0.015325771 -0.25863025 -0.06689029
0.13598847 0.21721274 -0.30940896 0.31155214 -0.23723954 -0.22324856 0.10926278 0.40427005
0.1744062 -0.02455189 -0.07047447 0.36423868 -0.2830485 0.31497338 0.039527632 -0.028642219
-0.03208969 0.20998865 -0.08489477 0.047507443 -0.0038021656 0.30726784 -0.35649657 -0.2806053
0.29086858 0.033236563 -0.23110774 0.049638078 -0.063349396 -0.020075405 0.5153574 -0.14851296
0.21658567 0.46264535 -0.18263389 -0.22833908 0.032851413 0.07742121 -0.09268111 0.1140227
0.0013079542 -0.14360075 0.27419904 0.15984744 0.08815621 0.4525526 -0.46006787 0.13201027
-0.43808857 -0.14233604 0.31344715 0.15087385 -0.14870533 0.22153516 -0.26318908 0.2966233
0.31147146 -0.26204386 0.1802412 -0.51666874 0.43849772 -0.32634252 -0.53134096 0.059616987
0.103408314 0.11933588 0.26496774 -0.021263834 -0.047044817 0.038736034 0.13820165 -0.34140563
-0.29443863 0.2671769 -0.25144434 -0.25388235 -0.22292937 0.034017287 0.20278639 -0.024226978
0.010507236 -0.48568028 0.24598022 0.19009931 0.1436093 -0.36690724 0.40585083 -0.03137462
5.2810035e-05 -0.34721026 -0.06774923 -0.12735927 0.18929017 -0.046443276 -0.24453968 -0.29858875
0.031003403 -0.106147006 -0.08337489 0.006872251 -0.029525151 -0.35818768 0.47906208 -0.1502456
0.38650522 -0.48009545 -0.07059247 0.16862404 0.0296835 -0.16695385 -0.12870148 -0.004399617
-0.26357803 -0.19300947 -0.26254508 0.10801696 0.120890066 -0.36944255 0.39899352 0.06973426
00000000: 32a9 673c c365 913b 6ccb 91be cecf 4dbe
00000010: 59d3 483f 4a76 febd 02f2 0bbf fa79 973e
00000020: 4bba 84bd f002 31be aa97 663c c691 503e
00000030: 491d 183e 73e1 ee3e 330c 10bd d52d 463e
00000040: 6202 153d 0ec0 7d3d 2f61 3bbe 774f 653d
00000050: bb4a 263e 9a4e 893e 83cc 963e 8e83 2f3a
00000060: 5022 b03e fc39 233e 05a4 87bd b981 a7bc
00000070: 6408 9f3d 3f51 2abe 903b 22be 5f36 023f
00000080: 1ff6 6a3e 5de8 85bd 93d7 c93d 33df ad3d
00000090: cded 9ebd eae1 b13d a81b 783d 9a93 21be
000000a0: b5dd 033f ca8b b6bd 5b28 d93e 4e0c e0be
000000b0: 3f13 603e 16fa 973e 14ca 263e de5d 053e
000000c0: 706d b5be c8de a7be ddd8 ca3e e553 7a3e
000000d0: e1e0 b0be 55eb 013d fcaa dd3d 6637 833e
000000e0: 90dd 3e3d e78e 953d f8b6 01bf 6558 90bd
000000f0: 35bc cf3d 2b0e a23e 1888 83be e011 bdbe
00000100: 8c10 223e c9c3 133d 76bd 0a3f 4887 19bf
00000110: 2fa1 c43e 83b2 543e 1310 8a3e 2ed1 1abe
00000120: 1ddb 68be c3fc d1be ce7a 3cbe 4751 193e
00000130: e954 fb3d 44cc d83e 3abf 8a3e 0790 93be
00000140: c4f6 023e 1d1b 0cbe a869 aebd 8a8c 633e
00000150: c2cb 42be 6e18 ca3c 0372 6e3e 6390 78be
00000160: 249b a63d e949 ee3d 7fce bdbe 191b 08be
00000170: f117 4f3e e046 cebe 1ee0 983e 6cc2 b73d
00000180: 82a3 193d cf8e 4ebe 775e 813e b2a5 f5be
00000190: ac34 cbbe 5f38 5b3d 38ee 78bd 664c 503c
000001a0: eafe a9be e20c 67bd 8e85 593c 062b b2bd
000001b0: 439c e9bd 0bf4 6c3e 2218 bdbd 8fed 53be
000001c0: 7172 8ebe 625f c23d d0d3 4e3e 5983 533e
000001d0: 8f38 b9bc f956 333e 899d ffbd 2bdc b63d
000001e0: 8090 b6be 5a63 62bd 5680 09bd dd4c 70bb
000001f0: 35de 88be 9fe1 ebbd e9eb dbbd 00ed 283d
00000200: b3bc eb3b 79e6 1dbf 455d 02bf 57c5 45be
00000210: 50cd df3e f118 7b3c 2f6b 84be c7fd 88bd
00000220: 9040 0b3e 046d 5e3e da6a 9ebe c383 9f3e
00000230: ecee 72be 459b 64be 2ac5 df3d 7cfc ce3e
00000240: 8a97 323e 0c21 c9bc eb54 90bd 7e7d ba3e
00000250: bceb 90be 3144 a13e bae7 213d 16a3 eabc
00000260: 7b70 03bd 4407 573e 4fdd adbd 2a97 423d
00000270: c12d 79bb 3652 9d3e b886 b6be 7fab 8fbe
00000280: baec 943e 1023 083d 82a7 6cbe 4c51 4b3d
00000290: 54bd 81bd 2d75 a4bc 76ee 033f c813 18be
000002a0: a2c8 5d3e dadf ec3e 6104 3bbe b8d1 69be
000002b0: 348f 063d 038f 9e3d 98cf bdbd bc84 e93d
000002c0: a96f ab3a 130c 13be d163 8c3e 0caf 233e
000002d0: 3e8b b43d f9b4 e73e 048e ebbe b32d 073e
000002e0: 254d e0be 8ac0 11be 257c a03e ad7e 1a3e
000002f0: 3646 18be 1dda 623e b8c0 86be 02df 973e
00000300: 3079 9f3e 9d2a 86be 2691 383e 6744 04bf
00000310: c682 e03e 5e16 a7be f605 08bf f130 743d
00000320: bdc7 d33d 5f66 f43d daa9 873e 7e31 aebc
00000330: 11b2 40bd ada9 1e3d bc84 0d3e b8cc aebe
00000340: a9c0 96be 69cb 883e 50bd 80be defc 81be
00000350: 9947 64be b655 0b3d 3ca7 4f3e a877 c6bc
00000360: 8b26 2c3c 16ab f8be 3de2 7b3e 65a9 423e
00000370: 510e 133e 44db bbbe aecb cf3e ac82 00bd
00000380: 5880 5d38 8bc5 b1be 1cc0 8abd 786a 02be
00000390: 48d5 413e 4e3b 3ebd 9c68 7abe a0e0 98be
000003a0: d9fa fd3c 9a63 d9bd 74c0 aabd 9f30 e13b
000003b0: bbde f1bc 6064 b7be a047 f53e fcd9 19be
000003c0: 03e4 c53e 12cf f5be c992 90bd c8ab 2c3e
000003d0: d02a f33c f3f5 2abe 52ca 03be aa2a 90bb
000003e0: b3f3 86be 46a4 45be 4f6c 86be ff37 dd3d
000003f0: 3695 f73d 9327 bdbe e148 cc3e d6d0 8e3d

module.conv_layers.1.weight f4 [64, 64, 1, 1]
0.32355583 0.254176 -0.19811295 -0.09477415 -0.19513303 0.14031923 0.17661366 -0.29441595
-0.3237348 0.20889923 -0.2207424 -0.08717298 -0.18054177 -0.29306763 -0.034386832 -0.10208572
0.2595905 -0.14731309 0.18261278 0.0065874313 0.025380997 0.14477606 -0.0669503 0.3065607
-0.1571821 -0.11005179 -0.034527555 -0.11280928 -0.1721538 0.019175604 -0.06590582 0.19793567
0.19251046 -0.094220094 0.14965212 -0.10203187 -0.06894946 0.19944876 -0.106630705 -0.24329981
-0.03387252 0.061934892 -0.13185896 -0.52846694 -0.12780452 -0.20229772 -0.14527246 -0.11887411
-0.10936325 -0.29825497 -0.038047194 -0.19607782 -0.22226362 -0.13387147 -0.03782276 -0.20706931
0.054030165 -0.01478757 0.00655347 0.027761316 -0.08803668 0.1169604 -0.026553754 0.028448643
0.00746241 0.091317564 -0.15318556 0.41241425 0.22564806 0.022136152 -0.30538404 -0.04236233
0.19930139 0.32481518 0.07755637 0.42476216 -0.47589457 0.23079091 0.105407484 -0.05300575
-0.31279787 -0.029589348 -0.18261884 -0.1381206 0.10104617 -0.016684702 -0.15992682 0.3110601
-0.18925941 0.01157749 0.03299473 -0.06281229 -0.19319792 0.021420475 0.13483222 0.29843524
0.04903266 -0.08086839 0.009597 0.19463058 0.21046603 -0.08873171 0.13180478 0.012756093
0.049114358 0.056047015 -0.020134358 -0.052424747 0.12698248 -0.019558538 0.31024766 0.13737471
-0.6210604 -0.5523959 0.08229431 0.24740024 -0.14324391 0.09445772 0.10175614 -0.13718292
-0.20152436 -0.4348347 0.19476222 -0.23598024 0.004187594 -0.07337706 0.36405718 0.4334091
-0.21721366 0.05596105 0.16895552 0.054691218 -0.13665842 0.19773497 -0.048419073 0.053118408
0.14278823 0.12869525 -0.04094067 -0.6127899 0.33991462 0.1373603 0.07279358 -0.14679092
0.37449884 0.09647653 0.118253596 -0.0234657 -0.42172602 0.21268322 -0.1250665 0.31558913
-0.37822708 0.053514306 -0.12811688 -0.0440716 -0.18768813 0.1356342 -0.08430697 0.019786967
0.46054196 -0.1362818 -0.27603075 0.083849624 -0.24806459 0.066983946 0.013818858 0.03813757
-0.25934014 -0.34394053 0.2285665 -0.2009397 0.24563769 -0.2614653 -0.27199727 0.07916583
0.13355963 0.07140371 -0.19388756 -0.29721174 -0.09501322 -0.18305264 0.13890311 -0.17694297
0.061080392 0.12107519 -0.73844033 -0.13010836 -0.33124685 0.01518191 -0.116723485 0.2691604
-0.038953397 -0.40387976 -0.0055426084 0.044351187 -0.081904 0.044496372 -0.32155645 0.05971
-0.041410472 -0.01789644 0.24724461 0.090919435 -0.23216204 0.08457512 -0.057685796 -0.006013956
-0.083236374 0.09302879 0.3329855 0.21728209 0.040591743 -0.08817947 0.194199 -0.13435513
-0.12530297 -0.4026249 -0.04981477 0.29728723 0.06364599 0.32112548 -0.050984494 -0.08335022
0.12441284 0.13759868 0.03748348 -0.2306508 -0.11906821 0.24687083 -0.1949684 -0.3448067
-0.24246715 -0.24977882 0.26185614 0.06545768 0.22461587 0.11509722 -0.078601964 0.0617622
-0.2998071 0.05654058 0.008763813 -0.18730253 -0.023216687 0.24562334 -0.3032081 -0.013931825
0.17536736 -0.09117774 0.092215665 0.08383856 -0.15827338 -0.47391957 0.23006111 0.26120767
00000000: 1ca9 a53e 5b23 823e 1fde 4abe f318 c2bd
00000010: f4d0 47be d8af 0f3e 36da 343e b0bd 96be
00000020: 91c0 a5be aee9 553e 4c0a 62be bf87 b2bd
00000030: f1df 38be f60c 96be 35d9 0cbd 5112 d1bd
00000040: 0ce9 843e 3ed9 16be d8fe 3a3e 61db d73b
00000050: cfeb cf3c 2d40 143e 3d1d 89bd 86f5 9c3e
00000060: 58f4 20be d562 e1bd c46c 0dbd 8d08 e7bd
00000070: 1649 30be 2816 9d3c a1f9 86bd a6af 4a3e
00000080: 7621 453e 77f6 c0bd 683e 193e 16f6 d0bd
00000090: 6035 8dbd 4c3c 4c3e 3361 dabd 9623 79be
000000a0: e9bd 0abd 71af 7d3d 0906 07be 9c49 07bf
000000b0: 30df 02be 2227 4fbe 4ec2 14be 4574 f3bd
000000c0: d7f9 dfbd e0b4 98be 60d7 1bbd a0c8 48be
000000d0: 1399 63be 9a15 09be 0aec 1abd fa09 54be
000000e0: bc4e 5d3d 9047 72bc 7ebe d63b b36b e33c
000000f0: 934c b4bd ef88 ef3d 4287 d9bc 210d e93c
00000100: 3b87 f43b b404 bb3d addc 1cbe f627 d33e
00000110: 4910 673e e056 b53c 4c5b 9cbe 1f84 2dbd
00000120: aa15 4c3e 2d4e a63e e0d5 9e3d 6d7a d93e
00000130: 74a8 f3be 7454 6c3e e1df d73d 8f1c 59bd
00000140: 0b27 a0be 5c65 f2bc 6f00 3bbe 7d6f 0dbe
00000150: 4bf1 ce3d 5bae 88bc dbc3 23be 4543 9f3e
00000160: 38cd 41be 83af 3d3c 7b25 073d bba3 80bd
00000170: add5 45be fe79 af3c 7511 0a3e 81cc 983e
00000180: 78d6 483d 549e a5bd bc3c 1d3c 3d4d 473e
00000190: 6884 573e f9b8 b5bd d5f7 063e effe 503c
000001a0: 232c 493d 8e91 653d cff0 a4bc 55bb 56bd
000001b0: b207 023e 3a39 a0bc c8d8 9e3e f5ab 0c3e
000001c0: d0fd 1ebf d169 0dbf eb89 a83d 7d56 7d3e
000001d0: 88ae 12be 0d73 c13d 8665 d03d ae79 0cbe
000001e0: 675c 4ebe a7a2 debe bf6f 473e cea4 71be
000001f0: 1638 893b b646 96bd b465 ba3e cce7 dd3e
00000200: 426d 5ebe 6a37 653d ad02 2d3e e603 603d
00000210: 2ff0 0bbe 097b 4a3e 1453 46bd b092 593d
00000220: 1437 123e b0c8 033e 67b1 27bd cddf 1cbf
00000230: 4a09 ae3e 2ea8 0c3e cd14 953d 5c50 16be
00000240: 50be bf3e 7d95 c53d f12e f23d 243b c0bc
00000250: 79ec d7be a1c9 593e 6f11 00be e694 a13e
00000260: fba6 c1be d131 5b3d 1231 03be 6c84 34bd
00000270: 5131 40be b1e3 0a3e 22a9 acbd 4718 a23c
00000280: 28cc eb3e 758d 0bbe e753 8dbe 5ab9 ab3d
00000290: a504 7ebe e12e 893d 7e68 623c 2436 1c3d
000002a0: 3bc8 84be f918 b0be 560d 6a3e 23c3 4dbe
000002b0: 7288 7b3e c8de 85be 3a43 8bbe b221 a23d
000002c0: dbc3 083e 1c3c 923d 768a 46be 232c 98be
000002d0: 4b96 c2bd 2772 3bbe 9e3c 0e3e 8a30 35be
000002e0: 6f2f 7a3d 45f6 f73d 6d0a 3dbf 203b 05be
000002f0: 3099 a9be 8cbd 783c b90c efbd 64cf 893e
00000300: 998d 1fbd 54c9 cebe c59e b5bb 97a9 353d
00000310: 49bd a7bd d441 363d 0ca3 a4be 7992 743d
00000320: 079e 29bd 8e9b 92bc b12d 7d3e f833 ba3d
00000330: e3bb 6dbe b835 ad3d f147 6cbd b810 c5bb
00000340: d577 aabd e185 be3d 137d aa3e 327f 5e3e
00000350: 8743 263d 7097 b4bd 1adc 463e 6494 09be
00000360: 6c4f 00be da24 cebe 930a 4cbd 0836 983e
00000370: d458 823d 8f6a a43e 1ed5 50bd 85b3 aabd
00000380: 29cc fe3d abe6 0c3e 4788 193d b92f 6cbe
00000390: 09da f3bd b5cb 7c3e cca5 47be 818a b0be
000003a0: 4f49 78be 05c6 7fbe 0212 863e ad0e 863d
000003b0: b401 663e 17b8 eb3d 11fa a0bd 5cfa 7c3d
000003c0: 5180 99be 1897 673d 1996 0f3c 3ccc 3fbe
000003d0: ec30 bebc af84 7b3e 183e 9bbe 4f42 64bc
000003e0: 8093 333e 65bb babd 91db bc3d 8db3 ab3d
000003f0: 6b12 22be 96a5 f2be 2495 6b3e 03bd 853e

module.conv_layers.2.weight f4 [64, 64, 1, 1]
0.13409944 0.12164649 0.10611019 -0.2831177 -0.27267376 0.16585962 0.085566476 -0.00536803
-0.10975498 -0.036898676 0.026171494 0.042795528 0.35837016 0.1635441 -0.23703784 0.04146632
-0.014380197 -0.07355711 -0.4029641 -0.17056455 -0.38319388 -0.26211542 0.07784292 -0.15088482
0.05921748 -0.06750005 0.12465352 0.61179066 -0.04734174 0.08168129 -0.04775338 0.8494315
0.12979372 0.115669444 1.695622 -0.011107607 0.034159463 -0.10757162 -0.025174288 0.034753952
-0.034506973 0.20328097 0.34246433 0.2506904 0.19140306 0.6222183 -0.19079725 0.03570617
-0.2945174 0.060192667 -0.18309122 0.38780817 0.007082777 -0.10959311 -0.13303831 -0.06803314
0.009734102 -0.058406796 -0.10073881 0.18044274 0.34270862 -0.16806194 0.020346142 -0.15622692
0.07078502 -0.2026146 0.21906184 -0.08394208 0.014196674 0.24178392 -0.10434085 0.22222854
-0.43811613 -0.3110776 -0.043616597 -0.112694465 -0.074582204 0.17896166 -0.01766341 -0.2323516
0.054877527 -0.28613624 0.0012430848 -0.23112884 0.11111343 0.3790251 -0.10499202 -0.19273628
-0.26855633 -0.34813643 0.19595794 0.09833282 0.13235638 0.115347855 -0.26900083 -0.14868198
-0.07752215 0.20762199 -0.15301423 -0.008512964 -0.009740535 -0.16226688 -0.44919991 0.077120356
-0.20554368 0.26130638 -0.10584206 -0.6024994 0.4297789 0.12509914 -0.10482749 -0.1686683
-0.03307806 -0.33993956 -0.13685834 0.10006698 -0.09848842 -0.03463311 -0.12946673 -0.25633842
-0.26292336 -0.196458 -0.25821 0.007336033 -0.31927997 -0.2158635 -0.003477728 0.057236306
0.10867366 0.111402705 -0.12773447 -0.23577948 -0.08869728 -0.02088829 0.34508562 -0.037754122
-0.014157129 -0.1259831 -0.05770483 -0.023448339 0.09604607 0.27086997 -0.013646581 0.09779998
0.60807 0.21579872 -0.0044781407 0.14735447 -0.0108833825 0.008440086 -0.15059286 0.37089697
0.07607055 -0.063766666 -0.07795896 -0.23503116 -0.21707995 -0.039879207 -0.005963866 0.6242361
-0.03588736 -0.07162299 0.21224606 -0.057467647 0.11273095 0.045788266 0.11339372 -0.14534734
0.073278055 -0.19521436 0.056316312 -0.13366614 -0.029429972 -0.4392718 0.17253573 0.13240732
-0.06215325 0.23084138 1.0263546 0.099984206 0.01474687 -0.012568862 0.3393035 0.26229677
0.2491097 -0.16045994 -0.06565683 -0.25863117 -0.0012139544 0.09196867 -0.112507395 -0.05352168
0.02450252 -0.09161897 -0.4677474 -0.12434596 -0.024106735 -0.33199394 -0.1359694 0.03995701
-0.101706915 -0.008084095 -0.3096621 0.12285496 -0.40830246 0.13131829 -0.24040313 -0.13259147
-0.047183342 -0.277986 -0.13690706 -0.24616736 -0.069054455 0.12743565 -0.33380792 0.16146086
-0.42485607 -0.38100612 -0.19981766 -0.078488156 -0.107053615 0.2669024 -0.004159499 -0.15275967
-0.3100199 -0.19927824 -0.0223734 -0.04269223 0.12162157 0.13043842 0.03279914 0.19559059
-0.21148755 -0.23118974 -0.14934291 -0.2998435 0.08105267 0.0022108203 -0.17356789 -0.0485139
0.02593613 0.09658501 0.12684672 -0.025182279 0.04196352 -0.29383567 0.12847613 -0.35671872
0.1098045 -0.4108324 -0.27162367 -0.00417547 0.042244337 0.3484833 -0.08095624 -0.14580159
00000000: 5d51 093e cc21 f93d 4d50 d93d cef4 90be
00000010: e59b 8bbe 1bd7 293e 7a3d af3d 4de6 afbb
00000020: 38c7 e0bd 1123 17bd 9a65 d63c 5d4a 2f3d
00000030: 4b7c b73e 1b78 273e 0cba 72be 97d8 293d
00000040: eb9a 6bbc 1ca5 96bd 4f51 cebe 79a8 2ebe
00000050: fd31 c4be fe33 86be 1c6c 9f3d 8d81 1abe
00000060: 078e 723d 773d 8abd 584a ff3d 509e 1c3f
00000070: 6ae9 41bd 8548 a73d 0c99 43bd 5874 593f
00000080: a5e8 043e 1ae4 ec3d 240a d93f aefc 35bc
00000090: cbea 0b3d 824e dcbd 4f3a cebc 295a 0e3d
000000a0: 2f57 0dbd e328 503e 7c57 af3e 7e5a 803e
000000b0: 2aff 433e b349 1f3f 5b60 43be a240 123d
000000c0: fcca 96be 968c 763d 447c 3bbe cb8e c63e
000000d0: a416 e83b 5a72 e0bd 323b 08be f554 8bbd
000000e0: c87b 1f3c f73b 6fbd 2650 cebd fbc5 383e
000000f0: 8177 af3e 6e18 2cbe f4ac a63c f3f9 1fbe
00000100: bdf7 903d 347a 4fbe bf51 603e d3e9 abbd
00000110: 2b99 683c 3496 773e a8b0 d5bd e18f 633e
00000120: c250 e0be 9045 9fbe 51a7 32bd 5bcc e6bd
00000130: 8ebe 98bd ba41 373e dbb2 90bc 94ed 6dbe
00000140: 42c7 603d 7380 92be 01ef a23a 0aad 6cbe
00000150: 708f e33d 940f c23e 0e06 d7bd a95c 45be
00000160: 3780 89be f03e b2be 33a9 483e b862 c93d
00000170: 6e88 073e 7f3b ec3d 7aba 89be 1740 18be
00000180: efc3 9ebd dc9a 543e c3af 1cbe f579 0bbc
00000190: c496 1fbc 4a29 26be 88fd e5be 47f1 9d3d
000001a0: 0b7a 52be f3c9 853e b9c3 d8bd 673d 1abf
000001b0: fb0b dc3e fd19 003e ccaf d6bd 62b7 2cbe
000001c0: dc7c 07bd 8f0c aebe 9824 0cbe ebef cc3d
000001d0: 4cb4 c9bd 73db 0dbd ed92 04be ca3e 83be
000001e0: e49d 86be 492c 49be 1a34 84be 1b63 f03b
000001f0: aa78 a3be 520b 5dbe 98ea 63bb 9e70 6a3d
00000200: 4c90 de3d 1a27 e43d d3cc 02be 2d70 71be
00000210: eba6 b5bd eb1d abbc 10af b03e 11a4 1abd
00000220: 4ef3 67bc b701 01be e65b 6cbd bb16 c0bc
00000230: cdb3 c43d 78af 8a3e e995 5fbc 5b4b c83d
00000240: 7aaa 1b3f 57fa 5c3e 5ebd 92bb 17e4 163e
00000250: 3750 32bc 4948 0a3c 0435 1abe 35e6 bd3e
00000260: e0ca 9b3d 1998 82bd f2a8 9fbd 02ac 70be
00000270: 354a 5ebe 6158 23bd 896c c3bb f0cd 1f3f
00000280: a0fe 12bd 13af 92bd 0857 593e 3263 6bbd
00000290: 7cdf e63d 7a8c 3b3d f73a e83d efd5 14be
000002a0: ce12 963d 46e6 47be efab 663d c7df 08be
000002b0: 2017 f1bc 3ce8 e0be 35ad 303e c995 073e
000002c0: 6894 7ebd af61 6c3e 965f 833f 85c4 cc3d
000002d0: db9c 713c a1ed 4dbc 30b9 ad3e c34b 863e
000002e0: 9d16 7f3e 9c4f 24be 1777 86bd 4e6b 84be
000002f0: 8d1d 9fba 125a bc3d 476a e6bd 8d39 5bbd
00000300: 82b9 c83c baa2 bbbd 967c efbe 18a9 febd
00000310: 7d7b c5bc 1cfb a9be 903b 0bbe f6a9 233d
00000320: b74b d0bd 2773 04bc 088c 9ebe 629b fb3d
00000330: 050d d1be 4d78 063e 3d2c 76be 0fc6 07be
00000340: 5243 41bd 2e54 8ebe 5d31 0cbe 4c13 7cbe
00000350: 6c6c 8dbd 7e7e 023e dfe8 aabe ff55 253e
00000360: bc86 d9be 3c13 c3be 009d 4cbe 66be a0bd
00000370: ed3e dbbd 6ea7 883e 684c 88bb 086d 1cbe
00000380: eeba 9ebe 980f 4cbe 6c48 b7bc 0cde 2ebd
00000390: bb14 f93d a691 053e 6458 063d e648 483e
000003a0: 3190 58be 01bd 6cbe 59ed 18be 1685 99be
000003b0: f1fe a53d 69e3 103b c8bb 31be 83b6 46bd
000003c0: 0278 d43c 5dce c53d 1be4 013e 114b cebc
000003d0: f1e1 2b3d a171 96be 3f8f 033e d6a3 b6be
000003e0: 2fe1 e03d a058 d2be 4212 8bbe 62d2 88bb
000003f0: 6608 2d3d 676c b23e 63cc a5bd 034d 15be

module.conv_layers.3.weight f4 [64, 64, 1, 1]
0.09733601 -0.05539326 -0.18027666 0.006649697 0.17275679 0.22486089 -0.23915869 0.16757672
-0.025344843 -0.051091053 -0.007867442 -0.06496459 0.15536027 -0.25304058 0.059120923 0.15480112
-0.18168093 0.0571171 -0.24136922 -0.065415576 -0.04478356 -0.18553068 0.036287554 -0.16811599
0.005266639 0.2593638 0.09458417 -0.27153626 -0.046035223 -0.018288298 -0.012198199 -0.054723855
-0.13144776 -0.061867043 0.09283846 0.12495352 -0.065287046 -0.07813218 0.017713258 0.08978838
-0.115271404 0.02523102 -0.28301516 0.34855574 -0.18943942 -0.095743686 -0.038143862 0.31659508
0.14114365 -0.21394844 -0.021956826 0.5755276 -0.042142812 -0.14662296 0.04585384 -0.047640387
0.023909733 0.08241499 -0.15162852 0.17021151 -0.04886067 0.17429513 0.2776802 0.009135401
-0.5597815 -0.2838375 -0.11712104 0.11169023 -0.15560481 -0.33153132 -0.22662477 0.14475779
-0.051668044 0.15311025 0.105855234 -0.10903955 -0.5404936 0.22563967 -0.2870418 0.07623017
0.15432787 -0.25856325 -0.053436253 0.24543786 0.2656012 0.035541967 0.36487904 -0.14036816
0.24214183 -0.11636502 -0.030662812 0.024141468 0.29852733 -0.00030949735 0.020965395 0.25269356
-0.2243989 -0.13812858 0.16745518 -0.13542269 0.0075576473 0.16724332 -0.57126325 -0.03235815
0.060934734 -0.1926903 -0.1257929 0.18662624 0.3911819 -0.040910512 0.05508209 0.025659265
0.13624293 0.30607778 0.6474796 -0.23231415 -0.08958418 0.2361963 0.16090156 0.40258867
0.38438678 -1.0458407 0.39110035 -0.015187145 0.06822237 0.13069308 -0.103772506 0.015282349
0.0071088998 -0.3377858 -0.4183513 -0.08703056 0.0563956 -0.095390156 -0.062217712 0.10432853
0.06648676 -0.13048989 0.11881959 -0.07735412 0.11444159 -0.0014361568 -0.14726396 -0.017151844
-0.013157478 -0.1301941 0.1112739 0.033664636 -0.13829584 0.19529717 0.15505631 -0.22765954
0.05396924 0.035867643 0.29872063 0.27312818 0.22762957 0.04399652 0.01902676 0.41141543
0.71887 -0.2405097 0.007968467 0.10327377 -0.0034525974 0.050169077 -0.22013435 0.10798268
-0.1769182 -0.06716424 0.13451907 0.075064935 -0.051355366 0.025398996 0.36437842 -0.14175862
-0.07876032 0.08241249 -0.12080226 -0.1987483 -0.016817307 -0.17623378 -0.12811163 0.0451899
0.049033966 -0.18250991 0.09707981 0.026014287 0.07267104 -0.040075127 -0.081976235 -0.07748236
-0.042706937 0.15676868 0.26677805 -0.05287254 -0.28730422 0.099535726 0.011253702 0.0067719803
-0.17659476 0.10736634 0.24044918 -0.2589052 -0.028504975 0.12351071 -0.31410226 0.3083049
-0.44593853 0.14003676 0.07797397 -0.07928504 0.3113843 0.10931936 0.10887064 0.09267819
0.017971737 -0.33668816 0.24348395 0.10389956 -0.03550149 -0.08844436 -0.3157623 -0.103557326
0.18853685 -0.1395128 0.20860264 0.07734781 -0.5009498 0.032415193 -0.012359761 -0.044534955
-0.07152127 -0.11821563 0.17346571 -0.30920842 -0.06867114 -0.13764709 0.39995682 -0.31887656
-0.1226282 0.2013226 -0.15615562 -0.32266602 0.34002388 0.21228376 -0.23745863 -0.20137762
-0.14762254 -0.21564426 -0.4239846 -0.0030905763 0.05223404 0.09630301 -0.0022206388 -0.19488811
00000000: 1a58 c73d 0be4 62bd 729a 38be b4e5 d93b
00000010: 28e7 303e ef41 663e 04e6 74be 3b99 2b3e
00000020: fd9f cfbc da44 51bd 72e6 00bc 280c 85bd
00000030: c316 1f3e 898e 81be c828 723d 2f84 1e3e
00000040: 910a 3abe 9ff3 693d 7e29 77be 9af8 85bd
00000050: f76e 37bd c1fb 3dbe 42a2 143d 9926 2cbe
00000060: c593 ac3b 55cb 843e 58b5 c13d cd06 8bbe
00000070: 6e8f 3cbd 57d1 95bc f4da 47bc 1f26 60bd
00000080: 3e9a 06be 4c68 7dbd 1722 be3d a2e7 ff3d
00000090: 37b5 85bd c403 a0bd 651b 913c f8e2 b73d
000000a0: 6a13 ecbd 49b1 ce3c 5de7 90be e675 b23e
000000b0: 68fc 41be 4415 c4bd bd3c 1cbd c018 a23e
000000c0: f687 103e 4d15 5bbe cdde b3bc c755 133f
000000d0: f19d 2cbd 5424 16be 3cd1 3b3d 9122 43bd
000000e0: 58de c33c 31c9 a83d 8244 1bbe ed4b 2e3e
000000f0: 2022 48bd 6c7a 323e 192c 8e3e a6ac 153c
00000100: d74d 0fbf 2653 91be 28dd efbd d9bd e43d
00000110: de56 1fbe 79be a9be 5310 68be 633b 143e
00000120: dfa1 53bd efc8 1c3e a1ca d83d 2150 dfbd
00000130: ca5d 0abf 160e 673e 25f7 92be 901e 9c3d
00000140: 2008 1e3e 6762 84be f9df 5abd 1054 7b3e
00000150: e1fc 873e 7494 113d 6dd1 ba3e acbc 0fbe
00000160: 07f4 773e c950 eebd 9430 fbbc 54c4 c53c
00000170: 93d8 983e 0844 a2b9 9fbf ab3c 0d61 813e
00000180: d3c8 65be 9471 0dbe 5f79 2b3e 3fac 0abe
00000190: 24a6 f73b d541 2b3e 4f3e 12bf fb89 04bd
000001a0: b396 793d 9b50 45be dbcf 00be f31a 3f3e
000001b0: fe48 c83e c891 27bd c29d 613d 6133 d23c
000001c0: 4483 0b3e 3ab6 9c3e 39c1 253f c3e3 6dbe
000001d0: e977 b7bd 71dd 713e 61c3 243e 1a20 ce3e
000001e0: 58ce c43e 1cde 85bf 4e3e c83e 81d3 78bc
000001f0: 2cb8 8b3d 68d4 053e ae86 d4bd d162 7a3c
00000200: c6f1 e83b 43f2 acbe 2432 d6be 143d b2bd
00000210: 13ff 663d ea5b c3bd 00d8 7ebd 32aa d53d
00000220: 362a 883d 249f 05be af57 f33d d66b 9ebd
00000230: 5a60 ea3d 6d3d bcba 5dcc 16be 0682 8cbc
00000240: 7692 57bc 9a51 05be 92e3 e33d eee3 093d
00000250: 6d9d 0dbe fbfb 473e 15c7 1e3e 951f 69be
00000260: da0e 5d3d f3e9 123d e9f1 983e 75d7 8b3e
00000270: ba17 693e b235 343d 02de 9b3c 0ba5 d23e
00000280: dd07 383f 2d48 76be 2c8e 023c 3381 d33d
00000290: f944 62bb 177e 4d3d e66a 61be 0626 dd3d
000002a0: 0b2a 35be 688d 89bd 5ebf 093e a5bb 993d
000002b0: 015a 52bd 8e11 d03c cf8f ba3e 2c29 11be
000002c0: 174d a1bd e1c7 a83d 2d67 f7bd ad84 4bbe
000002d0: 73c4 89bc a176 34be b22f 03be 0b19 393d
000002e0: d7d7 483d e1e3 3abe c8d1 c63d ea1b d53c
000002f0: 8ed4 943d d125 24bd 28e3 a7bd 12af 9ebd
00000300: 78ed 2ebd f887 203e 2297 883e e090 58bd
00000310: 8a19 93be 63d9 cb3d 7361 383c 7de7 dd3b
00000320: 42d5 34be e2e2 db3d 4f38 763e 398f 84be
00000330: 4483 e9bc 2ff3 fc3d 03d2 a0be 24da 9d3e
00000340: 0e52 e4be cc65 0f3e d1b0 9f3d 3260 a2bd
00000350: c36d 9f3e d4e2 df3d 92f7 de3d 10ce bd3d
00000360: 7739 933c 6462 acbe db53 793e 4bc9 d43d
00000370: 036a 11bd 5122 b5bd 99ab a1be dd15 d4bd
00000380: ce0f 413e 72dc 0ebe ee9b 553e 8768 9e3d
00000390: 3f3e 00bf cbc5 043d 9880 4abc 496a 36bd
000003a0: be79 92bd 091b f2bd ffa0 313e 9150 9ebe
000003b0: 74a3 8cbd 5cf3 0cbe 24c7 cc3e ca43 a3be
000003c0: 7e24 fbbd 8327 4e3e 42e7 1fbe 7b34 a5be
000003d0: 9c17 ae3e ea60 593e 5b28 73be ef35 4ebe
000003e0: 5d2a 17be d9d1 5cbe 8214 d9be 448b 4abb
000003f0: 5cf3 553d 833a c53d 2388 11bb c090 47be

module.conv_layers.4.weight f4 [64, 64, 3, 3]
0.03447304 0.031967405 -0.031125989 -0.019676426 0.01004312 0.1083064 0.17095098 -0.038633425
-0.010667177 -0.16316517 -0.11696966 -0.044909243 -0.1673056 -0.16335003 -0.0101888655 -0.11653723
-0.23103233 -0.031621795 0.21535125 0.07163277 0.12593248 0.44759813 0.006359242 0.02024533
0.14388885 0.012590001 0.02321214 0.01630848 0.012742002 0.04578509 0.055118285 -0.027847461
0.052992698 0.0883387 0.026063712 0.037782118 0.14074905 0.0052950596 -0.009025867 0.14493947
-0.11509585 0.124238506 0.059604578 0.13437557 -0.039352965 0.12911434 -0.009233371 -0.0118957935
0.11098 0.052696396 0.08684622 -0.02930658 0.026362294 0.025718713 0.16664171 0.31965876
-0.05459594 0.16182268 0.4420118 -0.1371399 0.29231158 0.32805562 0.0068586236 0.30515128
0.016854504 0.05985816 0.11980969 -0.0688396 0.050638456 0.1875778 0.10083043 0.086664885
0.11596696 -0.07334738 0.023106083 0.22202653 -0.054191 0.08406695 0.04446389 -0.07612925
0.01617268 -0.16726145 0.35703155 -0.075690314 -0.11878393 0.54009914 -0.3146262 -1.0384507
0.5819767 -0.16944654 0.19993636 0.2530342 -0.08308962 0.23548876 -0.23210931 -0.13916726
0.13293304 -0.263518 -0.1854888 0.052735277 0.009928551 0.08542674 0.14850968 -0.028485067
-0.106288984 0.091414906 0.07330072 0.19866242 0.06309405 -0.0032616493 -0.012842734 0.002237291
-0.03105682 -0.057451267 0.10529113 -0.07802862 0.033711635 0.147811 0.09151216 0.0023487695
0.09383175 0.033155553 -0.20372649 0.14011908 0.17081662 -0.0050660395 0.22097947 0.096044846
-0.08566392 0.0643311 0.08856162 -0.20713313 0.13475429 -0.025163416 -0.10081861 0.108127855
0.12577581 0.015114522 0.20058149 0.191092 -0.03526868 0.25519636 0.021106545 -0.014238994
0.12166262 -0.03224373 0.06607357 0.15129001 -0.097284935 -0.04843479 0.10528805 -0.0078381
-0.086943574 0.0192717 0.056465387 -0.058111683 0.062039014 -0.08114304 -0.10772951 0.13417228
0.07163294 -0.010388463 0.042425975 0.011726808 -0.055350237 0.05221793 0.16957927 -0.17853406
0.004071887 -0.021325279 -0.03311156 0.10710586 -0.0048954156 -0.053875882 0.020952458 0.13937624
-0.034216177 0.08457902 0.054640345 0.03897304 0.058441926 -0.07316197 0.0744212 0.046281904
-0.035025086 0.027634446 0.11252024 -0.08081324 -0.015780542 0.14022227 -0.24276581 0.120635584
0.21634726 -0.21869166 0.14562242 0.16320045 -0.13682674 0.06842164 0.065510646 -0.06845576
-0.025905458 0.20692618 -0.0381629 0.024635786 0.1407409 0.111845806 -0.039083228 0.18874903
-0.093493894 0.08155124 0.06671647 -0.07418721 -0.027639449 0.09530914 -0.056389954 -0.07887651
0.29753622 0.122411706 -0.24546543 0.2502738 0.062807396 -0.18137051 0.26794234 0.13016626
-0.094709255 0.11813515 0.06754637 0.08115198 0.06519743 0.0020219996 0.04019566 0.082704596
-0.025905771 -0.08178058 0.14868419 0.27883607 0.0029335509 0.19160132 0.16432846 -0.06422732
0.11621988 0.061874494 0.021348996 0.19005941 0.28751385 0.1954734 0.21436492 0.11289354
0.21536654 0.14742897 -0.12966594 0.12969026 0.09607158 -0.13412277 0.10146398 0.074599355
00000000: 9a33 0d3d 41f0 023d eefb febc 7530 a1bc
00000010: e68b 243c bfcf dd3d c60d 2f3e 153e 1ebd
00000020: 62c5 2ebc c514 27be ca8d efbd c1f2 37bd
00000030: 2952 2bbe 3b45 27be 33ef 26bc 12ab eebd
00000040: bd93 6cbe db85 01bd 0a85 5c3e 34b4 923d
00000050: 72f4 003e 952b e53e 3061 d03b 89d9 a53c
00000060: 9957 133e 4b46 4e3c 6327 be3c 5d99 853c
00000070: d4c3 503c 2689 3b3d b6c3 613d 5c20 e4bc
00000080: df0e 593d ecea b43d 9183 d53c 6cc1 1a3d
00000090: 8520 103e 2e82 ad3b 3be1 13bc 036b 143e
000000a0: 5fb7 ebbd c270 fe3d ee23 743d c099 093e
000000b0: 9330 21bd 8d36 043e 9147 17bc 93e6 42bc
000000c0: 7b49 e33d 2dd8 573d 6edc b13d 5a14 f0bc
000000d0: bdf5 d73c 0db0 d23c 20a4 2a3e 50aa a33e
000000e0: fe9f 5fbd d8b4 253e 5f4f e23e 676e 0cbe
000000f0: dda9 953e e8f6 a73e 4ebe e03b ca3c 9c3e
00000100: 7512 8a3c d42d 753d c85e f53d c7fb 8cbd
00000110: 456a 4f3d 6514 403e 2f80 ce3d 5c7d b13d
00000120: 1680 ed3d 2737 96bd f848 bd3c ec5a 633e
00000130: 62f7 5dbd 4b2b ac3d c51f 363d a7e9 9bbd
00000140: 917c 843c 9646 2bbe d7cc b63e 8603 9bbd
00000150: fd44 f3bd f043 0a3f af16 a1be f4eb 84bf
00000160: 6dfc 143f 6583 2dbe 1ebc 4c3e b38d 813e
00000170: e42a aabd f723 713e 10ae 6dbe dd81 0ebe
00000180: 991f 083e d5eb 86be c7f0 3dbe f200 583d
00000190: 5cab 223c 37f4 ae3d ec12 183e 8459 e9bc
000001a0: 0aae d9bd bd37 bb3d b01e 963d 296e 4b3e
000001b0: 7437 813d 65c1 55bb 556a 52bc 849f 123b
000001c0: df6a febc 0552 6bbd e0a2 d73d 78cd 9fbd
000001d0: 3615 0a3d c45b 173e ba6a bb3d d0ed 193b
000001e0: dc2a c03d 1ece 073d ad9d 50be 607b 0f3e
000001f0: 8dea 2e3e 0501 a6bb 7148 623e 29b3 c43d
00000200: 9170 afbd 06c0 833d cb5f b53d b51a 54be
00000210: 07fd 093e 8223 cebc fd79 cebd 2372 dd3d
00000220: 60cb 003e e6a2 773c 3c65 4d3e 9fad 433e
00000230: e475 10bd 19a9 823e a2e7 ac3c ab4a 69bc
00000240: 402a f93d 0012 04bd 9451 873d c5eb 1a3e
00000250: 533d c7bd 8f63 46bd 43a1 d73d 606b 00bc
00000260: 790f b2bd afdf 9d3c 4048 673d 8406 6ebd
00000270: 9f1c 7e3d 522e a6bd 4aa1 dcbd 7564 093e
00000280: 4ab4 923d 5f34 2abc dcc6 2d3d cc21 403c
00000290: eeb6 62bd 78e2 553d 30a6 2d3e a2d1 36be
000002a0: 776d 853b 5ab2 aebc fd9f 07bd 515a db3d
000002b0: b969 a0bb f5ac 5cbd 7da4 ab3c a5b8 0e3e
000002c0: 4326 0cbd c437 ad3d 8ece 5f3d 32a2 1f3d
000002d0: cd60 6f3d f1d5 95bd 246a 983d 1892 3d3d
000002e0: 7776 0fbd a261 e23c 0371 e63d 6981 a5bd
000002f0: 3246 81bc 6d96 0f3e 9a97 78be ca0f f73d
00000300: 238a 5d3e b5f0 5fbe 0b1e 153e 051e 273e
00000310: 4f1c 0cbe a520 8c3d 722a 863d 8932 8cbd
00000320: af37 d4bc 75e4 533e b350 1cbd fdd0 c93c
00000330: 621e 103e 6a0f e53d bc15 20bd 6d47 413e
00000340: ba79 bfbd 5604 a73d a5a2 883d 77ef 97bd
00000350: 206c e2bc 7031 c33d 27f9 66bd 028a a1bd
00000360: ab56 983e fdb2 fa3d 4a5b 7bbe e323 803e
00000370: 2aa1 803d 31b9 39be bd2f 893e 4e4a 053e
00000380: edf6 c1bd d7f0 f13d c055 8a3d 0233 a63d
00000390: 3b86 853d 8683 043b 34a4 243d 0761 a93d
000003a0: 5738 d4bc 947c a7bd ab40 183e 9ac3 8e3e
000003b0: d140 403b 2333 443e b845 283e 9d89 83bd
000003c0: b004 ee3d 1c70 7d3d 17e4 ae3c ef9e 423e
000003d0: 0435 933e 2e2a 483e 7a82 5b3e ba34 e73d
000003e0: 0c89 5c3e 9ff7 163e 26c7 04be 86cd 043e
000003f0: 2dc1 c43d 7b57 09be 59cc cf3d 8cc7 983d

module.conv_layers.5.weight f4 [64, 64, 1, 1]
0.050603487 0.3148262 -0.002980532 0.02357977 0.044492997 0.1361521 0.14938846 -0.27292398
0.5977779 0.040169682 -0.25145927 -0.10048407 -0.16668756 0.049234662 -0.04191058 0.28384385
0.12136114 -0.07422452 0.0128777865 0.10043996 -0.03563122 0.162985 0.30235386 -0.045016866
-0.12262676 0.1589302 -0.12178617 -0.099651374 -0.008936029 0.09785375 0.054654352 -0.010034685
0.22465493 0.26449776 0.015470033 0.041609555 0.06314045 -0.00015563348 0.23831032 -0.014436355
0.11623477 -0.0067629325 0.10292182 -0.09060245 0.08900122 -0.06699486 -0.005127844 0.20669505
0.29828858 -0.17427081 -0.02846677 0.0040933928 0.004113759 -0.13086015 -0.060655627 -0.14285107
-0.061861288 0.3777652 -0.034655116 -0.019180205 -0.16160671 -0.22900876 0.00055056944 0.10472566
-0.040065266 -0.27853057 0.05060105 -0.049383517 0.03557939 -0.48002073 -0.016818551 -0.20335597
0.25184274 0.18492338 -0.5875242 -0.19638619 -0.08419057 0.04950301 -0.276461 0.22567573
0.087688886 -0.37613603 -0.23030467 0.10238024 -0.2074837 0.25866902 -0.13355349 -0.071647376
0.4858563 0.085504085 0.13475144 -0.45753744 -0.13555232 0.094783016 -0.21876654 0.3256332
0.21335372 -0.10441683 -0.21411632 0.39800525 0.08524124 0.19574559 0.12544869 1.0472006
1.0199757 -0.17538257 0.13047855 -0.048849806 -0.39008808 0.083127975 0.37053972 0.21172579
-0.12765627 -0.5101641 -0.13712761 -0.049693182 -0.19207063 0.1798176 0.07572248 -0.049728166
0.21765786 0.26680648 -0.033191107 -0.5766269 -0.31234264 -0.024772545 0.2616491 0.17375886
-0.31623423 -0.06817621 0.09939074 0.082381845 0.093962915 0.40446422 0.4652705 0.14465395
-0.113499746 0.41957185 0.12740177 -0.012470301 0.004894633 0.08380064 0.02607671 0.04500123
0.03258998 -0.052060787 -0.021976987 0.06694727 0.052514277 -0.009540847 0.08482602 -0.17376819
-0.11620879 0.0154003985 -0.27911702 0.062445924 -0.1926709 0.104885995 -0.27494195 -0.27151063
0.09505848 0.02827831 0.21822074 -0.09890148 0.10528335 0.12505502 -0.2282218 -0.047812536
0.2360537 -0.1220141 0.19374059 0.06298163 -0.35625917 -0.03205755 0.11626102 -0.38536716
0.035643186 0.09598139 -0.18160714 -0.29253227 0.14281544 -0.03190288 -0.06876728 0.12908159
-0.41621184 0.31776065 0.18810275 0.26823577 0.14050317 0.2791426 0.17133339 -0.08928455
-0.35718358 0.263134 -0.10648443 0.015415151 0.17124522 -0.18633746 0.06723031 0.19645564
0.1237224 0.09721479 1.0836887 0.36465165 -0.37885544 -0.22785623 -0.43132606 -0.19447516
0.056894697 0.3170756 0.2588548 -0.040508736 0.6260735 -0.13128741 0.046359874 -0.09483367
-0.51451516 -0.13458264 -0.0061970055 0.1681906 -0.10030848 -0.27917483 -0.038262025 0.09464572
-0.030477967 0.17929943 -0.5870743 -0.36484334 -0.42365435 0.37698895 0.430333 -0.6038236
0.27415627 0.063703716 -0.21704298 -0.01866008 0.32216832 -0.11674588 0.23456745 -0.06344121
-0.194399 -0.20694554 0.20320153 -0.15916847 0.05234806 -0.012273092 0.02945637 -0.1973872
0.15962467 0.2553637 0.2676742 -0.35039407 -0.19047551 -0.23718391 -0.16857642 0.055835634
00000000: 9a45 4f3d e630 a13e 0755 43bb 5d2a c13c
00000010: 4a3e 363d 756b 0b3e 4af9 183e b1bc 8bbe
00000020: f907 193f f788 243d 45bf 80be 98ca cdbd
00000030: 25b0 2abe 49aa 493d 6eaa 2bbd fb53 913e
00000040: 308c f83d 0603 98bd 5afd 523c 77b3 cd3d
00000050: 0bf2 11bd 8ae5 263e 20ce 9a3e 9b63 38bd
00000060: bd23 fbbd 99be 223e 076b f9bd 0516 ccbd
00000070: 6c68 12bc 8c67 c83d 3edd 5f3d 8568 24bc
00000080: f10b 663e 406c 873e 0576 7d3c c86e 2a3d
00000090: c84f 813d 8b31 23b9 9f07 743e 7686 6cbc
000000a0: 7f0c ee3d 979b ddbb adc8 d23d c78d b9bd
000000b0: 4646 b63d 9a34 89bd 7907 a8bb dea7 533e
000000c0: 48b9 983e 0c74 32be 2533 e9bc de21 863b
000000d0: b6cc 863b 3400 06be 0972 78bd 8d47 12be
000000e0: 4362 7dbd 716a c13e 86f2 0dbd ce1f 9dbc
000000f0: 3b7c 25be 4681 6abe 1754 103a 687a d63d
00000100: 7a1b 24bd 8f9b 8ebe 0c43 4f3d 5f46 4abd
00000110: b2bb 113d 47c5 f5be 0fc7 89bc 8c3c 50be
00000120: 88f1 803e 8e5c 3d3e fc67 16bf 7619 49be
00000130: 1b6c acbd abc3 4a3d 4c8c 8dbe 8a17 673e
00000140: 3b96 b33d e794 c0be fdd4 6bbe bbac d13d
00000150: 9b76 54be 4470 843e 3fc2 08be dcbb 92bd
00000160: 28c2 f83e c41c af3d 48fc 093e 5942 eabe
00000170: 3ace 0abe 991d c23d 5604 60be 65b9 a63e
00000180: 6679 5a3e 7ed8 d5bd 4f41 5bbe 58c7 cb3e
00000190: f692 ae3d 8871 483e 9f75 003e ab0a 863f
000001a0: 908e 823f 7d97 33be 2b9c 053e bc16 48bd
000001b0: a0b9 c7be 003f aa3d 62b7 bd3e a5ce 583e
000001c0: 53b8 02be 1d9a 02bf 2e6b 0cbe 148b 4bbd
000001d0: 2aae 44be 1b22 383e 6314 9b3d c3af 4bbd
000001e0: b4e1 5e3e dc9a 883e 66f3 07bd d29d 13bf
000001f0: 60eb 9fbe cbef cabc dff6 853e d8ed 313e
00000200: 74e9 a1be f89f 8bbd 5f8d cb3d d0b7 a83d
00000210: a16f c03d ef15 cf3e ef37 ee3e 2a20 143e
00000220: 8e72 e8bd 1fd2 d63e 9c75 023e 3c50 4cbc
00000230: 2863 a03b ac9f ab3d d39e d53c 3653 383d
00000240: 127d 053d b13d 55bd 1509 b4bc a61b 893d
00000250: 3619 573d 3651 1cbc 44b9 ad3d 4af0 31be
00000260: e0fe edbd f451 7c3c 6de8 8ebe 4cc7 7f3d
00000270: 854b 45be 78ce d63d 31c5 8cbe 7103 8bbe
00000280: 05ae c23d eaa7 e73c 4275 5f3e dc8c cabd
00000290: cc9e d73d 6c0e 003e fab2 69be 14d7 43bd
000002a0: 10b8 713e 87e2 f9bd ef63 463e 83fc 803d
000002b0: 9a67 b6be c74e 03bd 421a ee3d d84e c5be
000002c0: 97fe 113d e491 c43d 39f7 39be cac6 95be
000002d0: 363e 123e 98ac 02bd dcd5 8cbd f72d 043e
000002e0: b819 d5be 86b1 a23e 029e 403e 3356 893e
000002f0: 10e0 0f3e c7eb 8e3e 0572 2f3e d1da b6bd
00000300: c4e0 b6be 80b9 863e 8214 dabd d48f 7c3c
00000310: e85a 2f3e 3fcf 3ebe 0bb0 893d ab2b 493e
00000320: 2b62 fd3d 8c18 c73d 50b6 8a3f 9fb3 ba3e
00000330: 57f9 c1be 2553 69be c5d6 dcbe 7f24 47be
00000340: 6a0a 693d bc57 a23e 9e88 843e 7dec 25bd
00000350: 5a46 203f 3570 06be dae3 3d3d 2838 c2bd
00000360: 44b7 03bf 08d0 09be 4010 cbbb 283a 2c3e
00000370: 886e cdbd 01f0 8ebe a4b8 1cbd 9ed5 c13d
00000380: eeac f9bc 459a 373e 804a 16bf bfcc babe
00000390: 39e9 d8be b204 c13e 9b54 dc3e 2f94 1abf
000003a0: 365e 8c3e 1877 823d 8440 5ebe 06dd 98bc
000003b0: 3ff3 a43e 7718 efbd 7332 703e 77ed 81bd
000003c0: 8810 47be 88e9 53be 1014 503e 0ffd 22be
000003d0: eb6a 563d 1415 49bc 7c4e f13c df1f 4abe
000003e0: a674 233e 08bf 823e 980c 893e da66 b3be
000003f0: 030c 43be 57e0 72be 4c9f 2cbe e8b3 643d

module.conv_layers.6.weight f4 [64, 64, 1, 1]
0.20221026 0.0865745 -0.018413661 0.009709615 0.0730315 0.040332418 -0.18853325 0.13804995
-0.20696037 0.26327094 -0.037289128 -0.17618884 0.0114843035 -0.331159 -0.16519469 0.07633848
-0.022453167 0.1269789 -0.10636904 9.25713e-05 -0.21691062 -0.2665894 -0.18536188 0.2667718
-0.12494768 -0.11832181 0.1279109 0.0895407 -0.2050491 -0.016863827 0.34167925 0.23917755
0.1985342 -0.24411154 0.35364893 -0.27030045 -0.08008857 0.3384311 0.26971164 0.093503654
-0.7113817 0.06362229 0.0028741623 -0.09171852 0.114286594 -0.20504978 0.06914828 0.18819886
-0.02487669 0.07257485 0.15927224 0.12164893 0.06673282 -0.15457089 0.29120892 -0.13802597
0.22214535 -0.23919795 -0.20810106 -0.1511348 -0.06188986 -0.25367755 -0.017408386 0.0137566505
-0.043205224 0.43855345 0.066816226 0.094524726 -0.0009925185 0.71531075 0.2277588 0.09719421
0.0001974727 -0.021198668 -0.44819173 0.6341319 -0.20280994 -0.2948025 -0.4214948 0.053081416
-1.4856634 -0.12261954 -1.399204 0.100260854 -0.08915812 0.35604012 0.20230904 -0.11106428
-0.1629949 -0.02368697 0.53616524 -0.027084464 0.0029251638 -0.21905091 -0.26737472 0.0690702
0.37438703 0.1404255 -0.046281222 0.28255332 0.013278911 0.5342854 -0.028623523 0.5920431
-0.019739395 -0.00800652 0.088200085 1.193117 0.08219641 -0.44308597 -0.6812131 -0.033487875
-0.045967884 -0.16585739 0.11394675 -0.32170358 -0.62471974 0.3993445 0.01002043 -0.029442534
0.0052852146 0.09890534 0.071443744 -0.012872702 0.61563474 0.21221703 -0.1318359 -0.24549142
-0.07851272 0.016473519 0.055520073 0.20045114 0.19096583 0.124946386 -0.0011488678 -0.015716668
0.049508706 -0.1160977 0.35317686 -0.1265602 -0.09992538 0.044974025 0.17091107 0.056131575
0.07716765 0.23953143 0.2492311 0.13991933 0.05119864 0.054884095 0.4330639 0.17250587
-0.012975165 -0.047580797 0.19097838 0.22784433 -0.015874758 0.14112505 0.14870453 0.030342638
-0.18170035 0.015775742 0.035122436 -0.086801805 0.048611704 -0.06340674 -0.2842757 -0.139806
0.014215218 -0.1717665 0.04455627 -0.016790427 -0.07005274 -0.13666064 -0.09138591 -0.04241763
-0.10167752 0.07054149 0.19574577 -0.19396424 0.03497411 -0.04639031 0.014124747 -0.15494686
-0.16359352 -0.15565619 0.33460686 0.12595816 0.08332108 0.21819611 0.05020786 0.16960533
0.22170815 -0.14567187 0.53932244 -0.10862817 0.34187678 -0.3027215 0.024245657 0.17479071
0.19248414 -0.11912096 -0.10500521 -0.23928678 -0.13628082 -0.023820408 -0.036357578 -0.21370028
-0.28179473 0.05589982 -0.052974768 -0.026378298 0.050480273 0.06067074 -0.05375084 -0.17355044
-0.26916933 -0.014218342 -0.36341828 -0.24815097 -0.36558926 0.27757728 -0.36715993 -0.027940901
-0.36556652 -0.201115 -0.07061371 -0.34452245 -0.007017708 0.22098151 -0.035081953 -0.12710762
-0.05680021 -0.017610488 -0.17180824 -0.17313965 0.120199144 -0.18812366 -0.19571666 -0.38846287
-0.23407964 0.14103706 -0.2512339 -0.11952332 0.25145224 0.25429767 0.089425445 0.10836087
0.11006564 -0.41694367 -0.08297835 0.12239003 -0.4222035 -0.06613709 0.017637966 -0.2158193
00000000: 3510 4f3e f94d b13d 3fd8 96bc 1415 1f3c
00000010: 8a91 953d 9b33 253d dc0e 41be f75c 0d3e
00000020: 6bed 53be 73cb 863e 7cbc 18bd d96a 34be
00000030: a928 3c3c ac8d a9be cc28 29be 5957 9c3d
00000040: b4ef b7bc c206 023e 03d8 d9bd d722 c238
00000050: d11d 5ebe 687e 88be 81cf 3dbe 5096 883e
00000060: 92e4 ffbd b552 f2bd 13fb 023e 1d61 b73d
00000070: 64f8 51be 0226 8abc 95f0 ae3e f6ea 743e
00000080: 8d4c 4b3e 60f8 79be 7911 b53e d264 8abe
00000090: 7a05 a4bd d746 ad3e a517 8a3e d87e bf3d
000000a0: 1c1d 36bf 674c 823d 715c 3c3b ebd6 bbbd
000000b0: 170f ea3d 92f8 51be 9d9d 8d3d 34b7 403e
000000c0: 33ca cbbc 1fa2 943d 4318 233e 1323 f93d
000000d0: 37ab 883d d547 1ebe 5619 953e ae56 0dbe
000000e0: 127a 633e 4ff0 74be 7218 55be 15c3 1abe
000000f0: 3980 7dbd 06e2 81be 089c 8ebc 9363 613c
00000100: f6f7 30bd 148a e03e f2d6 883d 2e96 c13d
00000110: 6517 82ba 9b1e 373f 9a39 693e c20d c73d
00000120: ad10 4f39 d4a8 adbc 6379 e5be 7856 223f
00000130: 69ad 4fbe 5af0 96be 2bce d7be e66b 593d
00000140: 382a bebf f41f fbbd 1e19 b3bf 9055 cd3d
00000150: 8898 b6bd e44a b63e 1a2a 4f3e ab75 e3bd
00000160: 23e8 26be 2d0b c2bc 2042 093f 3de0 ddbc
00000170: 1bb4 3f3b e24e 60be 57e5 88be ad74 8d3d
00000180: a8af bf3e b4cb 0f3e 6191 3dbd d4aa 903e
00000190: ca8f 593c eec6 083f e17b eabc 2390 173f
000001a0: 83b4 a1bc c72d 03bc 3fa2 b43d 0fb8 983f
000001b0: 9756 a83d 2adc e2be fb63 2ebf 952a 09bd
000001c0: d248 3cbd 85d6 29be ea5c e93d 55b6 a4be
000001d0: a2ed 1fbf e276 cc3e bb2c 243c 7831 f1bc
000001e0: 982f ad3b e28e ca3d 1951 923d 07e8 52bc
000001f0: 3d9a 1d3f 6c4f 593e fdff 06be 1a62 7bbe
00000200: 47cb a0bd 79f3 863c 0469 633d 1043 4d3e
00000210: 8c8c 433e e4e3 ff3d 9b95 96ba 3ec0 80bc
00000220: a4c9 4a3d a2c4 edbd 99d3 b43e ff98 01be
00000230: ada5 ccbd af36 383d 5003 2f3e 39ea 653d
00000240: 130a 9e3d ba47 753e 7036 7f3e 0347 0f3e
00000250: aab5 513d 25ce 603d 8dba dd3e 61a5 303e
00000260: c995 54bc 15e4 42bd d68f 433e 0650 693e
00000270: c80b 82bc 1683 103e 0046 183e 2091 f83c
00000280: a80f 3abe 213c 813c 8bdc 0f3d 25c5 b1bd
00000290: 111d 473d 65db 81bd 968c 91be 4e29 0fbe
000002a0: f2e6 683c 8fe3 2fbe a380 363d 148c 89bc
000002b0: d077 8fbd c4f0 0bbe 8928 bbbd 1cbe 2dbd
000002c0: 4e3c d0bd 0f78 903d 9471 483e 909e 46be
000002d0: 0341 0f3d c403 3ebd 7c6b 673c 64aa 1ebe
000002e0: 0f85 27be 5664 1fbe 9751 ab3e 2dfb 003e
000002f0: 3ea4 aa3d cd6e 5f3e c2a6 4d3d 05ad 2d3e
00000300: 7607 633e 022b 15be 0911 0a3f 7278 debd
00000310: 790a af3e 50fe 9abe d49e c63c 56fc 323e
00000320: 901a 453e b1f5 f3bd f90c d7bd 9807 75be
00000330: 338d 0bbe 0423 c3bc afeb 14bd 3fd4 5abe
00000340: 6647 90be 36f7 643d 12fc 58bd 4d17 d8bc
00000350: 67c4 4e3d e281 783d d729 5cbd 35b7 31be
00000360: 90d0 89be 0cf4 68bc f611 babe 4a1b 7ebe
00000370: 842e bbbe 9c1e 8e3e 63fc bbbe 51e4 e4bc
00000380: 892b bbbe 17f1 4dbe ec9d 90bd 3f65 b0be
00000390: cdf4 e5bb fa48 623e 18b2 0fbd 8028 02be
000003a0: 56a7 68bd df43 90bc 80ee 2fbe 854b 31be
000003b0: f82a f63d 7da3 40be f369 48be 9be4 c6be
000003c0: 93b2 6fbe 056c 103e bba1 80be a4c8 f4bd
000003d0: 59be 803e 4e33 823e b024 b73d 4eec dd3d
000003e0: 186a e13d a479 d5be 8ef0 a9bd a0a7 fa3d
000003f0: 0f2b d8be e272 87bd 7f7d 903c bcff 5cbe

module.conv_layers.7.weight f4 [64, 64, 1, 1]
0.17918855 -0.057664134 0.10245391 0.33445254 -0.024314197 0.020224022 0.07738221 0.10598604
0.022824451 0.023113905 0.09514146 -0.023586728 -0.17859659 -0.0028083408 -0.030798145 -0.08022225
-0.18283923 -0.12693186 -0.1307193 -0.11833373 0.12758535 -0.009194762 -0.05167784 0.12779762
-0.07645932 0.047634218 -0.23217751 0.015030635 0.17704162 -0.11558284 -0.02493009 0.15442108
0.035898678 0.33285233 -0.10240881 -0.05315773 -0.052928384 -0.24864373 -0.13355082 0.060554795
0.11778412 -0.068367995 -0.39172015 -0.28215387 -0.099089846 0.049546152 -0.20675708 -0.025933288
-0.007071757 -0.08132932 0.16236627 -0.15170921 -0.09783195 0.102565736 -0.3481937 -0.1002335
-0.15140592 -0.0049378118 -0.09980283 0.1370422 -0.01299433 0.12661645 0.21144985 -0.53209597
0.3142468 -1.3052377 -0.114145376 -0.058875967 -0.11008618 1.5867801 0.7446226 -0.18208982
0.051590107 -1.2783175 -0.1959424 0.30901238 -0.17878546 0.2179498 0.24041696 0.8066384
0.1093856 -1.3214154 0.12260463 0.016621765 0.1937375 0.28222993 -1.3347594 -0.5385111
-0.89833647 -0.13723291 0.21261032 -0.673779 0.47401452 -0.0114924805 -0.017641144 -0.41594473
-0.32316047 -0.1508698 0.984306 0.30340067 0.058770485 0.06947499 0.044378992 0.17412859
0.113626 0.23033208 0.14094958 -1.2856178 -0.046253256 -0.0978206 -0.5735008 -0.52660155
0.071709454 -0.43404186 -2.025223 -0.25851408 0.15770046 -0.15177546 0.13365288 -0.29781735
0.07904858 0.06889992 0.31871468 0.2101679 0.20442493 0.26400685 0.21931234 -0.011890208
0.07294175 0.29053527 0.0870581 0.06984656 0.15112843 0.20773195 0.20278233 -0.29365385
-0.00041954074 -0.642399 0.4332207 -0.07342761 0.17314535 -0.17915913 0.2424384 0.18911086
-0.041222032 -0.3980445 -0.10102104 -0.022575099 0.02589288 0.01403774 0.07261853 0.3142109
0.18348972 -0.35859552 -0.36317015 0.49864694 -0.057322215 0.29809082 -0.10932171 0.4800162
-0.39589888 -0.42481032 -0.2157569 -0.010238875 -0.8837136 -0.2445129 -0.27532488 -0.3238143
-0.16547091 0.012697956 0.2571191 0.11918785 0.69109 -0.038700905 0.3315447 0.015718384
0.10369907 -0.21038088 0.0025273382 0.51954144 -0.2671589 0.121553116 0.12666981 -0.12858173
-0.041151978 0.1386464 -0.33030263 0.12355758 0.07268963 -0.23407957 0.24666639 0.13014613
0.24561656 0.11256656 0.0386729 0.1447766 -0.015572042 -0.021081831 0.0923984 0.28889194
-0.03363525 0.16349304 0.09811795 -0.20584743 -0.2569915 -0.1615214 0.08869922 -0.08466487
-0.012811171 0.10878795 -0.2707765 0.1119176 0.08032351 0.21729252 -0.0113067385 0.15963735
0.31741273 -0.095866986 -0.023818618 -0.035587672 -0.088896856 0.07554828 -0.12773053 0.20553246
-0.09954073 0.24221049 0.07572814 -0.15476972 0.4009139 -0.1836491 -0.027823506 -0.016815595
-0.14281364 -0.037327666 0.13573824 0.049053535 0.15481862 0.06066768 0.18777464 0.10533439
0.26921842 -0.28667003 0.09300117 0.19801347 0.23116496 -0.12022334 -0.018191013 0.16781633
0.03865173 0.18258114 0.007905329 0.18218958 0.103220314 -0.007475587 0.27051058 0.17971364
00000000: 347d 373e 3a31 6cbd 5bd3 d13d 5d3d ab3e
00000010: 912e c7bc d9ac a53c 907a 9e3d 350f d93d
00000020: 58fa ba3c 5f59 bd3c 87d9 c23d f438 c1bc
00000030: 06e2 36be 240c 38bb 644c fcbc 904b a4bd
00000040: 353a 3bbe 6dfa 01be 48db 05be f458 f2bd
00000050: bca5 023e a1a5 16bc 25ac 53bd 61dd 023e
00000060: b496 9cbd 191c 433d f1bf 6dbe 0d43 763c
00000070: 664a 353e b2b6 ecbd 303a ccbc 8f20 1e3e
00000080: 7e0a 133d 9f6b aa3e b6bb d1bd ebbb 59bd
00000090: 6fcb 58bd 769c 7ebe 8cc1 08be 4e08 783d
000000a0: cd38 f13d 8504 8cbd 8b8f c8be 7976 90be
000000b0: 9eef cabd e8f0 4a3d 21b8 53be 0c72 d4bc
000000c0: 33ba e7bb fd8f a6bd 5843 263e a959 1bbe
000000d0: 1e5c c8bd fc0d d23d 7246 b2be 3947 cdbd
000000e0: 270a 1bbe 5ecd a1bb 6d65 ccbd ca54 0c3e
000000f0: 2ce6 54bc bea7 013e 4f86 583e 7137 08bf
00000100: f5e4 a03e 0712 a7bf 0dc5 e9bd ed27 71bd
00000110: dd74 e1bd 9c1b cb3f 969f 3e3f c175 3abe
00000120: 2650 533d e89f a3bf 20a5 48be df36 9e3e
00000130: 8913 37be 3b2e 5f3e dd2f 763e db7f 4e3f
00000140: 8f05 e03d 2424 a9bf 2318 fb3d 5e2a 883c
00000150: 2063 463e 7180 903e 65d9 aabf dddb 09bf
00000160: 61f9 65bf c986 0cbe 85b6 593e c87c 2cbf
00000170: 08b2 f23e f54a 3cbc 2984 90bc b5f6 d4be
00000180: 4a75 a5be 9d7d 1abe 7afb 7b3f 5557 9b3e
00000190: 52b9 703d e748 8e3d bfc6 353d c44e 323e
000001a0: c0b4 e83d 2cdc 6b3e 1655 103e 208f a4bf
000001b0: 0e74 3dbd 2b56 c8bd f3d0 12bf 5ccf 06bf
000001c0: 68dc 923d bc3a debe 419d 01c0 f55b 84be
000001d0: 3b7c 213e 076b 1bbe 4ddc 083e 847b 98be
000001e0: 39e4 a13d 671b 8d3d 922e a33e 4136 573e
000001f0: c554 513e e82b 873e 6a93 603e 26cf 42bc
00000200: 7c62 953d 0ac1 943e 844b b23d b70b 8f3d
00000210: 69c1 1a3e afb7 543e 2ca6 4f3e cc59 96be
00000220: cef5 dbb9 4374 24bf 1bcf dd3e 3761 96bd
00000230: 044d 313e 7e75 37be c641 783e 47a6 413e
00000240: 6fd8 28bd 7dcc cbbe 1ee4 cebd 6aef b8bc
00000250: 4e1d d43c 8dfe 653c 06b9 943d 40e0 a03e
00000260: bbe4 3b3e d599 b7be 70f1 b9be a74e ff3e
00000270: b3ca 6abd 5c9f 983e 10e4 dfbd afc4 f53e
00000280: 42b3 cabe bd80 d9be 60ef 5cbe f4c0 27bc
00000290: 0e3b 62bf 9761 7abe 62f7 8cbe fdca a5be
000002a0: 3571 29be 160b 503c 1da5 833e c218 f43d
000002b0: 46eb 303f d784 1ebd 3ac0 a93e d7c3 803c
000002c0: 2e60 d43d 166e 57be b3a1 253b ab00 053f
000002d0: 0dc9 88be d7f0 f83d bbb5 013e eeaa 03be
000002e0: fa8e 28bd 52f9 0d3e 6d1d a9be c20b fd3d
000002f0: 4dde 943d 8eb2 6fbe 1d96 7c3e 0745 053e
00000300: e882 7b3e 4c89 e63d 7a67 1e3d 5140 143e
00000310: e121 7fbc ceb3 acbc 5f3b bd3d a5e9 933e
00000320: 1ec5 09bd b86a 273e 10f2 c83d abc9 52be
00000330: 6494 83be de65 25be f0a7 b53d c664 adbd
00000340: f2e5 51bc 37cc de3d 38a3 8abe 0e35 e53d
00000350: a780 a43d ee81 5e3e e63f 39bc f977 233e
00000360: ec83 a23e e955 c4bd 431f c3bc 61c4 11bd
00000370: 8e0f b6bd 0eb9 9a3d cbcb 02be 1a77 523e
00000380: 03dc cbbd 0706 783e 5b17 9b3d f47b 1ebe
00000390: 9644 cd3e 820e 3cbe 1fee e3bc dcc0 89bc
000003a0: bd3d 12be e5e4 18bd f7fe 0a3e 5cec 483d
000003b0: c688 1e3e ac7e 783d ff47 403e 8fb9 d73d
000003c0: ffd6 893e 6ac6 92be 6677 be3d 0bc4 4a3e
000003d0: 82b6 6c3e a837 f6bd 5205 95bc 0bd8 2b3e
000003e0: 4751 1e3d 8df6 3a3e 5a85 013c e88f 3a3e
000003f0: 2c65 d33d c5f5 f4bb 5d80 8a3e da06 383e
