denoisers/multi_scale/celebA_160x160_gray/noise_range_0to255_RF_5x5_scale_0/model.pt (torch, 358994 bytes, 59 tensors)

module.conv_layers.0.weight f4 [64, 4, 3, 3]
00000000: fd4f a43e 62dd 35bb 920b 60bd 238d e73d
00000010: 1f60 ed3c 5d2c 44bd 8361 9cbd b97e bcbe
00000020: 6af3 ea3d 7cc8 49be 689e 3e3e bd8e 423e
00000030: 2ace cbba 74f5 61be d7a7 cebe 0fb3 7cbe
00000040: d3c2 82bd 4a92 e9bc 6376 d9be 293a 6d3e
00000050: 4d63 3abe 3bba 1e3f 13c8 9d3c fe43 2dbe
00000060: 1140 57be a03f 7f3b 2392 4cbe a112 883d
00000070: 1e2c 083e 25da 78bd 5ecc d1bd e4c9 603d
00000080: 4041 013e 1374 85bf 5305 96be 560b 9cbe
00000090: 7585 da3d 1fb6 2abf 2727 8a3e 8c42 80be
000000a0: bc99 c0bd 33a9 163f 78db 2c3e d986 afbe
000000b0: 50b6 0ebe 4d62 af3c 861f 9a3e 2459 bdbd
000000c0: b716 cb3d 6e57 353e 9b0d d1bc 5571 303e
000000d0: 947f 2f3e 78c0 aebe 8f44 67be 6f8b 84be
000000e0: 554d 69be 4913 b13c d4d8 b83d 05d4 e43d
000000f0: c847 43be 775c f0bd 4dd5 00be 9c79 fc3c
00000100: 0bd5 c83c bef5 433e b5de 423e d059 a23e
00000110: ec27 cdbd 82f6 b83e 6ca4 0ebe 9a6a 04be
00000120: f765 82be 9984 843d a933 083e 03a8 993d
00000130: 318b e2bd d19a 8dbb e6ea a83d 4945 013d
00000140: 1381 8c3e 77e6 253e 9e06 323d 9fb8 743e
00000150: fccb a5be 1799 123f 8af4 713c d1d6 953d
00000160: dd87 f73d b7e6 81bd f17c 143d f162 0d3d
00000170: 6b3f cbbd 4fdb 33bd 42c3 8dbe 1612 76bd
00000180: c070 c73c 6ae7 883e f21d 1a3e a13f cebd
00000190: a56a e53c 2b43 f4bd 92fc edbd 3538 e8be
000001a0: 8ef5 f03e 4027 cdbc 9c80 d83b 827a 153f
000001b0: bd04 2ebe 0ca6 a9be 8337 c7be fb3b 6e3e
000001c0: 1e78 043f 403f c2bd 58b3 11bd 4293 9e3d
000001d0: c76f 333e 6583 93be 92ab e13e 4af6 8dbe
000001e0: 4293 aebe 9205 6e3c dcda 7abe 1ba9 8bbd
000001f0: a464 1f3e 9989 abbe 60ce 87bc 3181 ed3e
00000200: 408d 033e 103d 303d 46fb 45be 88e8 883d
00000210: 3a5a 873c c177 9a3e 3321 533e efad 113f
00000220: a6ce 58be 05d0 c4bd e18e 9f3e 9369 d3be
00000230: 7bc9 8bbe 21ae 6abd ab90 e83d 55ee 4e3e
00000240: fa36 8a38 7426 7bbe 9431 4f3e 3823 c7be
00000250: aed0 753e f83d d3be 2192 223e 8c25 fb3d
00000260: ccc8 783e 07dd 363e a140 c6be e24b a33d
00000270: 99ff 87bb cd0a 8cbe 457b 94be 6354 5bbe
00000280: adc3 653e 42b1 d63b a205 a13e 291f 3a3e
00000290: 697c 03be 6894 91bd 5086 ffbe 8f98 a03d
000002a0: b4f7 26be fee2 073e 7c6e 0b3d d9e0 20bf
000002b0: b332 13bf 59ca 09be 21af 96be 2756 52be
000002c0: 9802 c8bc cd16 acbd 7efb dbbe 58ac cfbe
000002d0: 5cf9 b3be d87b f9be 5e66 933d 0e6e 8b3e
000002e0: 647f 9d3b 6015 6abd b572 a7bd aca1 ca3d
000002f0: c8d6 ebbd 1e5f 21bd dbcc 943e 69f9 e3be
00000300: b1fc e93d 7d11 8f3e 90b9 1d3d ccaa 78be
00000310: 003b 373e fd83 b5be f429 9a3e 6bce 653d
00000320: 16a3 cfbc 9376 97be 1728 d5be 1cc9 373e
00000330: becc 47be cd1a 0dbd df9e 1cbe e4c9 a03e
00000340: 9ee2 a6bd fb17 6e3d b8b4 14be 3c5a 233e
00000350: 7dfd 0dbf e494 74bd 46d5 4abe f0b1 90bd
00000360: 377f 0ebe 9916 9ebd 17c6 abbe 8459 5cbe
00000370: 8d47 47b9 73fa 0cbe 18db 313c fb4c e1be
00000380: 073f a73d db87 733e 3847 af3d 6f45 e73e
00000390: 2a23 1dbe fdfa 9bbe 9510 d4bd 38f2 ac3e
000003a0: 3f38 36be b1e8 64be 56d3 273e ba42 843e
000003b0: def5 323b a64f 7ebe e2af f7be 0c21 563e
000003c0: 7176 7b3e aa49 5b3d dd6f 2f3e 5d0f bf3d
000003d0: b179 c83e ab9c bc3e 05ae 0a3e 5cfc b93e
000003e0: 81e9 2f3e f094 3abe 8a24 8abe e450 bfbe
000003f0: 9469 20be e7a2 403c 7ec7 cc3d 9a2d f03d
0.32092276 -0.0027750363 -0.054698534 0.113062166 0.028976498 -0.04789387 -0.076357864 -0.36815432
0.11472209 -0.19705385 0.18615115 0.18999763 -0.0015549113 -0.22066289 -0.40362427 -0.2467768
-0.06384816 -0.028512139 -0.42473134 0.23166718 -0.18201943 0.62002915 0.019260442 -0.16920468
-0.21020533 0.0038947836 -0.19977622 0.06644178 0.1329808 -0.060754914 -0.10244058 0.054880038
0.12622547 -1.0426048 -0.29300937 -0.304774 0.10669986 -0.66684145 0.26982996 -0.2505077
-0.094043225 0.5885193 0.16880596 -0.34282568 -0.13936734 0.021409178 0.30102175 -0.09245518
0.09916442 0.17709133 -0.025519183 0.17230733 0.17138511 -0.34131217 -0.22584747 -0.2588763
-0.22783406 0.021615641 0.09025732 0.11173252 -0.19070351 -0.11736386 -0.12581368 0.030819707
0.02451565 0.19136712 0.19030268 0.31709146 -0.1001738 0.3612557 -0.1392991 -0.1293129
-0.25468418 0.064706035 0.13300957 0.07502749 -0.11061705 -0.004321434 0.08247928 0.031560216
0.27442226 0.16201197 0.043463342 0.23898552 -0.3238219 0.57264847 0.014767775 0.073163636
0.12086461 -0.063428335 0.036251966 0.034518186 -0.099242054 -0.04391032 -0.27688032 -0.06007584
0.024345756 0.26739055 0.15050486 -0.1007073 0.028004954 -0.11926874 -0.116204396 -0.45355383
0.47062343 -0.02504313 0.0066071283 0.5839006 -0.16993995 -0.33134496 -0.3890954 0.23265068
0.51745784 -0.0948472 -0.035571426 0.07742931 0.17523108 -0.28811184 0.4407621 -0.27726966
-0.34096724 0.014527695 -0.2449755 -0.06819364 0.15565735 -0.33503416 -0.0165779 0.46387628
0.12846851 0.043026984 -0.19334134 0.06684977 0.016522516 0.3016949 0.20618133 0.56906027
-0.2117258 -0.09609989 0.31163695 -0.41291484 -0.27302155 -0.05729497 0.11355718 0.20208104
6.590593e-05 -0.24526387 0.20233756 -0.38894057 0.24005386 -0.41258216 0.15876056 0.12263021
0.24295348 0.17857753 -0.38721183 0.07973458 -0.0041503427 -0.2735199 -0.29000297 -0.2141891
0.22437926 0.0065518925 0.3144961 0.18175949 -0.12840427 -0.07108384 -0.4990716 0.07841598
-0.16305429 0.13270184 0.034040913 -0.6284309 -0.57499236 -0.13456096 -0.29430488 -0.20540677
-0.0244153 -0.084027864 -0.4296531 -0.40561175 -0.35151184 -0.48727298 0.07197259 0.27232403
0.004806446 -0.05714929 -0.081761755 0.09894118 -0.11515576 -0.03939735 0.29062542 -0.44526222
0.1142515 0.2794303 0.038507044 -0.24283904 0.178936 -0.35452262 0.30110133 0.05610506
-0.02534632 -0.29582652 -0.4163215 0.17947811 -0.19511697 -0.034449387 -0.1529498 0.3140403
-0.081486925 0.05812834 -0.14522064 0.1595239 -0.5546492 -0.059712306 -0.1980792 -0.07065189
-0.13915716 -0.07719154 -0.33549568 -0.21518523 -0.00019004774 -0.13767414 0.010855459 -0.44004044
0.081663184 0.23782293 0.08558506 0.4517016 -0.15345445 -0.30464926 -0.10354725 0.33778548
-0.17794894 -0.2235439 0.16389212 0.25832158 0.0027307193 -0.24835071 -0.48376375 0.20911044
0.245569 0.05353705 0.17132516 0.09329102 0.39155343 0.36838278 0.13542946 0.36325347
0.17178918 -0.18220878 -0.26981002 -0.37366402 -0.15665275 0.011757589 0.099989876 0.11727448

module.conv_layers.1.weight f4 [64, 64, 1, 1]
00000000: 5d15 513d 4601 a9be 35aa 97be a470 3e3d
00000010: 0e65 933d 8861 f4bd 916b 91bd 1495 293e
00000020: 8eeb 00be 483c ae3e 503d a33d 9351 acbc
00000030: 1220 b93d 3f5a 393e 1fae ed3d ef38 303e
00000040: b542 3fbe df7e dfbb 6844 643e be4a 853d
00000050: 491f 943d b29f 2f3e 0826 4d3e 4c58 12be
00000060: 3b84 21bf 189a 773e effa a1bd 9a7d 6ebd
00000070: b0ee c0bd 36e3 d4bd 7733 753e df7f c9bd
00000080: 66d7 543e ce5b 4a3d 9329 663e 06f4 0f3e
00000090: bdd9 bdbe 7cdf bcbc d0d9 72bd 0094 043c
000000a0: dc29 703d ca87 593d ada6 63be 1afe 723e
000000b0: 1d49 f53d fb44 013e 1303 c43d 23d8 393e
000000c0: 9fd2 92bd 63bc adbe bc56 823e d43e 253d
000000d0: 5312 0dbe 6914 4abe e48e 5cbe 7904 503e
000000e0: da4f 973d 16e3 fdbc 3093 f63d 29c2 503b
000000f0: 9498 073e 99ab 673e 594c 8dbe 7fc0 7dbe
00000100: 4542 0d3e 664a 423d e572 763c 61ed 8dbe
00000110: 2bb6 1fbd b606 833e 36fb 22be 7012 603e
00000120: f0c3 c53e 483f 313d dd7c c7bd 3cff 5dbe
00000130: 3c5f 953e 9ddb b7be 9538 4c3e 9124 a13c
00000140: a71e c3bd d41b 143e 9148 1e3d 4ef4 c83c
00000150: 33a2 523e c947 b23d 93d3 83bb ad61 35be
00000160: 48ce 25be a514 21be a8bc 89be 6fbe 8ebd
00000170: 08e1 a3be 3509 113e 4934 6e3d d8e8 653d
00000180: d5f7 14be cf33 9bbd e595 953d fd51 2c3e
00000190: 6707 883e a73a eabd 7726 3bbe ea82 af3d
000001a0: a628 8abc 20b9 20be 2c77 76be 74e8 013e
000001b0: 8420 9f3c b962 6cbe 21ee 123e 190f 883c
000001c0: 93f8 4d3e 706e 093d a901 203d b72d a4be
000001d0: cc0d 363e 8c01 4d3e 094b 8a3d 813b 083d
000001e0: 579c 393e cb44 b83d da93 7bbd edb7 73be
000001f0: a090 d63e 0fef 203e 8805 473d 0f5b 42be
00000200: 45cf a53e 81d7 21bd 467a 543e a871 813d
00000210: b0ce 223e 22b4 40be 06d1 dbbc 1987 02be
00000220: e432 86be 6643 ed3e da0c 733c 3b0c 4fbd
00000230: c361 21be d206 e23d fac0 96bd 0435 7dbd
00000240: b4e4 663c c1aa 6e3d 3916 4c3d 541b 50be
00000250: 8f83 cebc 3fce ee3e f902 a63e e300 0f3c
00000260: 80a1 a0be 614d 833e e6b3 633d 8b14 2b3d
00000270: ceea 7cbd d910 bcbd 0eac 50be 0bf2 d73d
00000280: 0b15 6f3d e68a ca3c da3e a33e c90e 0ebe
00000290: d802 613a 061b bb3d 9fac 6a3e b67d 26be
000002a0: 04d5 94bd 4424 36bd 7936 0c3e 3ed4 903c
000002b0: 4bfc 68bc 9915 c7bd eb53 8c3d 3fb6 f5bd
000002c0: ad1b 72bd 1a03 02be 8ed0 d83e 4f43 adbc
000002d0: aff2 36be f81b 02bf fe18 57be 1ac1 003e
000002e0: bad7 fbbe 4de4 8d3e 2924 51bd 951e e53d
000002f0: 16b9 22bd 014a 773e 7560 023e 45c4 7abd
00000300: b47e 79bd 7e4a 54bd 9e02 da3d e4eb 3bbd
00000310: 5b5f 06bc aeb3 733d 70a5 6cbd ab42 cfbd
00000320: 436f f4bd c377 123e a246 a2bd 2c32 82bd
00000330: 6742 b1be 1bb6 2abe c209 40be 833b c6bc
00000340: d43c 81be 35b3 debc c7ad ab3e 4d1d 89bd
00000350: 7025 ae3d 2d68 3f3d ec1f 293d 6662 f5bd
00000360: 4515 f93d dbce 9fbe 266e a0be 63b3 acbc
00000370: e97b b8be 27df a6bd 6a45 573e c2b7 9bbd
00000380: 96f4 643d 1ebf 0abd 705c c7be 8fcb 70be
00000390: c49a 743d 6341 3b3e 2de6 223e bbca 38b7
000003a0: bfea 6b3e aefb f83b fc77 b13d 341b 8d3c
000003b0: 40a4 9b3d 179e 0abf b9d2 0b3c e649 75be
000003c0: 6cc5 86be bbc9 293e de95 8cbe 979b 5d3e
000003d0: ed5a 503d 92b6 853e e316 2e3e c1ca 063d
000003e0: c66c f93d 4744 8c3e 1990 2bbd 6cba 01bd
000003f0: f9ae c3bd e379 4dbe d0cf 28be 4985 d03e
0.051045764 -0.33008784 -0.29622045 0.04649414 0.07197009 -0.11932665 -0.07100595 0.16560775
-0.12589857 0.34030366 0.07970679 -0.021034991 0.0903932 0.18100832 0.116054766 0.17209218
-0.1867779 -0.006820544 0.2229172 0.065083966 0.0723253 0.17150763 0.20034039 -0.14291495
-0.6309239 0.24179876 -0.0790919 -0.05822525 -0.09420526 -0.103948995 0.23945414 -0.098388426
0.20785293 0.049403958 0.22476797 0.14057931 -0.37080184 -0.023055784 -0.059289753 0.008091927
0.05863367 0.053108014 -0.2223155 0.23729745 0.11976836 0.1262397 0.09570899 0.18148856
-0.07169079 -0.3393279 0.25456798 0.04034312 -0.13776521 -0.19734348 -0.21538883 0.20314206
0.07388277 -0.030992072 0.120397925 0.003185401 0.13241798 0.22624053 -0.2759731 -0.24780463
0.13794811 0.047434233 0.015042041 -0.27720168 -0.03899209 0.25591058 -0.15916142 0.21882033
0.3862605 0.04327324 -0.09740613 -0.21679395 0.2917422 -0.3590974 0.1994346 0.019670757
-0.09527331 0.1446374 0.038643423 0.024530556 0.20569687 0.08705098 -0.0040230243 -0.17713042
-0.16191971 -0.15730532 -0.26901746 -0.06969916 -0.32007623 0.14163668 0.05815533 0.05613026
-0.14547665 -0.07578241 0.07303981 0.16828151 0.26568148 -0.11436968 -0.18276392 0.08569892
-0.016865086 -0.1569562 -0.24068898 0.1268633 0.019424684 -0.23084535 0.14348651 0.016608762
0.20114355 0.033552587 0.039064083 -0.32066128 0.177787 0.20020121 0.06752593 0.033259872
0.18126045 0.08997496 -0.0614203 -0.23800631 0.41907215 0.15716194 0.04858926 -0.18980049
0.32384697 -0.03951216 0.20749769 0.06320506 0.15899158 -0.18818715 -0.026833069 -0.12746848
-0.262107 0.46340483 0.014834607 -0.050548773 -0.1575995 0.11036457 -0.07361026 -0.061818138
0.014092613 0.058268312 0.04982588 -0.20322925 -0.025209216 0.46641728 0.32424143 0.008728239
-0.31373215 0.25644973 0.055591486 0.04176764 -0.061747365 -0.09182901 -0.20378134 0.10544213
0.058369678 0.024724435 0.3188389 -0.13872828 0.00085834926 0.09136014 0.22917412 -0.16258892
-0.07267192 -0.04446818 0.13692655 0.01767933 -0.014220308 -0.09720916 0.068519436 -0.11997651
-0.059108425 -0.12696496 0.42346615 -0.02115026 -0.17866014 -0.50823927 -0.21005628 0.12573662
-0.49188024 0.27713242 -0.051059876 0.11187474 -0.039727293 0.24149324 0.12732108 -0.061222333
-0.06091185 -0.051828854 0.106450304 -0.04587926 -0.008201445 0.059497528 -0.05777496 -0.10120138
-0.11935284 0.14303498 -0.079236284 -0.06357226 -0.34620973 -0.1667103 -0.18753722 -0.0241983
-0.2524172 -0.027185062 0.3353102 -0.06695042 0.085032344 0.04673021 0.04129021 -0.11981659
0.1216226 -0.31212506 -0.31334037 -0.021081632 -0.36032036 -0.08148032 0.21022573 -0.076034084
0.055897318 -0.03387367 -0.38937712 -0.23515151 0.05971791 0.18286662 0.15908118 -1.10144565e-05
0.23038767 0.007598362 0.08665463 0.017224886 0.075996876 -0.54147476 0.008534127 -0.23953971
-0.26322496 0.1658086 -0.2745809 0.21641384 0.050867964 0.26115853 0.17000918 0.032908205
0.1217895 0.2739584 -0.04188547 -0.031671926 -0.09554858 -0.20066027 -0.16485524 0.40726689

module.conv_layers.2.weight f4 [64, 64, 1, 1]
00000000: 037f 333e 7939 be3e 09c8 e1bd 988e 31bc
00000010: 53f1 433f bed1 ad3d 6a64 693e b765 0fbe
00000020: 0d4d f53d 4506 bdbe 613f a03d 72e6 a23d
00000030: 64ef 8e3e 91b1 81be 4851 32be 410e ee3b
00000040: c79e 073e bfa6 e33d 9593 0a3e c725 d83e
00000050: f710 d13d e1bc 72bd b4b3 f73d 13a3 4d3d
00000060: a1c0 e23d d273 34be 07f4 b43e 1d40 153e
00000070: aae0 623e 406d efbd 1dc1 d13b 46d5 c43c
00000080: d82f 423e 2fee c13d 8943 333c f1a5 bc3d
00000090: d202 903d 6566 543e 3fc5 963e 7aec 1f3e
000000a0: bf45 373e 7711 71be 9a61 eebe 9da1 4cbd
000000b0: 5ed8 5e3e 304e 47be db19 4cbe 7563 69be
000000c0: deef 343e 2f21 98bd f7f5 f8be c705 d4be
000000d0: 2855 9dbe 89b3 0b3f 8951 813d 467d b83b
000000e0: 2f01 53be 4c0c d3be c833 c4be 4e20 033f
000000f0: f9ea a2be 4b5c 473e 04dd bb3d 2804 1cbd
00000100: cb12 523e 24cb 233e 4471 8dbd d2fa e9bc
00000110: 4e71 dbbc f8ae ecbd 1cc5 233e a007 3bbd
00000120: 6a98 083e 586a 9ebe 9d95 8b3e cc25 333e
00000130: bf1b 7a3e 90ad d33e e476 023e c384 7fbe
00000140: afed b83c 23a2 1a3d c97d 183e 86ee 1f3e
00000150: 9672 98bd b751 9a3d 4ec6 1f3e de6d 193e
00000160: 66c7 73bd 5043 d4be 4caa 503e 9a3e 083e
00000170: 5e51 1fbe 1f31 443e 309e d03d 5c62 6f3e
00000180: 62d0 513e c942 963b b4bf 73be 2d70 623e
00000190: 9e7d 973c 87af 313e af2d bfbd 3f59 f9bd
000001a0: faee d63d ff82 f7bc 79af 1d3e d581 73be
000001b0: 246d 24be adc6 6bbb faed 1b3e f745 10be
000001c0: fbe0 683d 7570 b6be 0209 8f3e 5813 913e
000001d0: beb4 8dbd 3391 01bf 0676 e23d 82fb c43e
000001e0: f926 f53d 6c5c 0cbe f77d f0be 96c0 75bd
000001f0: 684b ffbd 971c d23e 678f 323e 8cf6 353e
00000200: 2459 b4bd 4a9f 0e3e 6bd4 62bc 7d8c 2abe
00000210: ec5a 24bd 1377 be3e 3adb 7abe 1db7 b13d
00000220: 5e43 aabc 00f6 2d3d 51a3 69bc f72e c5bc
00000230: cf82 383e 934c 963e ace1 c9be 041c 6b3d
00000240: 43e6 173d 02d7 823d aab9 cbbd a8f7 843e
00000250: 3792 a7be a193 cf3d a1b1 33be d284 79bd
00000260: 1d5c 77bc 55d8 993e 97b1 4ebe d196 32be
00000270: 44a5 51be 8ac3 eb3d 493a 3bbd 751c 09be
00000280: 79eb 0e3e 8110 16be 8f06 853d f3a4 683e
00000290: 3d3e 94bd 89b4 2e3d c41c 4e3f c036 f1bd
000002a0: bcd0 f0bc 1d4c ed3d b261 ac3e 34b3 d63d
000002b0: e326 01bf cfce 413e 3162 783e fe76 773e
000002c0: 6002 84be 9bd0 4dbc 2637 423e fd2a 24bd
000002d0: d58b 823c 9513 c9be 8c1c 293b f959 debd
000002e0: b081 303e 365a ca3d 4a64 413e 17e6 c5bd
000002f0: fc65 83be 03d8 2dbe 1f36 b1bd bc15 32be
00000300: a527 463e 5901 5b3e 0168 f33d 84a8 5ebe
00000310: 0296 aabd 11f8 bcbe a069 403e 7cd8 02be
00000320: 18ac 153e 1180 96be 664f c03d ba88 543c
00000330: 674c 1bbf 009e 00be 803c 7e3e d532 e43d
00000340: c6c1 093c a731 22bd 26bb 293d b636 9d3d
00000350: e17d d03c 966e 643c 8aff cc3d 4550 0b3e
00000360: fc71 aa3d 88cf efbd d3ae 8f3d 4d0e 8c3d
00000370: 3945 cd3d 053d d33e 2929 503d 28b6 42bd
00000380: 961e 69bd 6caf c83d 4c7e 33be 1bbc 35bd
00000390: 1a1e a13d d3c6 353e 6acd 3dbe 6649 a03a
000003a0: d661 123e 14d8 c1bd ed27 e63e 525a 0d3e
000003b0: c5c2 2c3e ae71 90bd d475 01bf 9ecc e9bd
000003c0: 6b65 143e b99a 68be 607b 963e e929 56be
000003d0: 3f6a bdbe cfe1 e33e ba5f ddbc 6c92 0d3e
000003e0: 72ac 93be 35f9 a23e aaec 31be 2878 34bc
000003f0: 5130 febe 8699 b03e 6249 763e 9877 703d
0.1752892 0.37153223 -0.11024482 -0.01083722 0.76540107 0.08487271 0.22792211 -0.14003645
0.11977587 -0.36918846 0.078245886 0.0795411 0.27917016 -0.25330785 -0.17413819 0.007264883
0.13244162 0.11115789 0.1353286 0.42216322 0.10208314 -0.05926216 0.120948225 0.050204348
0.11071897 -0.17622307 0.35342428 0.14575239 0.22156015 -0.1169076 0.0064011947 0.024027478
0.18963563 0.09469258 0.010941395 0.09211338 0.07031788 0.20742185 0.29447362 0.15617552
0.178977 -0.23541819 -0.4655884 -0.049958814 0.21762225 -0.1946342 -0.19931738 -0.22791846
0.17669627 -0.07428204 -0.48625156 -0.41410658 -0.30729032 0.54570824 0.0631438 0.005630168
-0.2060592 -0.4122032 -0.38320756 0.5122117 -0.31819895 0.194688 0.09173015 -0.0380899
0.20514981 0.15995461 -0.06906369 -0.028561983 -0.026787426 -0.1155681 0.1599316 -0.04566157
0.13339391 -0.3094051 0.27262583 0.17494887 0.24424647 0.41343355 0.12740666 -0.24952988
0.022574274 0.037752282 0.14891733 0.15618333 -0.074437305 0.07535117 0.15602991 0.14983317
-0.059516333 -0.41457605 0.20377463 0.1330513 -0.15558383 0.19159363 0.10186422 0.23377365
0.20489648 0.004585598 -0.23803598 0.22113104 0.018492516 0.17352115 -0.09334885 -0.121752255
0.104948 -0.030213831 0.15398969 -0.23779996 -0.16057259 -0.0035976574 0.152275 -0.1408919
0.056855183 -0.35632673 0.2793656 0.2833507 -0.069192395 -0.5061218 0.110576674 0.38473135
0.11970324 -0.13707131 -0.46971104 -0.059998117 -0.124655545 0.41037437 0.17437516 0.17769831
-0.08806065 0.13927951 -0.01384459 -0.16655155 -0.040125772 0.3720022 -0.24497691 0.08677504
-0.020784076 0.042470932 -0.014260129 -0.024070246 0.1801865 0.29355296 -0.39429986 0.057399765
0.03708483 0.06388666 -0.09947522 0.25970197 -0.3272874 0.1013558 -0.17548229 -0.060917683
-0.015097645 0.3004786 -0.20184933 -0.17440344 -0.204732 0.115119055 -0.045709882 -0.13389762
0.13957013 -0.14654733 0.064953916 0.22719173 -0.072384335 0.04265264 0.8051264 -0.11778021
-0.029396407 0.11586783 0.33668286 0.10483399 -0.5044996 0.18926547 0.24256207 0.24166486
-0.25783062 -0.012561942 0.1896635 -0.04008006 0.015935818 -0.39272752 0.0025804369 -0.10857005
0.17236972 0.098804876 0.18885913 -0.09663027 -0.25663745 -0.16976933 -0.08652901 -0.17391104
0.1935106 0.21387233 0.118850715 -0.21743971 -0.08329393 -0.3690801 0.18790293 -0.12777895
0.1461643 -0.29394582 0.09390144 0.012972051 -0.60663456 -0.12560272 0.24827766 0.11142508
0.008408016 -0.039598133 0.041438244 0.07676451 0.025450649 0.013942381 0.10009678 0.13604839
0.08322522 -0.11709505 0.07015767 0.06838665 0.10022969 0.41257492 0.050820503 -0.047537
-0.056913935 0.09799084 -0.17528647 -0.044368844 0.078670695 0.17751627 -0.1853539 0.0012228906
0.14295134 -0.09465042 0.44952336 0.13803986 0.16871174 -0.07052933 -0.50570416 -0.11415981
0.14491813 -0.22715272 0.29391003 -0.20914425 -0.36995122 0.44508216 -0.027023185 0.13825387
-0.28842503 0.31830755 -0.17375436 -0.011014976 -0.49646237 0.3449213 0.24051431 0.058707803

module.conv_layers.3.weight f4 [64, 64, 1, 1]
00000000: d8f4 a43e 215d 02bf d577 9cbd 697f 68be
00000010: c3fb 99bd 73b0 ea3d 81ef 2b3e 4da7 253e
00000020: ac43 e33d 9779 003f ce11 a9be 9ad4 a73d
00000030: f84b 99be 2e9b c23d 0f6e cf3d d339 3d3e
00000040: 40f6 c4be 0256 0dbf e668 8cbd 0781 713d
00000050: a07c 013f 233e 81bc d4dd d23d 3880 863e
00000060: d5d8 403e 9aa3 af3e 19a8 ad3e 9329 82be
00000070: b9f0 953d 6534 d83d 1535 063e a62a 9e3e
00000080: 628b f63b 6db2 083e e50d 16bd 055f 6fbe
00000090: 8ab2 50bd df18 cbbc b54c 7ebe db81 b2be
000000a0: 05dc 0b3c 5ecb 2a3b 13c5 72be 5bd2 593e
000000b0: 9561 00bd a38c 863d 130b 9ebe 86bd 153c
000000c0: 82b1 bb3d db22 f5bd 3853 07bf 868e 14be
000000d0: 759b a8bd 979a cd3d faf3 3abd cb78 013e
000000e0: 0e68 723a 0f7e fb3d 66af a0bc 9c41 ddbd
000000f0: 7e39 dbbd 7c5a cdbd 72e7 563e ce59 c43e
00000100: 7b45 61bd a8e7 a4bd 2ccc 7cbe acda 573b
00000110: 18b9 69be 2dec 163e b486 dbbd a738 67bc
00000120: 6f64 763d 872f 76ba a90d 7d3b 67d4 0d3e
00000130: 54ff 4a3b acc2 053f 1a9d e0bd df72 e43d
00000140: 9e2f ec3d ded0 a8be 0941 33be 5a1a e0bc
00000150: 53f0 513e 75e0 903e 59f5 23bd 4346 98bd
00000160: d77e 273e 1c75 b2bd 0a29 7a3c 3dbb 213e
00000170: aced 2d3e 8b5d c63e b81a 0ebd 9d86 d33e
00000180: a886 b1be ad53 a63e a06a 42be 6036 a13d
00000190: 2a0a 9abd 89b5 54bd efb0 8ebd 5448 49bc
000001a0: f0a8 3abc ab4f 333e d26c 1c3e e6bc 9a3e
000001b0: 62af a6be 656a 28be 0a61 14be 0d71 273d
000001c0: 0229 073e a063 f9bd 9aab 7f3e 801e 55be
000001d0: 39fa 6a3d baa3 38be 0c83 31bd 283e 14be
000001e0: 7794 ebbd 628d 1ebe 6495 21be 30c2 e9bc
000001f0: 7517 4f3d e6dd 9abd 4f72 f7bd b4fc 1d3e
00000200: a6d4 08be 1985 bb3e 3cc8 08bd da77 863e
00000210: b98a 9abd 7a57 3ebe 5fcb 823e d9f2 0fbe
00000220: 2043 83bd e6ea 643e afc4 433e ab38 633e
00000230: b69d c53e f1b3 7dbe 0531 6dbb 4759 39bd
00000240: fbf9 16be 5f2b babe 36a8 84bd c5f7 4fbd
00000250: 6b2c 803e 1b78 8c3d ba5f e6bc 00ea 07be
00000260: d04a d5bd 4a5b 46be d9e8 efbe 5872 043e
00000270: 632c 1d3e 2080 6d3d 00ef 1f3e 8001 073d
00000280: d7cf 353e 059b 5fbe 7f4d 073e fc7b 6bbd
00000290: 6a24 7ebe 7da7 9cbe 732f a73e e544 933d
000002a0: 5267 a4bc afd9 4abe 08b0 cdbd 2420 bb3e
000002b0: 1f51 febd cc2a b5bd 9303 393e 3cfa f9bd
000002c0: 92d7 57be c1a7 9bbe 3432 35be 3990 393e
000002d0: fff2 3f3d ef7a cdbe da48 333e cda2 30bc
000002e0: a1fa 0bbe 8655 66bd f587 0d3e 133e f73d
000002f0: 257f 5f3e e8b4 b9be d3fe 41bf 9256 553e
00000300: 1a12 10bd 1788 88be 8fc2 0e3e 39af 02bc
00000310: 67dc d2bd 34d3 10bd c84d fb3c d58e 19bd
00000320: 9699 303b b0d2 9abe adbe 77be 8395 833e
00000330: b0c4 f2bd 4e66 f8bd 0e1f ba3d e150 1fbe
00000340: 0200 013e 2529 733e 2dd8 55be ad3a c13d
00000350: d99d b03e 324c 3bbd 0430 1c3d 5ca4 783e
00000360: 2796 783d ac69 80bc c2d3 033e bbda c7be
00000370: f70d d5be 8a3d 53be d090 143e c28a e2bb
00000380: dfed 59be 4be4 e3bd d01b ce3d 767d 88bd
00000390: 4fb8 493e 6e49 f33d 6313 82be bd91 8dbd
000003a0: efd8 a6be f4c4 3e3e 841f e4bd 24d7 003d
000003b0: 33c9 343d f48f d7bd f2b8 d6be 8280 1b3d
000003c0: c487 54be 997f 23bc d827 63be 6fe7 ec3d
000003d0: 7536 d8bc 269c 4b3d d9e8 3cbe ca41 97be
000003e0: 6a10 b23e b7dc fd3d a8ee 253e 9015 d0bb
000003f0: 6455 8d3c ff75 0cbd 987a 533e 2908 67be
0.3221805 -0.50923353 -0.07640044 -0.22704853 -0.07518723 0.11459436 0.16790582 0.16177101
0.11096892 0.5018553 -0.33021396 0.081948474 -0.29940772 0.095022544 0.10128414 0.1847909
-0.38469124 -0.5520936 -0.06855945 0.05896094 0.5058079 -0.0157767 0.102962166 0.26269698
0.18832715 0.34304506 0.3391731 -0.25422344 0.07321305 0.105568685 0.13106187 0.30891913
0.00752394 0.13349314 -0.036634345 -0.23376091 -0.050951518 -0.024792133 -0.24833949 -0.34864697
0.008536343 0.0026061158 -0.2370799 0.2127165 -0.03134306 0.06569793 -0.30867824 0.009139424
0.09164716 -0.11969539 -0.52861357 -0.14507493 -0.08232776 0.10039251 -0.04564283 0.12643735
0.0009247073 0.12279903 -0.019614886 -0.108035296 -0.10704325 -0.10027024 0.20986727 0.38349766
-0.054997902 -0.080519974 -0.2468726 0.0032936735 -0.22824514 0.14738531 -0.10719052 -0.014112628
0.060154375 -0.00093912374 0.0038612878 0.13850556 0.0030974941 0.5225017 -0.10967465 0.111547224
0.1153252 -0.32971853 -0.17505278 -0.027356315 0.20501833 0.28296247 -0.040028904 -0.07435276
0.1635698 -0.08713743 0.015268574 0.15794082 0.16985196 0.38743243 -0.03469345 0.4131364
-0.34673047 0.32485715 -0.18985987 0.07871699 -0.0752147 -0.051930938 -0.06967341 -0.012285311
-0.011392817 0.1751086 0.15275887 0.30222243 -0.3255568 -0.16446836 -0.14490142 0.040879298
0.13199237 -0.12177205 0.24967805 -0.20812416 0.057367537 -0.18031207 -0.043337867 -0.14476836
-0.11502927 -0.15483621 -0.15779644 -0.028534979 0.05055948 -0.07561855 -0.120823495 0.1542843
-0.13362369 0.36624983 -0.033394083 0.26263314 -0.075459905 -0.18588057 0.25545785 -0.14057483
-0.064092875 0.22355232 0.19117998 0.22189586 0.38596886 -0.24775673 -0.0036192548 -0.045251157
-0.14743797 -0.36361215 -0.06477396 -0.0507734 0.25033888 0.06858846 -0.028121818 -0.13272858
-0.1041466 -0.19370762 -0.46857336 0.12934244 0.15348963 0.057983518 0.15618515 0.032960415
0.17755066 -0.21836479 0.13213156 -0.057491288 -0.24818578 -0.30596533 0.32653388 0.07190875
-0.020068798 -0.19809602 -0.10043341 0.3654796 -0.12417816 -0.088460535 0.1806777 -0.122059315
-0.21078327 -0.30401424 -0.17694932 0.18121423 0.0468626 -0.40132853 0.1750826 -0.010781002
-0.13669826 -0.056233905 0.13821395 0.120723866 0.21825846 -0.36270833 -0.75779456 0.20833805
-0.035173513 -0.26666328 0.13941406 -0.007976347 -0.10295945 -0.03535767 0.030676737 -0.03748973
0.0026947013 -0.30238867 -0.24193831 0.25700006 -0.118539214 -0.12128888 0.090879545 -0.15558197
0.12597659 0.23746164 -0.20883246 0.0943502 0.34495428 -0.045726962 0.03813173 0.24281448
0.06069007 -0.015675388 0.12873748 -0.39034066 -0.41612217 -0.20628944 0.14508367 -0.006913514
-0.21282147 -0.11127528 0.100638986 -0.06664555 0.19699214 0.1187924 -0.25405416 -0.06912563
-0.32587382 0.18629819 -0.11138824 0.031455174 0.04413719 -0.10525504 -0.41937977 0.03796435
-0.20754915 -0.009979152 -0.22183168 0.1156758 -0.026393155 0.04970946 -0.184482 -0.2954238
0.34778148 0.12395614 0.16204321 -0.0063502267 0.017252631 -0.034292217 0.20652235 -0.22561707

module.conv_layers.4.weight f4 [64, 64, 1, 1]
00000000: 77b0 573e 5062 7b3e 0b1e 30bd 1ff7 66be
00000010: 6787 343e 2d29 073e 78c5 d73d b93c 023e
00000020: 500f 8b3e 2607 073e 8602 b0bc 279a c23c
00000030: 802c fe3c 1fba 4bbc 0199 b63d 9148 1abd
00000040: 1230 c9bd 9e12 10bd a3ee b7bc b62d 9dbe
00000050: 8a63 633e bb2d 943b 8771 adbe 90ab 793e
00000060: 5583 7b3e d95e 803e 222d e23d 790f 963e
00000070: 671a 1a3d c4ed 063e 1417 02bd 25b7 64be
00000080: 099d a33e 429f fd3b a228 15bd cb1d 933b
00000090: 6ebe e73d 4bd9 853e 02b5 a83d 6ebe 04bc
000000a0: 6c7c d83c 334c 643e e1ff 4b3e 8cba f4bd
000000b0: f8e3 94be 322e 9bbd 939f f03b a716 95be
000000c0: 64cc 493e 97ac f43c da6e 473e 7e7a 27be
000000d0: 6f86 ad3d e929 46bd 2a4e b33e 3490 083e
000000e0: 00f2 b6bc 7d52 2fbd caef 9dbd 9ec4 c6bd
000000f0: 694d 1b3d c78a ecbd ca57 6c3d 96ba be3e
00000100: a781 50be aa10 2c3e 885b 863e d762 82be
00000110: 3a3f 283d b52b ea3d 65d7 06be 63ef afba
00000120: ab41 3ebe 444a cabd 3946 f3bd 5d39 16be
00000130: 85e9 2c3f f6c6 563d 597e bdbe d6a2 86bd
00000140: 23ce 2a3e de9b a43e ac89 1a3e 0b38 89bd
00000150: 2d08 98be bddf b1be 2cde dbbd aee3 4c3c
00000160: dd84 493e a53c ae3e 4412 933e 0b12 f6bc
00000170: d43f 493d 5b8c 4ebe aa5b 91bd db56 dabd
00000180: 7b00 cabb 1857 8ebd 33c3 a5be b15e cabd
00000190: 175f f13d 78d4 d9bd 2eb3 963d f749 c53e
000001a0: 04a8 0cbf dff4 56bd 0c64 a5bd 369d fc3c
000001b0: 178f 71be bf9d 0c3d aaa7 8dbe a82f 9dbd
000001c0: 453d bd3d c732 01be a6be 6b3e 655b 8cbd
000001d0: 860b 90be c091 a13e 0e80 ad3d 6f65 a6bd
000001e0: 9b56 783e 311e 9e3d ccda 5b3e 5a08 a83e
000001f0: e614 1d3e 14e7 1b3d a10e 723e f82d 0bbe
00000200: e92f 3bbc d848 f73c 1176 103c 5b6f 5dbe
00000210: e4f4 07be 29e4 1f3e fc38 4abd c538 453e
00000220: 037e 0bbd 30b2 3d3d 58d7 343e 4382 3ebe
00000230: fd20 92bd 9f48 28bd 2f0d c03c 2450 a2bc
00000240: c258 e0bd 77a6 673e c89f da3d b805 1cbd
00000250: 70be dcbe bc5b 1e3e 5143 20be df18 243e
00000260: 8755 a8be abcb 963e 0cdf 6dbe f4d6 86be
00000270: 962e b9bd 87f9 953d 5843 413e 965a 1f3e
00000280: e23a 253c ce5f bcbe f00a 853d 7e3c 02bb
00000290: bbf1 c9bd 9048 133d 6234 e33d dd85 883e
000002a0: 719f 133e e3d5 45be 1c79 253e bad1 2fbe
000002b0: 24e0 3ebe b702 243e b90c ddbd 5ffb 033e
000002c0: 5e68 da3d d718 dcbd 8e09 8bbe 61f0 b53e
000002d0: 01b5 08be c0d6 efbd 9fbf b23d adbd 8fbe
000002e0: 52a3 6ebd 2c11 16be 7c76 0dbe eaa3 81bd
000002f0: 38f6 f43d 711d 7e3e 6d9f 9f3b 057b b5bd
00000300: 29c7 1bbe a272 3a3e 6a1e 5abe aa1e a2be
00000310: 0b18 b53e 979b 5bbe 8f02 a7bc f051 9bbe
00000320: ada9 983e d865 39be 5866 193e fc56 23bf
00000330: 1858 18bd d20c 61be 005b d93d 2aa5 303f
00000340: 2287 64bd 802a 0f3e 92ff 063f e62a fe3e
00000350: ad8f 923e bd37 ea3e 13fc b2bd cc87 8b3c
00000360: 6ca1 723e a085 f33e dba8 e9bd 43d6 dfbe
00000370: aa89 933e e7b3 cdbd eda0 0fbe ae05 9abe
00000380: ee64 8bbe 638a af3e ee55 3abe 38ec a1be
00000390: c0f6 11bf 17d6 463d fd85 85bd cb0d 48bf
000003a0: 2bdc de3e aa3f bc3c dfdc e83d 77ca 973e
000003b0: 9854 0d3f 789b 9dbe a667 a13d 10e1 a9be
000003c0: e10e ea3d c7cf 41be 53c3 ccbd de3b b23d
000003d0: b616 8b3d 1c0f 68be 6118 ac3d 032c 58bd
000003e0: 51a1 97be e725 04bd 0cf9 2ebe 85c6 193f
000003f0: 78e3 a0be a767 ec3c f2a8 883e 78e9 133c
0.2106341 0.24549222 -0.0429974 -0.22555207 0.17629777 0.13199301 0.10535711 0.12718476
0.2716012 0.1318632 -0.021485578 0.023755146 0.031027079 -0.012434511 0.08915902 -0.03766686
-0.09823622 -0.035174005 -0.022452658 -0.30698937 0.2220594 0.004522053 -0.33875677 0.24381852
0.24561818 0.25072363 0.11043765 0.2930868 0.037622835 0.13176638 -0.03176029 -0.22335489
0.31955746 0.0077399323 -0.036415704 0.0044896356 0.113156185 0.26142344 0.082376495 -0.008102043
0.026426516 0.22294693 0.19921829 -0.119496435 -0.29080176 -0.075771704 0.0073432415 -0.29118845
0.19706875 0.029867454 0.1947588 -0.16355321 0.08472907 -0.048379812 0.35020572 0.13336259
-0.022332191 -0.042803276 -0.07711752 -0.097054705 0.03791562 -0.11549907 0.05770091 0.3725173
-0.20361958 0.16803232 0.26241708 -0.25466034 0.041075923 0.11434118 -0.13168104 -0.0013422783
-0.18579738 -0.09877446 -0.11878628 -0.1467032 0.6754382 0.052435838 -0.37010458 -0.06574027
0.16680197 0.32150167 0.1509158 -0.067001425 -0.29693738 -0.3474101 -0.10735735 0.012505455
0.1967959 0.34030643 0.28724873 -0.0300379 0.049133137 -0.20170729 -0.07097562 -0.106610976
-0.006164608 -0.069502056 -0.32375488 -0.09881342 0.11785715 -0.10636228 0.073583946 0.38532993
-0.5494387 -0.05247962 -0.08075723 0.030836683 -0.2358974 0.034330126 -0.2766698 -0.07675105
0.09240202 -0.12617026 0.23021945 -0.068533696 -0.28133792 0.3155651 0.0847169 -0.08124816
0.24251787 0.07720602 0.21470183 0.32818872 0.15340003 0.03806217 0.23638393 -0.13591754
-0.011424997 0.030186102 0.008817212 -0.2162451 -0.13277012 0.1561438 -0.04937075 0.19259937
-0.03405572 0.04631251 0.17660272 -0.18604378 -0.07135198 -0.041084882 0.023443786 -0.019813605
-0.10954429 0.22622095 0.10675007 -0.03809139 -0.43114042 0.15464681 -0.15650679 0.16025113
-0.32877752 0.2945226 -0.23229617 -0.2633587 -0.09042089 0.07322984 0.18873346 0.155619
0.01008484 -0.36791843 0.06496227 -0.0019872482 -0.098605596 0.035957873 0.110939756 0.2666463
0.14416291 -0.19319873 0.16159481 -0.17169848 -0.1864019 0.1601666 -0.10793442 0.12888859
0.10664438 -0.10746925 -0.27155727 0.35534957 -0.13350298 -0.11710882 0.08727955 -0.280744
-0.058261223 -0.14654988 -0.1381473 -0.06330092 0.11961025 0.24815919 0.0048713 -0.08861355
-0.15212692 0.18207791 -0.21300665 -0.3166402 0.35369906 -0.21446072 -0.020386962 -0.3033595
0.29816952 -0.18105257 0.14980447 -0.638046 -0.037193388 -0.21977547 0.1061306 0.6900202
-0.055792935 0.13981056 0.5273372 0.49642104 0.2862524 0.4574565 -0.087394856 0.017032526
0.2369439 0.47562885 -0.1140916 -0.43718156 0.28815967 -0.10044079 -0.14026232 -0.30082458
-0.2722544 0.34285268 -0.18196842 -0.31625533 -0.57017136 0.048544016 -0.06519697 -0.78146046
0.4352735 0.022979576 0.11370253 0.29646656 0.55207205 -0.30782676 0.078810975 -0.33179522
0.11428619 -0.18926917 -0.09998193 0.08702825 0.06791441 -0.22662014 0.084030874 -0.052776348
-0.29615262 -0.03226271 -0.17087191 0.6006854 -0.31423545 0.028858019 0.26691395 0.009027831

module.conv_layers.5.weight f4 [64, 64, 1, 1]
00000000: f8b1 19be cfc0 253e 9523 6bbe 2def 723d
00000010: 4fd5 223e af47 6bbe 4c10 633d 3c89 a7be
00000020: 299b 6a3e ed2b d63d 86bd 4f3e c3e1 60bd
00000030: 77b3 6c3e 2771 e43d 93fb 713e 785c 11be
00000040: 76cb 13be a2c1 a03c 634c 9abd 0f19 5c3c
00000050: 9eca 223c 790e 41bd 46e3 883e 0ba5 82bc
00000060: 16c1 15be 7bbf 70be a3d0 90bb db9b 8a3c
00000070: 2e46 8cbe 59ab 8d3e 0dd1 acbc 24a0 5ebe
00000080: bc2f 92bd 43df 693e d663 82bd 51fb 8ebd
00000090: 2885 063e 570f 33be 8a97 8f3d b30f de3d
000000a0: 67d0 28be da67 30bd 149b 8d3c 45dc 2ebe
000000b0: 9832 0abe 4dd6 93bd e13e 853e 4332 73bd
000000c0: 0925 883e 3d67 8e3c 02f1 613d 50f4 0dbe
000000d0: f624 173e 35ee 1abf 85c8 56be c02e 70bd
000000e0: f0d3 a8be c29d 403e 8c5c 54be 819e 3fbe
000000f0: 53cd 573e 8987 ebbd 1849 dcbe 0d7a c9bd
00000100: 3259 143e ff9f 443e 4dd5 443e ae77 a6be
00000110: 6216 c43e 5bff 103e 3a3b f43d 2d4e 8f3e
00000120: d988 debe 1650 debd bb13 eb3b 04d9 cd3e
00000130: a8f0 453e d93e 1ebe 7e4f 88be 5b76 27bd
00000140: b23f d6bd d4b5 d73e 5c5d 6dbf 349d a7bd
00000150: 12fd d03e e580 23bf 15e7 56be 7e82 733e
00000160: f368 cc3e e47f 79bf 48a1 4a3e 66e6 00be
00000170: 62a5 9fbd d1d3 0b3e 9912 843e 57ad 013e
00000180: da2d 663e 7053 27bf 829c babe 5db9 93bc
00000190: b26b 0e3f 731c 553f c6a4 df3e accb 9f3e
000001a0: e7c8 9c3b c961 843e 2f14 c8be d826 dfbe
000001b0: 06af 9dbe e8b2 8c3d 65cc 983d a4de 023e
000001c0: 650b 2e3e 2eb9 dd3d 58f0 a43d 7579 b8be
000001d0: a24b de3d d05d 2e3f a782 eebe b41c b33d
000001e0: 27c0 173e f792 6bbe fd78 1c3e b2b4 633e
000001f0: a5fa 02bd 7c91 91bd 1e9a 74be 8397 14be
00000200: 01af 9f3c eb43 423d af50 38be 7106 21bd
00000210: 3201 e0be 0034 76bd ae4b ca3e 0be6 2e3c
00000220: f43c 883d 3ce8 6d3e cc20 213e 4ea4 5dbe
00000230: d5ff 51be 9cb1 143e 49b3 9c3e 6b2b 58be
00000240: 9fb8 6bbe 9cbf 84be b187 92bd db5c bb3d
00000250: fe9f d43e 6e01 95bc aacb e7bb 1e77 143e
00000260: cac6 6f3d 8531 553e 10d8 ddbd 0bc1 c6bd
00000270: 3e5b 9d3d fe5b 2ebe 5584 943d e739 043d
00000280: b9cc 113d 9443 13bb fcd9 45bd 69d0 8b3e
00000290: efab 933e 54ba 293e 5c17 ab3d 4c22 e53d
000002a0: d293 2c3e 08ed 0bbf 7c17 ee3d 3b66 07bd
000002b0: a224 813d efb0 4b3e 8ae6 283e 6b4d 37be
000002c0: 4a4c 88bd bdf7 d23d f43d 94be aa6f bb3e
000002d0: 6643 683e c018 1f3e f744 eb3d 7b30 ee3e
000002e0: 1a09 2b3e 6f29 99bd c143 1bbf 1aad a1be
000002f0: f232 e8be 910a f5bc 8e4f c23c 5bb7 5d3e
00000300: f131 3fbe 31f8 61bd 7f22 d33e f3c1 f2bc
00000310: dc32 6f3e 25ef f53e 7609 813d e926 86be
00000320: f41d 02be c852 13be 05f7 af3e ef2e 9c3d
00000330: 089d 6f3e ae51 a1bd 984c 333e 4d1f c53d
00000340: 1c5a 8fbe 1a87 82be 16bd 18be e8b7 ad3d
00000350: fc82 233e 8d06 b5be 1d75 a23e 39f3 da3d
00000360: 635f 1bbe e4a5 09be fa73 323e 92de 893e
00000370: d4e9 303e dbab 073e 0250 d3bd 2f86 d53d
00000380: 5f24 cbbc 6f35 9d3d 0388 793c 1809 b83c
00000390: 31ee d1bd 24e6 a83d 11a3 4ebc b89f 0b3e
000003a0: 8192 01bd e50a 443c 59e1 eb3c eb3c 2cbe
000003b0: 14b7 ae3e 9241 003e e189 ccbd e259 8cbd
000003c0: 1d72 aa3d bbec 36be b74e 333d 74db 42be
000003d0: c109 6dbd f58a a23c 1dfc 0a3e 4274 e5bc
000003e0: b0f1 9c3c c5f6 073f 1b5b 9b3c 562d ef3c
000003f0: 7096 fe3c 35dc 5cbd b740 4abe 1351 c8bd
-0.15009296 0.16186832 -0.22962792 0.059310127 0.15901683 -0.22976564 0.055435464 -0.3272189
0.22910751 0.10457597 0.20287141 -0.054902803 0.23115335 0.111543946 0.23631124 -0.1419543
-0.14433083 0.019623581 -0.07534101 0.013433709 0.009936003 -0.047132943 0.26735896 -0.01594784
-0.14624438 -0.23510544 -0.0044194027 0.01692002 -0.27397293 0.2766979 -0.021095777 -0.21740776
-0.07138011 0.22839074 -0.063666984 -0.069815286 0.13136733 -0.1748632 0.07011326 0.10842838
-0.16485749 -0.04306779 0.017285861 -0.17076214 -0.13495862 -0.07218609 0.26024535 -0.059374105
0.26590756 0.017383212 0.055161484 -0.13862729 0.14760193 -0.60519725 -0.2097493 -0.058638334
-0.32974195 0.1881018 -0.20738429 -0.18712808 0.21074419 -0.11500461 -0.43024516 -0.098377325
0.1448715 0.19201659 0.19221993 -0.32513183 0.38298327 0.1415991 0.11925359 0.2798933
-0.4346378 -0.10855119 0.007173983 0.40204632 0.19330084 -0.15453662 -0.26623148 -0.040884357
-0.10461368 0.4213091 -0.9272058 -0.08184281 0.40818077 -0.6386855 -0.20986588 0.23780248
0.3992382 -0.9746077 0.19788086 -0.1258789 -0.07795216 0.1365502 0.2579544 0.1266378
0.22478428 -0.6536169 -0.3644753 -0.018032724 0.5563308 0.83246535 0.436804 0.31210077
0.0047846916 0.25855854 -0.390779 -0.43584323 -0.30797595 0.06870061 0.0746086 0.12780243
0.16996534 0.10826336 0.080536544 -0.36030164 0.108542696 0.68111897 -0.46584055 0.08745709
0.14819394 -0.23005281 0.15280528 0.22236899 -0.031977315 -0.07107827 -0.23886916 -0.14510922
0.019492628 0.047428053 -0.17999528 -0.039312784 -0.43750912 -0.060108185 0.39510864 0.010674964
0.06652251 0.23233122 0.15735167 -0.21644709 -0.20507748 0.14520878 0.30605534 -0.21110313
-0.23019646 -0.25927436 -0.07154787 0.0914857 0.41528314 -0.018189158 -0.007073839 0.14498565
0.05853919 0.20819671 -0.10832226 -0.09704789 0.07683419 -0.1702728 0.07251803 0.032281782
0.03559563 -0.00224707 -0.04830359 0.27307442 0.28842112 0.16574985 0.08354065 0.11188182
0.16853264 -0.54658556 0.11625573 -0.03305648 0.06305815 0.19891714 0.16494194 -0.17900626
-0.06655176 0.103011586 -0.28953516 0.3660863 0.2268196 0.15536785 0.114877634 0.46521363
0.1670269 -0.07478606 -0.6065026 -0.3157738 -0.45351368 -0.029912265 0.023719575 0.21651976
-0.18671395 -0.055168334 0.41237256 -0.029633498 0.23359245 0.48034015 0.06300633 -0.2620156
-0.12706739 -0.14387047 0.34368148 0.076261394 0.23399746 -0.07876907 0.17509687 0.09625111
-0.27998435 -0.254937 -0.1491588 0.08482343 0.15967935 -0.3535656 0.31729975 0.10690922
-0.15173106 -0.13442189 0.17427054 0.2692762 0.17276698 0.13249151 -0.10317995 0.10425984
-0.024797617 0.07676207 0.015230182 0.022465274 -0.102505095 0.08247021 -0.01261212 0.13635147
-0.031633858 0.011965488 0.028793978 -0.16820113 0.34124053 0.12525013 -0.09987236 -0.06853081
0.08322547 -0.17863743 0.04377624 -0.19029027 -0.05787063 0.01984165 0.13572736 -0.028009538
0.019158214 0.53110915 0.01896434 0.029196423 0.031077594 -0.053920943 -0.19751249 -0.09781089

module.conv_layers.6.weight f4 [64, 64, 1, 1]
00000000: 25b7 73be 28e5 86be 6146 eabd 8b74 823e
00000010: 8fb3 b9be 8702 9fbd f1cd 4f3e 009a 7f3e
00000020: 61ea 01be a841 08bf f9b9 4a3e b963 1fbe
00000030: 24f7 753e 627d 883e fa55 323d 38e2 8bbd
00000040: 157d d7bd e9ba b23d 3ee8 4bbd 4d89 37bd
00000050: 3701 d5bd 1cea a6bc 2f40 913c a0b9 99be
00000060: 1800 8b3d 1f5f 32bd c390 23be c0ae 6dbd
00000070: 1756 0ebd 0344 d53e 0946 28bd 058c 8dbf
00000080: 977b af3e 4d8b da3b 3a65 fabc 05f7 4dbe
00000090: 32cd 1b3e dd1b 24be 5812 abbd edcb 8cbe
000000a0: fd02 873e 878a 453e d2bf 113d 00da 25bd
000000b0: 46d1 653d 14d7 ff3d b7c5 893d 3e10 b63d
000000c0: 2d67 d23d 8aff 2fbd 547d a8bd 3a90 a9be
000000d0: 748d 943c f063 68bb d2b2 1fbd 4b70 afbe
000000e0: 0c1c a9be 04f1 533e 1ea6 8bbd f4c2 27be
000000f0: b8e9 85bd ad6a 91bc cc0e c5be 328d 5dbd
00000100: ac1b 06be 9d12 e9ba 9a51 983d 90f5 fbbd
00000110: c98a 293e 0fd7 fcba 1dbb 62be a3fa 993d
00000120: 14fe 593e f09e 16be a69e 833e 0c4f 2abe
00000130: b8f1 043f 7d60 06be 50d8 143e a117 313e
00000140: 5218 39be b84e 18be b79a a4bd 083d 1c3b
00000150: 3916 5f3e 38b6 8ebb ac8a 2a3c d735 e13d
00000160: bf6e 3c3e 03ed 3cbe f42c e1bd eaf2 623d
00000170: 125f f0bc aee1 21be 9341 173d ed33 95be
00000180: c30b 88be 5d83 42be 920c 89bd dbd2 bcbe
00000190: 0a27 823c 45dc c53e 458d 783e 12ce 093d
000001a0: c77f 553e d983 603e 17e0 35be 8c07 e4bc
000001b0: 5d32 24be f15e 063e bec9 7fbd c769 2ebe
000001c0: 0fcd 8a3e 605c 543e cfb3 e9bb ae3d 293e
000001d0: affd 15be 0363 68be 954f a3bd 0cde e2bd
000001e0: a382 2fbe bdf5 333e 1d20 a13e 47a2 54bd
000001f0: aa4f 60be 22b8 33bd 8293 24be 690e b23e
00000200: e06f 113e 1dc6 96bc 68f0 97be 1bea 823e
00000210: 3696 a73d 0e13 e8bb aeb7 a5bd d92e 883e
00000220: 54b4 26bd f054 7c3d 4a41 ed3d 2c9e 0fbe
00000230: 43bc 843b c3b3 36be 8740 84bd 0101 0e3e
00000240: 7bed 62bd eb70 e3bc cb7c 0a3e 6133 633e
00000250: 8eda 323e cab3 29be 6475 953d 12ac debd
00000260: a5ef 5dbd b038 d13d c828 603e dd83 353b
00000270: 69ee 20bd ed67 303e a273 9fbe 05e7 98be
00000280: 799f e73c ca73 7e3e b9a5 dc3c 054c 4abd
00000290: 6556 83bd ce29 3ebd 78a2 703d 95a8 093d
000002a0: 8955 a13c 3b6a dbbe 46d2 093e 71f8 8d3e
000002b0: a625 9bbd f41d 8a3e 196c 893d 360f 5d3e
000002c0: 4ba1 493e 8ab1 90bd 5a54 3dbe 1f3c 933d
000002d0: 05dc ef3d 105e 4d3d 90ea efbe 0f8c fa3e
000002e0: b9e9 8c3e 6c30 583e 5343 aabe 4c01 823e
000002f0: 1985 553e f454 04be 2d78 53be 153b 93bd
00000300: 5b2d e03d eecd ab3d eea8 26bc f977 0a3e
00000310: 5b9f d9ba 7379 c73c e92b 95bc 5def e6bd
00000320: ebc7 56be e297 b73d 63f4 453d 8b2c 663e
00000330: 06e0 393d 4fba 743d 1ae1 423e 4848 04bb
00000340: 8759 553e b0ca f23d b6cb 00bf 93ce 893d
00000350: c729 43bd 270b b33e 31b0 2e3e 22df 98bc
00000360: 4ffd d83b aac2 9d3c d141 dbbd bcdc 33be
00000370: b3e3 8b3d 80f7 55be 12f4 813c 768b ab3d
00000380: 02a3 8c3e 2413 9d3d cdd1 423d 9058 523d
00000390: 6e9e 03be 3e58 5d3d bd57 07bd 4808 71bd
000003a0: 8ea1 74be d138 a1be 6458 143e 2994 edbd
000003b0: 4242 f1bd 313a 9a3d f94b 08bc 2e5f 23bd
000003c0: b4ce b83d ca56 18be 0591 0a3e 5648 26bd
000003d0: 1bf8 333d f1d8 313e 8750 af3d d665 40be
000003e0: 0a3c 063e b1c9 01be 42f1 a93d 56c1 13be
000003f0: a14e 0dbc 3d20 dbbe ad79 b1bc e8ed a3bd
-0.23800333 -0.26346707 -0.11439205 0.2547954 -0.36269805 -0.07764154 0.20293404 0.2496109
-0.12687065 -0.53225183 0.19797505 -0.15565385 0.24020058 0.2665816 0.043539025 -0.06830257
-0.105219044 0.087270565 -0.04978203 -0.044808675 -0.10400622 -0.020375304 0.0177308 -0.30024433
0.06787127 -0.043547746 -0.15973191 -0.058027983 -0.03475007 0.4165345 -0.041082416 -1.1058356
0.3427398 0.006669438 -0.030565847 -0.20113762 0.15214995 -0.16026254 -0.08353108 -0.27499333
0.26369467 0.19291125 0.035583325 -0.040491104 0.05610778 0.12492195 0.06727164 0.08889817
0.102735855 -0.04296831 -0.082270294 -0.3311785 0.018133856 -0.0035459958 -0.038988896 -0.3426536
-0.3302921 0.20697409 -0.06818794 -0.16382962 -0.06538719 -0.017751062 -0.38487852 -0.054089732
-0.13096493 -0.0017782036 0.07437439 -0.12302697 0.16556849 -0.0019290167 -0.2214169 0.07518508
0.2128833 -0.14709067 0.25706977 -0.16631716 0.51931334 -0.13122745 0.14535642 0.1729417
-0.18075684 -0.14873779 -0.08037322 0.0023840088 0.21785821 -0.0043552183 0.0104090385 0.10996597
0.18401621 -0.18449788 -0.10994902 0.055407442 -0.029342208 -0.15808746 0.03692777 -0.2914118
-0.26571473 -0.18995424 -0.06691851 -0.3687962 0.015887756 0.38644615 0.2427264 0.03364379
0.20849524 0.21925296 -0.17761265 -0.02783563 -0.16034837 0.13122155 -0.062448256 -0.17032538
0.27109572 0.20738363 -0.0071320306 0.16527435 -0.14647554 -0.2269402 -0.079741634 -0.11077508
-0.17139678 0.1757421 0.31469813 -0.051912572 -0.2190539 -0.043876775 -0.16071895 0.3477662
0.14202833 -0.018405015 -0.29675603 0.25569233 0.08182947 -0.0070823496 -0.08091675 0.26598242
-0.040699318 0.06160444 0.115847185 -0.14025182 0.004050763 -0.17842011 -0.0645762 0.1386757
-0.05540226 -0.027763804 0.13524167 0.22187568 0.17466184 -0.1657249 0.07297781 -0.108726636
-0.05418362 0.102158904 0.21890557 0.0027697005 -0.039289866 0.17227145 -0.31142908 -0.29863754
0.028274285 0.24848858 0.026934491 -0.049388904 -0.06412963 -0.046426587 0.058748692 0.033608038
0.019694107 -0.42854485 0.13459119 0.27728608 -0.0757554 0.26975977 0.06710071 0.21587834
0.19690435 -0.07065113 -0.18489209 0.071892016 0.11711887 0.050138533 -0.46858644 0.4893498
0.27522066 0.21112221 -0.3325449 0.25391614 0.20851554 -0.12923032 -0.20651312 -0.071890034
0.10946151 0.08388887 -0.010172112 0.13522328 -0.0016603278 0.024349904 -0.018209415 -0.11276124
-0.209747 0.08964516 0.04832877 0.2247793 0.04537966 0.05974799 0.19031182 -0.0020184685
0.20834933 0.11855066 -0.5031084 0.06728854 -0.047647264 0.34969446 0.17059399 -0.018661086
0.0066219936 0.019257862 -0.10705913 -0.17564672 0.068305396 -0.20895195 0.015863452 0.083762094
0.27468115 0.076696664 0.047563363 0.05135399 -0.12853405 0.054039232 -0.033042658 -0.05884579
-0.23889753 -0.3148866 0.14486843 -0.11600525 -0.11780216 0.075306304 -0.008318895 -0.039885692
0.090238005 -0.14876857 0.13531883 -0.04059633 0.043937784 0.17367913 0.08560281 -0.18788847
0.1310884 -0.12674595 0.082979694 -0.1442922 -0.008624704 -0.42798033 -0.021664465 -0.080043614

module.conv_layers.7.weight f4 [64, 64, 1, 1]
00000000: e5e9 8bbc 202a d73d 65c5 d13d 3774 d63e
00000010: c4d3 bcbc 69d7 0fbe 3b8e 4d3e 38db fdbd
00000020: b6c2 1e3d c994 0dbd dc73 473d 4205 863e
00000030: f057 02bf 6ca2 893d 467b 8cbd 2e26 623e
00000040: b3e0 ef3d da67 71be 026f 553e 489d a33e
00000050: a002 1f3e df12 573e 0913 9c3e b85a cd3d
00000060: bf35 003e b45b 13be 319b 12be bd48 52bc
00000070: 6119 d03b 32e8 843d 2d08 01bd 69d3 f3bd
00000080: 61ac d23d 9c3e 37be d4d2 163e 6729 2a3e
00000090: d584 a23d 3f74 49ba 803d ac3d 8941 e9bd
000000a0: 352a c8be 258a f9bd e71e 56be 4be1 533d
000000b0: ea30 4c3d bd9e 6bbe 4ba1 c6bc 500c 163e
000000c0: 6485 cd3e 5040 fe3d 2d63 81bc ee30 553e
000000d0: cb15 263e a29f 12bd f4d6 03bd 53b4 75bd
000000e0: 39c2 9a3d f088 173f 4e2d 693e 9697 1f3d
000000f0: 2eef 303e 0130 bcbd 9562 3d3d 871b 81be
00000100: 8ad6 d0bd 946b 713d 181b 433d c6e3 e83c
00000110: cecf 9dbe 2971 2a3d 68ef 3ebc 73af d6be
00000120: b34f 993d 2b2b e23d 9e1e 01be 548d 6dbd
00000130: 8f08 5c3e defb 08bf 7c3c dfbe 0cda 003e
00000140: d80c 3abe eb32 e7bd 1c30 b7bd ed63 df3e
00000150: 1b46 17be 1ba9 4f3e 2bd8 193d f8bf 1d3e
00000160: 552e 05bf d3db a8be 0cb3 443e 6233 fe3d
00000170: 7361 e0bd 5581 0b3e 20e9 073f ab95 d9bd
00000180: 4945 f43c f2c9 debd 9488 133c 8648 a13d
00000190: 3fcc 8bbc d478 7c3d 6e03 52be 4c1a 24bd
000001a0: 2622 25bf 0dcf c0bd b4f5 403b 0992 523e
000001b0: 32a4 413e b90b 333e dd55 c0bd 94d3 553d
000001c0: 056a 9a3d dc6d 023e c81a 18bd 31d7 283b
000001d0: 6014 80be ddcb 333e 7f03 40bc 69b4 753e
000001e0: e15f 9a3e f094 8cbe 89a3 8f3e 7a30 c83e
000001f0: 5cb5 4bbe e902 43bd fd9d 0abe 2b27 fa3d
00000200: e500 2fbd bf17 21bd 05c9 463e 320e 85bd
00000210: 2260 f6bb dff5 cf3d c87c bb3d 74d8 1f3e
00000220: 5a37 853e 48b4 91bd 6430 9b3d f890 ffbd
00000230: 52bc 97be 0295 b63d ac47 81bc ba21 9dbd
00000240: 483f 6e3e aa6c 9d3d e1bb 16be 6464 f23d
00000250: 936c 9e3e 1882 88be 1aef 0ebe c66d 1ebd
00000260: d65d d0bd 095c a53e 10a1 22be ff1f 163d
00000270: a843 c23e 9745 f73d 0441 a13d 6c11 463e
00000280: bf71 543e 1764 08be 7ce8 a13d b441 133d
00000290: 63f1 983e 0a7d 113e 9939 4c3e 4c36 07bd
000002a0: 0c63 803e f7ff 603e 3680 833e 71a4 1fbe
000002b0: 8bed 2dbe d478 aebb 92f0 143e 5644 59be
000002c0: 4f98 1dbe 73e7 133e 4c71 cebd 1351 abbd
000002d0: dcc5 50bd acc9 2cbd 1669 733d 3045 1a3e
000002e0: 4b00 6bbe e4b1 9c3a 0951 96be e8d5 2f3d
000002f0: 5fe8 5a3e fc43 11be f514 0e3e fbae 3fbe
00000300: 9f98 d2bd 7179 a3bd 0e3f f1bd c1b7 88be
00000310: 20c0 533e 8531 aabd 7798 d63c f5eb 1dbe
00000320: d78d a4be 7188 cabd 98f7 903e b46e dfbd
00000330: 69de 0e3e 632a dabc 8bba 8c3d 9376 123d
00000340: d357 a63b c663 49be 039b 3c3d 83c1 75be
00000350: 20c6 84bd 7105 603e 522b 023d 4045 18bc
00000360: d9be 383e d97a e8bd 7e51 cabd d801 d33d
00000370: 7ed1 0bbd 08ad c0bd 81d2 cabc 0913 c6bd
00000380: 4524 62be 1f10 c43d 1b87 71be 1ae3 0e3e
00000390: 89ea 86bd aba0 e9bd 1a54 00bd f5f0 cabe
000003a0: 4474 df3d 1c78 523e 7659 563c 7618 f0bd
000003b0: 370c 6abd e783 07bd 9491 f8bd 89d8 3abe
000003c0: d895 55be d840 053e e92a b9be 8a12 853e
000003d0: 8de7 d53d a896 83be d8ce c13d a69b 2abe
000003e0: 0546 9c3d 5f4a 0e3e eb04 e03d 468f 463e
000003f0: 8794 483d 9f9e e8bd 9c1c a6be 7750 82bd
-0.017079303 0.105060816 0.10242728 0.4188554 -0.023050196 -0.14047016 0.20073788 -0.12395328
0.03875991 -0.03456572 0.048694476 0.26175886 -0.5091543 0.06720433 -0.0685945 0.22084877
0.1171278 -0.23574772 0.20843127 0.31955934 0.15528345 0.21003293 0.30483273 0.10027069
0.12520503 -0.1439045 -0.14317013 -0.012834725 0.0063506817 0.064896 -0.031501938 -0.11905558
0.10286785 -0.17894977 0.14728862 0.16617356 0.07935492 -0.00076848635 0.08410168 -0.11389453
-0.390947 -0.12184552 -0.20910226 0.051728528 0.049851336 -0.23009773 -0.024246832 0.14653134
0.4014083 0.124146104 -0.015794361 0.20819446 0.16219251 -0.03579677 -0.032187417 -0.059986424
0.07556576 0.59193325 0.22771189 0.038962923 0.1727874 -0.091888435 0.046236593 -0.25216314
-0.1019717 0.058940485 0.04763326 0.028428923 -0.30822605 0.041611824 -0.011653759 -0.41930732
0.074859045 0.1104339 -0.12609336 -0.05799611 0.2148764 -0.5350932 -0.43600833 0.12583178
-0.18168962 -0.11289009 -0.08944723 0.43630925 -0.14772837 0.20279352 0.03755967 0.15405262
-0.5202382 -0.32980213 0.19208926 0.12412144 -0.10956087 0.13623555 0.53090096 -0.1062425
0.029818194 -0.10878362 0.009004731 0.07875161 -0.017065166 0.06163867 -0.20509121 -0.04006414
-0.6450523 -0.09414492 0.0029443325 0.2056352 0.18910292 0.1748494 -0.09391377 0.05220373
0.07539753 0.1273722 -0.037134916 0.002576303 -0.25015545 0.17558236 -0.0117195835 0.23994602
0.30151275 -0.2745738 0.28054455 0.39099485 -0.19893402 -0.047610197 -0.1353683 0.12214502
-0.042725462 -0.039329287 0.1941262 -0.06496848 -0.007518784 0.10154318 0.091546595 0.15609914
0.26018792 -0.07114464 0.07577589 -0.124788225 -0.29635864 0.0891514 -0.015781246 -0.076724485
0.23266327 0.07686742 -0.14720108 0.11835554 0.3094221 -0.26661754 -0.13958398 -0.038678907
-0.10174148 0.3229678 -0.15881753 0.036651608 0.37942243 0.1207382 0.07873729 0.19342583
0.20746516 -0.13319431 0.07905671 0.03595133 0.29871663 0.14207855 0.19943847 -0.033010766
0.25075567 0.21972643 0.25683755 -0.15590073 -0.16985147 -0.0053244624 0.14544895 -0.21217474
-0.15390132 0.1444376 -0.100802034 -0.08365073 -0.050969943 -0.042184517 0.05942639 0.15065455
-0.2294933 0.0011954871 -0.293587 0.042928606 0.21377705 -0.1418609 0.13875182 -0.18719094
-0.102830164 -0.079821475 -0.11779605 -0.26702693 0.20678759 -0.08310226 0.026195748 -0.15422042
-0.32139465 -0.098893054 0.283139 -0.10909787 0.1395203 -0.02663154 0.06871518 0.035757612
0.0050763874 -0.19666967 0.04604627 -0.239996 -0.06483102 0.21877076 0.031779595 -0.009293854
0.18041553 -0.11351556 -0.09878825 0.10303086 -0.034135334 -0.09408003 -0.02475858 -0.096715994
-0.22084148 0.09573387 -0.23586695 0.1395382 -0.06587703 -0.11407598 -0.031330206 -0.3963696
0.10910848 0.2055363 0.013082853 -0.117234156 -0.057140555 -0.033084776 -0.12137142 -0.18246664
-0.20857942 0.13013017 -0.3616555 0.25990707 0.104445554 -0.2570088 0.094632804 -0.16660938
0.07630543 0.13895558 0.10938438 0.19390592 0.04896977 -0.113583796 -0.32443702 -0.06363004
