denoisers/flat/celebA_160x160_gray/noise_range_0to255_RF_5x5/model.pt (torch, 347474 bytes, 59 tensors)

module.conv_layers.0.weight f4 [64, 1, 3, 3]
0	0xbe8160eb	-0.25269255
1	0x3efcb236	0.49354714
2	0x3db38ace	0.08766709
3	0xbf9e2ec0	-1.2358017
4	0xbd973c44	-0.07384542
5	0x3e0af28d	0.13569088
6	0x3f3b3229	0.73123413
7	0xbf60b6a9	-0.8777872
8	0x3f01d2ac	0.50712085
9	0xbebc0ff7	-0.3673093
10	0x3e3e4003	0.18579106
11	0x3d348906	0.04407599
12	0xbed8d8d0	-0.42352915
13	0xbf25dee8	-0.6479325
14	0xbef0c9fc	-0.47029102
15	0x3e284d6a	0.16435781
16	0x3ec90314	0.3926016
17	0x3cf0ca4f	0.029393343
18	0xbed48105	-0.41504684
19	0x3f0e6cc8	0.55634737
20	0x3ed82939	0.4221895
21	0xbe550c9c	-0.20805591
22	0x3ec2d8e2	0.38056093
23	0xbe44be1e	-0.19213149
24	0x3e761f23	0.24035315
25	0xbef89fda	-0.48559457
26	0xbeb16661	-0.3464842
27	0xbcf5373e	-0.029933568
28	0xbe0e38f3	-0.13888912
29	0x3f17b3ca	0.5925871
30	0x3e96e24b	0.29469523
31	0xbdf4c81f	-0.119522326
32	0xbec246cd	-0.37944642
33	0xbee9500e	-0.4556889
34	0xbd824204	-0.06360248
35	0x3e490682	0.19631389
36	0x3ed1b795	0.40960374
37	0xbf219ea6	-0.63132703
38	0x3e9e99f5	0.30976835
39	0xbf205c79	-0.626411
40	0x3ecf4ba1	0.40487388
41	0xbe37312c	-0.17889851
42	0x3e3f3482	0.18672374
43	0x3ece164c	0.40251386
44	0xbe99452b	-0.29935583
45	0x3e95fb63	0.29293355
46	0x3ed208d0	0.41022348
47	0x3e3128e3	0.17300753
48	0xbeadf676	-0.33977097
49	0xbf42289f	-0.7584323
50	0x3e46aa76	0.19400963
51	0x3d9f85b8	0.07789177
52	0xbdc3d4f2	-0.095621005
53	0x3f01d38d	0.50713426
54	0xbdeeb530	-0.116556525
55	0xbed6bbc3	-0.41940126
56	0x3f9e5153	1.2368568
57	0x3f21760d	0.63070756
58	0x3f95c874	1.1701798
59	0x3e387336	0.180127
60	0xbb81a2b6	-0.0039561642
61	0x3ec24487	0.37942907
62	0x3f61c473	0.8819038
63	0xbf291ee0	-0.66062737
64	0x3f37b2d5	0.7175725
65	0xbd6faaa5	-0.05851235
66	0x3e98c804	0.298401
67	0xbc80d0d9	-0.015724586
68	0x3b182ec7	0.002322124
69	0xbe83f166	-0.2577011
70	0xbcd76285	-0.026292095
71	0x3f3d6e65	0.73996574
72	0xbeb58570	-0.35453367
73	0x3e877b56	0.26461285
74	0x3edf5a4c	0.4362358
75	0x3ef4c8b3	0.4780937
76	0xbde3ae37	-0.11117213
77	0xbeabf5bd	-0.3358592
78	0xbe4ac8cc	-0.1980316
79	0xbe4272f3	-0.18989162
80	0x3cddb77d	0.027065033
81	0x3f3e068e	0.7422875
82	0x3f1e01fa	0.61721766
83	0xbf5d2f55	-0.8640035
84	0xbe18b354	-0.14912158
85	0xbd25f85a	-0.04052005
86	0xbe373c73	-0.17894153
87	0x3f18cdec	0.5968921
88	0xbe9e6956	-0.3093974
89	0xbe73a088	-0.23791707
90	0x3e75cb42	0.24003318
91	0xbf014433	-0.5049469
92	0x3da16f1f	0.07882523
93	0xbf2ee2c3	-0.6831476
94	0x3decc569	0.115610905
95	0xbebede46	-0.37278956
96	0xbf48c853	-0.7843067
97	0xbe01670e	-0.12636968
98	0x3f847d14	1.0350671
99	0x3f1b19de	0.60586345
100	0xbdfe9964	-0.12431601
101	0xbea78ef9	-0.32726267
102	0xbe14f367	-0.14545976
103	0x3ca83d62	0.020537082
104	0x3dc64772	0.09681596
105	0xbe998785	-0.29986206
106	0x3f24fb5a	0.6444603
107	0xbef50bb8	-0.47860503
108	0xbf10c7f3	-0.565551
109	0xbe966c2a	-0.29379398
110	0x3f31b3c6	0.6941494
111	0x3e905dd3	0.28196582
112	0x3eb4c422	0.35305887
113	0x3e3898bb	0.18027012
114	0xbf2ea4a6	-0.68219984
115	0x3f7c7815	0.9862073
116	0xbf91e921	-1.139927
117	0xbe0f0d2e	-0.13969871
118	0xbdd69a8b	-0.104786955
119	0xbdb0d3fe	-0.08634184
120	0x3e17a0b7	0.14807402
121	0x3f6f2179	0.9341045
122	0x3c11e9e8	0.008905865
123	0x3eb3c5ee	0.35111946
124	0xbf10be8f	-0.5654077
125	0xbe8fa976	-0.28058976
126	0x3e6cc02a	0.2312018
127	0xbea63df8	-0.32469153
128	0xbf2ddd8d	-0.67916185
129	0x3ed1d3ab	0.40981802
130	0xbf0a982f	-0.54138464
131	0xbe3cade0	-0.18425703
132	0x3f300913	0.68763846
133	0x3eeae2d5	0.45876184
134	0x3deb683f	0.11494493
135	0x3e8abd70	0.27097654
136	0xbf113bd4	-0.56731915
137	0x3edb79eb	0.42866454
138	0xbea29b95	-0.31759325
139	0xbdba03e7	-0.090827756
140	0xbe80d0ee	-0.251594
141	0x3f5d2c0c	0.86395335
142	0x3e9336f8	0.28752875
143	0xbf34008d	-0.7031334
144	0x3f8bc817	1.0920438
145	0xbf1bb191	-0.6081782
146	0xbe63aefb	-0.22234719
147	0x3eff19ed	0.49824467
148	0x3faf890a	1.3713696
149	0xbe90cff0	-0.28283644
150	0x3d67f93d	0.056634177
151	0xbe875274	-0.26430094
152	0x3e8cf28c	0.275288
153	0xbdd1cf5e	-0.1024463
154	0x3e6ddd70	0.23229003
155	0x3d514b9b	0.051097494
156	0x3e0c2c01	0.13688661
157	0xbefc63e8	-0.49294972
158	0x3f810329	1.0079089
159	0x3e5f0386	0.21778688
160	0xbecae713	-0.3962942
161	0x3e6bc37a	0.23023787
162	0x3ebf3dfa	0.37351972
163	0xbe854c75	-0.26034895
164	0xbe094cce	-0.13408205
165	0xbe914ef1	-0.2838054
166	0x3ef024c4	0.4690305
167	0x3ec8b0d6	0.39197415
168	0xbdcc1d25	-0.099664964
169	0x3f0f7204	0.5603335
170	0x3e1622e9	0.14661755
171	0xbf0b9b81	-0.54534155
172	0xbcb95012	-0.022621188
173	0xbf8a80a3	-1.0820507
174	0xbbb94718	-0.005654227
175	0x3edff146	0.43738765
176	0x3e992160	0.29908276
177	0xbf046795	-0.51720554
178	0x3e8ab5e9	0.2709191
179	0x3ebc8312	0.3681875
180	0xbe50820d	-0.2036211
181	0x3e593387	0.21211062
182	0x3f5d79fa	0.86514246
183	0x3cd15eec	0.025557958
184	0xbdc8a69e	-0.09797405
185	0x3f6170e8	0.88062906
186	0xbf5d5e82	-0.8647233
187	0xbd9499c9	-0.07255895
188	0x3c72e6e7	0.014825559
189	0x3f1dcca0	0.6164036
190	0x3ef3e240	0.47633553
191	0x3f1fc5e9	0.6241136
192	0xbd15490c	-0.036446616
193	0x3ed327cb	0.41241297
194	0x3ede29b3	0.4339119
195	0xbeee7a4d	-0.46577683
196	0xbe1f0ce6	-0.15532264
197	0x3f3cced6	0.73753107
198	0xbe27d5b8	-0.16390121
199	0xbee87874	-0.45404398
200	0x3f6027ea	0.87560904
201	0xbe50024e	-0.20313379
202	0xbf820f52	-1.0160925
203	0x3eece139	0.4626558
204	0xbe02791b	-0.1274151
205	0xbf35f6c8	-0.71079683
206	0xbdb7bdf7	-0.0897178
207	0x3d5adbe9	0.05343238
208	0x3f5a5d02	0.8529817
209	0xbf6cc4f8	-0.9248805
210	0x3d54b462	0.05192984
211	0xbe6dbd81	-0.23216821
212	0x3f0ded25	0.5543998
213	0xbedde4d5	-0.43338647
214	0x3da94b50	0.08266318
215	0xbe22fadb	-0.15916006
216	0xbee9d299	-0.45668486
217	0x3ebe4814	0.37164366
218	0xbe1cf0c2	-0.15326217
219	0xbe7efceb	-0.24901168
220	0xbf51c5bd	-0.8194235
221	0x3f061310	0.5237284
222	0xbe0e5859	-0.1390089
223	0x3d24a757	0.04019865
224	0xbf53f036	-0.8278841
225	0xbd3ef1b9	-0.046617243
226	0x3e7b4efa	0.24541846
227	0xbf204d58	-0.6261802
228	0xbded1dcf	-0.11577951
229	0x3f18be1a	0.5966507
230	0xbe8720fb	-0.2639235
231	0x3e445d23	0.19176154
232	0xbf44073a	-0.76573527
233	0x3e7886a7	0.24270116
234	0xbee72082	-0.4514199
235	0xbee9ad8a	-0.45640212
236	0xbf8019e8	-1.0007906
237	0xbef9b630	-0.4877181
238	0x3dcbf848	0.09959465
239	0x3f4b7930	0.7948179
240	0x3f84256f	1.0323924
241	0x3e9449b2	0.28962475
242	0x3e88292c	0.26593912
243	0xbcd4c401	-0.025972368
244	0x3f1b24ee	0.60603225
245	0x3f19d925	0.6009696
246	0xbed8f480	-0.4237404
247	0xbf69c754	-0.91319776
248	0x3e6b2138	0.2296189
249	0x3e86eb3c	0.26351345
250	0xbecc1644	-0.39860737
251	0x3f2cec03	0.67547625
252	0xbe8da263	-0.27662954
253	0xbe98918d	-0.29798546
254	0xbf085951	-0.53261286
255	0xbe7bbbd5	-0.24583371

module.conv_layers.1.weight f4 [64, 64, 1, 1]
0	0xbdab40de	-0.08361982
1	0xbe5fab33	-0.21842651
2	0x3e2e33ab	0.17011897
3	0x3deb4563	0.11487844
4	0xbe059d85	-0.1304837
5	0x3e58aad7	0.2115892
6	0xbcd39fe7	-0.025833083
7	0xbeb42917	-0.351876
8	0x3e855422	0.2604075
9	0xbda24c5e	-0.07924722
10	0xbc2b0ee5	-0.010440563
11	0x3e40e4f0	0.18837333
12	0xbd78067b	-0.060553055
13	0xbe201f20	-0.15636873
14	0xbe8208f4	-0.25397456
15	0xbd8520cc	-0.06500396
16	0xbc8a6978	-0.016895995
17	0x3e9d46f6	0.307182
18	0xbe4e855e	-0.20168063
19	0xbe60bf91	-0.21948077
20	0x3f543a6c	0.82901645
21	0x3d48e771	0.049048845
22	0x3e1a491f	0.15066956
23	0x3e69c72e	0.22829887
24	0x3d44b845	0.048027296
25	0xbf3026a5	-0.68808967
26	0xbe32786f	-0.17428754
27	0x3d02710d	0.031846095
28	0x3ca5c331	0.020234676
29	0xbd176d35	-0.036969382
30	0xbe5eed79	-0.21770276
31	0x3e92fa27	0.28706476
32	0xbe045cfc	-0.12926096
33	0xbdf2d5dd	-0.118571974
34	0x3efde8a9	0.49591568
35	0xbdb027e3	-0.08601358
36	0xbe851ee3	-0.26000127
37	0xbdac6343	-0.0841737
38	0xbca6d3c8	-0.020364657
39	0xbea52a3c	-0.32258785
40	0xbe372ef8	-0.17889011
41	0xbd37f3ac	-0.044910118
42	0xbca58722	-0.020206038
43	0x3ee9d9e9	0.45674065
44	0x3de2802d	0.11059604
45	0xbf08170d	-0.5316017
46	0x3f125946	0.5716747
47	0xbe9a9713	-0.30193385
48	0x3ed4d261	0.41566756
49	0xbe13ba79	-0.14426602
50	0xbe4f5952	-0.20248917
51	0xbc6e900d	-0.014560712
52	0xbe0e12c1	-0.13874342
53	0x3dc210d4	0.09475866
54	0x3e7f0998	0.24906003
55	0x3e04c4d7	0.12965713
56	0xbf344193	-0.7041256
57	0x3e49b066	0.19696197
58	0xbe720c11	-0.23637415
59	0x3e2baa19	0.16764106
60	0xbd366b6d	-0.044536043
61	0x3f329193	0.6975338
62	0xbd806a69	-0.06270296
63	0x3e7950c6	0.24347219
64	0x3c9ca8c0	0.019123435
65	0x3e784ac1	0.24247266
66	0x3e19fc0c	0.15037555
67	0xbe74c6e7	-0.23904
68	0xbe52a2f5	-0.20569976
69	0xbe7fe1a2	-0.24988416
70	0x3ea44d8f	0.32090423
71	0x3e8bc85a	0.27301294
72	0x3e458901	0.19290544
73	0x3f236ae1	0.6383496
74	0xbeb5bd9f	-0.35496232
75	0xbeee69e1	-0.46565154
76	0xbeddb83b	-0.4330462
77	0xbe4e6e31	-0.20159222
78	0x3e123591	0.14278246
79	0xbe8f9fc1	-0.2805157
80	0x3d5e082e	0.05420702
81	0x3ecd98fd	0.40155783
82	0xbe5da692	-0.21645573
83	0x3cce847e	0.025209662
84	0xbd3b468b	-0.045721572
85	0xbe47b0db	-0.19501059
86	0xbcb82b02	-0.022481445
87	0x3e998ab3	0.29988632
88	0xbe2e3c01	-0.17015077
89	0x3e09dfcc	0.13464278
90	0x3e8e073e	0.277399
91	0xbe78ebd8	-0.24308717
92	0xbf0d61b7	-0.55227226
93	0xbe36fdc4	-0.17870241
94	0x3d9ee8ac	0.077592224
95	0x3dfa8c5f	0.12233805
96	0x3ec6d813	0.38836727
97	0x3e3567e1	0.17715408
98	0x3ddd8593	0.10816493
99	0x3d2ca9a4	0.04215397
100	0xbed5cf4e	-0.41759723
101	0x3e1aa8ab	0.15103404
102	0x3eaa8b26	0.33309287
103	0xbe955e75	-0.29173627
104	0x3d903fdb	0.070434295
105	0x3e2d2294	0.16907722
106	0xbd74ba24	-0.05974783
107	0x3d9aba15	0.075550236
108	0xbdf059e6	-0.11735897
109	0xbe85521c	-0.26039207
110	0xbd81587c	-0.06315705
111	0x3e4fd26f	0.20295118
112	0xbe90a315	-0.28249422
113	0x3ec9b5df	0.3939657
114	0xbe3f6871	-0.18692185
115	0x3e6f2fe7	0.23358117
116	0xbd0be7c1	-0.034156565
117	0x3d9b9345	0.07596449
118	0xbe4ead2b	-0.20183246
119	0xbd7c9080	-0.061661243
120	0x3cb55a7a	0.02213787
121	0xbc8d9e52	-0.017287407
122	0xbb15faad	-0.002288501
123	0xbc2a70a7	-0.010402835
124	0xbd7785df	-0.060430404
125	0x3c3685c4	0.011140291
126	0x3f486de4	0.7829268
127	0x3c588a01	0.013216496
128	0xbeca0bde	-0.3946218
129	0x3e77a625	0.24184473
130	0xbf0e96c9	-0.5569883
131	0xbe36b8a9	-0.1784388
132	0x3f17885c	0.5919244
133	0xbe0eae37	-0.13933645
134	0x3c6ebfde	0.014572112
135	0xbe875653	-0.26433048
136	0xbeffe3ed	-0.4997858
137	0xbbb4cd4b	-0.005517637
138	0xbcfad59c	-0.030619435
139	0x3e975374	0.29555857
140	0xbe81316f	-0.25233027
141	0x3de892fa	0.113561586
142	0x3da2d2ff	0.079504006
143	0x3ea07bf2	0.31344563
144	0x3ebc9249	0.36830357
145	0xbdf024da	-0.11725779
146	0xbddaac75	-0.10677425
147	0xbe83f8d8	-0.2577579
148	0xbe8c4ce8	-0.27402425
149	0x3ddf5f3a	0.10906835
150	0x3e95e68c	0.29277456
151	0xbf0c9bf9	-0.54925495
152	0xbebff10c	-0.37488592
153	0x3de74181	0.11291791
154	0x3d85ceed	0.065336086
155	0xbeec1f43	-0.461176
156	0xbe63a885	-0.22232254
157	0x3e1dd694	0.15413886
158	0x3dcd8a49	0.100361414
159	0xbf0dfc5d	-0.554632
160	0xbdc97c1b	-0.09838124
161	0x3f09aaf4	0.5377648
162	0xbe313456	-0.17305121
163	0xbe2ed17d	-0.17072101
164	0x3dbc010b	0.091798864
165	0x3c863c67	0.016386224
166	0x3c616c91	0.013758794
167	0x3e2002fa	0.15626135
168	0xbe820fb8	-0.25402617
169	0x3cdcb88e	0.026943471
170	0x3ec77f56	0.38964337
171	0x3f4a01c4	0.78908944
172	0x3dafbf4e	0.0858141
173	0xbdb6b3ce	-0.08921014
174	0x3e7712aa	0.24128214
175	0xbe4eccc3	-0.20195298
176	0x3e97584c	0.29559553
177	0xbf448524	-0.76765656
178	0xbd797952	-0.060906716
179	0x3e291536	0.16511998
180	0xbe4af8dd	-0.19821496
181	0x3e803b7f	0.25045392
182	0x3ed91a8f	0.42403075
183	0xbe80e95d	-0.25178042
184	0xbecef321	-0.40419868
185	0xbdbc3ed1	-0.09191669
186	0xbe106512	-0.14101055
187	0xbddebbae	-0.10875641
188	0x3eda4a88	0.42634988
189	0x3e8d3ccc	0.27585447
190	0xbe81ff9d	-0.2539033
191	0xbdea98c0	-0.11454916
192	0xbe02cfde	-0.12774608
193	0x3d8abfc7	0.0677486
194	0x3eedd68d	0.46452752
195	0x3dcccdcb	0.100001894
196	0xbda8f6c4	-0.08250192
197	0xbb06f47d	-0.0020592504
198	0xbec05839	-0.3756731
199	0xbe010123	-0.1259809
200	0x3ef23e09	0.47312954
201	0x3f1c55e8	0.6106858
202	0xbdb72454	-0.08942476
203	0x3ebd4520	0.369668
204	0x3dd5b158	0.10434216
205	0xbca1720d	-0.019707704
206	0xbdf10089	-0.1176768
207	0xbd355194	-0.044267252
208	0xbe0fff0c	-0.14062136
209	0x3e0ab1ac	0.13544339
210	0xbe45ba01	-0.19309236
211	0xbdc8ae0e	-0.09798823
212	0xbed86f9e	-0.42272657
213	0xbe5557eb	-0.2083432
214	0x3e049473	0.12947254
215	0x3f1e3282	0.6179582
216	0xbeadd5e6	-0.33952254
217	0x3e3a42c1	0.18189527
218	0xbebc8ceb	-0.36826262
219	0xbe8decf8	-0.27719855
220	0xbd4d6497	-0.050144758
221	0xbf28fd54	-0.6601155
222	0x3d6eef57	0.05833372
223	0x3decf848	0.115707934
224	0xbe4bd951	-0.19907118
225	0x3e4779a6	0.19479999
226	0x3ec2d111	0.3805013
227	0x3e87e72e	0.26543564
228	0xbd89d4eb	-0.06730064
229	0xbe5d66f8	-0.2162131
230	0xbed58437	-0.41702434
231	0x3d1a2f86	0.037642978
232	0xbe1f1a0a	-0.15537277
233	0x3ec80e98	0.39073634
234	0xbda39409	-0.0798722
235	0xbe5a5f6a	-0.2132546
236	0xbd2ecf96	-0.042678438
237	0xbe508397	-0.20362698
238	0x3e28f13a	0.1649827
239	0xbf2aa7e7	-0.6666245
240	0x3e5d38c8	0.21603692
241	0xbdcdc54d	-0.10047398
242	0x3e355d7e	0.17711446
243	0x3e8c1420	0.27359104
244	0x3ea6dcd3	0.3259035
245	0x3e776e5f	0.24163197
246	0x3ee7626e	0.45192283
247	0xbe793e6c	-0.24340218
248	0xbeb82447	-0.35965177
249	0x3e49bb0b	0.19700257
250	0xbf429c98	-0.76020193
251	0x3d3f3ba6	0.046687745
252	0xbe839315	-0.25698152
253	0xbbee6251	-0.007274904
254	0x3ec05144	0.37562
255	0x3ed020e2	0.40650088

module.conv_layers.2.weight f4 [64, 64, 1, 1]
0	0x3d624860	0.055244803
1	0xbed85305	-0.4225084
2	0xbdb924b9	-0.090402074
3	0xbe505c15	-0.20347627
4	0xbe8bce36	-0.27305764
5	0x3e681bcf	0.22666858
6	0x3d1b06a0	0.037848115
7	0xbeded1e7	-0.43519518
8	0x3e8be909	0.2732623
9	0xbf614888	-0.880013
10	0x3d3ff4db	0.04686437
11	0x3d48f669	0.04906312
12	0xbf423d39	-0.7587467
13	0x3db26aeb	0.08711799
14	0x3e208abb	0.15677921
15	0xbda526f7	-0.080640726
16	0x3e1d0781	0.15334894
17	0x3f091442	0.53546536
18	0x3d3575f5	0.044301946
19	0xbf06a96c	-0.5260227
20	0x3e3a8581	0.1821499
21	0x3f008d5e	0.5021571
22	0x399026bd	0.00027494683
23	0x3e0a4513	0.13502912
24	0x3e8b1272	0.2716251
25	0xbe8dd426	-0.2770092
26	0x3d36f1f3	0.044664335
27	0xbf3d15e7	-0.73861545
28	0x3eb7e285	0.35915008
29	0xbd2630f3	-0.040574025
30	0x3d9cfe82	0.07665731
31	0x3e9744ef	0.2954478
32	0xbddc8487	-0.10767465
33	0xbde0de4b	-0.10979899
34	0xbf1a8c58	-0.603704
35	0xbf151761	-0.582388
36	0xbe571cff	-0.21007155
37	0xbf796638	-0.974216
38	0x3d3a29e1	0.045450095
39	0xbf99b3df	-1.2008017
40	0xbe36a9ca	-0.17838207
41	0xbe1b091b	-0.15140192
42	0xbd6374f5	-0.05553146
43	0x3e5487d3	0.20754938
44	0x3db97d08	0.09057051
45	0xbcfb097e	-0.030644175
46	0x3ee7e8e8	0.4529488
47	0xbf02deb3	-0.5112106
48	0xbeb1686c	-0.3464998
49	0x3db156cb	0.086591326
50	0xbef49f1f	-0.4777765
51	0xbf593d28	-0.8485894
52	0xbe788942	-0.2427111
53	0x3e7f8c29	0.2495581
54	0x3dd99014	0.10623184
55	0x3da7d37b	0.081946336
56	0xbd79caf5	-0.06098457
57	0xbe1b8372	-0.15186861
58	0xbf4d328c	-0.80155253
59	0xbef19c37	-0.47189495
60	0x3e4655e9	0.1936871
61	0x3d933099	0.07187004
62	0xbde75ab9	-0.11296601
63	0x3f21e9a0	0.6324711
64	0x3e838518	0.2568748
65	0xbd4b13c6	-0.049579404
66	0xbe4bc9cd	-0.199012
67	0x3edfb6f5	0.43694273
68	0x3e967469	0.2938569
69	0x3f244c75	0.64179164
70	0x3e415f6c	0.18884057
71	0xbe62296f	-0.22086118
72	0xbee3ec60	-0.44516277
73	0x3da9b9c9	0.08287389
74	0xbe1f9e6a	-0.15587774
75	0x3db65160	0.0890224
76	0xbe60f8c4	-0.21969897
77	0x3f26f544	0.65217996
78	0x3eb5c78b	0.35503802
79	0xbeadeb37	-0.33968517
80	0x3ebeb52a	0.37247592
81	0x3f0b9d95	0.54537326
82	0x3e5e4f53	0.21709947
83	0xbe866bcf	-0.26254126
84	0x3f139555	0.5764974
85	0x3f039676	0.5140146
86	0x3e2d3f5c	0.16918701
87	0xbdcdf7b5	-0.10057012
88	0xbe6eb1bf	-0.23309992
89	0xbe0b82f1	-0.13624169
90	0x3e08b3e7	0.13349877
91	0xbddd7dd3	-0.10815015
92	0x3ed7468a	0.42046005
93	0x3e462cd4	0.19353038
94	0x3e8cdd47	0.2751257
95	0x3e8d296d	0.27570668
96	0x3dda4f82	0.10659696
97	0xbdbf5b36	-0.09343569
98	0xbdb377c1	-0.087630756
99	0xbe971922	-0.29511362
100	0x3f04f36c	0.5193393
101	0xbd20b8a8	-0.039238602
102	0x3f115f5e	0.56786144
103	0xbe940636	-0.2891099
104	0x3e7695d6	0.24080595
105	0x3d0bfbc7	0.03417566
106	0x3d73d868	0.059532553
107	0x3d81f738	0.06345981
108	0xbe1297e4	-0.14315754
109	0x3fd76b7f	1.682968
110	0x3eb59bdb	0.3547047
111	0xbcdafd00	-0.026731968
112	0x3da2523e	0.07925843
113	0x3e05db3f	0.13071917
114	0x3f22f58b	0.6365592
115	0x3bab3af2	0.0052255327
116	0xbe896604	-0.26835644
117	0xbe45aef1	-0.19305016
118	0x3f2d51c4	0.6770289
119	0x3d9bda1b	0.0760996
120	0x3e8c24e4	0.27371895
121	0xbdfca9c2	-0.12337066
122	0x3cdaab7a	0.026693095
123	0x3de8ee20	0.11373544
124	0x3e1a7587	0.15083896
125	0xbe34992a	-0.17636552
126	0x3e31344f	0.1730511
127	0x3ea23987	0.31684515
128	0xbdd880f5	-0.105714716
129	0xbe27d829	-0.16391052
130	0xbc74875a	-0.014924848
131	0xbe366cd7	-0.17814957
132	0xbdab0786	-0.08351044
133	0xbe998d8a	-0.29990798
134	0x3de78180	0.11303997
135	0xbd69434b	-0.05694894
136	0xbde59aa5	-0.11211137
137	0xbcb3def2	-0.021956895
138	0xbab4538f	-0.0013757813
139	0xbec2a76b	-0.38018355
140	0xbe8fd619	-0.2809303
141	0x3e8a1742	0.2697087
142	0x3d9ed40f	0.07755291
143	0x3d5df52e	0.0541889
144	0x3e85eae3	0.26155767
145	0xbf0c39f7	-0.5477595
146	0xbee8ff12	-0.45507103
147	0x3e11a57a	0.1422328
148	0xbecb4079	-0.39697626
149	0x3e8d6d1a	0.276223
150	0xbdcd3212	-0.10019316
151	0x3e0d9215	0.13825257
152	0x3e9821b3	0.2971321
153	0x3e445b3a	0.19175425
154	0xbeaffc0e	-0.3437199
155	0xbe82292c	-0.25422037
156	0x3e0fc8f2	0.14041498
157	0x3cc0c052	0.023529205
158	0xbe4ce6fd	-0.2000999
159	0xbeb8dcce	-0.3610596
160	0xbe32edc2	-0.1747351
161	0x3d15c43d	0.0365641
162	0x3c2bf3f2	0.010495173
163	0xbd91d305	-0.07120327
164	0xbe8f9185	-0.2804071
165	0x3e6093d6	0.21931395
166	0x3e1ba081	0.15197946
167	0xbd23ef7d	-0.040023316
168	0x3e2c8436	0.1684731
169	0x3ec84aa9	0.3911946
170	0x3f3b3b53	0.73137397
171	0x3e81517d	0.25257483
172	0x3e57b4c9	0.21065058
173	0xbd998707	-0.074964575
174	0xbf086078	-0.532722
175	0xbea877b0	-0.32903814
176	0x3df56df9	0.11983866
177	0x3cd8db5a	0.026471782
178	0xbe48d1db	-0.19611304
179	0x3d398cb4	0.0453002
180	0xbd86dd16	-0.065851375
181	0x3e1d4ee1	0.15362121
182	0x3e47b238	0.19501579
183	0x3c9c5fb2	0.0190886
184	0xbe113f7c	-0.14184374
185	0x3f01a6c4	0.5064509
186	0x3dd0c761	0.101942785
187	0x3bfb10af	0.007661901
188	0xbe3e2dfd	-0.1857223
189	0xbdf1a1f3	-0.117984675
190	0xbeb68323	-0.35646924
191	0xbe8c6147	-0.27417967
192	0xbe3c736f	-0.1840341
193	0xbdcda403	-0.100410484
194	0xbd1eb3e9	-0.038745794
195	0xbedc5738	-0.43035293
196	0x3e0cfb3f	0.13767718
197	0xbe36f162	-0.17865518
198	0xbebc32be	-0.36757463
199	0xbd1cccf8	-0.03828141
200	0x3d1ff93f	0.03905606
201	0xbd32fbe9	-0.04369727
202	0xbd68dca6	-0.05685105
203	0xbe909546	-0.28238887
204	0x3dc229b2	0.09480609
205	0xbc083ed9	-0.008315765
206	0xbd051dde	-0.032499187
207	0xbdada357	-0.0847842
208	0xbe6d7252	-0.23188141
209	0x3da50cfc	0.08059117
210	0x3e674b93	0.22587423
211	0xbe3b8306	-0.183117
212	0x3df3a607	0.118969016
213	0x3cfc7f38	0.030822381
214	0x3d7daf90	0.061935008
215	0x3dcfa56a	0.10138972
216	0xbd11ccbb	-0.035595637
217	0xbf34dfed	-0.70654184
218	0xbe330cab	-0.17485301
219	0xbb902b2c	-0.0043996777
220	0x3e015702	0.12630847
221	0xbcdfbdb6	-0.02731214
222	0xbbe93e27	-0.007118005
223	0xbe02e9b3	-0.12784462
224	0xbe7bcf88	-0.24590886
225	0xbe051601	-0.12996675
226	0xbe41bee0	-0.1892047
227	0xbe88ae41	-0.26695445
228	0xbd9f1a33	-0.07768669
229	0xbca061f2	-0.019577954
230	0xbd2301fd	-0.039796818
231	0xbe6827c1	-0.22671415
232	0x3ca64811	0.020298036
233	0xbd0d0052	-0.034424134
234	0x3d970ce2	0.07375504
235	0xbf1ee741	-0.62071615
236	0xbe96c6d1	-0.2944856
237	0x3dc57039	0.096405454
238	0xbe25b30e	-0.16181585
239	0x3e2e4643	0.1701899
240	0x3d331a20	0.043726087
241	0xbd584631	-0.052801315
242	0x3b25d2f3	0.0025302737
243	0x3d127e4a	0.03576497
244	0xbca6d0ca	-0.02036323
245	0x3d816339	0.06317753
246	0xbdb98f48	-0.09060532
247	0xbe40617a	-0.18787184
248	0xbc1a96da	-0.00943538
249	0xbdbb77c4	-0.09153703
250	0xbd51c276	-0.051210843
251	0xbd99fbc6	-0.07518725
252	0xbe1b7539	-0.15181436
253	0xbf41523d	-0.7551611
254	0x3f02548e	0.5091027
255	0xbe8d295e	-0.27570623

module.conv_layers.3.weight f4 [64, 64, 1, 1]
0	0x3e8035d6	0.25041074
1	0x3dbb281b	0.09138509
2	0x3d4f20e1	0.050568465
3	0x3f0e1483	0.5550005
4	0xbe2a7b85	-0.16648681
5	0x3e7cbeb6	0.24682125
6	0xbd74d49b	-0.05977307
7	0xbdf19fe9	-0.117980786
8	0x3ed8cf4a	0.4234565
9	0x3e407bdb	0.18797247
10	0x3def91bf	0.11697721
11	0x3ed7718a	0.4207881
12	0xbe8e917e	-0.27845377
13	0x3c7d1288	0.015446313
14	0x3dfe8395	0.12427441
15	0xbe97cfc6	-0.29650706
16	0xbd0226a9	-0.03177515
17	0xbdcc4ff3	-0.099761866
18	0x3dfd404b	0.123657785
19	0x3e0ee6bf	0.1395521
20	0xbe906806	-0.28204364
21	0x3e5ff099	0.21869124
22	0x3e4d3133	0.200383
23	0xbd8584e2	-0.06519486
24	0x3eec3508	0.4613421
25	0xbe04c470	-0.1296556
26	0xbe983c0f	-0.2973332
27	0x3f098e9e	0.5373324
28	0x3db228b1	0.086991675
29	0x3e841b81	0.25802234
30	0xbe2bec41	-0.16789342
31	0xbdd73f82	-0.1051016
32	0x3e6dd66c	0.23226327
33	0xbe2c6d5f	-0.16838597
34	0x3e427321	0.1898923
35	0xbe85947e	-0.26089853
36	0x3d984058	0.074341476
37	0x3eca4010	0.39502
38	0x3ebd4fc0	0.36974907
39	0xbc5c25e5	-0.013436769
40	0xbdf4c9ce	-0.11952554
41	0x3d94c70b	0.07264527
42	0x3db0f74b	0.086409174
43	0x3e362b35	0.1778992
44	0xbf098884	-0.5372393
45	0x3ccbeca6	0.024893116
46	0xbe433850	-0.1906445
47	0xbd88af9a	-0.06674118
48	0x3ef1ba80	0.472126
49	0x3d1ff7d8	0.03905472
50	0x3dafa7be	0.08576916
51	0x3aa8f6d2	0.0012890941
52	0x3e0c8315	0.13721879
53	0x3f0a910b	0.5412757
54	0x3dfa333f	0.12216806
55	0xbf044e6b	-0.51682156
56	0xbd2f63e4	-0.042819872
57	0x3eaa9dc1	0.33323482
58	0xbec6b40b	-0.38809237
59	0x3df8a99b	0.12141725
60	0x3e3d1528	0.18465102
61	0xbf238888	-0.63880205
62	0xbe113cd3	-0.14183359
63	0x3d00ff62	0.031493552
64	0xbe9ef916	-0.31049412
65	0xbdf1d6e1	-0.11808563
66	0xbe9150f8	-0.28382087
67	0x3e5568fb	0.20840828
68	0xbdfda4ab	-0.123849235
69	0xbe0fe1e2	-0.14051011
70	0x3e6dee6b	0.2323548
71	0x3d04f057	0.03245577
72	0xbd8c1193	-0.068392895
73	0xbe78b37f	-0.24287222
74	0xbf7a7823	-0.97839564
75	0x3d6842ed	0.05670445
76	0x3da11607	0.078655295
77	0x3ed053f8	0.40689063
78	0x3e4afc7a	0.19822875
79	0x3e0d556e	0.1380212
80	0x3e697eee	0.22802326
81	0xbeba8d98	-0.36436152
82	0xbda3f8b8	-0.08006424
83	0x3e8dbd80	0.2768364
84	0xbf83454d	-1.0255524
85	0xbe639457	-0.22224556
86	0x3d04eb88	0.032451183
87	0x3d84b40a	0.06479652
88	0x3e148892	0.14505222
89	0xbea941ec	-0.33058107
90	0x3f28a314	0.6587384
91	0x3e096ff5	0.13421614
92	0xbe91c7fd	-0.2847289
93	0xbca0f950	-0.019650131
94	0xbf2a45f8	-0.66513014
95	0x3df90ab1	0.12160242
96	0x3f1d8443	0.6152994
97	0x3f752253	0.957555
98	0xbe1ee4f6	-0.15517029
99	0x3ccf0842	0.025272492
100	0x3c403e56	0.011733612
101	0x3e2702f1	0.16309716
102	0xbe0bdac7	-0.13657676
103	0xbe5a5a21	-0.21323444
104	0x3ea27aad	0.3173422
105	0x3a91002e	0.0011062676
106	0xbee058e9	-0.43817833
107	0x3e7491ff	0.23883818
108	0xbf47c3dc	-0.7803323
109	0x3eeae25c	0.45875823
110	0x3f0fe4fb	0.5620877
111	0x3d7f7917	0.06237134
112	0xbe98dd48	-0.29856324
113	0xbf04ae3c	-0.5182836
114	0x3e52b63d	0.20577331
115	0x3eb29c8b	0.34885058
116	0x3c2b6309	0.010460624
117	0x3cd9613d	0.026535625
118	0xbf223a94	-0.63370633
119	0xbd6244fe	-0.055241577
120	0x3e16d5e7	0.14730035
121	0xbe67c49e	-0.22633597
122	0x3d5c3f11	0.053771082
123	0x3e623084	0.2208882
124	0xbec7b36e	-0.3900408
125	0x3f86dd07	1.0536202
126	0x3df9517e	0.121737465
127	0xbf1d3942	-0.61415493
128	0x3e5ede71	0.21764542
129	0xbde7ed16	-0.113245174
130	0xbe690246	-0.22754773
131	0x3eb5ea69	0.35530403
132	0xbdf3e880	-0.1190958
133	0xbde48b60	-0.11159396
134	0x3db3c149	0.087771006
135	0x3e0b839a	0.13624421
136	0x3e4a8473	0.19777088
137	0xbdbe85ed	-0.09302888
138	0x3fdb13e8	1.711545
139	0xbe730117	-0.23730884
140	0x3e532fac	0.20623654
141	0x3f0c8e21	0.5490437
142	0x3c127f3c	0.008941468
143	0x3d0535dd	0.03252207
144	0x3c4bcbcb	0.012438725
145	0x3e313f0e	0.1730921
146	0x3ddf4db1	0.1090349
147	0xbc7da850	-0.015482023
148	0x3f539eaf	0.82664007
149	0xbebbde73	-0.36693153
150	0x3d21c818	0.039497465
151	0x3d588097	0.052857008
152	0x3da9c20d	0.082889654
153	0xbf32a965	-0.69789726
154	0xbe21d2ec	-0.15803117
155	0xbd854ef4	-0.065092
156	0x3ece17ff	0.40252683
157	0xbdf7de49	-0.121029444
158	0x3f053bd4	0.52044415
159	0xbab0bbad	-0.0013483666
160	0xbc194549	-0.009354898
161	0x3c9b1dcc	0.018935107
162	0xbe7fe283	-0.24988751
163	0x3d0f93a2	0.035052903
164	0xbd9d9577	-0.07694524
165	0x3d1d09d0	0.038339436
166	0x3d0957d7	0.033531036
167	0xbe4c4799	-0.19949187
168	0xbd177a17	-0.03698167
169	0x3daa0040	0.08300829
170	0x3b7d824e	0.0038682404
171	0xbcd65e94	-0.026168145
172	0xbdd47758	-0.103743255
173	0x3e1ac6a8	0.15114844
174	0x3ef5365c	0.47893035
175	0xbe223cca	-0.15843502
176	0xbebde6cf	-0.37090155
177	0xbd9c2277	-0.07623761
178	0xbd0ec33f	-0.03485417
179	0xbd378708	-0.04480651
180	0xbe9df631	-0.30851892
181	0xbe342029	-0.17590393
182	0x3f8f097b	1.1174768
183	0xbeb966a0	-0.3621111
184	0xbd39affa	-0.04533384
185	0xbe417a33	-0.18894272
186	0xbdd5342b	-0.10410341
187	0x3e9be809	0.30450466
188	0xbdca1563	-0.098673604
189	0xbebe0ca2	-0.37119013
190	0xbedfe6a5	-0.43730655
191	0xbdcc473c	-0.099745244
192	0x3e1ad8b6	0.15121731
193	0xbcb3b2fa	-0.021935929
194	0x3e56edfd	0.20989223
195	0x3f29a5ab	0.66268414
196	0xbd599876	-0.053123914
197	0xbd6bcfc6	-0.057571195
198	0x3c9e532d	0.01932677
199	0x3f1d536d	0.6145542
200	0x3ed66195	0.41871324
201	0x3e3ad1be	0.18244073
202	0x3ce1b0c3	0.027550107
203	0xbd5a91f8	-0.053361863
204	0x3eb14c0a	0.34628326
205	0xbe790f6c	-0.24322289
206	0xbe8e6e5c	-0.27818573
207	0x3d9e240b	0.077217184
208	0x3c6240f4	0.013809431
209	0xbcd05a1d	-0.025433594
210	0x3ec866d5	0.39140955
211	0xbe58159d	-0.21101995
212	0x3e9f6fba	0.31139928
213	0x3ea32312	0.31862694
214	0x3d708f39	0.058730338
215	0xbecb7ed9	-0.39745215
216	0x3e01cfaa	0.12676874
217	0x3d7a166d	0.061056543
218	0x3e4aa985	0.19791229
219	0xbce96ed4	-0.02849523
220	0x3e1fb1cd	0.1559517
221	0x3d027280	0.031847477
222	0x3e898700	0.2686081
223	0x3f4d0d5c	0.8009851
224	0x3d23994d	0.03994112
225	0x3d363bb4	0.04449053
226	0xbd008fa2	-0.03138698
227	0x3cd47004	0.02593232
228	0x3cdd79b0	0.027035564
229	0x3dadc4e4	0.084848195
230	0x3ef2ff25	0.47460285
231	0xbe35b04a	-0.1774303
232	0xbe5c9c72	-0.21544054
233	0x3d2c6011	0.042083804
234	0x3dae2ff5	0.08505241
235	0x3e8f9534	0.2804352
236	0x3f04b097	0.51831955
237	0xbdf1de37	-0.11809962
238	0xbeb0f838	-0.34564376
239	0xbdfed1bd	-0.12442348
240	0xbddab971	-0.106799014
241	0xbde2c927	-0.11073523
242	0x3e127c28	0.14305174
243	0x3d614db8	0.05500576
244	0xbd891c4f	-0.066948526
245	0xbea21d11	-0.316628
246	0x3f71c88c	0.94446635
247	0xbe839cc6	-0.25705546
248	0x3e88e1b9	0.26734713
249	0x3cc861d0	0.024460703
250	0x3e2f1234	0.17096788
251	0x3c994c99	0.018713282
252	0xbda4e731	-0.08051909
253	0xbe2601c0	-0.16211605
254	0xbe91320c	-0.28358495
255	0x3e71a735	0.2359894

module.conv_layers.4.weight f4 [64, 64, 1, 1]
0	0x3e1cff5c	0.15331787
1	0xbe9853a8	-0.29751325
2	0x3da6ca50	0.08144057
3	0x3e4b510b	0.19855134
4	0xbe88efbf	-0.26745412
5	0x3ec85630	0.39128256
6	0xbdc0e3fc	-0.094184846
7	0xbeb9e8a9	-0.36310318
8	0xbecad553	-0.39615878
9	0x3ed877ab	0.422788
10	0x3f29fc89	0.66400963
11	0x3f0db88a	0.5535971
12	0x3f26820c	0.65042186
13	0x3eba46d0	0.3638215
14	0xbe40fa4e	-0.18845484
15	0xbec88b82	-0.39168936
16	0xbd60067d	-0.054693688
17	0x3cb0a842	0.021564607
18	0xbebc1155	-0.36731973
19	0xbf99ba90	-1.2010059
20	0xbee7f91a	-0.45307237
21	0x3e493606	0.19649515
22	0x3e8cf577	0.27531025
23	0x3e809ca9	0.25119522
24	0xbee125e8	-0.43974233
25	0xbec041e1	-0.37550262
26	0xbddea340	-0.10870981
27	0x3e441668	0.19149172
28	0xbe7d4848	-0.24734604
29	0x3e8330f8	0.25623298
30	0xbd3603ab	-0.04443709
31	0x3efadf8b	0.48998675
32	0x3e0b8f46	0.13628873
33	0x3dbede0e	0.09319697
34	0x3d915906	0.07097058
35	0x3e6f4934	0.23367769
36	0x3da56d88	0.08077532
37	0xbf216fa1	-0.6306096
38	0xbea07896	-0.31342
39	0xbe427f38	-0.18993843
40	0xbe06e72d	-0.13174124
41	0x3cbf51e7	0.023354484
42	0x3eaf5fdf	0.3425283
43	0xbe0223ea	-0.12709013
44	0x3ee83eaa	0.4536031
45	0xbcec5eb6	-0.028853755
46	0xbe4f4706	-0.20241937
47	0x3da7706f	0.08175742
48	0xbe1674a3	-0.14692931
49	0x3f5a11a4	0.8518317
50	0xbe326c86	-0.17424211
51	0x3ec5278b	0.3850673
52	0x3e8f372a	0.27971774
53	0xbe50e267	-0.20398866
54	0xbe71d5af	-0.2361667
55	0x3dcba63b	0.09943815
56	0xbe22e62f	-0.1590812
57	0xbebd1728	-0.3693173
58	0x3c4a28ef	0.012338861
59	0x3ef34fb1	0.47521737
60	0x3e0a8b31	0.1352966
61	0x3e9025aa	0.28153735
62	0xbebe5526	-0.37174338
63	0xbebc310f	-0.3675618
64	0x3de1d3b2	0.11026706
65	0x3d637ebd	0.05554079
66	0x3f037bd3	0.51360816
67	0xbe9301e4	-0.2871238
68	0xbe9beb56	-0.30452985
69	0x3ebffcb2	0.3749748
70	0xbe98f9fc	-0.29878223
71	0xbe82d64d	-0.25554124
72	0xbe927d04	-0.28611004
73	0xbf2f1515	-0.68391544
74	0xbd4d20bc	-0.050080046
75	0x3e94c2f1	0.29054978
76	0x3e016d52	0.12639359
77	0xbef4cea3	-0.478139
78	0x3e6549c5	0.22391422
79	0x3e677837	0.22604452
80	0x3e734a3a	0.23758784
81	0x3e79be1c	0.24388927
82	0x3e044e5e	0.1292052
83	0xbda710d2	-0.08157505
84	0xbd84b9f9	-0.06480784
85	0xbf65edc3	-0.8981592
86	0xbe06b796	-0.1315597
87	0x3efbc46e	0.491733
88	0x3fad0151	1.3516027
89	0x3e78a862	0.24282983
90	0xbee0e5e8	-0.43925405
91	0xbd9fb28b	-0.07797726
92	0x3e15c1f0	0.14624763
93	0x3e10f34d	0.14155312
94	0x3d583b2c	0.052790806
95	0x3efd9c69	0.49533394
96	0xbe5f7554	-0.21822101
97	0xbdec5571	-0.11539734
98	0x3e71b614	0.23604614
99	0xbe236084	-0.15954787
100	0x3d653f09	0.055968318
101	0x3f64f1c9	0.89431435
102	0x3f86de0c	1.0536513
103	0x3e35ee88	0.17766774
104	0xbd63e225	-0.05563559
105	0xbe8f845e	-0.28030676
106	0xbd620eb7	-0.055189814
107	0x3eca928a	0.39564925
108	0x3ef7852c	0.4834379
109	0x3d80baaa	0.06285603
110	0x3f2dba4a	0.6786238
111	0x3eca8d71	0.39561036
112	0x3f4c58ff	0.798233
113	0x3f91e6a0	1.1398506
114	0x3ebb0a27	0.36531183
115	0xbdd941eb	-0.10608276
116	0xbe85050e	-0.2598042
117	0x3ef829fc	0.48469532
118	0xbefc453d	-0.49271575
119	0xbea795ea	-0.32731563
120	0x3ef3011a	0.47461778
121	0x3e3a1a37	0.18174063
122	0xbf6ba2ae	-0.92045105
123	0x3dd966cb	0.10615309
124	0x3df9b817	0.121933155
125	0x3f39afd0	0.72533894
126	0xbe290973	-0.16507511
127	0x3d0c3da6	0.03423848
128	0xbe4cce54	-0.20000583
129	0xbd4efd4f	-0.050534543
130	0x3e38a626	0.1803213
131	0x3e7c37f3	0.24630718
132	0xbe371573	-0.17879276
133	0x3e32c625	0.17458399
134	0x3e4777b0	0.19479251
135	0x3d8373b4	0.06418553
136	0x3c01806e	0.007904155
137	0xbe4a11dc	-0.19733375
138	0xbee7ce90	-0.45274782
139	0x3f3dd19b	0.7414796
140	0xbdabe7b5	-0.08393804
141	0xbe7f4d59	-0.2493185
142	0x3e204e1f	0.15654801
143	0x3f3f038c	0.7461479
144	0xbd5b7a7f	-0.05358362
145	0xbf23e8ee	-0.640273
146	0xbf00b800	-0.5028076
147	0xbdd26601	-0.10273362
148	0x3e08e795	0.13369592
149	0xbec79d41	-0.38987163
150	0x3ef77546	0.4833166
151	0xbf54e06a	-0.8315493
152	0x3dfc3ef0	0.12316692
153	0xbe3dd455	-0.1853803
154	0xbdbf2e8a	-0.093350485
155	0xbcd8f580	-0.026484251
156	0x3e2e434a	0.17017856
157	0xbe94d745	-0.29070488
158	0xbd408079	-0.04699752
159	0xbfe87180	-1.8159637
160	0x3e8b1ed1	0.2717195
161	0x3ed9308d	0.42419854
162	0xbe506e0c	-0.2035448
163	0xbc58cf38	-0.013232999
164	0xbf005bf4	-0.5014031
165	0x3d55ca65	0.05219497
166	0x3f8c038e	1.0938585
167	0xbe395568	-0.18098986
168	0xbdb46efe	-0.088102326
169	0x3e6b4064	0.22973782
170	0xbd4b4154	-0.04962285
171	0xbebe6f68	-0.3719437
172	0xbe426b24	-0.18986183
173	0xbe9677aa	-0.2938817
174	0xbe9dd73c	-0.30828273
175	0x3ecb589e	0.39716047
176	0xbebb7ebe	-0.36620134
177	0xbf0c4816	-0.54797494
178	0x3e4fcb33	0.20292358
179	0xbe4f38e3	-0.20236544
180	0x3eaa4865	0.33258358
181	0xbdc37764	-0.09544256
182	0x3e9f8391	0.31155065
183	0xbeb8ff60	-0.36132336
184	0xbea9e06e	-0.3317904
185	0x3d00165c	0.031271324
186	0xbce4a5a7	-0.02791102
187	0x3d8c3dba	0.06847711
188	0xbde7f42d	-0.1132587
189	0x3d8ad710	0.06779301
190	0xbbebd0c7	-0.007196519
191	0x3e840727	0.25786707
192	0xbe9af748	-0.30266786
193	0x3e23cba1	0.15995647
194	0xbd7e2da2	-0.062055238
195	0x3ea29931	0.317575
196	0x3daedd44	0.08538297
197	0x3e21d0d3	0.15802316
198	0x3eb3bc64	0.35104668
199	0xbdc940d6	-0.098268196
200	0xbe12067d	-0.14260288
201	0x3ec55b87	0.38546392
202	0x3e268572	0.16261843
203	0xbc882d32	-0.016623113
204	0x3e9f76b9	0.31145266
205	0x3e765525	0.24055918
206	0xbd6210b4	-0.05519171
207	0xbea8d4b4	-0.3297478
208	0x3d24f8bb	0.04027627
209	0x3d055c9b	0.03255902
210	0xbddaa916	-0.10676782
211	0x3e576865	0.21035917
212	0xbec6cb29	-0.38826874
213	0x3e5b535c	0.21418518
214	0xbd8fecac	-0.070275635
215	0x3e2aabaa	0.16667047
216	0xbc96c965	-0.01840658
217	0x3d5f1869	0.05446664
218	0x3e0f6e47	0.14006911
219	0x3dd52ef5	0.10409347
220	0xbeb96654	-0.36210883
221	0x3e5820ca	0.21106258
222	0x3caf8d78	0.021429762
223	0x3f051373	0.519828
224	0x3e80a527	0.25126
225	0xbf49a235	-0.78763133
226	0x3cf6366c	0.030055247
227	0x3e42f647	0.1903926
228	0xbe3b977b	-0.18319504
229	0xbd613f2f	-0.054991897
230	0xbe890bd7	-0.26766846
231	0xbe073a6f	-0.13205884
232	0x3e7c1d22	0.24620488
233	0x3e1d7175	0.15375312
234	0xbecb9be5	-0.39767376
235	0x3f246042	0.6420938
236	0xbeb9fcb8	-0.36325622
237	0x3eb1b125	0.34705463
238	0x3c0a17b9	0.0084285075
239	0x3dec4da4	0.11538246
240	0xbe384761	-0.17995979
241	0xbeb27f72	-0.34862858
242	0xbe2c50e6	-0.16827735
243	0x3e8ce3e6	0.27517623
244	0xbd12a417	-0.03580102
245	0xbd8dc94c	-0.0692316
246	0x3ee4a9bb	0.44660744
247	0x3dd8dbd9	0.105888076
248	0x3b17ca44	0.0023161331
249	0x3dd60491	0.1045009
250	0xbefbfbc8	-0.4921553
251	0xbe835c6b	-0.25656447
252	0xbe0d0025	-0.13769586
253	0xbde2bea3	-0.11071517
254	0xbe5eb7fd	-0.21749873
255	0x3e0a32d5	0.13495953

module.conv_layers.5.weight f4 [64, 64, 1, 1]
0	0xbe6a127d	-0.22858615
1	0xbf06cfef	-0.5266103
2	0xbed4dfbd	-0.4157695
3	0xbe61fa7b	-0.22068207
4	0x3e223e12	0.1584399
5	0x3e2198f3	0.15781002
6	0x3e06dd82	0.13170436
7	0xbd8b22fe	-0.067937836
8	0x3e250604	0.16115576
9	0xbe6b73e8	-0.22993433
10	0x3e1ad2b5	0.15119441
11	0x3e92b1c8	0.2865126
12	0x3e03bfb5	0.12866099
13	0x3dee3914	0.116319805
14	0x3f5c9c83	0.8617632
15	0x3be48b8d	0.0069746436
16	0x3e068591	0.13136889
17	0x3e78d7fe	0.24301144
18	0xbf316d18	-0.6930709
19	0xbe750394	-0.23927146
20	0xbe7faf1e	-0.24969146
21	0x3e13a352	0.1441777
22	0x3e8437ff	0.25823972
23	0xbe34fc7d	-0.17674442
24	0x3eba99b3	0.36445388
25	0xbdf98091	-0.12182725
26	0x3f04aac0	0.51823044
27	0x3dd4c2c8	0.10388714
28	0x3e554f32	0.20830992
29	0xbe9ccd3b	-0.30625328
30	0x3dd260f2	0.10272397
31	0x3e919db6	0.28440636
32	0x3ed9b1b7	0.42518398
33	0xbe88521d	-0.26625147
34	0x3eb30cfa	0.34970838
35	0x3e041dd4	0.12902004
36	0xbe2415da	-0.1602396
37	0x3f7d0160	0.98830223
38	0xbcd9cc19	-0.02658658
39	0x3e23c350	0.15992475
40	0x3e68be31	0.22728802
41	0xbcbf0509	-0.02331783
42	0x3f806359	1.0030318
43	0x3d2703ee	0.040775232
44	0x3da42033	0.08013954
45	0xbe91d238	-0.28480697
46	0x3dceb8ee	0.10093866
47	0x3bc19d0d	0.0059086145
48	0xbdf7e5c5	-0.12104372
49	0x3eb0b51e	0.3451318
50	0x3ebfe359	0.3747814
51	0xbd26bf65	-0.04070987
52	0x3df65cdb	0.120294295
53	0xbd405ba2	-0.046962388
54	0x3db20a9b	0.08693429
55	0xbef18936	-0.47174996
56	0x3e7091c3	0.23493104
57	0xbe186730	-0.14883113
58	0xbf5b0214	-0.85550046
59	0x3e96da03	0.29463205
60	0x3ddfc233	0.109257124
61	0xbe09f82f	-0.13473581
62	0x3e60d0b9	0.21954621
63	0xbeb4bd60	-0.35300732
64	0xbe7ead0c	-0.248707
65	0xbe39bf1b	-0.18139307
66	0xbe907a53	-0.28218326
67	0xbec78ca0	-0.38974476
68	0xbec0e21c	-0.37672508
69	0x3e46d73e	0.19418046
70	0x3ea1cc6e	0.3160128
71	0x3eab01b5	0.3339974
72	0xbcd19658	-0.025584385
73	0x3d86fd72	0.065913096
74	0xbcac2b41	-0.021016719
75	0xbea49d77	-0.32151386
76	0x3e294c10	0.16532922
77	0xbe96f3da	-0.2948292
78	0xbe48b621	-0.19600727
79	0x3defde98	0.11712378
80	0xbcdc3c73	-0.026884293
81	0xbe662958	-0.22476709
82	0x3dbfafa7	0.09359675
83	0x3e1fbc0d	0.1559908
84	0x3d63c1f4	0.05560489
85	0xbe3608ac	-0.17776746
86	0xbe28a042	-0.16467384
87	0xbf0e1779	-0.55504566
88	0xbcc4dd72	-0.024031375
89	0x3ef05ce6	0.46945876
90	0xbe98e2c1	-0.298605
91	0x3e58311d	0.21112485
92	0x3d87560b	0.06608208
93	0xbcd47dd5	-0.025938908
94	0x3e12173f	0.1426668
95	0x3daa867d	0.08326433
96	0xbe368293	-0.17823248
97	0xbd63b3ff	-0.05559158
98	0x3e1cadf3	0.15300731
99	0x3e6b2747	0.22964202
100	0xbee5f08c	-0.44910085
101	0x3d64f9d7	0.05590233
102	0x3e109a66	0.14121398
103	0x3e1a125c	0.15046066
104	0xbc7265e9	-0.014794805
105	0xbeaffc39	-0.34372118
106	0x3de64fc0	0.1124568
107	0xbe287eee	-0.1645467
108	0x3e0867fc	0.13320917
109	0x3e47f931	0.19528653
110	0x3e256e92	0.1615546
111	0x3ee83e3d	0.45359984
112	0xbf1fae64	-0.62375474
113	0xbe66d665	-0.22542723
114	0x3e0a5afc	0.1351127
115	0x3e57b6d4	0.21065837
116	0x3d00f944	0.03148772
117	0xbe4c7d33	-0.19969635
118	0xbee5988f	-0.44842955
119	0xbe899126	-0.26868552
120	0x3db2bc8b	0.08727368
121	0xbed697ec	-0.41912782
122	0xbdc959b5	-0.098315634
123	0xbe58c473	-0.2116869
124	0xbeaff485	-0.3436624
125	0xbddedf38	-0.10882419
126	0xbd3e779e	-0.046500795
127	0xbe077153	-0.13226824
128	0xbe4be06a	-0.19909826
129	0x3f185f54	0.5952046
130	0xbe5ea639	-0.21743096
131	0xbcc8d115	-0.02451376
132	0xbde48446	-0.11158042
133	0x3d51ccc2	0.051220663
134	0x3e66819a	0.22510377
135	0xbe3b7881	-0.18307687
136	0x3ed91b9c	0.42403877
137	0x3d8f5fb2	0.07000674
138	0xbdc15bc1	-0.09441329
139	0xbeb8285b	-0.3596829
140	0x3c96b5e7	0.018397285
141	0x3e8233ed	0.2543024
142	0x3f0d26f2	0.5513755
143	0x3e5a72a2	0.21332791
144	0x3d6e8395	0.058230955
145	0x3e6aa71d	0.22915311
146	0xbd3a4ce1	-0.045483474
147	0xbf0d38e2	-0.5516492
148	0x3e920f28	0.28527188
149	0x3ea12223	0.31471357
150	0x3dc9a815	0.09846512
151	0x3e896528	0.2683499
152	0x3de3b72f	0.11118924
153	0x3e4d827e	0.2006931
154	0xbe061cdc	-0.13096946
155	0xbe937b72	-0.2880512
156	0x3e5186dd	0.20461603
157	0x3e8564e0	0.26053524
158	0xbdba2581	-0.090891846
159	0xbdab9a96	-0.08379094
160	0x3e237bc1	0.15965177
161	0xbef2ef3b	-0.47448143
162	0x3ca0aa7b	0.019612541
163	0x3e4567d6	0.19277892
164	0x3dc95519	0.09830684
165	0x3e02bd83	0.12767605
166	0xbdef914c	-0.11697635
167	0xbe79e138	-0.2440232
168	0xbe5a7613	-0.21334104
169	0x3dd6ccae	0.10488258
170	0x3eadb49a	0.3392685
171	0x3ec70706	0.38872546
172	0xbe8085ab	-0.2510198
173	0xbef60146	-0.48047847
174	0xbde7738f	-0.11301338
175	0xbf1250a0	-0.57154274
176	0x3e2f319c	0.17108768
177	0x3eb6a4f6	0.3567273
178	0x3dcd4d42	0.100245014
179	0x3e57092c	0.20999593
180	0x3f12c989	0.5733877
181	0xbe42fbab	-0.19041316
182	0x3f300519	0.6875778
183	0x3f38714b	0.7204787
184	0x3ec4e253	0.38453922
185	0xbf41bf0e	-0.7568215
186	0x3e142565	0.1446739
187	0xbe25356f	-0.16133665
188	0xbcfb1219	-0.030648278
189	0xbe90ef8c	-0.2830776
190	0xbcd597d1	-0.026073368
191	0x3dce47b7	0.10072272
192	0x3e5f3289	0.21796621
193	0xbe083d87	-0.13304721
194	0xbdd5a4ec	-0.10431847
195	0x3e851e9e	0.25999922
196	0x3e694256	0.22779211
197	0xbe19ee7c	-0.15032381
198	0xbf3e8243	-0.74417514
199	0x3ea2d360	0.3180189
200	0xbe9aafdd	-0.30212298
201	0xbe4e4c27	-0.20146237
202	0x3ece5c58	0.40304828
203	0xbdf0e1cc	-0.11761817
204	0xbeff02b0	-0.49806738
205	0xbeb70471	-0.35745576
206	0xbe4c5842	-0.19955543
207	0x3ed35822	0.41278177
208	0x3db7ead7	0.08980339
209	0x3e60dcf5	0.21959288
210	0x3e3d4d07	0.18486415
211	0x3e4240e3	0.18970065
212	0x3dcb918e	0.09939872
213	0xbb238d1b	-0.0024955932
214	0xbe4077ed	-0.18795748
215	0x3efe5010	0.49670458
216	0x3e306938	0.17227638
217	0x3e61bccc	0.22044677
218	0xbcadd1a0	-0.021218121
219	0x3f096905	0.5367587
220	0xbe538c34	-0.20658952
221	0x3f2a37ec	0.6649158
222	0x3e96d0f1	0.29456285
223	0xbe61d41e	-0.22053573
224	0x3f14e37e	0.58159626
225	0xbe0e1fe6	-0.13879356
226	0xbe210120	-0.15723085
227	0x3ed5d162	0.4176131
228	0xbe71882f	-0.23587106
229	0x3e84056a	0.2578538
230	0x3e214f80	0.15752983
231	0xbe61865c	-0.2202391
232	0xbe12eb02	-0.14347461
233	0xbe12da44	-0.14341074
234	0x3e3b952f	0.18318628
235	0x3d964b97	0.07338636
236	0xbe8b1244	-0.27162373
237	0x3ea403a9	0.32034042
238	0x3f020ca2	0.50800526
239	0x3ee42169	0.4455674
240	0x3d23ee68	0.040022284
241	0x3ed1a199	0.40943602
242	0xbe3188cb	-0.17337339
243	0x3e92765c	0.28605926
244	0x3df3561b	0.11881658
245	0x3e2bffe6	0.16796836
246	0xbdf7a13d	-0.12091301
247	0x3ee160bc	0.44019115
248	0xbe857873	-0.26068458
249	0x3f670f9b	0.9025819
250	0xbd673b91	-0.05645329
251	0xbd08d2a7	-0.03340402
252	0x3dea3ce4	0.11437395
253	0xbe85dafe	-0.2614364
254	0x3e5bed69	0.21477284
255	0x3da0dce3	0.07854631

module.conv_layers.6.weight f4 [64, 64, 1, 1]
0	0x3db4d1d3	0.08829083
1	0x3ddb1503	0.10697367
2	0x3e22be2e	0.1589286
3	0x3e94949f	0.2901964
4	0xbe63a189	-0.2222959
5	0xbea9c3f8	-0.33157325
6	0xbe8d4f5b	-0.27599606
7	0xbe5087e0	-0.20364332
8	0x3e026459	0.12733592
9	0xbda954ed	-0.082681514
10	0xbe4e8dde	-0.20171306
11	0x3eafa56b	0.3430589
12	0xbe9c0e20	-0.30479527
13	0x3e2a3786	0.16622743
14	0x3ddd480e	0.10804759
15	0x3e8288ca	0.25494987
16	0x3ec7dddb	0.3903645
17	0xbe15d34e	-0.14631388
18	0x3e1e5c96	0.15465006
19	0xbef54813	-0.4790655
20	0x3e95e869	0.29278877
21	0x3e013d2c	0.12620991
22	0xbd782757	-0.060584392
23	0x3effb339	0.49941424
24	0xbd81a892	-0.0633098
25	0xbe9ba821	-0.3040171
26	0x3d265baf	0.04061478
27	0x3d885e3a	0.06658597
28	0xbeadc1b1	-0.33936837
29	0xbeebfb23	-0.4609004
30	0x3e03ce25	0.12871607
31	0xbb515ca7	-0.0031946094
32	0x3d89d70a	0.067304686
33	0xbe3d5cf9	-0.18492498
34	0xbd8658a0	-0.065598726
35	0x3e0a6b65	0.1351753
36	0xbb836cba	-0.004010764
37	0x3d58248a	0.05276922
38	0x3d85e2f2	0.06537427
39	0x3cc57b79	0.024106728
40	0xbe94360c	-0.28947484
41	0xbd4c8d97	-0.049939718
42	0x3f1f4ff0	0.6223135
43	0xbeefb4b4	-0.46817553
44	0x3d95218c	0.07281789
45	0xbe6c2c70	-0.23063827
46	0x3da612c5	0.08109049
47	0x3dd7b5d2	0.10532726
48	0xbe0683df	-0.13136242
49	0xbe6e2378	-0.23255718
50	0x3e03c061	0.12866355
51	0xbd3240ee	-0.043518953
52	0xbde0bceb	-0.10973533
53	0x3e7edb42	0.24888328
54	0x3e42a49d	0.19008107
55	0x3dee49c3	0.11635163
56	0xbd8d0bf0	-0.068870425
57	0xbe3db4cd	-0.18526001
58	0xbe08ae69	-0.13347782
59	0xbe30c611	-0.17263056
60	0x3dd33f51	0.10314811
61	0x3e0776f4	0.13228971
62	0xbd7b0a87	-0.061289337
63	0xbe7b454f	-0.24538158
64	0x3e83507a	0.25647336
65	0x3ea7aa2e	0.32747024
66	0x3e39c74c	0.18142432
67	0x3dad6b68	0.08467752
68	0x3b138074	0.0022506984
69	0x3e9e2c2d	0.30893078
70	0xbda888aa	-0.082291916
71	0x3be49f18	0.0069769733
72	0xbdc7ae62	-0.09750058
73	0xbdde6eb4	-0.10860959
74	0xbb7c52ab	-0.0038501422
75	0x3da2cd38	0.079492986
76	0xbdbe8a75	-0.09303752
77	0x3eb8792b	0.36029944
78	0x3eba52b1	0.36391214
79	0x3e45b7e7	0.19308434
80	0x3e1d1f14	0.15343887
81	0x3d92f608	0.07175833
82	0xbe19e6f5	-0.1502951
83	0x3e1f149a	0.15535203
84	0xbe2faf3d	-0.17156692
85	0x3cbbea86	0.022938978
86	0xbdb27d07	-0.08715253
87	0x3d9b8e56	0.07595508
88	0x3e716a96	0.23575816
89	0xbccc4539	-0.024935352
90	0x3df2d57c	0.11857125
91	0x3d2d384e	0.042290024
92	0x3e13bd89	0.1442777
93	0x3e192a64	0.14957577
94	0x3db57e9e	0.08862041
95	0x3f04b261	0.51834685
96	0x3d221115	0.039567072
97	0xbd9e4031	-0.07727087
98	0x3d5258d9	0.051354263
99	0x3e0928b3	0.13394432
100	0x3eafe781	0.3435631
101	0xbcca3439	-0.024683105
102	0xbe665262	-0.22492364
103	0x3e44abfb	0.1920623
104	0xbe1bba9d	-0.15207906
105	0xbce498ae	-0.027904835
106	0x3e8c04ef	0.27347514
107	0x3e1cfefd	0.15331645
108	0xbc51d69f	-0.012807517
109	0x3e67b879	0.22628964
110	0x3e6bfef2	0.23046473
111	0x3d00e546	0.031468652
112	0xbd7c1128	-0.0615398
113	0x3ea02fce	0.31286472
114	0xbdd525fc	-0.104076356
115	0x3e5b5b36	0.21421513
116	0xbe1023df	-0.14076184
117	0x3e33f431	0.1757362
118	0x3dec374d	0.11533985
119	0xbe9c69bb	-0.30549416
120	0xbe33dc8a	-0.17564598
121	0x3ddf4446	0.10901694
122	0xbcb8b13c	-0.02254545
123	0xbdbed8b3	-0.09318676
124	0x3d452665	0.04813232
125	0xbd83b176	-0.06430332
126	0xbdf9ea3a	-0.12202878
127	0xbe06e98d	-0.1317503
128	0x3c4ee941	0.012628854
129	0x3dcc19fb	0.09965893
130	0xbc2d30c9	-0.010570713
131	0xbd1691be	-0.036760084
132	0x3ec5b1a1	0.38612083
133	0x3f0f07ea	0.5587145
134	0xbe1960e2	-0.14978364
135	0xbe8da44c	-0.2766441
136	0x3e11104e	0.14166376
137	0x3f24ec5a	0.64423144
138	0x3e7a02a4	0.2441507
139	0xbc91fcda	-0.017820764
140	0xbe93e5be	-0.28886217
141	0xbe95a2d6	-0.29225796
142	0xbe6ff2d0	-0.2343247
143	0xbf2c465c	-0.6729486
144	0x3d250375	0.0402865
145	0x3f0306ec	0.51182437
146	0xbf221480	-0.6331253
147	0x3e49f869	0.19723667
148	0x3d93f273	0.07223978
149	0xbe791ac6	-0.2432662
150	0x3e289071	0.1646135
151	0x3d40d59d	0.047078717
152	0xbe0657b4	-0.13119394
153	0xbe47b391	-0.19502093
154	0xbed02f4e	-0.4066109
155	0xbdaf0894	-0.08546558
156	0x3e21a38f	0.15785049
157	0x3da57106	0.08078198
158	0xbe59205c	-0.2120375
159	0xbede6a42	-0.43440443
160	0x3da2a156	0.07940929
161	0x3e2bbe9a	0.16771927
162	0xbe7a8dfa	-0.24468222
163	0xbeb2d8bc	-0.3493098
164	0xbeb916d3	-0.36150226
165	0x3e916a4a	0.28401405
166	0xbdafe2ff	-0.08588218
167	0x3a31d0a0	0.00067831017
168	0x3e5d84ff	0.21632765
169	0xbe91827a	-0.28419858
170	0x3ea75666	0.32683104
171	0x3ea45c98	0.32101893
172	0x3edde72d	0.43340436
173	0x3eaff050	0.3436303
174	0x3d9be8de	0.07612775
175	0xbecc1f0b	-0.39867434
176	0x3eaa8cc7	0.3331053
177	0x3f0a7f0b	0.541001
178	0xbec26998	-0.37971187
179	0x3eb6af27	0.35680506
180	0x3ec9aee8	0.39391255
181	0xbdb0cd93	-0.0863296
182	0xbdd4e00d	-0.10394297
183	0xbdd0dc37	-0.10198253
184	0x3f04ef71	0.5192786
185	0x3d9eeb68	0.07759744
186	0xbe25021d	-0.16114087
187	0x3e0094cf	0.12556766
188	0x3ed898e0	0.42304134
189	0xbdcd78dd	-0.100328185
190	0xbd500dbf	-0.05079436
191	0x3d4ce29c	0.0500208
192	0x3ed351ab	0.41273245
193	0x3dc2d193	0.09512629
194	0xbce1fc02	-0.027585987
195	0xbe1c0757	-0.15237175
196	0xbe8f28a4	-0.27960694
197	0x3eccd008	0.40002465
198	0xbee6a633	-0.45048675
199	0x3e970b2f	0.2950072
200	0x3c2ea066	0.010658359
201	0x3e8c6076	0.27417344
202	0x3e205e43	0.15660958
203	0xbd42f4a4	-0.04759659
204	0x3d43b3ef	0.04777902
205	0xbd3d04a6	-0.04614701
206	0xbe6cc8b8	-0.23123443
207	0x3f130611	0.5743113
208	0xbbd23d83	-0.006416024
209	0xbe010a59	-0.12601604
210	0xbc362da6	-0.011119282
211	0xba8bd492	-0.0010668209
212	0xbe1ff3e3	-0.15620379
213	0x3d436662	0.04770506
214	0x3ebf258e	0.3733334
215	0x3edd14bc	0.43179882
216	0x3e2ce0a5	0.1688257
217	0x3e136bf7	0.14396654
218	0xbcba83f4	-0.022767998
219	0xbf1c13cc	-0.6096771
220	0xbe02e268	-0.1278168
221	0xbeeccae2	-0.46248537
222	0xbeafb7ee	-0.34320015
223	0xbe937891	-0.28802922
224	0x3e3f10ef	0.18658803
225	0xbedb7c58	-0.42868304
226	0xbd82458e	-0.06360923
227	0xbeaf7d07	-0.34275076
228	0x3d65c30a	0.056094207
229	0xbf25496c	-0.6456516
230	0x3f2dcd1a	0.67891085
231	0x3edcfea4	0.43163025
232	0x3e1aab31	0.15104367
233	0x3eb53085	0.3538858
234	0xbd138dcf	-0.03602391
235	0x3e8d5f06	0.2761156
236	0x3e88a143	0.26685533
237	0x3e653976	0.22385201
238	0xbbecc8b5	-0.0072260746
239	0xbe531760	-0.20614386
240	0xbe268ef7	-0.16265474
241	0xbd7ae8ba	-0.0612571
242	0x3df11386	0.11771302
243	0x3eb66951	0.35627225
244	0xbd77e622	-0.060522206
245	0xbd827f2f	-0.063719146
246	0xbc5699c8	-0.013098188
247	0xbecbb1c4	-0.39784062
248	0xbe79a665	-0.2437988
249	0x3e99dfb2	0.30053478
250	0xbe66985a	-0.22519055
251	0x3c950181	0.018189194
252	0x3e268d84	0.16264921
253	0xbedacbea	-0.427337
254	0x3e2c3381	0.16816522
255	0xbd0c4e7f	-0.034254547
