denoisers/multi_scale/celebA_320x320_gray/noise_range_0to255_RF_13x13_scale_2/model.pt (torch, 883282 bytes, 59 tensors)

module.conv_layers.0.weight f4 [64, 4, 3, 3]
0	0xbe32748f	-0.17427276
1	0xbeacb5ae	-0.3373236
2	0x3e5956ad	0.2122447
3	0x3e7880cf	0.24267887
4	0xbd05ff67	-0.032714274
5	0x3f03ca3d	0.51480466
6	0x3e0099ac	0.12558621
7	0xbea23fb8	-0.3168924
8	0xbe374601	-0.17897798
9	0x3ef04ab9	0.4693201
10	0x3e8daa8a	0.27669173
11	0x3e6e59fb	0.23276512
12	0xbef3f8c3	-0.47650728
13	0x3f19f9c9	0.60146767
14	0xbe053052	-0.13006714
15	0xbdad6f20	-0.08468461
16	0xbeaca576	-0.33719987
17	0xbe23d377	-0.15998636
18	0x3e40a263	0.18811946
19	0x3c26a7b9	0.010171824
20	0xbd3a9651	-0.04555351
21	0xbe0f565d	-0.13997789
22	0x3e74e037	0.23913656
23	0x3e36b85b	0.17843764
24	0x3e952b27	0.29134485
25	0x3c89fd4a	0.01684441
26	0xbe43247e	-0.1905689
27	0xbd976cc5	-0.07393793
28	0xbd8f5b01	-0.069997795
29	0xbe19e185	-0.15027435
30	0x3f18e0e2	0.59718144
31	0x3f2323a5	0.63726264
32	0xbecb2b12	-0.39681298
33	0x3e076c2e	0.13224861
34	0xbe2576ed	-0.16158648
35	0xbe3e6ffd	-0.18597408
36	0xbd096cd5	-0.033551056
37	0x3ed3215d	0.41236392
38	0xbe9aee48	-0.3025992
39	0x3f237f47	0.63866085
40	0xbc55ff4c	-0.013061356
41	0x3cefa8a8	0.029255226
42	0xbeec1969	-0.46113136
43	0xbe5e121e	-0.21686599
44	0xbe1ed70f	-0.15511726
45	0xbe0270df	-0.1273837
46	0x3da84cac	0.08217749
47	0xbdc5d9d4	-0.09660688
48	0x3ecca2d7	0.39967987
49	0xbf1ce86a	-0.61292136
50	0xbe9a3d7a	-0.30125028
51	0x3e18160a	0.14852157
52	0x3dac1e7d	0.08404253
53	0xbe3ef5fd	-0.18648525
54	0x3e67de17	0.22643314
55	0xbe222681	-0.15835
56	0xbdb7adc1	-0.08968688
57	0x3c311328	0.01080779
58	0x3ef119e2	0.4709006
59	0x3e1f1f81	0.15539362
60	0x3d61fd68	0.055173308
61	0x3e5643b8	0.2092427
62	0x3e8abd11	0.2709737
63	0xbe058695	-0.1303962
64	0xbeb2d8b3	-0.34930953
65	0x3e15023f	0.14551638
66	0xbe815226	-0.25257987
67	0xbde981e9	-0.114017315
68	0x3e3297fb	0.17440788
69	0xbe1e8d0d	-0.15483494
70	0x3dab0b74	0.08351794
71	0x3ea706a3	0.3262225
72	0xbcb6e124	-0.022324152
73	0x3e18770b	0.14889161
74	0x3e7315a4	0.23738724
75	0xbeb33fdd	-0.3500966
76	0x3d05cfd2	0.032668896
77	0xbe8ec274	-0.2788273
78	0x3e87bcce	0.26511234
79	0x3db4e9da	0.08833666
80	0xbd9e94b3	-0.07743206
81	0xbf0073bf	-0.50176615
82	0x3e297fef	0.16552709
83	0xbdee1b58	-0.11626309
84	0xbea1f267	-0.3163025
85	0xbee4e408	-0.44705224
86	0x3dfb2e1a	0.122646526
87	0x3e11835e	0.14210269
88	0xbd87d4f7	-0.06632417
89	0xbe9f387b	-0.3109778
90	0x3dab1bd9	0.08354921
91	0xbeeb5ade	-0.45967764
92	0x3e167519	0.14693107
93	0xbb4628c0	-0.0030236691
94	0xbe876197	-0.26441643
95	0x3ed720a2	0.42017084
96	0x3c674659	0.014115893
97	0xbdb2aabc	-0.08723971
98	0x3e217172	0.15765932
99	0xbe4f6cbf	-0.20256327
100	0xbe847de0	-0.25877285
101	0xbe2b64c2	-0.16737655
102	0x3dd4057c	0.103526086
103	0x3f3f9eab	0.74851483
104	0x3e2dc805	0.16970833
105	0xbdd74321	-0.10510851
106	0x3d3939a0	0.04522097
107	0xbe6d7fa0	-0.23193216
108	0x3dfe0dfc	0.12405011
109	0xbed25912	-0.4108358
110	0xbf06676c	-0.5250156
111	0xbd6a5f6e	-0.057219915
112	0xbd4a1416	-0.04933556
113	0x3efcf7ca	0.49407798
114	0xbc49ab45	-0.0123089
115	0x3efd8649	0.49516514
116	0xbd98a8da	-0.07454081
117	0x3e70087c	0.23440737
118	0xbeab8b02	-0.33504492
119	0x3df70ca8	0.12062961
120	0xbe885486	-0.26626986
121	0x3ec64362	0.38723284
122	0x3e233b9e	0.15940711
123	0xbd13c002	-0.036071785
124	0xbe202754	-0.15640002
125	0xbe704cf1	-0.23466851
126	0xbd831cf1	-0.064020045
127	0x3e050fda	0.12994328
128	0x3e5b2ad0	0.2140305
129	0x3ddabb72	0.106802836
130	0xbec313ed	-0.3810114
131	0xbe175cef	-0.14781545
132	0xbbaf9184	-0.005357923
133	0xbed8649d	-0.42264262
134	0xbdf37283	-0.11887076
135	0x3dcece63	0.10097959
136	0x3ed30745	0.41216484
137	0xbd9405af	-0.072276466
138	0xbe10f4ba	-0.14155856
139	0xbeed74a4	-0.46378052
140	0xbe07f8d6	-0.13278517
141	0xbe045c5d	-0.12925859
142	0xbe79133d	-0.24323745
143	0xbe5dd9b5	-0.2166508
144	0x3eb517f6	0.35369843
145	0xbea686fe	-0.32524866
146	0xbe02b8af	-0.12765764
147	0x3e518131	0.20459439
148	0xbf5895c2	-0.8460351
149	0x3f41fe6e	0.75778854
150	0xbe56ba5e	-0.20969531
151	0x3e306a0b	0.17227952
152	0xbce118fb	-0.027477732
153	0xbc6ed2b1	-0.0145766
154	0x3e96eec7	0.29479048
155	0xbc32c381	-0.01091087
156	0x3e325d50	0.17418408
157	0x3f48c2fc	0.7842252
158	0x3dcd711a	0.10031338
159	0xbdb75e64	-0.089535505
160	0xbe0337e6	-0.12814292
161	0x3d546634	0.05185528
162	0xbe8bcc9e	-0.27304548
163	0xbdfd8446	-0.12378745
164	0x3d59fdf9	0.053220723
165	0x3e5119b1	0.20419957
166	0x3e1bf2ec	0.15229386
167	0x3da0fbc2	0.07860519
168	0xb8f39d2b	-0.00011616418
169	0x3e0b3ec3	0.1359816
170	0x3e7a4dc3	0.24443726
171	0x3dc03737	0.093855314
172	0x3e6ec452	0.23317078
173	0x3e26d9dd	0.16294046
174	0xbc5304e7	-0.012879587
175	0x3f0acccc	0.54218745
176	0x3e5a7b77	0.2133616
177	0x3c0d452c	0.008622449
178	0xbf017fd5	-0.5058568
179	0x3e5126df	0.20424984
180	0xbe34695d	-0.17618318
181	0xbd591947	-0.053002622
182	0xbe61af46	-0.22039518
183	0xbe6b896a	-0.23001638
184	0x3f1e018e	0.6172112
185	0x3e28645e	0.16444537
186	0xbea7dce7	-0.32785723
187	0x3ee59ed3	0.44847736
188	0xbe9fd238	-0.31215072
189	0xbeacc3f3	-0.33743247
190	0xbda7964a	-0.08182962
191	0x3e0afb1f	0.13572358
192	0x3ddfef7e	0.109343514
193	0x3eaa04b1	0.33206704
194	0x3e8dd177	0.27698871
195	0xbe5e4303	-0.2170525
196	0xbea3b2d6	-0.31972378
197	0x3d94f1fc	0.07272717
198	0xbdd5be18	-0.10436648
199	0xbebb5d49	-0.36594608
200	0x3d3a10f8	0.04542634
201	0x3ea90373	0.33010444
202	0x3e157af8	0.1459769
203	0xbe9e9423	-0.30972394
204	0x3eb637aa	0.35589343
205	0xbdaab813	-0.083358906
206	0x3e805f5e	0.2507276
207	0x3e240b76	0.16019997
208	0x3efc108e	0.4923138
209	0xbef417b5	-0.47674337
210	0xbe2123b0	-0.1573627
211	0x3ef8f24f	0.48622367
212	0x3daf17a5	0.08549432
213	0x3e06f9bd	0.13181205
214	0x3e0ce6f0	0.1375997
215	0x3ee5e7dd	0.4490346
216	0x3d6f5108	0.058426887
217	0xbe76c909	-0.24100126
218	0x3ea12fb9	0.31481722
219	0x3ef62ea5	0.48082462
220	0xbf08e97f	-0.53481287
221	0xbe9cd3a7	-0.30630228
222	0xbce6c346	-0.028169286
223	0xbbf7c647	-0.0075614783
224	0x3e9fe5fc	0.31230152
225	0x3e2f8cdd	0.17143579
226	0xbee1296d	-0.43976918
227	0x3ee29ac9	0.44258717
228	0xbe52c909	-0.20584501
229	0x3d073c3b	0.033016425
230	0x3ea63c76	0.32468003
231	0xbd09563d	-0.03352951
232	0x3df13154	0.11776987
233	0x3e987724	0.29778397
234	0xbe478179	-0.19482984
235	0x3e883662	0.2660399
236	0xbcc78a12	-0.02435783
237	0x3c8727cd	0.01649847
238	0xbe226685	-0.1585942
239	0xbe8862f4	-0.26637995
240	0xbb777805	-0.0037760746
241	0x3e34220d	0.17591114
242	0x3cabaeb9	0.020957338
243	0x3daae4c0	0.08344412
244	0xbea55bde	-0.32296652
245	0xbe2029b0	-0.15640903
246	0x3e8ed8f7	0.27899906
247	0x3eb01ac9	0.34395435
248	0x3d5c7bdb	0.053829055
249	0x3cc822e9	0.024430709
250	0x3d1be540	0.038060427
251	0xbe2e4cc6	-0.17021474
252	0xbd8279aa	-0.06370862
253	0xbe716036	-0.23571858
254	0xbe04304a	-0.12909046
255	0x3e9a1a00	0.3009796

module.conv_layers.1.weight f4 [64, 64, 1, 1]
0	0xbca550bc	-0.020180099
1	0x3ea90eee	0.33019203
2	0xbda74137	-0.081667356
3	0xbd8dd2bb	-0.06924959
4	0x3f153263	0.5828001
5	0x3ea642d3	0.32472858
6	0x3e65833f	0.22413348
7	0xbe0cb522	-0.13740972
8	0xbc9fe6b7	-0.019519193
9	0xbeda1e82	-0.426014
10	0xbe49acdf	-0.19694851
11	0xbe3a634f	-0.18201946
12	0xbe635274	-0.22199422
13	0x3e0a4b7a	0.13505355
14	0x3ec6af4e	0.38805622
15	0x3d81e0f3	0.06341734
16	0x3e666268	0.22498477
17	0x3ee4f679	0.44719294
18	0xbca9d739	-0.020732509
19	0x3e5ee7d0	0.21768117
20	0x3da411bc	0.08011195
21	0xbea11e8c	-0.31468618
22	0xbdc2a552	-0.095041886
23	0x3e201ccc	0.15635985
24	0x3d8e99e5	0.06962947
25	0x3cd62e68	0.026145175
26	0x3f12c5b7	0.5733294
27	0xbea5cc26	-0.32382315
28	0x3ee0739c	0.43838203
29	0x3e3f461b	0.18679087
30	0xbe27e002	-0.16394046
31	0x3b800ed3	0.003908017
32	0x3e032969	0.12808765
33	0x3e4e58d3	0.20151071
34	0xbd828eb2	-0.06374873
35	0x3e5aff96	0.21386561
36	0x3e49c59c	0.19704288
37	0x3dd4a110	0.10382283
38	0x3f0b1301	0.5432587
39	0xbdccb22e	-0.099949226
40	0xbe2592ad	-0.16169234
41	0x3e6e8b85	0.2329541
42	0x3e42a678	0.19008815
43	0x3e6fbb83	0.23411374
44	0x3e6a50f6	0.22882447
45	0xbed9beea	-0.42528468
46	0xbedacc3f	-0.42733952
47	0x3afad4b6	0.0019136879
48	0xbd65de80	-0.056120396
49	0x3e3c4e58	0.18389261
50	0x3ea2c32b	0.31789526
51	0xbed3c0d9	-0.4135807
52	0x3c3c73a9	0.011502185
53	0x3db6e190	0.089297414
54	0x3ca00244	0.01953233
55	0xbed60fcc	-0.41808927
56	0xbe2a8108	-0.16650784
57	0x3e9566c4	0.29179966
58	0xbe38b92a	-0.18039384
59	0x3c95a4a1	0.018266978
60	0x3e1892dc	0.14899772
61	0xbe12de9a	-0.14342728
62	0x3e9f8a20	0.3116007
63	0xbf1f5837	-0.6224398
64	0xbd2bcbf4	-0.04194255
65	0x3e416a40	0.18888187
66	0xbd58cc99	-0.052929495
67	0x3c0f0a5b	0.008730496
68	0x3e13ebc8	0.14445412
69	0xbe7db172	-0.24774721
70	0x3e13c7a2	0.14431623
71	0x3ee5bbd0	0.44869852
72	0x3db02f5b	0.08602782
73	0x3ee09d51	0.43870023
74	0x3e877115	0.26453462
75	0xbea2cf63	-0.31798849
76	0x3c7fd3b7	0.015614442
77	0x3ed558d1	0.41669324
78	0xbd8f4cfe	-0.06997107
79	0xbb61b3c9	-0.0034439436
80	0xbea8a086	-0.3293497
81	0xbdb3b7e1	-0.087753065
82	0xbde9d6a6	-0.11417894
83	0x3e2f54fc	0.17122263
84	0x3dd421a6	0.103579804
85	0x3eb4dbdb	0.35323986
86	0x3ed02b74	0.40658152
87	0x3e8af76d	0.27141896
88	0xbe52dcce	-0.20592043
89	0xbe355593	-0.17708425
90	0xbab7aca2	-0.001401324
91	0xbdf4b140	-0.1194787
92	0xbe5f24bf	-0.21791361
93	0xbdbe0495	-0.09278218
94	0xbd005acd	-0.031336594
95	0xbea2ad03	-0.31772622
96	0xbdaa58c8	-0.08317715
97	0x3d8d8012	0.06909193
98	0xbde309a7	-0.110858254
99	0x3e11d291	0.14240481
100	0xbe24aab5	-0.16080745
101	0xbf10d660	-0.5657711
102	0xbc908408	-0.017641082
103	0x3e8faf70	0.28063536
104	0xbd298d3f	-0.04139447
105	0x3e5c46d1	0.2151139
106	0x3e502f49	0.20330538
107	0x3e2a3dc1	0.1662512
108	0xbe2db1a4	-0.16962296
109	0xbe3c950c	-0.18416232
110	0xbda8d03b	-0.08242842
111	0xbd4728be	-0.04862284
112	0xbde26052	-0.11053528
113	0x3e04a1c2	0.1295233
114	0xbe14d975	-0.14536078
115	0x3d55cd77	0.0521979
116	0xbee32387	-0.44363043
117	0xbee80057	-0.4531276
118	0x3ef1560a	0.47135955
119	0x3e432382	0.19056514
120	0x3e2ca7f3	0.16860943
121	0xbdc8f846	-0.098129794
122	0xbea85bdd	-0.32882586
123	0x3ef2497d	0.47321692
124	0x3de5d7c5	0.112227954
125	0x3eaa0f5c	0.33214843
126	0xbe5038e7	-0.20334207
127	0x3e9aae93	0.30211315
128	0xbe82e980	-0.2556877
129	0x3e2d8692	0.16945866
130	0x3c886802	0.016651157
131	0xbf02e8be	-0.51136386
132	0x3ce2bced	0.027677977
133	0xbe592643	-0.21206002
134	0x3d5675da	0.052358486
135	0xbea9b1e2	-0.33143526
136	0x3d973fca	0.07385214
137	0xbd115a24	-0.035486355
138	0xbe8e0ddc	-0.2774495
139	0xbe8f75b5	-0.2801949
140	0xbf033e10	-0.51266575
141	0x3d918d2f	0.07107007
142	0x3eccff94	0.4003874
143	0xbd95df1c	-0.07317945
144	0x3bf4dcdb	0.007472617
145	0xbdf04786	-0.11732392
146	0xbe5df091	-0.216738
147	0x3d8169c1	0.06318999
148	0x3e57d862	0.21078637
149	0x3f087314	0.53300595
150	0x3d768d22	0.06019319
151	0x3e64555f	0.22298191
152	0xbdf1f38f	-0.11814033
153	0xbe8f4de8	-0.27989125
154	0x3e6bf36c	0.23042077
155	0x3c35cb9a	0.011095906
156	0x3f55fec1	0.8359185
157	0x3e2f7bf6	0.17137131
158	0x3ea3d34c	0.31997144
159	0xbe0c2b12	-0.13688305
160	0x3ea1bbe7	0.3158867
161	0xbf516bd4	-0.8180516
162	0x3e310eb3	0.17290764
163	0x3f1c5942	0.61073697
164	0x3c42140b	0.011845599
165	0xbe8b0543	-0.27152452
166	0x3e527d4e	0.20555612
167	0xbf161eca	-0.5864073
168	0xbf5b209f	-0.8559665
169	0x3be2371c	0.006903542
170	0x3f02067e	0.50791156
171	0x3f35de64	0.71042466
172	0x3e2396ce	0.15975496
173	0x3e76c76d	0.24099512
174	0xbd5e9252	-0.05433876
175	0xbe1e3f60	-0.15453863
176	0xbfbef898	-1.4919615
177	0xbe90eb83	-0.2830468
178	0xbf61bb1b	-0.88176125
179	0xbe3d8de1	-0.18511154
180	0xbee6ebb3	-0.451017
181	0xbd6cef98	-0.057845682
182	0x3e688e68	0.22710574
183	0x3b2bdd03	0.0026224263
184	0x3e0cec00	0.13761902
185	0xbd808fac	-0.06277403
186	0xbe070011	-0.13183619
187	0x3ea4c685	0.32182708
188	0xbdc1de7e	-0.09466265
189	0xbdc0857e	-0.094004616
190	0xbe0f7ad3	-0.14011697
191	0x3e60ea7c	0.21964449
192	0xbeb5699e	-0.35432142
193	0x3d9f11c2	0.07767059
194	0xbd7079e9	-0.058710013
195	0xbe1c8f91	-0.15289141
196	0xbf150166	-0.5820526
197	0x3c87e879	0.016590344
198	0xbead9294	-0.33900893
199	0xbd48d3c9	-0.0490301
200	0x3f1405ca	0.57821333
201	0xbe3f84d1	-0.18703009
202	0xbdda2941	-0.106524
203	0x3ef51745	0.47869316
204	0xbeaa14e3	-0.3321906
205	0x3e0706fc	0.13186258
206	0xbd9770ea	-0.073945835
207	0x3eabf4fd	0.3358535
208	0x3e92ba3c	0.2865771
209	0x3e0c60c7	0.13708793
210	0x3e5516dd	0.20809503
211	0x3e4a8b52	0.19779709
212	0x3d8c7ab7	0.068593435
213	0x3e01681a	0.12637368
214	0x3d375061	0.04475439
215	0x3eb0dfce	0.3454575
216	0xbe3ec096	-0.18628153
217	0xbc6ff1e3	-0.014645073
218	0xbc53c9ed	-0.012926561
219	0xbef02a23	-0.46907148
220	0xbefdf291	-0.49599126
221	0xbe1d3752	-0.15353134
222	0xbe946d88	-0.28989816
223	0x3d98eae0	0.07466674
224	0xbdceeb5b	-0.10103484
225	0x3e91cac5	0.28475013
226	0xbe0dd06d	-0.1384904
227	0x3c8ef741	0.017451884
228	0xbf181e24	-0.5942099
229	0x3eb06032	0.3444839
230	0xbd130f76	-0.035903417
231	0x3d005a04	0.031335846
232	0x3e05be68	0.13060915
233	0x3e94f135	0.29090276
234	0x3f182d2e	0.5944394
235	0x3c0a04c7	0.008423991
236	0x3e3c3d01	0.18382646
237	0x3d573e4c	0.052549645
238	0xbdb7d7c2	-0.089766994
239	0x3d2f8015	0.042846758
240	0x3f4b0369	0.7930208
241	0xbe48c706	-0.19607171
242	0x3e9eaa4f	0.3098931
243	0x3d2540df	0.04034507
244	0x3eecd728	0.462579
245	0xbeb8c282	-0.36085898
246	0x3e081912	0.13290814
247	0xbec18c91	-0.37802556
248	0xbeb819d6	-0.3595721
249	0xbcfc0611	-0.030764611
250	0xbe488e28	-0.19585478
251	0xbddabe66	-0.10680847
252	0xbdc140e7	-0.09436207
253	0x3c7bd376	0.01537024
254	0x3cdb4526	0.026766371
255	0x3d8746ff	0.06605338

module.conv_layers.2.weight f4 [64, 64, 1, 1]
0	0xbe741665	-0.23836668
1	0xbe39e16e	-0.18152401
2	0xbca18c8f	-0.019720344
3	0x3b253774	0.0025210055
4	0xbe02a56d	-0.12758417
5	0x3e994c6e	0.29941124
6	0x3ea6ae21	0.32554725
7	0xbc203ba8	-0.009779848
8	0x3e868632	0.26274258
9	0xbeb77f72	-0.3583942
10	0xbea41c07	-0.32052633
11	0xbf2544ac	-0.6455791
12	0xbee6f7c6	-0.4511091
13	0xbd8a6576	-0.067576334
14	0xbdb23e9c	-0.08703348
15	0x3db55f78	0.088561
16	0xbf6cff11	-0.925767
17	0x3e7ff4b5	0.24995692
18	0xbd00e536	-0.031468593
19	0x3da4ce7f	0.080471985
20	0xba82d64a	-0.0009982076
21	0x3d992542	0.074778095
22	0xbe116c8b	-0.14201562
23	0xbe562424	-0.20912224
24	0xbf06fa9e	-0.5272616
25	0xbf00292c	-0.50062823
26	0x3dbfc71f	0.09364151
27	0x3dc282a2	0.094975725
28	0x3ebda2ec	0.37038362
29	0x3c0a81c1	0.008453787
30	0xbee92e2b	-0.45543036
31	0xbe185be9	-0.14878811
32	0xbf04892a	-0.51771796
33	0xbea00c1c	-0.3125924
34	0xbdf90f6b	-0.12161144
35	0x3ec834d5	0.39102808
36	0xbe2c1ec1	-0.16808607
37	0x3d1150dc	0.035477504
38	0xbe80bc27	-0.2514355
39	0xbd3aeada	-0.04563413
40	0xbda7efcf	-0.08200037
41	0xbe5eac12	-0.21745327
42	0xbf4309ec	-0.76187015
43	0xbed8113b	-0.42200646
44	0x3e070a79	0.13187589
45	0xbecd6f49	-0.40123966
46	0x3df0964f	0.11747419
47	0xbe3c8f83	-0.1841412
48	0xbe6d5e8c	-0.23180598
49	0xbe4599f4	-0.1929701
50	0xbde97ef7	-0.1140117
51	0xbe7c7ea6	-0.24657688
52	0xbe0239c3	-0.12717347
53	0xbe55fe78	-0.20897853
54	0x3e306c97	0.17228924
55	0x3dc913f0	0.09818256
56	0xbd0fb29a	-0.035082437
57	0xba9244ca	-0.0011159417
58	0x3e1c88c1	0.15286542
59	0xbe8965b2	-0.268354
60	0x3e32eb3b	0.17472546
61	0xbd08c511	-0.033391062
62	0x3dbe294c	0.092852205
63	0xbdb4ed65	-0.08834342
64	0x3e6ae3c6	0.22938451
65	0xbe55e8cd	-0.20889588
66	0xbe2d2965	-0.16910322
67	0xbcf860e6	-0.030319642
68	0x3effd32d	0.49965802
69	0xbdc4b78a	-0.0960532
70	0x3e43dbb2	0.19126776
71	0xbe4feb57	-0.20304619
72	0xbe9ab237	-0.30214092
73	0x3eec7b90	0.4618802
74	0xbde2b6a2	-0.11069991
75	0x3d79f564	0.06102504
76	0xbe999c0e	-0.30001873
77	0x3de0d846	0.10978751
78	0xbdbcbf30	-0.092161536
79	0xbe0ac324	-0.13551003
80	0x3e552fa6	0.20818958
81	0xbe7447e0	-0.23855543
82	0x3d85c496	0.065316364
83	0xbe83343a	-0.25625783
84	0x3db432ce	0.08798753
85	0xbd6d4ce5	-0.05793466
86	0x3e4f951d	0.20271726
87	0x3d94f30c	0.0727292
88	0xbce5514c	-0.027992867
89	0x3e2be1cb	0.16785352
90	0xbdcaa28c	-0.098942846
91	0x3e11560a	0.14192978
92	0xbeb3d128	-0.3512051
93	0xbcbf68e9	-0.023365455
94	0xbe31ed74	-0.17375737
95	0x3dbdf7e7	0.09275799
96	0x3cb8f8cd	0.022579575
97	0x3ea79be7	0.32736132
98	0x3c3a6014	0.011375446
99	0x3ec70ba2	0.38876063
100	0x3e2100b5	0.15722926
101	0x3d648d03	0.05579854
102	0xbea709ff	-0.32624814
103	0xbdf8189b	-0.12114068
104	0x3db451cf	0.08804666
105	0x3e0702d9	0.1318468
106	0xbe75f011	-0.2401736
107	0x3e89a11f	0.26880738
108	0x3b5dd690	0.0033849813
109	0xbec5a7d7	-0.38604614
110	0x3e6404ee	0.22267506
111	0xbd6b83c1	-0.057498697
112	0xbe19d5ac	-0.15022916
113	0x3d496880	0.049171925
114	0xbc0f8613	-0.008759993
115	0x3e22a45b	0.15883009
116	0x3a659050	0.0008757161
117	0x3f19cfef	0.60082906
118	0x3d86777f	0.06565761
119	0xbd9da35e	-0.076971754
120	0xbe4bea48	-0.1991359
121	0x3ed23fc0	0.41064262
122	0x3de28a7d	0.11061571
123	0x3e46b7e8	0.19406092
124	0xbdfd7a51	-0.12376846
125	0x3eb3e1a0	0.35133076
126	0x3eb13181	0.3460808
127	0x3e2cf186	0.16889009
128	0xbdb91d1e	-0.09038757
129	0xbe7d4e0c	-0.24736804
130	0xbe27590b	-0.16342561
131	0xbec858f8	-0.39130378
132	0x3d4afa1a	0.04955492
133	0x3f0acf19	0.54222256
134	0xbde9ee7c	-0.114224404
135	0x3e5a86c4	0.21340472
136	0x3e6d7102	0.2318764
137	0xbeb3a13a	-0.35083944
138	0x3ec0fefa	0.37694532
139	0x3ed35e32	0.41282803
140	0x3ee02ed6	0.43785733
141	0x3e82fb6a	0.2558244
142	0xbc01cbe5	-0.007922147
143	0x3d40a89b	0.047035795
144	0x3e4f4c5d	0.20243974
145	0x3d6c9303	0.05775739
146	0x3e875635	0.26432958
147	0xbe1dfb9d	-0.15428014
148	0xbb8dfeeb	-0.004333367
149	0xbdf01c89	-0.11724193
150	0x3db1d38d	0.08682928
151	0x3e3eccbc	0.18632787
152	0x3f5eeab1	0.8707686
153	0x3d9dd918	0.07707423
154	0x3d9e5e6d	0.07732854
155	0x3ea2728f	0.31728026
156	0x3d751b58	0.05984053
157	0xbc22a8fa	-0.009927982
158	0x3e26bd1f	0.16283081
159	0x3e204fa2	0.15655378
160	0x3e38b769	0.18038715
161	0x3ce0aa8e	0.027425077
162	0x3ea04207	0.31300375
163	0x3e01e0d6	0.12683424
164	0xbe07dc37	-0.13267599
165	0x3f1a46eb	0.6026446
166	0x3d81c6e8	0.063367665
167	0xbe2176a0	-0.15767908
168	0x3f05026e	0.5195683
169	0xbc52e7dd	-0.012872663
170	0x3ebd5982	0.36982352
171	0xbed45595	-0.41471544
172	0xbd8a7043	-0.067596935
173	0x3e8cc075	0.27490583
174	0xbebb9dd8	-0.36643863
175	0x3ec460b1	0.3835502
176	0x3eff3a8c	0.49849355
177	0x3eea3189	0.45740917
178	0x3ed2d578	0.4117849
179	0x3e84334f	0.25820395
180	0xbdf7f409	-0.12107093
181	0x3e4cc941	0.19998647
182	0x3e8e0c97	0.2774398
183	0x3e1a0ce1	0.15043975
184	0xbd07aee1	-0.033125762
185	0x3ea1d1c2	0.31605345
186	0x3f0d76bb	0.55259293
187	0x3ee129da	0.43977243
188	0xbd4fe408	-0.050754577
189	0xbe1f6a6d	-0.15567942
190	0x3e5d9a3e	0.2164087
191	0x3eb6ac4c	0.35678327
192	0x3f147af8	0.58000135
193	0xbe840926	-0.2578823
194	0x3e84375b	0.25823483
195	0xbdf7ac17	-0.120933704
196	0x3c27321d	0.010204819
197	0x3db230ea	0.08700736
198	0xbeb1c30f	-0.3471913
199	0xbd14c5e4	-0.036321536
200	0xbcaf92bc	-0.021432273
201	0xbd154a79	-0.036447976
202	0xbd8ae6d7	-0.067823105
203	0xbf114e62	-0.5676023
204	0x3e7d78a0	0.24753046
205	0x3deffe6d	0.1171845
206	0x3eec1cfd	0.46115866
207	0xbd79e320	-0.06100762
208	0xbe03da89	-0.12876333
209	0x3dba3b0d	0.09093294
210	0xbd2958ab	-0.041344326
211	0x3f15b8de	0.5848521
212	0x4002c600	2.043335
213	0xbd03d223	-0.032182824
214	0x3d937642	0.0720029
215	0x3bb26be4	0.0054449905
216	0x3e1c69a4	0.15274674
217	0xbd0675ca	-0.032827176
218	0xbd3d7d0d	-0.046261836
219	0xbdb005d7	-0.08594864
220	0x3e10b981	0.14133264
221	0xbcd355e7	-0.025797797
222	0xbe04f704	-0.12984854
223	0xbe5ec9f8	-0.21756732
224	0xbed929fb	-0.4241484
225	0xbea463a6	-0.32107276
226	0xbb8513ab	-0.0040611825
227	0xbe10cd56	-0.1414083
228	0x3cf18f84	0.029487379
229	0x3e80ce69	0.25157478
230	0x3f5a17ca	0.8519255
231	0xbd6fd3f4	-0.058551744
232	0x3c983223	0.018578595
233	0x3d9e3a83	0.07726004
234	0x3ea754e9	0.3268197
235	0x3d961af2	0.07329358
236	0x3e81fd8e	0.2538876
237	0xbcfd5a78	-0.030926928
238	0xbfbdc79a	-1.4826539
239	0x3c25b6f2	0.010114418
240	0x3fb0692f	1.37821
241	0xbf0007a0	-0.50011635
242	0xbee59b5a	-0.44845086
243	0x3bd6a03a	0.006549862
244	0xbd28c3f6	-0.041202508
245	0xbe41d56d	-0.18929072
246	0xbe0a9cbc	-0.13536352
247	0x3c4f2faf	0.012645646
248	0xbd2ccd3d	-0.042187918
249	0xbc78a848	-0.01517684
250	0xbcb4a835	-0.022052864
251	0xbd14154f	-0.036153134
252	0xbd4aac3a	-0.049480654
253	0x3df9908c	0.12185773
254	0xbda8419f	-0.08215641
255	0x3f0267e7	0.5093979

module.conv_layers.3.weight f4 [64, 64, 1, 1]
0	0x3e18c853	0.14920168
1	0x3e454978	0.19266307
2	0x3d2d63e9	0.04233161
3	0x3a5e9bb5	0.000849183
4	0x3e1e0ab9	0.15433778
5	0xbe03092a	-0.12796465
6	0x3ee2831f	0.44240662
7	0xbe4ca121	-0.19983341
8	0xbf283994	-0.6571286
9	0xbe15a455	-0.14613469
10	0x3d2c9560	0.042134643
11	0xbdc4165c	-0.09574577
12	0x3f4f488d	0.8097008
13	0x3d4d0b74	0.05005975
14	0xbea0d2ba	-0.31410772
15	0x3f671010	0.90258884
16	0xbd964db8	-0.073390424
17	0xbc69299d	-0.014231113
18	0xbf375c8b	-0.71625584
19	0xbddba1fc	-0.107242554
20	0xbee7663d	-0.4519519
21	0xbd9fe024	-0.07806423
22	0x3ec8d040	0.39221382
23	0xbd8aec9e	-0.067834124
24	0xbe0ab4ba	-0.13545504
25	0x39518df2	0.00019984672
26	0x3eed8f78	0.4639852
27	0x3d9a6a2b	0.07539781
28	0x3d929cfd	0.071588494
29	0xbd8b5821	-0.06803919
30	0x3e4d2d58	0.20036829
31	0xbe2a10c4	-0.16607958
32	0x3e4c2ba7	0.19938527
33	0x3f02a2bf	0.5102958
34	0xbe2ee94d	-0.17081185
35	0x3ef44d41	0.4771519
36	0xbead1f69	-0.33813027
37	0xbe4e2b8d	-0.20133801
38	0x3e017e04	0.12645727
39	0x3f64ba0f	0.893464
40	0x3e5db88a	0.21652427
41	0x3ee13a52	0.43989807
42	0xbe84b952	-0.25922638
43	0xbd98bb35	-0.07457582
44	0xbddaa3ec	-0.10675797
45	0xbda3b81a	-0.07994099
46	0x3e30bfbf	0.17260645
47	0xbdbb8857	-0.09156864
48	0x3e0f1702	0.1397362
49	0xbe8f298f	-0.27961394
50	0x3dd3ce1f	0.10342049
51	0xbedd25d4	-0.43192923
52	0xbedea7d8	-0.4348743
53	0xbd9b569a	-0.07584877
54	0xbe4e4fd1	-0.20147635
55	0x3e2c6a79	0.16837491
56	0xbe8bbf29	-0.2729428
57	0x3f8c1689	1.0944377
58	0x3db4c162	0.08825947
59	0xbca575f5	-0.020197848
60	0xbd5643ab	-0.052310627
61	0xbf08f92d	-0.5350521
62	0x3b00fcb5	0.0019681875
63	0x3e1367eb	0.1439511
64	0x3bb4054d	0.005493796
65	0xbc711902	-0.014715435
66	0x3e086678	0.13320339
67	0xbd4934ea	-0.04912273
68	0x3eabc5a2	0.3354922
69	0xbde46e81	-0.111538894
70	0x3ed2a888	0.41144204
71	0xbccd8ed7	-0.025092525
72	0xbef74ec1	-0.48302272
73	0xbdb7afa1	-0.089690454
74	0x39f44b50	0.0004659542
75	0xbe131e79	-0.14367093
76	0xbe2626d4	-0.16225749
77	0x3e134b6a	0.14384237
78	0x3db074a0	0.086159945
79	0x3e99120a	0.29896575
80	0x3da8e2a3	0.082463525
81	0x3e757498	0.23970258
82	0xbee41862	-0.44549853
83	0xbddf7dee	-0.10912691
84	0x3ea01a08	0.3126986
85	0x3d80f650	0.062969804
86	0x3da24757	0.07923763
87	0xbeb3533b	-0.35024437
88	0x3f11dd3c	0.569782
89	0x3eb6b86d	0.3568758
90	0x3d87eb83	0.06636717
91	0xbf43ce7d	-0.7648695
92	0xbdd74c41	-0.10512591
93	0xbd776848	-0.060402185
94	0x3c5af667	0.013364411
95	0x3e4e625d	0.2015471
96	0xbebfd03c	-0.37463558
97	0xbe3f640d	-0.1869051
98	0xbdc32267	-0.09528046
99	0xbd0605cc	-0.032720372
100	0x3f5b220f	0.85598844
101	0x3e43239c	0.19056553
102	0xbec7c328	-0.3901608
103	0x3f166417	0.58746475
104	0xbe88ae39	-0.2669542
105	0xbe83d14b	-0.25745615
106	0xbd3a4978	-0.04548022
107	0x3e6e3bbf	0.23264979
108	0x3ead4f95	0.3384978
109	0xbe8ad142	-0.27112776
110	0xbe7dc5a3	-0.24782424
111	0x3ef1edb8	0.47251678
112	0x3ed1d157	0.40980026
113	0x3eb35fea	0.35034114
114	0x3e1f90d1	0.15582587
115	0xbe2d1d4b	-0.16905706
116	0x3e2fea4f	0.17179225
117	0x3f4e8c9f	0.8068332
118	0xbe244943	-0.16043572
119	0x3e2d2a45	0.16910656
120	0x3eb5df73	0.3552204
121	0x3ccea176	0.025223475
122	0xbe8ae45e	-0.27127355
123	0x3df41091	0.11917222
124	0xbda2ed11	-0.07955373
125	0x3daa4ec4	0.083158046
126	0x3d9aa1d4	0.075503975
127	0xbe938743	-0.28814134
128	0xbd459b97	-0.048244085
129	0xbcf863f7	-0.030321104
130	0x3d928c19	0.07155628
131	0xbe9cc284	-0.30617154
132	0x3e6e2b77	0.23258768
133	0x3e673c7d	0.22581668
134	0x3f55dd7c	0.83541083
135	0x3e18b811	0.14913966
136	0x3c881cfa	0.01661538
137	0x3e8df771	0.27727845
138	0x3e0d88d5	0.13821729
139	0xbea205df	-0.31645104
140	0xbed4a8b8	-0.41534972
141	0x3de4390c	0.11143693
142	0xbe5754ce	-0.21028444
143	0xbe202202	-0.15637973
144	0xbd601c03	-0.054714214
145	0xbe99ba8b	-0.30025133
146	0xbe28bc00	-0.16477966
147	0xbccae0ed	-0.024765456
148	0x3e827cd0	0.2548585
149	0xbf8b0aa3	-1.0862621
150	0x3ca8dc93	0.02061299
151	0x3e6cdc8e	0.2313101
152	0xbe3f2dbc	-0.1866979
153	0x3e90d229	0.2828534
154	0x3e141ea7	0.14464818
155	0x3e5e8788	0.21731389
156	0x3c4573d4	0.012051541
157	0x3cff7ee5	0.031188438
158	0xbec9a60e	-0.39384502
159	0x3f2580fa	0.6464993
160	0x3d2c4f2b	0.042067688
161	0xbb1cd3a6	-0.0023929863
162	0x3d04ff9f	0.03247034
163	0xbc90fceb	-0.017698726
164	0xbe3c16cb	-0.1836807
165	0x3e8a2dc3	0.26988038
166	0xbd5e88c7	-0.05432966
167	0x3ef03d8e	0.46921962
168	0xbeb9ae80	-0.36265945
169	0xbefe2e94	-0.4964491
170	0x3e45b5bf	0.19307612
171	0xbe9545ac	-0.29154718
172	0x3e8281f7	0.2548978
173	0x3f5d6242	0.86478055
174	0xbdfc54bd	-0.1232085
175	0xbf321d95	-0.6957639
176	0x3e71dd3c	0.2361955
177	0x3d2874ca	0.041127004
178	0x3e13e9f8	0.14444721
179	0x3f80a9d7	1.0051831
180	0x3e54b893	0.20773534
181	0x3ec660e2	0.3874579
182	0xbfe095b3	-1.7545685
183	0xbe3d057f	-0.18459128
184	0x3e7ee66e	0.2489259
185	0xbc755b04	-0.014975313
186	0xbe30d87c	-0.17270082
187	0x3f229555	0.6350911
188	0x3ed57609	0.41691616
189	0xbe527c23	-0.20555167
190	0xbeb8131b	-0.35952076
191	0xbe26444f	-0.16236995
192	0x3ed7003b	0.41992363
193	0x3dd7022d	0.10498462
194	0xbeeb7b92	-0.45992714
195	0x3ed679dc	0.41889846
196	0x3ec26aa0	0.37971973
197	0x3dc36a3a	0.095417455
198	0x3f40746d	0.7517765
199	0xbb1d92a6	-0.0024043708
200	0xbe186d7d	-0.14885516
201	0xbe509101	-0.20367815
202	0xbdd45070	-0.10366905
203	0xbd3243d1	-0.043521706
204	0xbdef7096	-0.11691396
205	0xbd5b8c94	-0.053600863
206	0xbeef2568	-0.46708226
207	0xbea2bcc5	-0.31784645
208	0x3d2a2f7f	0.041549202
209	0x3f11c960	0.569479
210	0x3e6a4716	0.2287868
211	0xbebd68b3	-0.36993942
212	0xbc6d6b80	-0.014490962
213	0xbeb92705	-0.36162582
214	0x3d8efc49	0.06981713
215	0xbe123181	-0.14276697
216	0x3ecbc5dd	0.39799395
217	0x3d919a41	0.071095
218	0x3e90926d	0.28236714
219	0xbe1a341e	-0.15058944
220	0x3cddc01d	0.027069146
221	0xbd05c431	-0.032657806
222	0xbeffe577	-0.49979755
223	0x3e3bb4c6	0.18330678
224	0xbecd0bc5	-0.40048042
225	0x3da19d39	0.07891316
226	0x3e4e0d7c	0.20122331
227	0xbdbe4e41	-0.092922695
228	0x3e48a1cd	0.19592972
229	0x3e113a34	0.14182359
230	0xbdc851b5	-0.097812094
231	0x3e5de6f6	0.21670136
232	0xbcef7c40	-0.029234052
233	0xbdfde5a8	-0.12397319
234	0xbb9edc3d	-0.004848032
235	0x3c73b198	0.014873885
236	0xbe0800dd	-0.1328158
237	0xbe214d66	-0.15752181
238	0x3e82243b	0.25418267
239	0x3ea70eaf	0.3262839
240	0xbeb8f0b6	-0.36121148
241	0x3da10e8b	0.07864102
242	0x3edad5a4	0.4274112
243	0xbefb3bda	-0.490691
244	0x3d160716	0.03662785
245	0xbd46ba5b	-0.048517566
246	0xbf1bf4ac	-0.60920215
247	0x3e951851	0.29120114
248	0x3f135ff0	0.57568264
249	0x3e71d458	0.23616159
250	0x3d264b82	0.040599354
251	0x3edc5a3b	0.4303759
252	0xbd871292	-0.06595339
253	0xbd0086aa	-0.031378426
254	0xbf6bac8d	-0.92060167
255	0xbeb17965	-0.3466293

module.conv_layers.4.weight f4 [64, 64, 3, 3]
0	0x3f5056e5	0.8138259
1	0x3f942583	1.1573948
2	0x3f36e6a0	0.71445656
3	0xbeac62f8	-0.33669257
4	0xbe88c964	-0.2671615
5	0x3ebcaee8	0.36852193
6	0xbcba0629	-0.022708016
7	0x3e809445	0.2511312
8	0xbdafa92c	-0.08577189
9	0xbdef3f70	-0.116820216
10	0xbe49e3a1	-0.1971574
11	0xbe9ec6e2	-0.3101111
12	0x3e68eba8	0.22746146
13	0x3ddd911e	0.108186945
14	0xbeb596f6	-0.35466737
15	0xbec76e89	-0.3895152
16	0xbd2442d7	-0.040102806
17	0xbe08c567	-0.13356553
18	0x3dc03292	0.093846455
19	0xbebddbf7	-0.37081882
20	0xbf080cd5	-0.5314458
21	0x3ec1e4b0	0.37869787
22	0x3dfdd4f7	0.123941354
23	0xbdd01831	-0.10160864
24	0x3f2c647a	0.67340815
25	0x3ed979c1	0.42475703
26	0x3ee426ca	0.44560844
27	0x3edb63af	0.4284949
28	0x3e26e89a	0.16299668
29	0x3dbf1a0c	0.0933114
30	0xbde01e69	-0.109433
31	0xbcd7ca83	-0.026341682
32	0xbcb804bb	-0.022463193
33	0xbe97cef5	-0.29650083
34	0xbe0a272b	-0.13491504
35	0x3e7a0024	0.24414116
36	0xbd131bc9	-0.03591517
37	0x3e4b60db	0.19861166
38	0x3de501d1	0.11181987
39	0x3d9c4c17	0.076317005
40	0x3e9fc13e	0.3120212
41	0xbe656905	-0.22403343
42	0xbe012e93	-0.12615423
43	0xbe65dafa	-0.22446814
44	0xbe1e2d72	-0.15447024
45	0x3c3f9f3b	0.011695678
46	0x3bad3bd6	0.005286674
47	0x3cffb2bb	0.031213155
48	0x3d4ab053	0.049484562
49	0x3cbbaecb	0.022910496
50	0xbd0438e2	-0.03228081
51	0xbcae7e02	-0.02130032
52	0xbe4c7a1c	-0.19968456
53	0xbdac48ad	-0.08412299
54	0xbb0d9388	-0.0021602828
55	0xbf232ac8	-0.63737154
56	0xbe81d345	-0.25356498
57	0xbd2308a6	-0.03980317
58	0x3ccf0f95	0.025275985
59	0xbe220fc9	-0.15826334
60	0x3e109daa	0.14122644
61	0x3cc81c1f	0.024427472
62	0x3f60d2fd	0.8782194
63	0x3e453eba	0.1926221
64	0x3f1d9ed2	0.61570466
65	0x3f5984c0	0.84968185
66	0xbe91ea39	-0.2849901
67	0x3e82ac73	0.25522193
68	0x3e21daf5	0.15806182
69	0xbedb0827	-0.42779657
70	0xbe55c155	-0.20874532
71	0xbe94b32e	-0.29042953
72	0xbe98d8d4	-0.29852927
73	0x3e2c52ff	0.16828535
74	0x3e7edddc	0.2488932
75	0xbea6f7b7	-0.32610866
76	0xbe310b92	-0.1728957
77	0x3e6d9a1f	0.23203324
78	0xbea93b08	-0.3305285
79	0xbe4731b4	-0.19452554
80	0x3dd8634c	0.105658144
81	0x3c903272	0.01760218
82	0xbcb740e6	-0.022369813
83	0xbe826379	-0.25466517
84	0xbd20dc51	-0.03927261
85	0x3e09cb6c	0.13456506
86	0xbdc1a067	-0.094544224
87	0xbe973ed2	-0.29540116
88	0x3daac82a	0.083389595
89	0xbd0f72a0	-0.035021424
90	0xbe82d1b6	-0.25550622
91	0xbd78dbe2	-0.06075657
92	0x3eedb33e	0.46425813
93	0xbf04be0e	-0.518525
94	0xbd23ff2c	-0.040038273
95	0x3efae97c	0.4900626
96	0xbef176b8	-0.47160888
97	0x3e6ec3ac	0.2331683
98	0xbdb4cf9f	-0.08828663
99	0xbeda12f3	-0.42592582
100	0xbf7205e1	-0.9454022
101	0xbf542084	-0.82862115
102	0xbe11473b	-0.14187329
103	0x3e74707b	0.23871033
104	0xbe4471b9	-0.19184007
105	0xbda58f22	-0.08083941
106	0x3e5344de	0.2063174
107	0xbe109ee5	-0.14123113
108	0xbdd1422e	-0.10217701
109	0xbe8e1d0b	-0.27756533
110	0xbe9f1cbc	-0.3107661
111	0xbb8b1b35	-0.0042451867
112	0xbea1d3d8	-0.31606936
113	0xbe0f0007	-0.13964854
114	0xbdf9c5ee	-0.12195955
115	0x3dafeab5	0.08589689
116	0x3d86284f	0.06550657
117	0x3e2561e4	0.16150624
118	0xbe674965	-0.22586592
119	0xbef196c7	-0.47185346
120	0xbea5faac	-0.3241781
121	0x3e42d367	0.19025956
122	0x3ea6f1f7	0.3260648
123	0x3ed6f5c3	0.41984376
124	0x3ecd8852	0.40143067
125	0x3e8d9aea	0.27657253
126	0xbf40e709	-0.7535253
127	0xbea360cc	-0.31909788
128	0x3e2cceec	0.1687581
129	0x3f0b01b8	0.542995
130	0x3e312fb2	0.1730335
131	0x3eb7c9c6	0.35896128
132	0xbd4b9604	-0.049703613
133	0xbe900a79	-0.2813299
134	0x3f639399	0.8889709
135	0x3e48b95e	0.19601962
136	0x3ea2e798	0.31817317
137	0x3f868a8a	1.0511029
138	0xbd917e8f	-0.07104217
139	0x3e580528	0.21095717
140	0x3ee84f70	0.45373106
141	0x3e199962	0.14999917
142	0x3ddbd4f5	0.10733978
143	0xbeed64e5	-0.4636604
144	0x3c6875a8	0.014188208
145	0x3d0380b5	0.032105166
146	0xbe6ae48b	-0.22938745
147	0x3c94ccd1	0.01816407
148	0xbb5ffff6	-0.0034179664
149	0xbe2186b8	-0.15774047
150	0xbdf3bb91	-0.1190101
151	0xbd41bc04	-0.047298446
152	0x3e1ea5b0	0.15492892
153	0xbec1085c	-0.3770169
154	0xbe0ff91f	-0.14059876
155	0xbe73278a	-0.23745552
156	0xbd2b6b46	-0.04185035
157	0x3e81031f	0.25197694
158	0xbeb90424	-0.36135972
159	0xbd89e36f	-0.06732833
160	0x3eb547fc	0.35406482
161	0xbe5d5b53	-0.21616869
162	0x3db8169b	0.08988687
163	0xbd7b32c3	-0.061327707
164	0xbe4a9f1e	-0.19787261
165	0xbe7e29b4	-0.24820596
166	0xbe9eff55	-0.31054178
167	0xbed04b4c	-0.40682447
168	0x3d50e693	0.051001143
169	0x3d680a09	0.056650195
170	0xbe3918fd	-0.18075939
171	0x3e5c91f9	0.21540059
172	0xbd351629	-0.044210587
173	0x3d975a81	0.07390309
174	0x3d36124b	0.04445104
175	0xbd44d230	-0.048052013
176	0xbd1c140a	-0.03810505
177	0xbe29a33d	-0.16566177
178	0x3d9c524c	0.076328844
179	0x3db53f04	0.0884991
180	0x3e913410	0.28360033
181	0x3e7db59f	0.24776314
182	0x3f074c55	0.5285085
183	0x3abb52d9	0.0014291658
184	0x3e5a5e16	0.21324953
185	0x3e77ecb8	0.24211395
186	0xbe49af12	-0.1969569
187	0xbe67d321	-0.22639133
188	0xbef979b2	-0.4872566
189	0xbdce3da4	-0.10070351
190	0x3dede291	0.1161548
191	0x3e827444	0.2547933
192	0x3dcc5515	0.099771656
193	0xbe19264b	-0.14956014
194	0xbe99c571	-0.30033448
195	0x3e6b2b74	0.22965795
196	0xbe92ca19	-0.28669813
197	0xbf2f7097	-0.68531173
198	0xbc41d850	-0.011831358
199	0x3e827663	0.25480947
200	0x3f65458d	0.8955925
201	0xbe6ed914	-0.23324996
202	0x3d89fb21	0.06737352
203	0x3eb978b9	0.36224917
204	0x3e2b2e52	0.16716889
205	0x3c8b77a1	0.017024817
206	0x3dd80012	0.105468884
207	0xbdae0024	-0.084961206
208	0xbd374f08	-0.044753104
209	0x3f215de5	0.63033897
210	0xbde74886	-0.112931296
211	0x3eb676d9	0.3563755
212	0x3e1dffd4	0.15429622
213	0x3ee75639	0.4518297
214	0x3e7cc48d	0.24684353
215	0xbe4046b3	-0.1877697
216	0x3e818b4b	0.25301585
217	0xbde1e821	-0.11030603
218	0xbea3a844	-0.31964314
219	0xbe7178a9	-0.23581184
220	0xbd30b658	-0.043142647
221	0xbe8f5f74	-0.28002512
222	0x3f1eb579	0.61995655
223	0x3ed899da	0.4230488
224	0xbc90ad6b	-0.017660817
225	0x3e0f5803	0.13998418
226	0x3dec6197	0.11542051
227	0xbd9e9ef5	-0.077451624
228	0xbd0b8776	-0.034064732
229	0xbd633de1	-0.055478934
230	0x3eb1030c	0.34572637
231	0x3ac3fa36	0.0014951888
232	0xbe479bcd	-0.19493027
233	0xbdf49c0b	-0.11943825
234	0xbe53612b	-0.20642535
235	0xbe518733	-0.2046173
236	0x3f598d4d	0.8498123
237	0xbe1358cd	-0.14389344
238	0xbedb4d54	-0.42832434
239	0x3f0b570a	0.54429686
240	0x3dc34427	0.095344834
241	0x3ded4bac	0.11586699
242	0x3e6bc042	0.2302256
243	0xbe872443	-0.26394853
244	0x3d34a4c9	0.044102464
245	0xbeadd88b	-0.33954272
246	0xbcf58ebb	-0.029975286
247	0x3e0c6c3f	0.13713168
248	0x3e340c48	0.1758281
249	0x3e14470b	0.14480226
250	0xbd85bc9a	-0.065301135
251	0xbd226a42	-0.039652117
252	0x3e129f91	0.14318682
253	0xbdf118c3	-0.11772301
254	0x3ec50657	0.384814
255	0x3ec8d636	0.3922593

module.conv_layers.5.weight f4 [64, 64, 1, 1]
0	0xbe5b3c05	-0.21409614
1	0xbe7ede20	-0.24889421
2	0xbdad9260	-0.084751844
3	0x3ebc05d9	0.3672321
4	0xbea5341f	-0.32266328
5	0xbeef0f9c	-0.46691597
6	0x3ec644e7	0.38724443
7	0xbe00f514	-0.1259349
8	0x3ee81c4e	0.45334095
9	0x3eb9caa1	0.36287406
10	0xbebd30a8	-0.36951184
11	0xbdb8ae96	-0.090176746
12	0x3edb04a6	0.42776984
13	0xbea0c9ae	-0.3140387
14	0x3eee4c77	0.46542713
15	0xbdd59bdb	-0.10430118
16	0x3ef46df9	0.47740152
17	0x3ea5ee4d	0.32408372
18	0xbdd95fca	-0.106139734
19	0xbf440813	-0.7657482
20	0xbde3055f	-0.11085009
21	0xbef4f276	-0.47841233
22	0xbceb9638	-0.028758153
23	0x3ecf61fd	0.40504447
24	0xbec43f37	-0.3832948
25	0xbe250f75	-0.16119178
26	0xbe3c81d6	-0.18408903
27	0x3e8a4c16	0.27011174
28	0x3f12b830	0.573123
29	0xbdb7c2cc	-0.089727014
30	0x3e2c74f2	0.16841486
31	0xbdcda86c	-0.100418895
32	0x3ee183b6	0.440458
33	0x3dd0caf5	0.10194961
34	0x3e4c1c05	0.19932564
35	0x3d22d5b5	0.03975459
36	0x3e52d482	0.20588878
37	0xbf0d4619	-0.55185086
38	0x3ed98ce7	0.42490312
39	0xbd3dfd4e	-0.04638415
40	0xb9524718	-0.00020053645
41	0x3b367d5c	0.0027845716
42	0x3e898826	0.26861686
43	0xbd4bfecf	-0.04980355
44	0x3d911071	0.07083214
45	0x3e589060	0.21148825
46	0xbdc47a7a	-0.09593673
47	0xbddd83ca	-0.108161524
48	0xbdc9927f	-0.09842395
49	0xbe474b6a	-0.19462362
50	0x3dd4b3e8	0.10385877
51	0xbe7e3a25	-0.24826868
52	0x3ea605ce	0.32426304
53	0x3f055b8b	0.5209281
54	0x3dc2cb2d	0.09511409
55	0x3f4890eb	0.7834613
56	0xbe20238d	-0.15638562
57	0xbf80d58e	-1.0065172
58	0x3e521bfd	0.20518489
59	0xbe0870f0	-0.13324332
60	0x3e1fedfe	0.1561813
61	0xbe02dc99	-0.12779464
62	0xbefed362	-0.49770647
63	0x3e27a9d0	0.16373372
64	0x3e5aa8f9	0.2135352
65	0x3e5308cb	0.20608823
66	0xbed331b9	-0.41248873
67	0x3e00b670	0.12569594
68	0xbdf99fb1	-0.12188662
69	0xbebda922	-0.370431
70	0x3e7fad5a	0.24968472
71	0x3dcbaf6c	0.099455684
72	0x3e49909d	0.19684072
73	0x3ef13536	0.4711091
74	0xbdd74dca	-0.10512884
75	0xbe93af7f	-0.2884483
76	0xbcf4fe3a	-0.02990638
77	0xbca98a96	-0.020695966
78	0x3eb26967	0.3484604
79	0xbe09e7a3	-0.13467269
80	0x3d35572a	0.04427258
81	0x3e10ae0a	0.1412889
82	0xbe8c2a66	-0.27376097
83	0x3d5fa44b	0.05460004
84	0xbd07c068	-0.033142477
85	0x3f0f59b7	0.5599627
86	0x3e255772	0.16146639
87	0xbe0207e7	-0.12698327
88	0xbd1c750f	-0.038197573
89	0x3c53424d	0.012894225
90	0x3ee7b2f0	0.45253706
91	0x3ea34072	0.31885105
92	0xbcd2b75d	-0.0257222
93	0xbe9430b2	-0.28943402
94	0x3e2750e2	0.16339448
95	0xbe9a1905	-0.30097213
96	0x3ef403c4	0.47659123
97	0xbdd4ad37	-0.103846006
98	0xbe78db66	-0.24302444
99	0xbe9ea220	-0.30983067
100	0xbe2e36e3	-0.17013125
101	0xbf8d7221	-1.1050454
102	0xbf16c286	-0.5889057
103	0x3d8a521b	0.067539416
104	0xbe658159	-0.22412623
105	0x3d4e3046	0.050339006
106	0xbe0c165b	-0.13680403
107	0xbeef11ee	-0.46693367
108	0x3e86b721	0.2631159
109	0x3f196cc4	0.5993159
110	0xbeff2fb7	-0.4984109
111	0xbeb1713f	-0.34656712
112	0xbcd18735	-0.025577167
113	0xbee4aebd	-0.44664565
114	0xbeb305ee	-0.34965461
115	0xbdf5f459	-0.12009496
116	0x3f498c58	0.7872977
117	0xbe690b16	-0.22758135
118	0x3d8833e6	0.06650524
119	0x3f57b6f1	0.8426352
120	0x3e8440d8	0.25830722
121	0xbeab0f54	-0.33410132
122	0x3e3cbcad	0.18431349
123	0xbe9fbdce	-0.31199497
124	0x3e5e1e80	0.21691322
125	0xbed79226	-0.4210369
126	0xbe82c047	-0.2553732
127	0x3e86d451	0.2633386
128	0xbf22581d	-0.634157
129	0xbe4adeaa	-0.19811502
130	0xbf2cd7e1	-0.67516905
131	0xbddb2ac4	-0.10701516
132	0x3eaec443	0.3413411
133	0xbeff3b5b	-0.49849972
134	0xbec20dd0	-0.37901163
135	0xbdbce59c	-0.09223482
136	0xbd28e6a8	-0.041235596
137	0x3f07e76e	0.5308751
138	0x3b884270	0.0041583106
139	0xbe9f834b	-0.31154856
140	0xbe561fda	-0.20910588
141	0xbe8d6381	-0.27614978
142	0x3d496a9f	0.049173947
143	0xbd8a32b2	-0.067479506
144	0xbe034d56	-0.1282247
145	0xbea3507e	-0.31897348
146	0xbf1efc2c	-0.62103534
147	0xbedb5b7c	-0.42843235
148	0xbe12e728	-0.14345992
149	0x3eeefd7d	0.4667777
150	0x3da6bc52	0.08141388
151	0xbea75765	-0.32683864
152	0x3f21d8e2	0.6322156
153	0xbed4d8cc	-0.41571653
154	0xbedf5197	-0.43616936
155	0xbe6aa1cb	-0.22913282
156	0x3d09bd91	0.03362805
157	0xbeb75ee6	-0.3581459
158	0x3ec09637	0.37614605
159	0x3f944b99	1.158557
160	0xbee21ebf	-0.44164082
161	0x3da6d9e6	0.081470296
162	0x3b75aa0e	0.0037485394
163	0x3d467668	0.048452765
164	0x3d573fd9	0.052551124
165	0x3ea78b26	0.3272335
166	0xbda2ddc7	-0.07952457
167	0x3eaadeaa	0.33373004
168	0x3e0f943d	0.14021392
169	0xbec851f8	-0.39125037
170	0x3e70d08f	0.23517059
171	0x3ce050bb	0.027382245
172	0x3e5e26b5	0.21694453
173	0xbdf0c647	-0.117565684
174	0x3eba815b	0.36426815
175	0x3e8f07b9	0.2793558
176	0xbe8f753b	-0.28019127
177	0x3e73658f	0.2376921
178	0xbde66b8b	-0.11250981
179	0x3d7b869b	0.061407667
180	0xbf994d1c	-1.1976657
181	0xbf0c8e3b	-0.54904526
182	0xbca24545	-0.01980842
183	0xbe8c2dc3	-0.27378663
184	0x3ed0e0e0	0.40796566
185	0xbdc06d38	-0.09395832
186	0xbd78339f	-0.060596105
187	0xbe218358	-0.1577276
188	0xbf031dbf	-0.51217264
189	0xbe9c0f1f	-0.30480286
190	0x3eef8ef4	0.46788752
191	0xbece535b	-0.4029797
192	0x3ca8fd26	0.020628523
193	0x3e2c3cb2	0.16820028
194	0xbda58e55	-0.08083788
195	0xbe0c290d	-0.13687535
196	0x3eb1aa84	0.34700406
197	0xbe77e2bf	-0.2420759
198	0x3df7f2b4	0.12106839
199	0x3dc6e94e	0.09712468
200	0x3e431986	0.19052705
201	0x3deb8972	0.11500825
202	0xbded78dc	-0.11595318
203	0x3f18269c	0.59433913
204	0x3efa72bf	0.4891567
205	0xbda4ce6c	-0.08047184
206	0x3f272174	0.6528542
207	0x3f277c86	0.6542438
208	0x3e2519eb	0.16123168
209	0xbcc65cf0	-0.024214238
210	0x3ee4c8cd	0.4468445
211	0xbd08d7c3	-0.03340889
212	0xbe8a6347	-0.27028868
213	0x3ee0f7a5	0.43938938
214	0xbd3befc2	-0.045882948
215	0xbd42af63	-0.047530543
216	0x3ce3bad1	0.027799042
217	0xbc627bc3	-0.013823452
218	0xbddb89b0	-0.10719621
219	0x3e897f76	0.26855057
220	0x3e1cbf79	0.15307416
221	0xbd4a400a	-0.04937748
222	0xbe14fc60	-0.14549398
223	0x3e3dfe73	0.18554096
224	0x3dd27c1e	0.1027758
225	0xbdc0d0fa	-0.09414859
226	0x3ddbf253	0.10739579
227	0x3e15cb4c	0.14628333
228	0x3c61f6c7	0.013791746
229	0x3e82d630	0.25554037
230	0xbd5a19d7	-0.0532473
231	0xbecacbe5	-0.39608684
232	0xbe37a69f	-0.17934655
233	0xbda09d4c	-0.07842502
234	0x3e13902b	0.14410464
235	0x3e65905b	0.22418348
236	0xbe903044	-0.28161824
237	0x3cd96d5d	0.026541406
238	0xbd9cc175	-0.076540865
239	0xbde60e10	-0.11233151
240	0xbe2e750d	-0.17036839
241	0x3d7696ad	0.06020229
242	0x3ed1e3c3	0.4099408
243	0xbe4aa4f3	-0.19789486
244	0xbe6db496	-0.2321342
245	0xbe2388e3	-0.15970187
246	0xbd9c414f	-0.07629644
247	0xbc8130c6	-0.015770327
248	0x3c409b8b	0.011755834
249	0x3e996b09	0.29964474
250	0xbd29aa07	-0.041421916
251	0xbd25e91e	-0.04050552
252	0x3e5db45a	0.2165083
253	0x3e440323	0.19141822
254	0xbe1af1ae	-0.15131256
255	0x3e20bd64	0.15697247

module.conv_layers.6.weight f4 [64, 64, 1, 1]
0	0x3ed03d40	0.4067173
1	0x3d8024f9	0.06257052
2	0x3e9b0818	0.30279613
3	0x3e908809	0.28228787
4	0x3e06dc86	0.1317006
5	0xbe8e4ff2	-0.27795368
6	0x3dc57d28	0.09643012
7	0xbdb5bdcf	-0.08874094
8	0x3e6d5fe4	0.2318111
9	0xbddbad4c	-0.10726413
10	0x3e046263	0.12928157
11	0x3e41beb7	0.18920408
12	0xbd3f1427	-0.04665008
13	0x3e18ecea	0.14934126
14	0x3ea1a2f4	0.31569636
15	0xbe131905	-0.14365013
16	0x3e19d6f4	0.15023404
17	0x3d8e2fed	0.06942735
18	0xbea7bd05	-0.32761398
19	0x3e8c706f	0.2742953
20	0x3d813526	0.063089654
21	0x3e982f6b	0.29723677
22	0xbe0486ed	-0.12942095
23	0xbc46de59	-0.012137973
24	0x3e2b9baf	0.16758607
25	0xbdb453a4	-0.08805016
26	0xbcfc423a	-0.030793298
27	0x3e6094a7	0.21931706
28	0x3c4fae6b	0.012675862
29	0xbe4b5461	-0.19856407
30	0xbd8415fd	-0.064495064
31	0x3e9830d4	0.29724753
32	0xbde8d164	-0.11368063
33	0x3d9a7cc6	0.0754333
34	0xbef88940	-0.48542213
35	0xbd463d17	-0.048398104
36	0xbdedfc74	-0.11620417
37	0xbd6e3e4d	-0.058164883
38	0xbdba75e7	-0.09104519
39	0x3e94cf64	0.29064476
40	0xbea675f6	-0.32511872
41	0x3c8c60ed	0.017136062
42	0xbeb1dc61	-0.34738448
43	0xbdf18968	-0.11793786
44	0xbe70f8b0	-0.23532367
45	0xbdb6befa	-0.08923145
46	0x3d58f696	0.052969538
47	0xbd3c1ec8	-0.045927793
48	0xbef031b3	-0.46912917
49	0xbeaca406	-0.3371889
50	0xbea1e631	-0.31620935
51	0xbe691d4b	-0.2276508
52	0xbe9e71fc	-0.30946338
53	0xbdab31e1	-0.08359123
54	0xbe856531	-0.26053765
55	0x3e2e65fd	0.17031093
56	0xbf112e6e	-0.5671147
57	0xbf0dac63	-0.55341166
58	0x3ded3c77	0.115837984
59	0xbe39167f	-0.18074988
60	0xbec7c47e	-0.390171
61	0x3bc610b7	0.006044473
62	0x3e6a882c	0.22903508
63	0xbc09cfbe	-0.008411346
64	0xbe110ac1	-0.14164259
65	0x3ed01376	0.40639848
66	0xbf4c4d93	-0.7980587
67	0xbdfc1340	-0.12308359
68	0x3ec16f1f	0.3778009
69	0xbe2e413e	-0.17017075
70	0x3eec6590	0.46171236
71	0x3ed1e961	0.40998366
72	0x3e97a394	0.29616988
73	0x3f1d3460	0.6140804
74	0xbf02a247	-0.51028866
75	0x3e4f068d	0.20217343
76	0xbf429f3a	-0.7602421
77	0x3e87674b	0.26445994
78	0x3e6e3943	0.23264031
79	0x3f5d0a8e	0.8634423
80	0xbe01f8ea	-0.1269261
81	0xbd991ae8	-0.07475835
82	0x3e26993e	0.16269395
83	0x3d7a804a	0.061157502
84	0x3fba82ae	1.457113
85	0xbeca6a27	-0.39534113
86	0x3eca6f68	0.3953812
87	0x3f9238d4	1.1423593
88	0x3e2f7191	0.17133166
89	0xbd20ac8e	-0.03922706
90	0xbd5de00c	-0.054168746
91	0xbf834be3	-1.0257534
92	0xbec766a4	-0.38945496
93	0xbddd03ec	-0.10791764
94	0xbdfe3e52	-0.124142304
95	0x3cf77aac	0.030209862
96	0x3e7f4a7f	0.24930762
97	0xbf29a19c	-0.6626222
98	0x3edea031	0.4348159
99	0x3f6f2b7d	0.9342573
100	0xbe3c7f04	-0.18407828
101	0xbcd132be	-0.025536891
102	0x3e4e0523	0.20119147
103	0x3e386574	0.18007451
104	0xbfab0e52	-1.3363745
105	0x3dc072c7	0.09396892
106	0x3ed78e65	0.42100826
107	0x3edd9759	0.43279532
108	0x3db159d4	0.086597115
109	0xbdf47cd4	-0.119378716
110	0xbcc90044	-0.02453626
111	0xbcf65a66	-0.030072402
112	0xbed918be	-0.4240169
113	0xbf33735c	-0.700979
114	0xbefeb097	-0.49744102
115	0x3e816846	0.25274867
116	0x3f033e52	0.5126697
117	0x3ef1899c	0.471753
118	0xbe89c25f	-0.26906106
119	0x3e4e51e6	0.2014843
120	0xbf0b5bc7	-0.54436916
121	0x3e70f9c2	0.23532775
122	0x3e431dd3	0.19054346
123	0xbd032e9d	-0.032026876
124	0x3f06035d	0.5234888
125	0xbe887fd8	-0.26660037
126	0x3e152aef	0.14567159
127	0x3e4d3fe4	0.20043904
128	0x3c5a3d23	0.01332024
129	0xbefb4450	-0.49075556
130	0xbd9f290a	-0.077714995
131	0x3d5c1513	0.053731035
132	0x3e4a1d85	0.19737823
133	0x39f216b1	0.00046174743
134	0x3f07ca05	0.5304263
135	0xbef2ae0c	-0.47398412
136	0x3dcb6ebb	0.099332295
137	0xbf4219da	-0.75820696
138	0x3f6b12d7	0.9182562
139	0xbe5f795b	-0.21823637
140	0x3f767dc8	0.96285677
141	0xbe729d3c	-0.23692793
142	0x3e328d93	0.17436819
143	0xbdcf9572	-0.10135926
144	0xbe9bf5b3	-0.3046089
145	0xbdc9acb3	-0.09847393
146	0x3e385c1d	0.18003888
147	0x3f199831	0.5999785
148	0xbf6eb427	-0.9324364
149	0x3e0fd0b1	0.14044453
150	0xbe7b581f	-0.24545334
151	0xbeff7079	-0.49890497
152	0x3ea19c4f	0.31564566
153	0x3ddc66a2	0.10761763
154	0xbcd0c252	-0.025483284
155	0x3e81a41c	0.25320518
156	0x3ea59a78	0.32344413
157	0x3ea440fb	0.32080826
158	0x3dec1b2f	0.11528622
159	0xbe9d0939	-0.306711
160	0x3e1ef3dd	0.15522714
161	0x3f2cb424	0.6746237
162	0xbea805bd	-0.32816878
163	0xbeade7f7	-0.33966038
164	0xbdafe3ac	-0.08588347
165	0xbc729c6b	-0.014807801
166	0xbe0072c8	-0.12543786
167	0xbf0a1329	-0.53935486
168	0x3f5f9f91	0.87352854
169	0x3dc1f89d	0.09471247
170	0x3dd1a1cc	0.102359384
171	0xbe2f50ed	-0.17120714
172	0xbe9681ee	-0.29396003
173	0xbe9e0c38	-0.30868697
174	0xbe07032b	-0.13184802
175	0xbed43c43	-0.41452226
176	0x3ee3e5db	0.44511303
177	0x3e91dd90	0.2848935
178	0x3e93384c	0.2875389
179	0xbf8706d8	-1.0548964
180	0xbea7be94	-0.32762587
181	0xbe2602f9	-0.16212071
182	0x3e05fe20	0.13085222
183	0xbeb1a922	-0.3469935
184	0xbe33eaa7	-0.17569982
185	0x3eac09bb	0.33601174
186	0x3f41ac33	0.7565338
187	0x3d87b873	0.06626978
188	0xbe653dfb	-0.22386925
189	0x3eb6e598	0.3572204
190	0xbe4ab646	-0.19796094
191	0xbdac2b03	-0.08406641
192	0x3ef2ccbc	0.47421825
193	0xbee338a1	-0.44379142
194	0xbef855ff	-0.4850311
195	0x3da3f7bf	0.08006238
196	0x3cbaf30c	0.022820972
197	0x3dace638	0.08442348
198	0xbfa8bcaa	-1.3182576
199	0x3e8cbcff	0.27487943
200	0xbe47d677	-0.19515406
201	0x3e165a74	0.14682943
202	0xbe4a7c32	-0.19773939
203	0x3f08b4e2	0.53401005
204	0xbd94ea94	-0.07271305
205	0xbe92ff0c	-0.2871021
206	0x3dd3145b	0.10306617
207	0x3d994b98	0.074851215
208	0xbd96728e	-0.07346068
209	0x3f012e03	0.50460833
210	0x3e3dde02	0.1854172
211	0xbd860879	-0.06544585
212	0xbe2ec20a	-0.17066208
213	0xbf690281	-0.91019446
214	0xbe3b2306	-0.18275079
215	0xbc47df64	-0.012199257
216	0xbe6ee3c7	-0.23329078
217	0xbea9f554	-0.33194983
218	0xbca577f7	-0.020198805
219	0xbda8d7d6	-0.082442924
220	0x3ea486b4	0.3213402
221	0xbde86797	-0.11347883
222	0xbda4250a	-0.08014877
223	0x3ddbac4f	0.10726225
224	0xbd780186	-0.060548328
225	0xbec4bb55	-0.38424173
226	0xbea445fc	-0.32084644
227	0x3df1dd6c	0.11809811
228	0xbea21721	-0.3165827
229	0x3ea37e8e	0.3193249
230	0x3e2075e2	0.15669969
231	0xbd78e830	-0.060768306
232	0xbe611ed7	-0.2198442
233	0x3d03477b	0.03205059
234	0xbe328d29	-0.17436661
235	0xbf05b4cb	-0.52228993
236	0x3e3412d4	0.17585307
237	0x3c09edb3	0.008418488
238	0xbd8c3696	-0.06846349
239	0xbd542a40	-0.051798105
240	0xbe1d1c50	-0.15342832
241	0xbeae859b	-0.34086308
242	0xbe328262	-0.1743255
243	0xbef59ce6	-0.47971267
244	0x3d7cae9f	0.06168997
245	0x3ee4774e	0.44622272
246	0xbef909dc	-0.48640335
247	0xbe287a0e	-0.1645281
248	0x3e5db42f	0.21650766
249	0xbde9228b	-0.11383542
250	0x3d74b920	0.05974686
251	0xbea5632d	-0.32302228
252	0xbe053a2d	-0.13010474
253	0xbf108191	-0.564477
254	0xbe4d8337	-0.20069586
255	0xbd3d7c79	-0.046261285
