denoisers/multi_scale/celebA_160x160_gray/noise_range_0to255_RF_13x13_scale_1/model.pt (torch, 883282 bytes, 59 tensors)

module.conv_layers.0.weight f4 [64, 4, 3, 3]
0	0x3e1ec95b	0.15506499
1	0x3d0ead50	0.034833252
2	0x3eab2b2c	0.33431375
3	0x3d7dcd06	0.061963104
4	0xbd32c7e6	-0.04364767
5	0xbdc5acbd	-0.09652088
6	0x3d4ceed2	0.050032444
7	0x3e89378c	0.2680019
8	0x3b8a2d37	0.004216816
9	0x3d8df9b6	0.06932394
10	0x3e488228	0.195809
11	0xbe8cc16c	-0.2749132
12	0xbe155892	-0.14584568
13	0x3e91a861	0.28448775
14	0x3caec6dd	0.02133506
15	0xbd819f5e	-0.06329225
16	0xbde22ccf	-0.11043703
17	0xbe148197	-0.1450256
18	0x3e6f4bfb	0.23368828
19	0xbe3bb97f	-0.1833248
20	0xbdac0873	-0.08400049
21	0x3e1a4e8c	0.15069026
22	0xbe25fdd3	-0.16210108
23	0x3de2d038	0.11074871
24	0x3dfafb77	0.12254994
25	0x3eb53d2d	0.35398236
26	0x3e5845c4	0.21120363
27	0x3e896672	0.26835972
28	0xbea69671	-0.32536653
29	0xbe5c69bb	-0.21524708
30	0xbdc9f329	-0.09860832
31	0xbe282c39	-0.1642312
32	0xbe566482	-0.20936778
33	0x3d9ab997	0.0755493
34	0x3d0f9e21	0.035062913
35	0xbe355c57	-0.17711006
36	0x3e38bb5d	0.18040223
37	0x3d0326f4	0.03201957
38	0x3ea9cf0a	0.3316577
39	0x3d808a88	0.06276423
40	0xbed5e4ee	-0.41776222
41	0xbe18b244	-0.14911753
42	0x3d29b824	0.041435376
43	0xbc6f8e48	-0.014621325
44	0x3ec82711	0.39092305
45	0x3e96dcd3	0.2946535
46	0xbc17baeb	-0.009260873
47	0x3cc7a984	0.024372824
48	0xbd98ae66	-0.07455139
49	0xbf037385	-0.51348144
50	0xbdca7d3c	-0.09887168
51	0x3e6acebd	0.22930427
52	0xbe89c9e3	-0.2691184
53	0xbea8337e	-0.32851785
54	0x3f05613f	0.5210151
55	0x3cf5f557	0.030024214
56	0xbd864b50	-0.065573335
57	0xbe2468ec	-0.1605565
58	0xbe4aecaf	-0.1981685
59	0xbe98374d	-0.2972969
60	0xbc17cd04	-0.009265188
61	0xbe022ce7	-0.12712441
62	0x3ea8e8de	0.32990164
63	0x3dad9895	0.08476368
64	0x3d89bd86	0.06725602
65	0xbdba178d	-0.09086523
66	0xbe4c7ed4	-0.19970256
67	0xbec2a1a8	-0.3801396
68	0x3d2482cc	0.0401638
69	0xbeab86a1	-0.3350115
70	0xbe4f6bf4	-0.20256025
71	0xbd0dc02a	-0.03460709
72	0xbdbfd5da	-0.09366961
73	0xbe2c4e24	-0.16826683
74	0xbe8cee33	-0.27525482
75	0xbe158130	-0.14600062
76	0x3e8f7821	0.2802134
77	0xbe10c993	-0.14139394
78	0x3e20a97e	0.15689656
79	0x3d5008ba	0.050789572
80	0x3e8c9dea	0.2746423
81	0xbe99700b	-0.29968295
82	0xbd898deb	-0.06716522
83	0xbc5c029a	-0.013428355
84	0x3ec2841b	0.37991413
85	0x3f18dd49	0.59712654
86	0x3e17b3cc	0.14814681
87	0xbdb3e669	-0.087841816
88	0xbd0ba5f7	-0.034093823
89	0x3f0409ac	0.5157726
90	0xbd057424	-0.032581463
91	0xbdfaa8e7	-0.12239247
92	0xbdb08c18	-0.08620471
93	0xbe993980	-0.29926682
94	0xbeec65bb	-0.46171364
95	0x3eb83b5f	0.35982797
96	0x3e9f701a	0.31140214
97	0x3e5b8b7d	0.2143993
98	0x3dc4eb21	0.0961516
99	0x3e3c46e3	0.18386416
100	0x3ea14577	0.3149831
101	0x3b1953c5	0.0023395878
102	0x3e23a9dd	0.15982766
103	0x3f0c9992	0.5492183
104	0x3e09dacb	0.13462369
105	0x3e343e3d	0.17601867
106	0x3cf887c4	0.030338176
107	0x3e5ffbbe	0.21873376
108	0xbd153d03	-0.03643514
109	0x3d2e2865	0.042518992
110	0xbe7b948f	-0.2456839
111	0x3e72d6f3	0.23714809
112	0xbe4e2e1a	-0.20134774
113	0xbe1f553c	-0.15559858
114	0xbd959caa	-0.07305272
115	0xbcc112a6	-0.023568463
116	0xbec27354	-0.37978613
117	0x3dd24628	0.102672875
118	0xbec2e778	-0.38067222
119	0x3e80ff99	0.25195006
120	0x3ea9e0a9	0.33179215
121	0x3efd73e5	0.49502483
122	0x3e87ed71	0.2654834
123	0x3cabc088	0.02096583
124	0x3dbd0dc6	0.09231143
125	0x3cb85cac	0.022505127
126	0x3dd093d4	0.10184446
127	0xbcd4869d	-0.025943095
128	0x3de6578a	0.112471655
129	0x3a53e4d6	0.00080831104
130	0x3ef1516e	0.47132438
131	0x3eb6888a	0.35651046
132	0xbe2146d9	-0.15749682
133	0x3db0ae9a	0.086270526
134	0x3d1a5ce8	0.03768626
135	0x3c4244a3	0.011857185
136	0x3ab8840d	0.001407744
137	0xbc0206a3	-0.007936153
138	0xbf2a981b	-0.66638345
139	0xbcb828f5	-0.022480467
140	0x3e026cdd	0.1273684
141	0xbea1d379	-0.31606653
142	0x3d3464fd	0.044041622
143	0x3cc92115	0.024551908
144	0x3e78ac4f	0.2428448
145	0xbf030ece	-0.51194465
146	0x3e43279f	0.19058083
147	0xbec4064f	-0.38286063
148	0xbe93077a	-0.28716642
149	0x3ed69568	0.41910863
150	0xbcdf698e	-0.027272012
151	0xbe7660f9	-0.2406043
152	0xbde7007e	-0.11279391
153	0x3ee7d759	0.45281485
154	0xbdd0b57f	-0.10190868
155	0x3e0d03c6	0.1377097
156	0xbde8aec0	-0.11361456
157	0xbf2d0c90	-0.67597294
158	0x3e84fef4	0.25975764
159	0x3e07f213	0.13275938
160	0x3e359cce	0.17735597
161	0xb9e863df	-0.00044324898
162	0x3e236b79	0.15958966
163	0x3e0692fb	0.13142006
164	0x3c334b33	0.010943222
165	0x3e52a1ff	0.20569609
166	0x3e7c5339	0.24641122
167	0x3d9548c3	0.07289269
168	0x3e25bb81	0.16184808
169	0x3d4f74f6	0.050648652
170	0x3d3c9ee9	0.046049986
171	0x3eba66f7	0.3640668
172	0xbe11b8f7	-0.14230715
173	0x3e23db4b	0.16001622
174	0x3edb621b	0.42848286
175	0xbc8beff8	-0.0170822
176	0x3b9a5582	0.0047099004
177	0x3e002814	0.12515289
178	0xbe9ad4ef	-0.3024058
179	0x3ea90095	0.33008257
180	0xbde1030e	-0.10986911
181	0xbe0e5266	-0.1389862
182	0x3ea5b407	0.32363912
183	0xbd2c7fa7	-0.042113926
184	0x3e5da0b1	0.2164333
185	0xbeb25e42	-0.34837538
186	0x3eb506fc	0.3535689
187	0xbe9abe1c	-0.30223167
188	0x3df9819d	0.12182925
189	0x3e1a6d73	0.15080814
190	0xbd17d57e	-0.037068836
191	0x3e476d86	0.19475374
192	0xbdb1fe47	-0.08691078
193	0xbe80f848	-0.25189424
194	0x3ebd6cac	0.36996973
195	0xbd84bf1d	-0.064817645
196	0xbe928ef9	-0.28624704
197	0x3dc8c691	0.098034985
198	0x3e23df44	0.16003138
199	0x3ec355ba	0.38151342
200	0xbe2455c9	-0.1604835
201	0xbe270382	-0.16309932
202	0x3e9c74d8	0.30557895
203	0xbd9b945d	-0.075966574
204	0xbe8a21f0	-0.26979017
205	0x3ecabb40	0.39595985
206	0xbc7bf2e1	-0.015377731
207	0x3e1171c7	0.14203559
208	0x3eb6e384	0.35720456
209	0x3ea6556a	0.3248704
210	0x3cc83a3e	0.024441835
211	0x3f288ff7	0.6584467
212	0x3e4d0215	0.20020325
213	0x3ca48d04	0.020086773
214	0xbea856d7	-0.32878754
215	0xbe833115	-0.25623384
216	0xbbddcf0c	-0.0067690667
217	0xbcffbf65	-0.031219194
218	0xbda5269a	-0.08064003
219	0x3c8589e1	0.016301097
220	0xbd96b2fa	-0.07358356
221	0x3d97d48e	0.074135885
222	0xbe967903	-0.293892
223	0xbdc6b109	-0.097017355
224	0x3ed6248c	0.41824758
225	0xbe1dd420	-0.1541295
226	0x3cc0506e	0.023475852
227	0x3e63d2d1	0.22248389
228	0xbe42679c	-0.18984836
229	0xbe8a05f9	-0.26957682
230	0x3e6488b4	0.22317773
231	0x3da96252	0.08270706
232	0x3ca202a6	0.019776653
233	0x3e018058	0.12646616
234	0xbe2a177b	-0.1661052
235	0xbc641270	-0.0139204115
236	0xbd4ef0bb	-0.050522547
237	0xbe1a2d4c	-0.15056342
238	0x3e01ef5f	0.12688969
239	0x3ded5b3a	0.11589666
240	0xbe208ce4	-0.15678746
241	0x3eb6cdba	0.35703832
242	0x3caa01d5	0.020752827
243	0x3c67b2f0	0.014141783
244	0xbdb7d42b	-0.08976015
245	0x3c294ece	0.01033373
246	0xbe9d9cbd	-0.30783644
247	0x3e3a5b22	0.18198827
248	0xbe224a7c	-0.15848726
249	0xbdead991	-0.11467279
250	0xbd441c23	-0.047878396
251	0xbda6da52	-0.0814711
252	0xbec52961	-0.38508132
253	0xbda92d6a	-0.08260615
254	0x3dea075b	0.11427184
255	0xbdc36f05	-0.0954266

module.conv_layers.1.weight f4 [64, 64, 1, 1]
0	0xbd1e486e	-0.038643293
1	0x3c2c46bf	0.010514914
2	0xbe89c1ae	-0.26905578
3	0x3e296998	0.16544187
4	0x3d7ffa70	0.062494695
5	0x3eceef67	0.40417024
6	0x3ef6b4c1	0.4818478
7	0xbe8898ad	-0.26678982
8	0xbe943f04	-0.28954327
9	0xbe2867e7	-0.16445886
10	0xbe04a37f	-0.12952994
11	0xbdb85526	-0.09000616
12	0x3c97bab7	0.01852165
13	0x3dce27ac	0.100661606
14	0xbea2e1cf	-0.31812903
15	0xbe6f7c90	-0.2338736
16	0xbe8f58d8	-0.2799747
17	0x3dee2c70	0.116295695
18	0x3e8b5e10	0.27220201
19	0xbe22c5c4	-0.15895754
20	0x3d82409a	0.06359978
21	0xbdf30c5b	-0.11867591
22	0xbe49a82e	-0.19693062
23	0x3e955b3c	0.2917117
24	0x3caf7dbf	0.021422265
25	0xbe3fa9b6	-0.18717083
26	0x3d8f412e	0.06994854
27	0x3e6b7f4c	0.22997779
28	0x3c1ecdd8	0.009692632
29	0x3c5ce63c	0.0134826265
30	0xbc4612b5	-0.012089421
31	0x3e078ff2	0.13238505
32	0xbee79683	-0.4523202
33	0x3deba179	0.11505408
34	0x3edebf17	0.43505165
35	0xbe9c6045	-0.30542198
36	0xbcc71678	-0.024302706
37	0xbdb7f349	-0.0898195
38	0xbdb2b37e	-0.08725642
39	0x3df1f540	0.11814356
40	0xbc9ec9ec	-0.019383393
41	0x3ec48c3a	0.38388234
42	0xbef3e091	-0.47632268
43	0x3dabaa71	0.083821185
44	0xbd7aa050	-0.061188042
45	0xbbc6bddd	-0.006065114
46	0xbe117876	-0.14206108
47	0xbd0732a1	-0.033007268
48	0xbd906e25	-0.070522584
49	0xbe0441f9	-0.12915792
50	0x3e4c72df	0.19965695
51	0xbd018894	-0.03162439
52	0xbe1d96ce	-0.15389559
53	0xbe05e2ea	-0.13074842
54	0x3e2aadd8	0.16667879
55	0xbdcbb7a9	-0.0994714
56	0x3e0b22fc	0.13587564
57	0xbccf4430	-0.025301069
58	0xbe8af211	-0.27137807
59	0xbe8b6f54	-0.27233374
60	0xbe459d43	-0.19298272
61	0xbced54dd	-0.02897113
62	0xbe4adf99	-0.19811858
63	0x3e1d9ccd	0.15391846
64	0x3e5f77f4	0.21823102
65	0xbe2170e6	-0.15765724
66	0x3d450b90	0.04810673
67	0xbcb7fed3	-0.022460377
68	0x3df76448	0.12079674
69	0xbe276f10	-0.1635096
70	0xbe188544	-0.14894587
71	0x3e5423a6	0.20716724
72	0xbe43d55c	-0.19124359
73	0x3e5fb2cb	0.21845548
74	0xbe73003b	-0.23730557
75	0xbe7ab6c0	-0.24483776
76	0x3e0ce291	0.13758303
77	0x3e18ccb7	0.14921843
78	0xbd5c2a8c	-0.053751513
79	0x3e91a6d6	0.28447598
80	0x3e32e210	0.17469049
81	0xbd8a2249	-0.067448206
82	0xbd9581d1	-0.07300151
83	0x3c263ae2	0.010145875
84	0x3e2936d5	0.16524823
85	0x3e6d0bf4	0.23149091
86	0x3e9b9a85	0.30391327
87	0x3d6ad11b	0.057328325
88	0x3e8590af	0.26086947
89	0x3ea4a7af	0.32159182
90	0xbd8f661a	-0.07001896
91	0x3f029017	0.51001114
92	0xbebec092	-0.37256294
93	0x3ee38b55	0.4444224
94	0x3e86dc1d	0.26339808
95	0xbea1820e	-0.31544536
96	0xbe106863	-0.1410232
97	0x3e715296	0.2356666
98	0xba471ba8	-0.00075953687
99	0xbd002e44	-0.031294122
100	0x3e631863	0.22177272
101	0xbe763a78	-0.24045742
102	0xbbebb75e	-0.00719349
103	0x3cf3f58f	0.029780177
104	0xbed1713d	-0.40906706
105	0x3e369983	0.17831998
106	0x3daeacc2	0.08529045
107	0xbe3e5358	-0.1858648
108	0xbea4bd97	-0.32175896
109	0xbec40c71	-0.38290742
110	0xbe9d8256	-0.307635
111	0xbe95a755	-0.29229227
112	0xbd84bd56	-0.064814255
113	0xbe3eb279	-0.1862277
114	0xbe131cc4	-0.14366442
115	0xbe815f23	-0.25267896
116	0xbe47c1fe	-0.19507596
117	0xbe809c14	-0.25119078
118	0x3e341607	0.17586528
119	0xbeddfa56	-0.43355054
120	0xbd1a1bd5	-0.0376242
121	0xbda49efa	-0.08038135
122	0x3e2e80ad	0.17041273
123	0x3d288db5	0.041150767
124	0x3e685129	0.2268721
125	0xbe2b290d	-0.16714878
126	0x3e24c74e	0.16091654
127	0xbf244fc5	-0.6418422
128	0x3eae2ecd	0.3402008
129	0x3e8aba3a	0.27095205
130	0x3d65cf52	0.05610592
131	0xbe90405c	-0.28174102
132	0xbe771721	-0.24129917
133	0xbb320d87	-0.0027168707
134	0x3de6b51c	0.112650126
135	0x3d1f110c	0.038834617
136	0xbe17003f	-0.14746188
137	0xbe34f1d7	-0.1767038
138	0xbe963454	-0.29336798
139	0xbe033cea	-0.12816206
140	0x3ea4edfc	0.32212818
141	0xbe4b9ed8	-0.19884813
142	0x3f21850a	0.63093626
143	0xbed8a3ec	-0.42312562
144	0x3e91915f	0.28431222
145	0x3e0634dd	0.13106103
146	0x3e0a2228	0.13489592
147	0x3dfd6c1d	0.123741366
148	0x3e9268e0	0.28595638
149	0xbe284082	-0.16430858
150	0xbe455e01	-0.19274141
151	0x3d55d91d	0.05220901
152	0xbdaa0b1e	-0.08302902
153	0x3e506304	0.20350271
154	0x3e08f6f7	0.1337546
155	0x3df3d6ba	0.1190619
156	0xbc5e4b13	-0.013567704
157	0x3edcd27d	0.4312934
158	0x3e3ef8eb	0.18649642
159	0x3e51d2e0	0.20490599
160	0x3df16e56	0.11788623
161	0x3e1b1d30	0.15147853
162	0x3e3743b0	0.17896914
163	0xbd990c00	-0.07472992
164	0xbe5841c5	-0.21118839
165	0x3b596c0c	0.0033175973
166	0x3ddc3f5b	0.107542716
167	0xbbc26bd3	-0.005933264
168	0xbc70875f	-0.0146807125
169	0xbdc64389	-0.0968085
170	0xbeb33319	-0.34999922
171	0xbd5b5c54	-0.053554848
172	0x3dc0e7f4	0.094192415
173	0x3eb46716	0.35234898
174	0x3d07d103	0.033158313
175	0x3dfecf06	0.1244183
176	0xbdb022a6	-0.08600359
177	0xbebbe627	-0.3669903
178	0xbd6479b7	-0.05578014
179	0x3d0af9ac	0.033929512
180	0x3d8c5bfd	0.06853483
181	0x3dbd3ccd	0.092401125
182	0x3cfe7b0e	0.031064536
183	0x3de6720b	0.11252221
184	0x3eda63b1	0.42654184
185	0xbeae1091	-0.33997014
186	0xbca2ba43	-0.019864207
187	0x3d9b7b22	0.07591845
188	0xbe1e4e49	-0.15459551
189	0x3cfd13d3	0.030893242
190	0xbd7a0ba3	-0.061046254
191	0xbe2a98e0	-0.1665988
192	0xbe8f6bbf	-0.2801189
193	0x3d2ea592	0.04263837
194	0x3d8817a1	0.06645132
195	0xbda812a8	-0.082066834
196	0x3ebf70ca	0.3739074
197	0xbea4a02c	-0.3215345
198	0x3e817623	0.25285444
199	0xbe5b10f3	-0.21393184
200	0x3d5fa7da	0.054603435
201	0xbd265357	-0.040606823
202	0xbe2c7a74	-0.16843587
203	0xbbc13197	-0.005895804
204	0x3da506d9	0.08057947
205	0x3d2ee30a	0.04269699
206	0xbd8adaa8	-0.067799866
207	0x3e101d48	0.1407367
208	0x3dcaa12b	0.098940216
209	0x3dadbadb	0.084829055
210	0xbbac4f64	-0.0052584875
211	0xbee0e97e	-0.4392814
212	0xbdc6fb50	-0.09715903
213	0x3dfb2cfe	0.12264441
214	0xbda241e1	-0.07922722
215	0xbe263709	-0.16231932
216	0xbc48028f	-0.012207641
217	0xbea675a6	-0.32511634
218	0x3e35bf3d	0.17748733
219	0x3d98a230	0.0745281
220	0xbd4f4593	-0.05060346
221	0xbdfb4bc1	-0.12270308
222	0x3e247fbb	0.1606435
223	0x3e6b44cb	0.22975461
224	0x3d836474	0.06415644
225	0x3ea5470d	0.3228077
226	0xbe896716	-0.2683646
227	0x3e352edb	0.17693655
228	0x3e4c57b0	0.19955325
229	0x3c72817f	0.014801382
230	0xbe0338ef	-0.12814687
231	0x3bbeadd1	0.0058190604
232	0xbc0568f9	-0.008142703
233	0xbd2b6745	-0.041846532
234	0xbe858358	-0.2607677
235	0x3e17e08b	0.1483175
236	0x3e4b586f	0.19857953
237	0xbe6569f4	-0.22403699
238	0x3e5a4ff9	0.2131957
239	0x3d82af28	0.06381065
240	0xbe30c18d	-0.17261334
241	0x3e2885f5	0.1645735
242	0xbe7be2ef	-0.24598287
243	0xbe5b2a6c	-0.21402901
244	0xbe0f9ea7	-0.14025365
245	0x3ecfdbf0	0.40597486
246	0xbdb2b9dc	-0.08726856
247	0xbda9e99b	-0.0829651
248	0xbcac01f2	-0.020997021
249	0x3d3bad72	0.045819707
250	0xbde5ce11	-0.11220945
251	0xbe2a5dec	-0.16637391
252	0xbca3a001	-0.019973757
253	0xbee02e1d	-0.43785182
254	0xbe15d6fb	-0.1463279
255	0xbdd44a0c	-0.10365686

module.conv_layers.2.weight f4 [64, 64, 1, 1]
0	0x3dbf8e07	0.093532614
1	0x3957499f	0.00020531424
2	0x3e4eaa03	0.20182042
3	0xbe182271	-0.14856888
4	0xbdf8c3a8	-0.121466935
5	0x3cd2d74f	0.025737433
6	0x3e979f15	0.29613557
7	0x3c294f40	0.010333836
8	0xbd12242e	-0.035679035
9	0xbbd41a66	-0.0064728735
10	0x3ca14cef	0.019690005
11	0xbd5668c7	-0.052346017
12	0xbda77aa8	-0.08177692
13	0x3dee6743	0.11640789
14	0xbd1580da	-0.036499836
15	0x3db62f4e	0.088957414
16	0xbbfb6d7e	-0.0076729646
17	0xbc908b36	-0.017644506
18	0x3f7aad3d	0.9792059
19	0xbd902195	-0.07037655
20	0x3d3fbd40	0.046811342
21	0x3d8f51a2	0.06997992
22	0xbca861ea	-0.020554502
23	0xbdf6fe20	-0.12060189
24	0xbcf06e3c	-0.029349439
25	0x3cf5b0a8	0.029991463
26	0x3da96bde	0.08272527
27	0xbe8f59ea	-0.27998286
28	0x3db79397	0.089636974
29	0x3e4e7166	0.20160446
30	0x3d9c7218	0.07638949
31	0x3e8057d4	0.25067008
32	0xbd19eb55	-0.037577946
33	0x3d9f5684	0.077801734
34	0x3c1aedd5	0.009456118
35	0xbd037a29	-0.032098923
36	0xbd865d9c	-0.06560823
37	0x3cbb9259	0.022896932
38	0x3e8d58b4	0.27606738
39	0xbdcd2ebe	-0.10018681
40	0x3c11dd96	0.008902928
41	0xbde1097c	-0.10988137
42	0x3c975afe	0.018476006
43	0xbe20e756	-0.15713248
44	0x3da1ce01	0.0790062
45	0x3db6ff31	0.08935393
46	0xbc1e4dc9	-0.0096621
47	0xbcfea683	-0.031085258
48	0x3da27e8e	0.07934295
49	0x3e2bd02c	0.1677863
50	0xbe067d89	-0.13133825
51	0x3de563be	0.11200665
52	0x3e8fd33e	0.28090852
53	0xbe632b5b	-0.22184508
54	0xbe068b37	-0.13139044
55	0xbdb39f7c	-0.087706536
56	0xbf81cb65	-1.0140196
57	0x3d1af702	0.03783322
58	0xbc54671e	-0.012964038
59	0x3e6ed111	0.2332194
60	0x3e2530db	0.16131918
61	0x3d20495c	0.03913246
62	0xbd9d3145	-0.07675413
63	0xba7d1ee0	-0.0009655785
64	0x3c3fd87d	0.01170933
65	0x398331ea	0.00025023456
66	0x3d2f8972	0.042855687
67	0xbd657a67	-0.056024935
68	0x3d7d981b	0.061912637
69	0x3dc3c049	0.0955816
70	0x3d299bea	0.041408457
71	0xbce388b3	-0.027775144
72	0x3d4cd6f6	0.05000969
73	0x3b83d1fe	0.0040228358
74	0xbd6d26f3	-0.057898473
75	0x3d293494	0.041309908
76	0x3e8bc84d	0.27301255
77	0x3e0641d4	0.13111049
78	0xbca79bda	-0.020460058
79	0x3c85b07c	0.016319506
80	0xbcb543fd	-0.022127146
81	0x3d3da654	0.0463012
82	0x3ef750bb	0.4830378
83	0xbca0364a	-0.019557137
84	0x3e95a146	0.29224604
85	0x3d3b6d2c	0.04575841
86	0x3d58b189	0.052903686
87	0xbd873fa0	-0.066039324
88	0xbdbfec99	-0.09371299
89	0x3d2fed45	0.042950887
90	0x3cccdff9	0.025009142
91	0xbe798cd6	-0.24370131
92	0xbd2da2af	-0.042391475
93	0x3e537da4	0.20653397
94	0xbe1431fa	-0.1447219
95	0xbdd14114	-0.10217491
96	0x3cd8fb1c	0.026486926
97	0xbdd80c72	-0.10549249
98	0x3ca0f21a	0.019646693
99	0xbda103be	-0.07862042
100	0x3e462301	0.1934929
101	0x3cf8f97e	0.030392405
102	0xbe40e114	-0.1883586
103	0xbcac240f	-0.021013288
104	0xbd00cdd4	-0.031446293
105	0x3e660a4d	0.22464867
106	0xbb8e3d6e	-0.004340819
107	0x3d90bc7c	0.070672005
108	0xbe012005	-0.1260987
109	0x3f2e9f4a	0.68211806
110	0x3f81b43e	1.013313
111	0xbcf1bc64	-0.029508777
112	0xbdc26495	-0.09491841
113	0x3dbaf350	0.091284394
114	0x3bf38922	0.007432119
115	0xbe7b72ad	-0.24555464
116	0x3d19e210	0.037569106
117	0xbc83e280	-0.016099215
118	0xbed557dd	-0.41668597
119	0xbc629e65	-0.0138317095
120	0x3d3076e5	0.043082137
121	0x3cbce64a	0.02305903
122	0xbc96e11a	-0.018417884
123	0x3d5a00a8	0.053223282
124	0x3d96a1b4	0.07355061
125	0x3d1519e3	0.03640164
126	0xbd8ad726	-0.067793176
127	0x3ceb83fb	0.028749457
128	0x3dd55eda	0.10418482
129	0xbdbb31bf	-0.09140348
130	0x3ec6a0bb	0.38794503
131	0x3dca471e	0.09876846
132	0xbdf24a84	-0.11830619
133	0xbed35a57	-0.4127986
134	0xbe1cf001	-0.15325929
135	0x3c71fb7b	0.01476943
136	0xbeb3cdf8	-0.3511808
137	0xbdf15568	-0.11783868
138	0xbc8b3d46	-0.01699699
139	0xbde51162	-0.11184956
140	0xbda07182	-0.0783415
141	0xbe1f9ce5	-0.15587194
142	0xbded2d4e	-0.11580907
143	0xbe67838b	-0.22608773
144	0xbdedbf6c	-0.116087765
145	0xbee331d3	-0.4437395
146	0xbe8ba240	-0.27272224
147	0xbe9f5e3d	-0.31126586
148	0x3da34765	0.07972602
149	0xbea97053	-0.3309351
150	0xbe08e2e0	-0.13367796
151	0xbe8d012e	-0.27539963
152	0x3ca4b729	0.020106869
153	0xbe702697	-0.23452221
154	0xbec4631e	-0.3835687
155	0xbe9c3f99	-0.3051727
156	0x3dd59ba6	0.10430078
157	0x3caea80a	0.021320362
158	0xbd04f1f9	-0.032457326
159	0xbe156e86	-0.14592943
160	0xbdac4309	-0.084112234
161	0xbdbe2e0c	-0.092861265
162	0xbe919a13	-0.28437862
163	0xbe25da3c	-0.16196531
164	0xbe58ecd4	-0.21184093
165	0xbe9d2a6d	-0.3069643
166	0xbe2426d9	-0.16030444
167	0x3e20f1aa	0.15717188
168	0xbdae7d80	-0.08520031
169	0x3cdbfbd3	0.026853478
170	0xbd3d8c08	-0.046276122
171	0xbdb5c5a0	-0.088755846
172	0xbdb39826	-0.087692544
173	0xbe54c610	-0.2077868
174	0xbdfe2381	-0.124091156
175	0xbe3f3693	-0.18673162
176	0xbe83638b	-0.25661883
177	0xbde273c0	-0.11057234
178	0xbe63c6dd	-0.22243829
179	0x3d800cf1	0.062524684
180	0xbe3edd91	-0.18639208
181	0x3d3d7c92	0.046261378
182	0xbebb8942	-0.36628157
183	0xbd7de007	-0.061981227
184	0xbddae66d	-0.106884815
185	0x3e5d0027	0.2158209
186	0xbe1352a7	-0.14386998
187	0xbd9c369f	-0.07627606
188	0xbefed358	-0.49770617
189	0xbd9c68b6	-0.076371595
190	0xbe9cd4e7	-0.30631182
191	0xbe7e40d8	-0.24829423
192	0xbdf38b8b	-0.1189185
193	0xbe59c446	-0.21266279
194	0xbd913270	-0.07089698
195	0x3e8ecd97	0.27891228
196	0xbd319601	-0.043355945
197	0xbdec3a28	-0.1153453
198	0x3dfb9aef	0.122854106
199	0xbe2933d4	-0.16523677
200	0xbd82e0a7	-0.06390505
201	0xbe2bbda9	-0.16771568
202	0xbe881b62	-0.2658339
203	0x3bb7fd3f	0.005614906
204	0xbd90d883	-0.07072546
205	0x3cb25943	0.021771079
206	0xbe3f3c6b	-0.18675391
207	0xbe2f4ee6	-0.17119941
208	0xbdecf011	-0.115692265
209	0xbe940cec	-0.2891611
210	0x3dd74ec5	0.10513071
211	0xbe963f12	-0.29344994
212	0xbd89108a	-0.06692608
213	0xbce4225e	-0.027848419
214	0xbd86bab4	-0.065785795
215	0xbdf7dbad	-0.12102447
216	0xbde181b5	-0.11011068
217	0x3e0aa20e	0.13538381
218	0xbea1a3ca	-0.31570274
219	0x3d7a614f	0.061127957
220	0xbd32883b	-0.04358695
221	0xbe06aa05	-0.13150795
222	0x3e87a662	0.26494128
223	0xbd0e134f	-0.034686383
224	0xbe955965	-0.29169765
225	0xba31fbf0	-0.0006789556
226	0xbdf464c6	-0.119332835
227	0xbd955bcb	-0.07292899
228	0xbd7ed358	-0.06221327
229	0xbe18e2bb	-0.14930241
230	0xbe9d62ce	-0.30739444
231	0x3c4ee873	0.012628662
232	0xbdc6fe66	-0.097164914
233	0x3c897b7c	0.016782515
234	0xbe3849dd	-0.17996927
235	0xbe0b5a17	-0.13608585
236	0xbeaff232	-0.34364468
237	0xbe8e8274	-0.27833903
238	0xbe07ca8b	-0.13260858
239	0xbe67b432	-0.22627333
240	0xbf0135f3	-0.50472945
241	0xbe349bad	-0.1763751
242	0xbe97f0ef	-0.29676005
243	0xbe1ee3df	-0.15516613
244	0x3e12f82a	0.1435248
245	0xbe02e61f	-0.12783097
246	0x3e8a944d	0.2706627
247	0x3d7bacdb	0.061444145
248	0x3e75a9d5	0.23990567
249	0x3e41c93c	0.18924421
250	0xbe5a7ad4	-0.21335918
251	0x3e657c52	0.22410706
252	0xbea415c3	-0.32047853
253	0x3e209dff	0.1568527
254	0xbf0d3c7f	-0.55170435
255	0xbe107dc5	-0.14110477

module.conv_layers.3.weight f4 [64, 64, 1, 1]
0	0x3d035926	0.03206744
1	0xbd3241a9	-0.04351965
2	0xbe5bdbee	-0.21470615
3	0xbe3f1003	-0.18658452
4	0xbda8978a	-0.08232029
5	0x3deee164	0.116640836
6	0xbe070ab8	-0.13187683
7	0x3e0109d6	0.12601408
8	0xbf00adfb	-0.50265473
9	0x3dd070d4	0.1017777
10	0x3e9685d3	0.29398975
11	0x3b2629dd	0.0025354542
12	0xbcc39617	-0.02387528
13	0x3dfc9a5e	0.12334131
14	0xbd8201ad	-0.06347976
15	0xbd297395	-0.041369993
16	0x3bf7b128	0.0075589605
17	0xbe91acee	-0.28452247
18	0xbcb65290	-0.022256166
19	0xbe63b0a7	-0.22235356
20	0xbd20c443	-0.03924967
21	0x3d0cff32	0.03442306
22	0x3c90a7ab	0.017658075
23	0x3d92b2e0	0.07163024
24	0x3dfe059c	0.12403414
25	0x3de7b390	0.11313546
26	0x3e3af68f	0.18258117
27	0x3e733f69	0.23754658
28	0xbdebb6cc	-0.11509475
29	0x3e278484	0.16359144
30	0xbc159c2f	-0.009131475
31	0xbe0d364a	-0.13790241
32	0xbdd59252	-0.10428299
33	0xbd93d89b	-0.072190486
34	0x3d8bd57b	0.068278275
35	0x3e2c1405	0.16804512
36	0xbd92da20	-0.0717051
37	0xbd60c271	-0.054872934
38	0x3d5880e0	0.05285728
39	0xbd6e4966	-0.058175467
40	0x3e6a2316	0.22864947
41	0xbb8de942	-0.004330785
42	0x3e7239a9	0.23654808
43	0xbe9bc2a7	-0.30421945
44	0xbd135572	-0.03597016
45	0xbe9e99c7	-0.30976698
46	0xbca4c615	-0.020113984
47	0x3db061b0	0.086123824
48	0x3d005118	0.031327337
49	0xbd7488f5	-0.059700925
50	0xbe6b59bc	-0.2298345
51	0xbcdadd50	-0.026716858
52	0x3d9bb3b5	0.07602636
53	0xbda0a0bd	-0.078431584
54	0xbc0db643	-0.008649412
55	0x3d7610a0	0.06007445
56	0xbe01d0c1	-0.1267729
57	0xbe27f786	-0.16403016
58	0xbd868fb0	-0.06570375
59	0xbe89fa42	-0.26948744
60	0xbcb2b5b6	-0.021815162
61	0xbd22eb17	-0.03977498
62	0xbd7eeecf	-0.062239464
63	0xbd771d0f	-0.060330447
64	0xbdc57e30	-0.09643209
65	0x3d1b26fd	0.03787898
66	0xbf2104d0	-0.6289797
67	0xbe24655d	-0.16054292
68	0x3cabf3c6	0.020990264
69	0x3e153b98	0.14573514
70	0xbe012b48	-0.12614167
71	0x3c42a34b	0.011879752
72	0xbe081a50	-0.13291287
73	0xbd373fb9	-0.044738505
74	0xbdcf54be	-0.10123585
75	0x3ef88e2a	0.48545963
76	0x3e2987a7	0.16555654
77	0xbdb48193	-0.08813777
78	0x3d64f029	0.055893097
79	0xbe600a8f	-0.21879028
80	0xbe9774bf	-0.29581258
81	0xbe08f70b	-0.1337549
82	0x3e37df41	0.17956258
83	0x3d7362d5	0.059420425
84	0x3d5c17ae	0.05373352
85	0xbd46fccc	-0.04858093
86	0xbe6e57f1	-0.23275734
87	0xbd1cafe0	-0.038253665
88	0xbe31ebd0	-0.17375112
89	0xbd294be2	-0.041332133
90	0x3ea147c4	0.31500065
91	0x3e31ad30	0.17351222
92	0xbd35e832	-0.04441089
93	0x3c9b82d7	0.018983288
94	0xbae995d7	-0.0017821145
95	0xbb474d4b	-0.003041106
96	0xbd02e8af	-0.031960186
97	0x3d6be247	0.05758884
98	0xbd97cdf6	-0.07412331
99	0xbb9538dc	-0.0045538973
100	0xbd9a2a7a	-0.07527633
101	0x3de3bcbc	0.111199826
102	0x3e10d286	0.14142808
103	0xbe284da4	-0.16435868
104	0xbdcde3d6	-0.10053222
105	0x3ddfa54a	0.10920198
106	0xbd158938	-0.036507815
107	0x3c4a4123	0.012344631
108	0xbe0e5b4e	-0.13902017
109	0x3dadbc35	0.08483163
110	0xbdec820c	-0.11548242
111	0xbb0ea25c	-0.0021764254
112	0x3ea7fb38	0.32808852
113	0xbea8fb75	-0.33004346
114	0x3d86f174	0.06589022
115	0x3dd4191b	0.10356351
116	0x3da5890d	0.08082781
117	0x3df62d50	0.120203614
118	0xbe30c40f	-0.1726229
119	0x3e9b91ca	0.30384666
120	0xbd0b56d8	-0.034018368
121	0x3e1acf93	0.15118246
122	0xbd6aecdf	-0.057354804
123	0xbe6e04c4	-0.23244005
124	0x3e299595	0.16560967
125	0x3e280867	0.16409455
126	0xbeb4891a	-0.3526085
127	0x3e824b30	0.2544799
128	0xbc7ca796	-0.015420815
129	0x3e1bbbfd	0.1520843
130	0xbe30a830	-0.17251658
131	0x3d82a36d	0.06378827
132	0xbd68c354	-0.056826904
133	0xbd455203	-0.048173916
134	0xbeb7d248	-0.3590262
135	0xbe7bc876	-0.24588189
136	0xbe695168	-0.2278496
137	0xbc87a80d	-0.016559625
138	0xbdc590f3	-0.096467875
139	0x3e90468a	0.28178817
140	0x3c5af862	0.013364883
141	0x3df630ce	0.120210275
142	0x386f8027	5.710139e-05
143	0x3e8eb02a	0.27868778
144	0x3e75ab74	0.23991185
145	0x3e5f4777	0.21804605
146	0x3ebee904	0.37287152
147	0xbd39cd16	-0.0453616
148	0x3b9b817d	0.004745661
149	0xbd178ca5	-0.036999363
150	0xbc498102	-0.012298824
151	0x3e6ac820	0.22927904
152	0xbdd3c088	-0.10339457
153	0x3eb58883	0.35455713
154	0x3df15e2b	0.11785539
155	0xbe956e20	-0.2918558
156	0xbe1609bf	-0.14652155
157	0x3d404c20	0.0469476
158	0xbe8330b5	-0.25623098
159	0xbe87293b	-0.26398644
160	0xbe57ae79	-0.2106265
161	0x3d9ee9a3	0.077594064
162	0x3decd1c2	0.11563446
163	0xbde2d4e6	-0.110757634
164	0xbf0a08a0	-0.5391941
165	0xbdd985d8	-0.10621232
166	0xbd83dc2a	-0.06438477
167	0xbde7a750	-0.11311209
168	0x3c38d0dd	0.011280266
169	0xbdfec0cb	-0.12439116
170	0x3cdd7afd	0.027036184
171	0xbe932f96	-0.28747243
172	0xbb4fded1	-0.0031718502
173	0x3d0efcad	0.03490894
174	0x3e280c68	0.16410983
175	0x3cce826b	0.025208673
176	0x3e4093b1	0.1880634
177	0xbe818d9b	-0.2530335
178	0xbea1d1ef	-0.3160548
179	0x3e819e65	0.25316158
180	0x3e45bb95	0.19309838
181	0x3b7cfabf	0.0038601605
182	0x3e2d8b6b	0.16947715
183	0xbd2886f3	-0.041144323
184	0xbe8f9199	-0.2804077
185	0x3bfd22a4	0.0077250767
186	0x3cc0bf8e	0.02352884
187	0x3e61833c	0.22022718
188	0xbe12d44c	-0.14338797
189	0xbe19285d	-0.14956804
190	0x3d102c2e	0.035198383
191	0x3e133665	0.14376219
192	0x3de7ee38	0.113247335
193	0x3e614240	0.21997929
194	0xbe7fa15a	-0.24963894
195	0xbd39bdff	-0.04534721
196	0xbdb1744d	-0.08664761
197	0xbe80f7d2	-0.25189072
198	0xbd96e891	-0.07368577
199	0x3dd4b4d1	0.103860505
200	0x3e1b5a35	0.1517113
201	0xbe07620d	-0.13220997
202	0x3c9792ef	0.01850268
203	0x3dae2509	0.08503158
204	0x3d037c51	0.03210098
205	0x3e6db4af	0.23213457
206	0xbd50026a	-0.050783552
207	0xbd9b301c	-0.075775355
208	0x3cd967bf	0.026538728
209	0xbcaeb191	-0.021324905
210	0xbe0c7ed6	-0.13720259
211	0x3ea36067	0.31909487
212	0xbd59019e	-0.052980058
213	0x3d65f7ea	0.056144632
214	0x3e372de9	0.17888607
215	0x3e8b0022	0.2714854
216	0x3e600b33	0.21879272
217	0xbd43877b	-0.047736626
218	0xbdbc3dd4	-0.0919148
219	0xbd11e44d	-0.035618115
220	0xbc8d5bd1	-0.017255696
221	0x3d76fda3	0.06030048
222	0x3ec28517	0.37992164
223	0x3d68c799	0.056830976
224	0xbe4132d6	-0.18867049
225	0xbccd362d	-0.025050247
226	0xbb064362	-0.002048694
227	0xbd59a3dc	-0.053134784
228	0x3cb74a39	0.02237426
229	0x3cae30cf	0.021263508
230	0xbe4bd7f9	-0.19906606
231	0x3d926fc5	0.071502246
232	0x3d3d48d7	0.046212044
233	0xbe2f1f5e	-0.1710181
234	0x3ea165e5	0.31523052
235	0x3d24253d	0.040074576
236	0x3cbf8113	0.023376977
237	0xbd88462e	-0.06654011
238	0xbdb25ea4	-0.087094575
239	0x3ded89d2	0.11598553
240	0x3e6e94ae	0.23298904
241	0xbd97cac9	-0.07411725
242	0x3d40ed0d	0.04710107
243	0xbd1eb3d2	-0.03874571
244	0x3da43fd3	0.08019986
245	0xbdaf7f94	-0.085692555
246	0x3e1beca3	0.15226988
247	0xbe03157b	-0.12801163
248	0xbe6f288e	-0.23355314
249	0x3e8ccdc9	0.27500752
250	0xbe82e110	-0.25562334
251	0x3e721307	0.23640071
252	0xbd9b4cb1	-0.07582987
253	0x3d108a6c	0.03528826
254	0x3de2122a	0.11038621
255	0x3e3d8ce5	0.18510778

module.conv_layers.4.weight f4 [64, 64, 3, 3]
0	0xbd08197d	-0.033227433
1	0x3d2dd46a	0.042438902
2	0xbd5202bc	-0.05127214
3	0x3de58701	0.112073906
4	0xbd87ec32	-0.066368476
5	0x3aa0618e	0.0012236105
6	0xbb7db055	-0.0038709838
7	0xbd1b33c6	-0.037891172
8	0xbd557a7c	-0.052118763
9	0xbd8934d0	-0.06699526
10	0xbc5ef9ba	-0.013609344
11	0x3bd73bde	0.006568416
12	0x3d8c3cb8	0.06847519
13	0xbd6ad2d6	-0.057329975
14	0x3c4c738c	0.01247872
15	0x3e2eac53	0.17057924
16	0x3d38c8ed	0.045113493
17	0xbdc79585	-0.097453155
18	0x3e576c9e	0.21037528
19	0x3e8aad17	0.27085182
20	0x3d2207d1	0.039558236
21	0xbc99bfb6	-0.018768173
22	0x3d20c87f	0.039253708
23	0x3e87c9ef	0.2652125
24	0x3d1cd95f	0.03829324
25	0x3e57e32b	0.21082751
26	0xbd86bb2c	-0.06578669
27	0xbd9ca6e6	-0.07649021
28	0xbc0feb9a	-0.008784199
29	0x3e26e59e	0.1629853
30	0x3d65c24e	0.056093507
31	0x3e039709	0.12850584
32	0xbdaba2cc	-0.083806604
33	0x3d142cf3	0.03617568
34	0x3d5a6476	0.053318463
35	0x3d699256	0.057024322
36	0xbe46afa6	-0.19402942
37	0xbe97bbef	-0.2963557
38	0xbee64cee	-0.44980568
39	0xbd8efd63	-0.069819234
40	0xbee4ea60	-0.44710064
41	0xbdf986f3	-0.12183943
42	0xbec4113b	-0.38294396
43	0x3d64adac	0.05582969
44	0xbdf93c8d	-0.12169752
45	0x3d3e0384	0.04639007
46	0x3e417451	0.18892027
47	0x3e1fb528	0.1559645
48	0x3e072fcb	0.13201825
49	0xbe688288	-0.22706044
50	0xbd0cd5bc	-0.03438352
51	0xbdb57fd1	-0.0886227
52	0x3d4b8482	0.049686916
53	0x3df0acb2	0.11751689
54	0x3deb632b	0.11493524
55	0x3dd97738	0.10618442
56	0x3d966fd7	0.073455505
57	0x3c448c90	0.011996403
58	0xbca662e3	-0.020310825
59	0x3db28e54	0.08718553
60	0x3e3d0a67	0.18461
61	0x3e2556d9	0.16146411
62	0x3c17eb9b	0.009272481
63	0x3e868d0a	0.2627948
64	0x3dc27ffa	0.09497066
65	0x3cec7ccd	0.028868103
66	0xbe533ae2	-0.20627931
67	0xbe8939ab	-0.2680181
68	0x3e395ae6	0.18101081
69	0x3e0da9ef	0.13834356
70	0xbd7ae469	-0.061252985
71	0xbd956555	-0.07294718
72	0x3e087b2d	0.13328238
73	0xbd23c4bb	-0.03998254
74	0xbe11a00d	-0.14221211
75	0x3c2d5323	0.010578903
76	0xbeb5a67a	-0.35478574
77	0x3d1a2c3f	0.037639853
78	0x3dcb22ae	0.09918724
79	0xbd834141	-0.064089306
80	0xbd85b367	-0.06528359
81	0xbdcf268a	-0.101147726
82	0xbe057023	-0.13031058
83	0x3e0518d8	0.12997758
84	0xbdb65888	-0.08903605
85	0xbde0073d	-0.109388806
86	0x3d1a8467	0.037723925
87	0xbd656fd6	-0.05601486
88	0xbe99fa09	-0.30073574
89	0xbe89250f	-0.26786086
90	0x3e12cee5	0.14336737
91	0x3e3875ce	0.18013689
92	0x3e5ee8a5	0.21768434
93	0xbc9dc47a	-0.019258726
94	0x3ef7393c	0.48285854
95	0x3e22369f	0.15841149
96	0x3ebbc946	0.36676997
97	0xbda6ad81	-0.08138562
98	0x3c6b7476	0.014371028
99	0x3dee7808	0.11643988
100	0xbe4e280c	-0.20132464
101	0xbe01224a	-0.12610736
102	0x3e6786e7	0.22610055
103	0xbc921ac8	-0.017835036
104	0xbe58dc7b	-0.21177857
105	0xbd62f4e9	-0.055409346
106	0xbe237fb6	-0.15966687
107	0x3d64ff4d	0.055907536
108	0x3e95d520	0.29264164
109	0x3e149739	0.14510812
110	0x3ec00dcc	0.37510526
111	0x3ed1d6b1	0.4098411
112	0x3dab4d1d	0.083643176
113	0x3d9494ba	0.0725493
114	0x3d49e6a9	0.04929224
115	0x3eb3a8b1	0.3508964
116	0x3e8bd024	0.27307236
117	0x3ec918bb	0.3927668
118	0x3ef14b5e	0.47127813
119	0x3dbdf222	0.09274699
120	0x3e81fa91	0.2538648
121	0x3cf6a0fd	0.030106062
122	0x3e2be398	0.16786039
123	0x3ca610a2	0.020271603
124	0x3e170297	0.14747082
125	0x3e1e7fd6	0.15478453
126	0x3e0b32e5	0.13593633
127	0x3cbdc42a	0.023164827
128	0x3d27c371	0.04095787
129	0xbd891285	-0.066929854
130	0x3e629809	0.2212831
131	0x3d7e522b	0.06209008
132	0x3c72796c	0.014799457
133	0xbdf1d6a0	-0.118085146
134	0x3d428c9c	0.047497377
135	0x3d1d1721	0.038352136
136	0x3d92e31d	0.07172225
137	0xbdc766cb	-0.09736403
138	0xbdb05649	-0.086102076
139	0x3ccfa0e6	0.025345277
140	0x3dc1b967	0.09459191
141	0xbded565e	-0.11588739
142	0xbce81671	-0.028331013
143	0xbd4393db	-0.047748428
144	0xbd5ca95c	-0.05387245
145	0xbce94192	-0.02847365
146	0x3d1e34aa	0.038624443
147	0xbe0b8db4	-0.13628274
148	0xbbcb2fb8	-0.006200757
149	0xbe0c8822	-0.13723806
150	0xbdf05a53	-0.11735978
151	0xbe1fa940	-0.15591908
152	0x3d28b277	0.041185822
153	0xbdc02e3e	-0.0938382
154	0xbe080e99	-0.13286819
155	0xbde7573c	-0.112959355
156	0x3cb989ff	0.02264881
157	0xbc95e916	-0.01829962
158	0xbcad97f7	-0.021190627
159	0x3e5865b5	0.21132548
160	0xbcef839b	-0.029237559
161	0x3d911655	0.070843376
162	0x3d1c4812	0.03815467
163	0xbe2cc7a9	-0.1687304
164	0xbd34a41a	-0.044101812
165	0xbd993e2e	-0.07482563
166	0xbe23cb83	-0.15995602
167	0xbda68f4a	-0.08132799
168	0xbd055bea	-0.03255836
169	0x3b292e16	0.0025814823
170	0x3dbf3310	0.09335911
171	0x3d9721a0	0.0737946
172	0x3dce4bc8	0.10073048
173	0x3bdc9de7	0.0067326906
174	0x3dba81de	0.091068015
175	0xbc7c45bb	-0.015397484
176	0x3d3485e7	0.04407301
177	0x3cead750	0.028667122
178	0xbe001228	-0.12506926
179	0xbd08950b	-0.033345263
180	0x3eb4c6b8	0.3530786
181	0xbe61bfbf	-0.22045802
182	0xbe14a3a2	-0.14515546
183	0xbe1399d8	-0.14414155
184	0xbd18b4af	-0.03728169
185	0xbd94ddea	-0.07268889
186	0xbe1acb7e	-0.15116689
187	0xbdf8a271	-0.12140358
188	0xbd735458	-0.05940661
189	0xbe493560	-0.19649267
190	0xbe60afcf	-0.21942066
191	0xbe0006bd	-0.1250257
192	0xbdb8a741	-0.09016276
193	0xbd5ae279	-0.053438637
194	0xbd0ebd27	-0.03484836
195	0xbc4c8eb5	-0.012485196
196	0xbe3da11b	-0.18518488
197	0xbdf002f5	-0.11719314
198	0xbd8e04b7	-0.06934493
199	0x3bd76070	0.0065727755
200	0xbcddb460	-0.027063549
201	0x3d9ee274	0.07758036
202	0x3d4ff090	0.050766528
203	0xbd3c9c0f	-0.046047267
204	0xbdc8fcd7	-0.098138504
205	0xbd5fa939	-0.054604743
206	0x3ca099cb	0.019604584
207	0xbed12d53	-0.40854892
208	0xbde9d423	-0.11417415
209	0x3d989089	0.07449443
210	0xbc04f75d	-0.008115617
211	0xbc3e6a59	-0.011622035
212	0x3e6a0e7b	0.22857086
213	0xbe9a60c8	-0.30151963
214	0x3e289aa9	0.16465248
215	0x3e993aae	0.29927582
216	0x3c8c8800	0.017154694
217	0xbd8af042	-0.06784107
218	0xbbf39b0c	-0.0074342545
219	0x3c874574	0.01651261
220	0x3d2d5848	0.04232052
221	0xbce00cbf	-0.027349828
222	0xbcc64209	-0.02420141
223	0xbd538226	-0.05163779
224	0xbda85465	-0.08219222
225	0x3e13094d	0.14359017
226	0x3e8bb835	0.27288976
227	0x3e951a11	0.2912145
228	0x3e5a204d	0.21301384
229	0x3ea8513b	0.32874474
230	0x3e9adf78	0.30248618
231	0x3e9e3d9b	0.30906376
232	0x3dd566f3	0.10420027
233	0x3e72bdc7	0.23705207
234	0xbc4a2067	-0.012336827
235	0xbd5c8708	-0.053839713
236	0xbcb4bbc2	-0.022062186
237	0x3c03d735	0.008046915
238	0x3c9c46ca	0.019076724
239	0xbdf24723	-0.118299745
240	0xbcee8d1a	-0.029120017
241	0x3cae59e8	0.021283105
242	0x3d5a2844	0.053261057
243	0x3d59cb90	0.053172648
244	0xbd994fcd	-0.07485924
245	0x3d5cbb8f	0.053889807
246	0x3daf5922	0.085619226
247	0xbe4b38b0	-0.19845843
248	0xbd75fdc4	-0.060056463
249	0xbe17813c	-0.14795393
250	0xbddfb01e	-0.109222636
251	0x3d50dede	0.050993793
252	0xbce4c333	-0.02792511
253	0x3ccdc965	0.025120446
254	0x3d17f6a8	0.037100464
255	0xbbeaaa34	-0.007161403

module.conv_layers.5.weight f4 [64, 64, 1, 1]
0	0x3d745f68	0.0596613
1	0x3eaf35d8	0.34220767
2	0x3e809448	0.2511313
3	0x3dcb018c	0.099124044
4	0xbe0bfb1f	-0.13670014
5	0x3e908b84	0.28231442
6	0x3e41e0ef	0.18933462
7	0x3e22a3c9	0.15882792
8	0x3ecd8547	0.40140745
9	0xbd6040ae	-0.054749183
10	0xbddc2b1c	-0.1075041
11	0xbe60799f	-0.21921395
12	0xbdc591a4	-0.09646919
13	0x3d67535e	0.05647599
14	0x3c85a302	0.01631308
15	0xbca3bd26	-0.019987654
16	0x3c8c33c5	0.01711453
17	0xbe6f7db0	-0.2338779
18	0xbd971f92	-0.073790684
19	0x3d43388b	0.047661345
20	0xbe8fb9d4	-0.28071463
21	0x3c9e74bf	0.019342778
22	0xbdaec0d2	-0.08532871
23	0xbe8f1f0d	-0.27953377
24	0x3c86515b	0.016396215
25	0xbd9cb440	-0.076515675
26	0xbda4ebec	-0.08052811
27	0xbe65ae63	-0.22429805
28	0xbc98b55b	-0.018641165
29	0xbe2437fb	-0.1603698
30	0xbe436d81	-0.19084741
31	0x3e92d09d	0.28674784
32	0x3d49da02	0.049280174
33	0x3dfe3f4b	0.12414416
34	0x3d0fe5fd	0.035131443
35	0xbead5d85	-0.33860412
36	0x3dc2d958	0.09514111
37	0xbe81ad6f	-0.25327632
38	0xbe328ea8	-0.17437232
39	0xbe249c37	-0.16075216
40	0xbd7f5d26	-0.062344693
41	0xbd9ae57d	-0.07563303
42	0xbec05e99	-0.37572172
43	0xbc91e410	-0.017808944
44	0x3e3457e2	0.1761165
45	0xbe6cfe6d	-0.2314393
46	0xbdf417aa	-0.11918576
47	0x3db96dbc	0.09054133
48	0x3e385813	0.18002348
49	0xbe65fcc5	-0.22459705
50	0x3c6daf97	0.014507196
51	0xbe04f006	-0.12982187
52	0x3e69d89f	0.2283654
53	0x3e4a01d9	0.19727267
54	0x3de1c38c	0.11023626
55	0xbe86fd17	-0.26364967
56	0xbe45f5f7	-0.1933211
57	0xbdf55c6c	-0.11980519
58	0x3ed07780	0.4071617
59	0xbe8cbcb3	-0.27487716
60	0xbec804bd	-0.39066115
61	0xbdef70d5	-0.11691443
62	0xbdd0a667	-0.10187989
63	0xbdf9d61d	-0.12199042
64	0x3efee5d0	0.49784708
65	0x3dfab135	0.12240831
66	0xbcce6740	-0.025195718
67	0x3dda7d3c	0.10668418
68	0x3d623c7a	0.055233456
69	0xbe9c6857	-0.30548355
70	0xbebc797d	-0.36811438
71	0xbe27b4da	-0.16377583
72	0x3e5b8f23	0.21441321
73	0xbd544956	-0.05182775
74	0xbe787c78	-0.24266231
75	0x3e23953c	0.15974897
76	0x3e264118	0.16235769
77	0xbe29a3fc	-0.16566461
78	0x3f2e73a4	0.68145204
79	0xbf3238da	-0.69618
80	0xbe83ef5c	-0.25768554
81	0xbdbb2de9	-0.09139616
82	0x3e037f61	0.1284156
83	0x3eb97153	0.36219272
84	0xbdca0af0	-0.098653674
85	0x3e0ef81b	0.13961832
86	0xbe4d766a	-0.20064703
87	0xbf45dec6	-0.7729305
88	0xbdee96cb	-0.11649855
89	0xbe90af00	-0.28258514
90	0x3de3c118	0.11120814
91	0xbee5f63f	-0.44914433
92	0xbe50bb60	-0.20383978
93	0xbd30b8a0	-0.043144822
94	0x3d527dd9	0.05138955
95	0x3d6539d6	0.05596336
96	0xbf1d931a	-0.61552584
97	0x3eec8961	0.46198562
98	0x3e2779a4	0.16354996
99	0x3e3c926d	0.18415232
100	0x3f10c1dc	0.56545806
101	0xbcebffef	-0.028808562
102	0xbf0e324a	-0.55545485
103	0xbe38ff6e	-0.18066189
104	0x3e662e41	0.22478582
105	0x3e957281	0.29188922
106	0x3e9287fa	0.28619367
107	0xbdbfdffc	-0.093688935
108	0x3e504af6	0.20341095
109	0x3e91909d	0.28430644
110	0x3e184038	0.14868248
111	0xbe99d97d	-0.30048743
112	0x3d1aa764	0.037757292
113	0xbdeed633	-0.11661949
114	0x3e98cb75	0.29842725
115	0x3fb7d579	1.4362022
116	0x3f1b1355	0.60576373
117	0xbe1ebb68	-0.15501177
118	0xbdaa2a90	-0.083088994
119	0xbe84ebfc	-0.25961292
120	0xbd2071e6	-0.039171122
121	0xbe82380e	-0.2543339
122	0x3e0c2a4f	0.13688014
123	0xbe7772ba	-0.24164858
124	0x3e04155d	0.12898774
125	0xbd3105b6	-0.043218337
126	0xbd2e445a	-0.042545654
127	0xbe1db78e	-0.15402052
128	0xbe3e66d4	-0.18593913
129	0xbd96099e	-0.07326053
130	0x3e2c28ce	0.16812441
131	0x3be5b497	0.0070100534
132	0xbd9d8d9e	-0.07693027
133	0x3dc576ea	0.09641822
134	0xbda48e12	-0.0803491
135	0xbece7e80	-0.40330887
136	0xbdbe879e	-0.09303211
137	0xbe551f93	-0.20812826
138	0x3cd07ddc	0.02545064
139	0xbe76aa48	-0.24088395
140	0x3dc7277a	0.097243264
141	0xbdbfc3a5	-0.09363488
142	0xbd7e3d4f	-0.062070187
143	0x3b218dbe	0.0024651135
144	0xbebad78d	-0.36492577
145	0xbdaa6c8c	-0.08321485
146	0xbe0d2f98	-0.13787687
147	0x3d78417b	0.060609322
148	0xbebd4f60	-0.3697462
149	0x3e044ed8	0.12920702
150	0x3ccc438f	0.024934558
151	0xbd809d3b	-0.06279989
152	0xbe557dc8	-0.20848763
153	0x3e080c72	0.13285998
154	0x3db28c16	0.087181255
155	0xbc803ec5	-0.01565493
156	0x3ccc92b1	0.024972292
157	0xbdd57aea	-0.104238346
158	0xbdd64063	-0.104614995
159	0xbbc09f42	-0.00587836
160	0x3db51a66	0.08842926
161	0x3e21ccdf	0.15800808
162	0xbe4b543a	-0.19856349
163	0xbe5cfbcc	-0.21580428
164	0x3e050e91	0.12993838
165	0xbec2b285	-0.38026825
166	0xbe2d0416	-0.1689609
167	0x3e99d85d	0.30047885
168	0x3e095364	0.13410717
169	0xbeacdb23	-0.33760938
170	0xbe44a2c2	-0.19202712
171	0x3e045ac0	0.12925243
172	0x3b92c328	0.004478831
173	0xbd647b4f	-0.05578166
174	0x3d59ac1e	0.05314266
175	0xbda7a44f	-0.08185636
176	0x3cf2a931	0.029621692
177	0x3e687939	0.22702493
178	0xbe4e438e	-0.20142958
179	0xbe0de624	-0.13857323
180	0x3e2fb066	0.17157134
181	0xbcc8a35f	-0.024491964
182	0xbe5604f1	-0.20900322
183	0xbe226423	-0.15858512
184	0x3e16c0c0	0.14721966
185	0xbe093185	-0.13397796
186	0x3ea57149	0.32312992
187	0x3d290bcc	0.041271016
188	0xbe50021c	-0.20313305
189	0xbeace237	-0.33766338
190	0xbd31b3b1	-0.043384258
191	0xbd8a3832	-0.06749
192	0x3c5c1274	0.013432134
193	0x3df88453	0.12134614
194	0xbe71d9d8	-0.23618257
195	0x3e808bc7	0.25106642
196	0x3e8596e3	0.2609168
197	0xbe6582ec	-0.22413224
198	0x3d0c48cf	0.034249123
199	0xbe9e1b58	-0.30880237
200	0x3da4cb9e	0.080466494
201	0xbdf4e080	-0.119568825
202	0xbd725412	-0.059162207
203	0x3e819670	0.25310087
204	0xbed01c76	-0.40646714
205	0x3e35307a	0.17694274
206	0x3c625618	0.013814472
207	0xbe3aeb10	-0.18253732
208	0x3e7f616a	0.24939504
209	0xbd012c64	-0.031536475
210	0x3c56a3eb	0.0131006045
211	0xbce64d4e	-0.028113034
212	0x3e439999	0.19101562
213	0xbc502196	-0.01270332
214	0xbdf024b1	-0.11725748
215	0xbe93f4e2	-0.28897768
216	0x3dfd3764	0.123640805
217	0xbd4e9b99	-0.05044136
218	0x3e44a423	0.19203238
219	0x3e0d20fc	0.13782114
220	0xbe915d5b	-0.28391537
221	0xbb682ab3	-0.0035425841
222	0xbdb41b56	-0.087942764
223	0xbe858806	-0.2608034
224	0xbe7d4396	-0.24732813
225	0xbda99956	-0.082812
226	0x3e440f5c	0.19146484
227	0xbc63fe04	-0.0139155425
228	0xbc76a317	-0.015053532
229	0xbefcacfc	-0.49350727
230	0xbce5a2ff	-0.028031824
231	0xbe3bd780	-0.18343925
232	0x3df7a8eb	0.120927654
233	0x3d99297b	0.07478615
234	0xbdaaa24a	-0.083317354
235	0xbc63220e	-0.0138631
236	0xbe1fa27e	-0.1558933
237	0xbd9a88d8	-0.07545632
238	0x3e05579e	0.13021705
239	0x3e2bceb0	0.16778064
240	0xbe2619cd	-0.1622078
241	0x3c268c1a	0.010165239
242	0xbd261265	-0.040544886
243	0xbc300a63	-0.010744664
244	0xbdf9f5e8	-0.12205106
245	0x3c1a17df	0.009405105
246	0xbe2b7310	-0.16743112
247	0x3d8dff54	0.069334656
248	0x3b855ae0	0.004069671
249	0x3e93b0f3	0.2884594
250	0x3d9be7eb	0.07612594
251	0x3e433409	0.19062819
252	0x3cbd1bfe	0.023084637
253	0xbe50fc27	-0.20408688
254	0xbe42529a	-0.18976822
255	0x3e1e7df6	0.15477738

module.conv_layers.6.weight f4 [64, 64, 1, 1]
0	0x3e496638	0.196679
1	0x3f489979	0.7835918
2	0xbebafefc	-0.36522663
3	0xbe0b4f77	-0.13604532
4	0x3dfd67f0	0.1237334
5	0xbdeebee9	-0.11657507
6	0x3e723828	0.23654234
7	0xbe99c10d	-0.300301
8	0x3ea57050	0.3231225
9	0x3e9ed7df	0.31024072
10	0xbd909382	-0.07059385
11	0x3dfcdf4d	0.12347279
12	0xbe6a454e	-0.22878
13	0x3df9323e	0.12167786
14	0xbe48d5e2	-0.1961284
15	0xbde7578c	-0.11295995
16	0x3e213c6d	0.15745707
17	0xbe211d44	-0.1573382
18	0xbe0700d7	-0.13183914
19	0xbd617a05	-0.055048008
20	0x3e2be1b7	0.16785322
21	0x3e7bd852	0.24594238
22	0xbebbca7b	-0.36677918
23	0x3e31d589	0.17366613
24	0x3d2c7bcf	0.04211026
25	0xbef1d608	-0.47233605
26	0x3d69d759	0.057090137
27	0x3d555da7	0.052091267
28	0x3e8894e0	0.26676083
29	0x3e6a767e	0.22896764
30	0xbe03d591	-0.12874438
31	0xbdeedb60	-0.11662936
32	0x3dc173e5	0.09445933
33	0x3d7097eb	0.05873863
34	0xbe421e26	-0.18956813
35	0xbea79b09	-0.3273547
36	0xbf1a95b9	-0.6038471
37	0xbe328156	-0.1743215
38	0xbcd1a24e	-0.025590088
39	0x3f2e80f0	0.68165493
40	0x3e8b508c	0.2720989
41	0x3eaf8ae5	0.34285656
42	0x3e3e775a	0.18600217
43	0x3e93760f	0.2880101
44	0xbe92674b	-0.2859443
45	0xbdd38e83	-0.10329916
46	0x3d09a79d	0.033607114
47	0xbd1d0825	-0.038337845
48	0x3d0f7201	0.035020832
49	0xbe567c28	-0.209458
50	0xbf1c6423	-0.61090297
51	0x3de5cb78	0.11220449
52	0xbe1fa18f	-0.15588973
53	0xbdfd3920	-0.12364411
54	0xbcda6631	-0.026660057
55	0x3f06e0a5	0.5268653
56	0xbdfd3bdf	-0.12364935
57	0x3dcb1a7f	0.09917163
58	0xbe89d9eb	-0.2692407
59	0xbd00332d	-0.031298805
60	0x3f584a10	0.8448801
61	0xbee8c962	-0.45466143
62	0x3d2d7f35	0.042357642
63	0x3e831c41	0.25607494
64	0x3df5111c	0.11966154
65	0x3d1b5d51	0.03793079
66	0xbe7b5bb8	-0.24546707
67	0x3f02267b	0.50839967
68	0xbe0f0598	-0.13966978
69	0x3df38c1f	0.1189196
70	0xbe2f74df	-0.17134427
71	0xbe2a2dc4	-0.1661902
72	0xbd9ab6ec	-0.07554421
73	0x3e8ca097	0.2746627
74	0xbe3551bd	-0.17706962
75	0x3dde59b7	0.108569555
76	0x3c1a759e	0.009427456
77	0x3e6db278	0.23212612
78	0xbe1743f9	-0.14772023
79	0x3ceff332	0.02929077
80	0xbe4ea239	-0.2017907
81	0x3d9c4d24	0.07631901
82	0x3c41731c	0.011807229
83	0x3d208812	0.039192267
84	0x3e62fbd0	0.22166371
85	0x3deac31f	0.11462998
86	0x3a551215	0.00081279996
87	0x3e8256e1	0.25456908
88	0x3e774b3d	0.24149795
89	0x3dd78666	0.10523681
90	0xbe3a4f00	-0.18194199
91	0xbe4fc1d7	-0.20288788
92	0xbd230743	-0.039801847
93	0x3e977e75	0.29588667
94	0x3d5fc0aa	0.0546271
95	0x3e11f9f6	0.14255509
96	0xbd30d6bd	-0.04317354
97	0x3e4d5c95	0.20054848
98	0x3ea45c18	0.32101512
99	0xbd6cc266	-0.05780258
100	0x3df40f51	0.11916984
101	0xbe687b07	-0.22703181
102	0x3dffde96	0.12493627
103	0x3e460de9	0.19341244
104	0xbc78e956	-0.01519235
105	0xbd636882	-0.05551959
106	0x3eacc32f	0.33742663
107	0x3c229c27	0.009924925
108	0xbdf344b7	-0.11878341
109	0x3dcffdfd	0.10155866
110	0xbd974f05	-0.07388119
111	0x3e91fe79	0.2851446
112	0x3e8f098c	0.2793697
113	0xbe19afdd	-0.15008493
114	0xbdc8bca8	-0.09801608
115	0x3dbe37ae	0.09287964
116	0xbdd05493	-0.10172381
117	0x3dec73b7	0.11545508
118	0xbec823dd	-0.39089862
119	0x3dc8466a	0.097790554
120	0xbda71e46	-0.08160071
121	0xbdd26af7	-0.10274308
122	0xbdcf87cc	-0.10133323
123	0xbf03560e	-0.51303184
124	0xbdbec94d	-0.09315739
125	0x3cc72934	0.02431164
126	0xbbf85941	-0.0075789993
127	0x3d045b31	0.03231353
128	0x3e124481	0.14283945
129	0xbf5060ce	-0.8139771
130	0x3dee47fd	0.116348244
131	0x3ea2ee4d	0.31822434
132	0xbe3e1095	-0.18561013
133	0xbd128fbf	-0.03578162
134	0x3e90dfb3	0.2829567
135	0x3cd60cd5	0.026129166
136	0xbd299594	-0.041402414
137	0x3e0fea59	0.1405424
138	0xbc34aceb	-0.011027555
139	0xbe8c6ee9	-0.27428368
140	0xbde3ff13	-0.11132636
141	0xbddd71fb	-0.10812756
142	0xbea7e236	-0.32789773
143	0xbd977086	-0.07394509
144	0x3d214f94	0.039382532
145	0x3eb7d698	0.3590591
146	0xbe3a8ab1	-0.18216969
147	0xbd6f1c9d	-0.058376897
148	0xbe7989f0	-0.24369025
149	0xbd6362a6	-0.055514
150	0x3ea38f4d	0.31945267
151	0xbe3277d8	-0.1742853
152	0x3b474a6f	0.0030409356
153	0xbd1c3df7	-0.03814503
154	0x3dd619fd	0.104541756
155	0xbd720b6e	-0.05909293
156	0xbebd6d6c	-0.36997545
157	0xbe0bc2c4	-0.13648516
158	0x3f24178d	0.64098436
159	0x3de68ab7	0.112569265
160	0xbeebdfd2	-0.460692
161	0x3ee560a9	0.44800308
162	0x3e89bfbe	0.269041
163	0xbe6d0e1e	-0.23149917
164	0xbe0e645b	-0.1390547
165	0xbf48dd78	-0.78462934
166	0xbe7e7576	-0.24849495
167	0x3ea018e9	0.31269005
168	0xbf855a65	-1.0418211
169	0xbe6a1d1c	-0.22862667
170	0x3e120ede	0.14263484
171	0xbe941c35	-0.2892777
172	0x3e8c14df	0.27359673
173	0x3c130787	0.008973963
174	0x3cdf6d2d	0.027273739
175	0x3df2c3b0	0.11853731
176	0x3ebfb906	0.3744585
177	0x3ec992cb	0.39369807
178	0xbc16aa0e	-0.009195818
179	0xbf0d5e6d	-0.5522221
180	0x3eb20f7a	0.34777433
181	0x3ef82910	0.48468828
182	0xbeaf3c50	-0.34225702
183	0x3e571384	0.21003538
184	0xbe2841e9	-0.16431393
185	0x3e80cf11	0.2515798
186	0xbcfc5927	-0.03080423
187	0xbe8465f5	-0.25859037
188	0xbd50a3c4	-0.05093743
189	0x3c9f0fc4	0.019416697
190	0x3e786fe9	0.2426144
191	0x3d388a97	0.045054045
192	0x3d9d1396	0.07669751
193	0x3d04fb92	0.03246648
194	0x3d879982	0.06621076
195	0x3e7ee159	0.24890651
196	0x3dce8cbd	0.100854374
197	0x3d81bdef	0.06335055
198	0x3e932435	0.2873856
199	0xbe00a3a6	-0.12562427
200	0xbca7c20d	-0.020478273
201	0x3e0b5b13	0.13608961
202	0x3d583d77	0.052792992
203	0xbecc66ab	-0.3992208
204	0xbd4904b0	-0.049076736
205	0x3e2ea3d4	0.17054683
206	0x3d951871	0.072800525
207	0xbddc21bc	-0.10748622
208	0x3edd9eb1	0.43285134
209	0xbe307c6a	-0.1723496
210	0xbe48bcae	-0.19603226
211	0x3b9de8c0	0.0048190057
212	0x3da9c247	0.082890086
213	0xbf4b6f5d	-0.794668
214	0xbe153532	-0.14571074
215	0x3e05d1cb	0.13068311
216	0xbb0b0209	-0.002121093
217	0xbda2aab0	-0.07942712
218	0x3e057de8	0.1303631
219	0xbae9b4c8	-0.0017830366
220	0xbe772baa	-0.2413775
221	0x3e149992	0.14511707
222	0x3f64adb6	0.8932756
223	0xbeca539f	-0.39516923
224	0xbdc57f1a	-0.09643383
225	0xbd81d57a	-0.063395455
226	0x3d878bbc	0.06618449
227	0xbe86f801	-0.26361087
228	0xbde515a1	-0.11185766
229	0x3ecaf138	0.3963716
230	0xbca221a1	-0.019791426
231	0xbcd33a07	-0.025784506
232	0x3ee8f3cc	0.45498502
233	0x3db8ef14	0.090299755
234	0x3dca9242	0.09891178
235	0xbe474738	-0.19460762
236	0x3ddbbc48	0.10729271
237	0x3d55bef5	0.052184064
238	0xbd68442c	-0.05670564
239	0xbe734fa9	-0.23760857
240	0x3d8ed360	0.0697391
241	0x3e324cdf	0.17412136
242	0xbd4d19f2	-0.05007357
243	0x3ed1c11e	0.4096765
244	0x3e74ef9e	0.23919532
245	0xbe1f2935	-0.15543063
246	0xbec2a06d	-0.3801302
247	0x3e55765f	0.20845936
248	0xbe93de3f	-0.28880498
249	0x3ec0a06a	0.37622386
250	0xbd4c0ac8	-0.04981497
251	0xbe1e5ba3	-0.15464644
252	0x3ea5dc63	0.32394704
253	0x3e527f72	0.20556429
254	0xbc889f47	-0.016677512
255	0xbdd070b1	-0.10177744
