denoisers/multi_scale/celebA_160x160_gray/noise_range_0to255_RF_9x9_scale_1/model.pt (torch, 620517 bytes, 59 tensors)

module.conv_layers.0.weight f4 [64, 4, 3, 3]
-0.25514048 -0.14009184 -0.38123265 0.5449097 0.32647824 0.11386782 -0.30789214 0.3026631
-0.16049111 -0.39152548 0.17675929 -0.09607318 0.2812339 0.451826 -0.21931654 0.12236818
0.12538762 -0.08020779 -0.24385183 0.1338375 -0.111166276 0.042456746 -0.4942858 -0.059370127
0.007849904 -0.4154162 0.118428245 -0.0019090613 -0.40762946 0.052241817 -0.025924783 -0.49068007
-0.22607508 -0.15034099 0.25786033 0.18645471 0.41354716 -0.619462 0.0010220172 0.35183847
-0.038369063 0.13148725 -0.07096322 -0.0371983 -0.14611824 0.159144 -0.0033035025 0.13595362
-0.3245412 -0.19397503 0.5429416 -0.06373355 -0.15490404 0.29746813 0.30947426 -0.35685202
-0.043907195 0.045788545 -0.13825764 0.108003646 0.28381166 0.01311643 0.08271318 -0.08669901
-0.050112456 0.33510268 0.15309647 -0.17860323 -0.02224018 -0.008782371 0.038536694 -0.14639914
0.2935446 -0.66581786 0.21474092 0.09101693 0.28894773 -0.2201944 0.10721074 -0.18900754
0.025624929 -0.4128872 0.20852129 0.21895242 0.32003233 -0.046575304 -0.004918354 -0.12370929
-0.0009853117 0.43416876 -0.18254232 -0.05829539 -0.25079718 0.56810886 -0.10826859 0.20864438
-0.047063913 -0.39968076 -0.15077423 -0.26821542 -0.011509293 0.35097718 0.1479905 -0.13470982
-0.09632083 -0.055378985 -0.24288791 0.18592283 0.33162 -0.2140971 -0.44103143 -0.5287454
0.34527892 0.6715516 0.30503094 -0.23283207 -0.30112195 -0.32970384 0.18156059 -0.109464325
0.33038417 -0.19695447 -0.4879095 -0.16202314 -0.25020903 -0.18472381 0.06306303 -0.071696125
0.04316376 0.3459068 0.33457273 0.34444553 -0.095139235 -0.041488282 -0.16902475 0.039619483
0.100981005 0.069252744 0.29526117 -0.5756434 0.34835112 -0.10859638 0.09358634 -0.2812922
0.17427972 0.35500702 0.112800606 -0.079029225 0.48072404 0.21871835 -0.09622444 0.055515718
0.041765556 -0.12639362 -0.2876791 -0.41093293 0.15091093 0.37432244 0.31003708 0.22781478
0.079709746 0.018616427 0.2133224 -0.028890833 0.30244684 -0.09766554 -0.60589665 0.2832459
-0.07043525 -0.15201056 -0.26816508 0.24854988 -0.11189059 -0.34635752 0.26824158 -0.16238816
-0.3127724 0.16185495 0.18592247 0.10629345 -0.06837787 -0.44089967 -0.30944583 0.2068811
0.52772546 -0.20712262 0.20545004 0.22917865 -0.11428728 -0.04098499 0.25988513 0.069004074
-0.098146856 0.092028275 0.03828587 0.08998415 0.13776226 -0.28636912 -0.324195 -0.18413186
0.13262169 0.0012585793 -0.3122296 -0.005882659 -0.13870397 0.046546675 -0.06489989 0.4714178
0.29978776 0.19342032 -0.23292626 -0.16042946 -0.21258286 -0.3869507 0.21161392 -0.061227318
-0.04714845 -0.15150419 -0.053684294 -0.10192048 -0.21934153 0.2772116 0.06171598 0.08686866
0.04369762 -0.14127019 -0.46048224 0.15139449 -0.19957446 -0.20831867 0.6772954 -0.0150913345
0.080871955 -0.43150258 -0.17148341 0.14370532 0.12899439 0.18462306 -0.27076787 0.2708212
-0.049489442 0.24887837 -0.0741438 0.14749758 0.3070635 -0.13665368 -0.11988367 0.3197832
-0.18908203 -0.020331219 0.15430418 -0.06295425 -0.04753627 0.03522292 0.27903947 -0.6504067
00000000: c6a1 82be 3c74 0fbe ed30 c3be 347f 0b3f
00000010: 2828 a73e 8833 e93d 0aa4 9dbe a8f6 9a3e
00000020: c857 24be 0776 c8be 6300 353e 04c2 c4bd
00000030: e4fd 8f3e bd55 e73e 8494 60be 2b9c fa3d
00000040: 9d65 003e fb43 a4bd 4bb4 79be b30c 093e
00000050: 25ab e3bd 20e7 2d3d 0713 fdbe 172e 73bd
00000060: e29c 003c 6fb1 d4be 828a f23d 7839 faba
00000070: cfb4 d0be 84fb 553d 3660 d4bc 6b3a fbbe
00000080: 3a80 67be fdf2 19be 4506 843e fced 3e3e
00000090: 74bc d33e 1095 1ebf 35f5 853a 2c24 b43e
000000a0: e128 1dbd 98a4 063e 2a55 91bd 3f5d 18bd
000000b0: 05a0 15be a5f6 223e 937f 58bb 6d37 0b3e
000000c0: 442a a6be 64a1 46be 38fe 0a3f bc86 82bd
000000d0: 2a9f 1ebe be4d 983e 6973 9e3e 4fb5 b6be
000000e0: 08d8 33bd c58c 3b3d 6993 0dbe 0431 dd3d
000000f0: c34f 913e 4be6 563c 8765 a93d 408f b1bd
00000100: b842 4dbd 9492 ab3e 52c5 1c3e c4e3 36be
00000110: 0a31 b6bc efe3 0fbc a7d8 1d3d a8e9 15be
00000120: 7a4b 963e 0a73 2abf 0be5 5b3e 1667 ba3d
00000130: f5f0 933e a47a 61be 4e91 db3d 318b 41be
00000140: 5feb d13c f365 d3be 9b86 553e 1035 603e
00000150: 47db a33e bfc5 3ebd 252a a1bb 4c5b fdbd
00000160: 9325 81ba 5e4b de3e 60ec 3abe 26c7 6ebd
00000170: 7d68 80be 956f 113f ecbb ddbd dfa6 553e
00000180: 17c6 40bd f5a2 ccbe 8f64 1abe 8853 89be
00000190: 7991 3cbc 48b3 b33e d28a 173e 5ff1 09be
000001a0: db43 c5bd 13d5 62bd 9cb7 78be 8e62 3e3e
000001b0: 19ca a93e 453c 5bbe dfce e1be dc5b 07bf
000001c0: 66c8 b03e ceea 2b3f 042d 9c3e 886b 6ebe
000001d0: a82c 9abe f1ce a8be 05eb 393e d52e e0bd
000001e0: 1d28 a93e 6fae 49be 46cf f9be 65e9 25be
000001f0: 661b 80be 3d28 3dbe 3127 813d 6bd5 92bd
00000200: 7ccc 303d b21a b13e 1e4d ab3e 2a5b b03e
00000210: 5cd8 c2bd 9eef 29bd d314 2dbe 0a48 223d
00000220: 21cf ce3d 62d4 8d3d 792c 973e 5e5d 13bf
00000230: 145b b23e c767 debd 32aa bf3d 8805 90be
00000240: 6276 323e 7bc3 b53e 0104 e73d 13da a1bd
00000250: 7621 f63e b4f7 5f3e 5211 c5bd 7364 633d
00000260: 5c12 2b3d 546d 01be ad4a 93be cd65 d2be
00000270: 6588 1a3e 31a7 bf3e 2ebd 9e3e 4748 693e
00000280: dd3e a33d 7a81 983c 3071 5a3e 78ac ecbc
00000290: 50da 9a3e df04 c8bd 0b1c 1bbf 9b05 913e
000002a0: 5b40 90bd a8a8 1bbe ef4c 89be dc83 7e3e
000002b0: e526 e5bd c655 b1be f656 893e 1549 26be
000002c0: b423 a0be 4ebd 253e 7662 3e3e 61b0 d93d
000002d0: b209 8cbd 9abd e1be af6f 9ebe a4d8 533e
000002e0: 0419 073f f417 54be 7f61 523e cfad 6a3e
000002f0: 730f eabd e0df 27bd aa0f 853e 0252 8d3d
00000300: 3801 c9bd 5279 bc3d a5d1 1c3d 9c49 b83d
00000310: 8d11 0d3e f99e 92be e3fc a5be 108d 3cbe
00000320: fbcd 073e eaf6 a43a 8fdc 9fbe 52c3 c0bb
00000330: 6a08 0ebe baa7 3e3d 3cea 84bd ad5d f13e
00000340: c87d 993e fa0f 463e 3984 6ebe 9f47 24be
00000350: 52af 59be 671e c6be 52b1 583e 7fc9 7abd
00000360: bc1e 41bd ea23 1bbe 10e4 5bbd afbb d0bd
00000370: 119b 60be aeee 8d3e e5c9 7c3d 32e8 b13d
00000380: 47fc 323d 22a9 10be 54c4 ebbe 2807 1b3e
00000390: 3f5d 4cbe 7d51 55be 3b63 2d3f a541 77bc
000003a0: 32a0 a53d e8ed dcbe 5999 2fbe 7d27 133e
000003b0: 1b17 043e d40d 3d3e 16a2 8abe 14a9 8a3e
000003c0: 71b5 4abd f9d9 7e3e b4d8 97bd 9b09 173e
000003d0: 6d37 9d3e f1ee 0bbe 9285 f5bd a0ba a33e
000003e0: b89e 41be a88d a6bc ea01 1e3e 28ee 80bd
000003f0: 64b5 42bd e945 103d 43de 8e3e 0e81 26bf

module.conv_layers.1.weight f4 [64, 64, 1, 1]
-0.06514732 0.21945119 0.12588286 -0.10912697 -0.28197834 0.13349976 -0.019561188 0.13053094
-0.35309452 0.07131979 0.015578237 -0.18867934 -0.18482786 -0.24795777 0.049432874 -0.18249795
-0.50846016 -0.3347214 0.22945505 -0.03974717 0.22190882 -0.13995865 0.28196254 0.66169107
0.05982343 -0.16262658 -0.63047266 -0.21222001 -0.1369118 0.09437482 0.35058352 -0.38886926
-0.1331125 0.30675343 0.15100336 -0.008061218 0.091432884 -0.32046613 -0.0076952744 0.023943668
-0.033508185 -0.105126336 0.040594734 -0.079844356 0.265436 0.3937412 -0.19800416 -0.19021629
0.18211459 0.3187319 0.41407928 0.24303696 -0.046579354 -0.1429432 0.06727574 0.39724413
0.04319009 -0.094785795 -0.41027322 0.3067976 -0.17192937 0.11948309 -0.12663499 -0.20641293
-0.023604374 -0.06303463 0.0035575416 -0.10880913 -0.5174697 -0.41156328 0.040650085 0.0604541
0.40929148 0.41585106 -0.17390609 -0.17727223 0.4899918 0.20623004 -0.15969458 -0.05705615
-0.078160785 0.1577536 -0.2374993 -0.002014422 0.15237889 0.26850894 0.023073504 -0.15244925
0.047123697 -0.31757087 0.28274855 0.4160335 -0.21045345 0.37879094 0.13925204 0.14363302
0.47701448 0.012567491 0.0012935612 -0.06606183 0.13361175 -0.28510815 0.455344 0.35064384
0.059168883 0.22112188 -0.02709842 0.56196105 -0.1984827 -0.11035389 -0.16529122 0.29866424
0.36838326 0.17494108 0.4542508 -0.31035995 -0.05338716 0.20867541 0.07134664 -0.20542233
0.48863292 -0.12530246 0.2519639 0.31578988 0.14999089 0.469283 -0.22790952 -0.054276165
-0.20122905 -0.5143462 -0.1562546 0.6721543 -0.20448545 0.04562669 -0.088248886 0.20879243
-0.08061781 0.03097978 0.44902477 0.080115475 -0.27294925 0.24089727 -0.15432796 0.59030586
-0.09983449 0.015679872 0.11868372 -0.10778457 -0.31144944 0.13424645 0.10329275 -0.38892043
-0.025566638 0.09354551 0.5659823 -0.017441006 -0.4304444 -0.09599514 -0.32523358 0.33778322
0.026660025 0.0963054 0.13285755 0.28545693 0.27435482 0.28627896 -0.120324224 -0.4262471
0.14366637 0.09012258 -0.3066929 -0.29877004 -0.21719112 -0.1317588 -0.0382478 0.19207692
-0.48988765 -0.0626217 -0.5928313 -0.333757 -0.01749092 -0.10412918 -0.5751628 -0.050707217
-0.1842584 0.10568976 0.13673978 -0.5731687 -0.28716922 -0.1680467 0.2101536 0.3600906
0.37567174 0.031080576 0.10594069 -0.2336581 -0.07320569 0.14604704 0.11049436 0.37008923
-0.28322366 0.13691406 -0.15090987 -0.005122478 -0.29023787 -0.22541863 -0.0033768688 -0.08994872
-0.18864763 -0.28026614 0.3442851 -0.1055666 0.12463291 0.014026597 -0.019296536 0.12649386
0.50033325 0.66298866 -0.41895536 -0.19460183 0.07415878 -0.18891262 0.15797354 0.024629481
-0.060901333 -0.18918666 0.10712287 0.034676604 0.48338774 0.3464579 -0.2998276 -0.26089478
-0.3838635 0.12492792 0.080011345 -0.25952095 0.0045220545 0.07448521 -0.4263451 0.24159771
-0.02683839 0.1486567 -0.050186526 0.2249342 -0.009679335 -0.04149943 -0.18106583 -0.25102517
-0.38422126 -0.03264078 -0.04260106 0.06301779 -0.28256893 0.28272653 -0.112728946 -0.23631294
00000000: f56b 85bd d0b7 603e 70e7 003e f67d dfbd
00000010: 775f 90be 29b4 083e c93e a0bc e7a9 053e
00000020: cec8 b4be 1c10 923d dd3b 7f3c 2835 41be
00000030: 8443 3dbe a4e8 7dbe 207a 4a3d bee0 3abe
00000040: 722a 02bf 9a60 abbe 44f6 6a3e eecd 22bd
00000050: 113c 633e 5251 0fbe 655d 903e 9664 293f
00000060: 6a09 753d 9587 26be a866 21bf 3450 59be
00000070: 9b32 0cbe 9647 c13d af7f b33e df19 c7be
00000080: a54e 08be c90e 9d3e a0a0 1a3e 3313 04bc
00000090: 2a41 bb3d 2314 a4be a428 fcbb 8325 c43c
000000a0: e13f 09bd 7a4c d7bd aa46 263d 7085 a3bd
000000b0: 3ae7 873e 7298 c93e 9ac1 4abe 0fc8 42be
000000c0: 3f7c 3a3e d430 a33e 3302 d43e aede 783e
000000d0: fec9 3ebd b45f 12be ddc7 893d 9563 cb3e
000000e0: 18e8 303d 0e1f c2bd 550f d2be 9314 9d3e
000000f0: 410e 30be 8db3 f43d 9aac 01be e95d 53be
00000100: f65d c1bc 4d18 81bd a525 693b 52d7 debd
00000110: e578 04bf 6cb8 d2be b480 263d b89e 773d
00000120: a78e d13e 6eea d43e 7014 32be da86 35be
00000130: 35e0 fa3e f82d 533e fa86 23be b6b3 69bd
00000140: c312 a0bd 298a 213e 0433 73be 6504 04bb
00000150: 3609 1c3e 017a 893e a504 bd3c a81b 1cbe
00000160: c704 413d a698 a2be 6bc4 903e 5802 d53e
00000170: 1c81 57be e3f0 c13e 1698 0e3e 8914 133e
00000180: 3e3b f43e e1e7 4d3c b68c a93a 6d4b 87bd
00000190: 85d1 083e b2f9 91be d922 e93e 9787 b33e
000001a0: 125b 723d c66d 623e 81fd ddbc aedc 0f3f
000001b0: 0d3f 4bbe 3801 e2bd 1a42 29be 85ea 983e
000001c0: bb9c bc3e c123 333e 9093 e83e 80e7 9ebe
000001d0: 7fac 5abd 02af 553e 301e 923d 3b5a 52be
000001e0: 182e fa3e 4a4f 00be 6a01 813e 36af a13e
000001f0: 3697 193e dd45 f03e 1d61 69be af50 5ebd
00000200: fd0e 4ebe 31ac 03bf 3501 20be 4e12 2c3f
00000210: a264 51be 0de3 3a3d d5bb b4bd afcd 553e
00000220: f31a a5bd 4fc9 fd3c 93e6 e53e 9513 a43d
00000230: 01c0 8bbe c6ad 763e 2608 1ebe 491e 173f
00000240: 0676 ccbd 1373 803c 7310 f33d 28be dcbd
00000250: 4d76 9fbe e777 093e 268b d33d 9420 c7be
00000260: 2071 d1bc ca94 bf3d 37e4 103f 71e0 8ebc
00000270: 3563 dcbe 1a99 c4bd 0485 a6be ecf1 ac3e
00000280: 2066 da3c c43b c53d cf0b 083e 6927 923e
00000290: 3c78 8c3e 2893 923e 8c6c f6bd 0f3d dabe
000002a0: 471d 133e 3092 b83d da06 9dbe 63f8 98be
000002b0: 5967 5ebe c7eb 06be baa9 1cbd d0af 443e
000002c0: 8ed2 fabe ce3f 80bd cbc3 17bf 33e2 aabe
000002d0: 1e49 8fbc ae41 d5bd df3d 13bf 5fb2 4fbd
000002e0: 3cae 3cbe df73 d83d 8305 0c3e 2fbb 12bf
000002f0: d807 93be 6f14 2cbe 8132 573e cc5d b83e
00000300: 0c58 c03e b19c fe3c 6ff7 d83d 1244 6fbe
00000310: ddec 95bd 5b8d 153e de4a e23d 567c bd3e
00000320: b102 91be 3333 0c3e 1e88 1abe 76da a7bb
00000330: 0f9a 94be 24d4 66be 754e 5dbb 0937 b8bd
00000340: d82c 41be 0b7f 8fbe 2346 b03e 4d33 d8bd
00000350: 8a3f ff3d d0cf 653c c513 9ebc 9b87 013e
00000360: d715 003f a0b9 293f 5181 d6be b445 47be
00000370: 8fe0 973d 4f72 41be d1c3 213e c4c3 c93c
00000380: ad73 79bd 26ba 41be 3c63 db3d 0e09 0e3d
00000390: 997e f73e ee62 b13e 0183 99be 0094 85be
000003a0: c289 c4be 36da ff3d fddc a33d eedf 84be
000003b0: be2d 943b b48b 983d e849 dabe 6465 773e
000003c0: 2fdc dbbc 7639 183e 6390 4dbd 2755 663e
000003d0: 1396 1ebc 4efb 29bd 5269 39be 5f86 80be
000003e0: a6b8 c4be 57b2 05bd 737e 2ebd 790f 813d
000003f0: e0ac 90be 88c1 903e 6fde e6bd 05fc 71be

module.conv_layers.2.weight f4 [64, 64, 1, 1]
-0.18510641 -0.093999445 0.07321381 0.18512437 -0.015777716 -0.26589975 -0.12844048 -0.69072306
-0.20982213 0.079100996 -0.128517 -0.2476469 -0.19464058 -0.3056927 -0.07398035 0.026940092
-0.024505112 -0.77668685 0.4043837 0.05766417 -0.2593398 0.026182154 0.12964301 0.021445332
0.034358997 -0.33830002 -0.08630203 -0.37013605 -0.32482302 0.015600389 -0.12170668 -0.41630846
0.025428612 0.19157271 0.20897564 -0.18353617 0.16292326 0.23175132 -0.5210636 -0.20598009
0.0827389 0.28735566 0.37808606 -0.009948157 -0.016262902 0.04521403 -0.2687694 0.036446787
0.11037274 0.033075225 -0.007423144 -0.16912968 -0.23534116 -0.32060185 -0.018709593 -0.14926288
-0.095607355 0.21545309 -0.12291996 -0.005038207 -0.13135548 0.14766528 -0.22427544 -0.518958
-0.21215256 0.1611405 0.100165054 -0.14636743 -0.06075623 -0.31547543 -0.031953216 -0.18216835
0.069866 0.018527206 -0.14170232 0.22229862 0.016988253 0.040729515 -0.19122955 0.14189604
0.0250251 0.20180842 0.013167349 0.09174609 -0.20834863 0.0026446667 0.020794509 0.19827287
0.22568335 0.845706 -0.1626982 -0.46762642 0.22193274 0.13391137 0.9330424 -0.23648754
-0.01760707 -0.88213676 0.05657932 0.13376366 0.13001007 -0.12064384 0.31631956 0.32279122
-0.21634156 0.26912898 -0.38435113 -0.61560327 -0.09797644 -0.021115791 -0.07391274 -0.6560094
-0.192217 -0.28955138 0.18081844 0.014030498 0.08599522 0.22474724 -0.07487623 -0.038595088
0.14689772 -0.45198053 -0.4976809 -0.14005837 0.09867564 -0.30312198 -0.044225536 0.123161
-0.11463709 -0.56411064 -0.053029295 -0.23834959 0.047408137 -0.3519058 -0.23886283 -0.031338606
-0.3628025 -0.49843872 -0.017777203 -0.24353404 0.15558006 0.16391501 -0.375714 -0.2741465
-0.26440218 0.0082343295 0.4670742 -0.1857896 0.11646663 -0.33263636 0.10964492 0.22246668
-0.3773311 -0.2269201 0.20499213 0.42967018 -0.2626376 -0.08523253 0.15177673 -0.035896048
-0.36479932 0.20967901 -0.08854423 0.06670214 0.29608953 -0.1618356 -0.19694443 -0.105100304
0.14660276 -0.2751112 0.2651707 -0.073946804 -0.12568615 -0.244772 -0.47155502 -0.41470465
-0.09885938 0.05519635 -0.08387914 -0.24926391 -0.219315 -0.155167 -0.07080731 0.13107385
-0.22002742 0.08984599 -0.31982404 -0.20750226 -0.4042329 0.029123722 -0.43303874 -0.048632562
0.23975517 -0.35529575 0.14626847 0.047281552 -0.116048545 -0.6344644 0.0005611828 0.06445657
-0.02561524 -0.06573767 0.054868888 -0.14765611 -0.22926398 0.1687618 -0.0040930724 -0.06684077
-0.0696428 -0.06880239 0.32435995 -0.08556847 0.4798221 0.014512635 -0.25957015 0.080359764
-0.14151755 -0.022382818 0.2888223 0.06565733 -0.029390791 0.31801087 0.9887934 -0.6523862
-0.11537101 0.14940614 -0.23539454 -0.030018803 -0.13094771 0.38633353 -0.10557002 -0.54969805
0.22726794 -0.14440253 -0.1344009 0.57228047 -0.71542114 -0.10105016 0.17545934 -0.43366873
0.49012655 -0.45475566 -0.020101333 0.12450243 -0.20596837 0.08289374 -0.027195541 -0.05308678
-0.09643672 -0.0106412405 -0.0062877047 -0.17403239 -0.032424595 0.028715732 0.20451385 -0.003299096
00000000: 898c 3dbe c882 c0bd 1ff1 953d 3e91 3d3e
00000010: 4540 81bc 0324 88be e785 03be 3ad3 30bf
00000020: 9ddb 56be b4ff a13d f699 03be 2697 7dbe
00000030: dc4f 47be c183 9cbe 0283 97bd 78b1 dc3c
00000040: f2be c8bc f3d4 46bf 610b cf3e 4431 6c3d
00000050: 30c8 84be f57b d63c 23c1 043e 1fae af3c
00000060: 05bc 0c3d a935 adbe 1ebf b0bd 7982 bdbe
00000070: 344f a6be c698 7f3c 5a41 f9bd 6226 d5be
00000080: aa4f d03c a32b 443e b6fd 553e e8f0 3bbe
00000090: 5bd5 263e 3850 6d3e 6d64 05bf 72ec 52be
000000a0: 0373 a93d 4820 933e 7f94 c13e 98fd 22bc
000000b0: c739 85bc 5932 393d 259c 89be 3a49 153d
000000c0: 1a0b e23d e379 073d d83d f3bb 5530 2dbe
000000d0: 46fd 70be ed25 a4be dc44 99bc 5ed8 18be
000000e0: cacd c3bd bc9f 5c3e 76bd fbbd 8b17 a5bb
000000f0: 0d82 06be 9135 173e 76a8 65be 6eda 04bf
00000100: 853e 59be 0402 253e 5623 cd3d 58e1 15be
00000110: 86db 78bd ff85 a1be 60e1 02bd 578a 3abe
00000120: e815 8f3d 5ec6 973c 6a1a 11be 40a2 633e
00000130: f32a 8b3c fed3 263d aed1 43be 324d 113e
00000140: 7001 cd3c dea6 4e3e ddbb 573c 60e5 bb3d
00000150: 5859 55be 2552 2d3b 3f59 aa3c 0b08 4b3e
00000160: 8919 673e 3080 583f 5b9a 26be bb6c efbe
00000170: 5642 633e 1020 093e dedb 6e3f ca29 72be
00000180: b43c 90bc b7d3 61bf b8bf 673d 57f9 083e
00000190: 5c21 053e 1e14 f7bd a3f4 a13e e444 a53e
000001a0: a488 5dbe 46cb 893e acc9 c4be 2d98 1dbf
000001b0: dfa7 c8bd 06fb acbc 905f 97bd 3bf0 27bf
000001c0: 89d4 44be 1440 94be 7828 393e 2de0 653c
000001d0: 431e b03d 2424 663e b558 99bd e215 1ebd
000001e0: 5b6c 163e fe69 e7be 08d0 febe 766b 0fbe
000001f0: 7416 ca3d ce32 9bbe d625 35bd d63b fc3d
00000200: dac6 eabd 8e69 10bf 3f35 59bd ea11 74be
00000210: 092f 423d ff2c b4be 7598 74be e95c 00bd
00000220: 40c1 b9be 5c33 ffbe 7fa1 91bc fd60 79be
00000230: 6150 1f3e 56d9 273e 965d c0be ee5c 8cbe
00000240: b95f 87be 48e9 063c 5924 ef3e a13f 3ebe
00000250: 0e86 ee3d 504f aabe 848d e03d 4ece 633e
00000260: 8b31 c1be be5d 68be 75e9 513e bbfd db3e
00000270: 6f78 86be 658e aebd 5c6b 1b3e bc07 13bd
00000280: fac6 babe 18b6 563e ad56 b5bd 229b 883d
00000290: 0c99 973e 3bb8 25be cdab 49be d43e d7bd
000002a0: 091f 163e 60db 8cbe 74c4 873e 6c71 97bd
000002b0: dfb3 00be 83a5 7abe a96f f1be 2b54 d4be
000002c0: c976 cabd 9115 623d d4c8 abbd 0a3f 7fbe
000002d0: 1d94 60be 19e4 1ebe 6c03 91bd 3938 063e
000002e0: de4e 61be 2d01 b83d fabf a3be 797b 54be
000002f0: 9df7 cebe df94 ee3c 41b7 ddbe f032 47bd
00000300: 6182 753e 53e9 b5be 67c7 153e 4daa 413d
00000310: dcaa edbd 426c 22bf 571c 133a ce01 843d
00000320: 0dd7 d1bc 79a1 86bd 33be 603d 2a33 17be
00000330: 2dc4 6abe e5cf 2c3e 2e1f 86bb d0e3 88bd
00000340: e2a0 8ebd 44e8 8cbd 8212 a63e 863e afbd
00000350: 3eab f53e 67c6 6d3c 61e6 84be a993 a43d
00000360: fae9 10be 2c5c b7bc 84e0 933e 5a77 863d
00000370: f5c4 f0bc 52d2 a23e 9021 7d3f c802 27bf
00000380: a347 ecbd ecfd 183e 440b 71be fee9 f5bc
00000390: 2817 06be 82cd c53e 1835 d8bd 03b9 0cbf
000003a0: edb8 683e 42de 13be 64a0 09be f980 123f
000003b0: d725 37bf 63f3 cebd 9dab 333e d409 debe
000003c0: def1 fa3e bcd5 e8be 8dab a4bc 21fb fe3d
000003d0: 5fe9 52be 31c4 a93d 2fc9 debc 8671 59bd
000003e0: 9d80 c5bd 9958 2ebc 1709 cebb 8c35 32be
000003f0: a7cf 04bd 413d eb3c 146c 513e a535 58bb

module.conv_layers.3.weight f4 [64, 64, 1, 1]
-0.07938344 0.39558825 -0.22717133 -0.13646111 0.345439 0.059159804 0.125067 0.22169104
-0.0104629565 0.15264061 0.109339505 0.19116412 -0.33242598 0.18553291 0.34612247 -0.3622109
0.20186909 0.12482828 -0.027168209 0.44386312 -3.704557e-05 0.15924114 0.15021402 -0.016056871
-0.034667227 -0.107978985 0.079842724 -0.15457869 0.01344772 0.0467352 -0.015572456 -0.28610393
0.120926455 0.24609056 0.13615294 0.26627272 -0.20986602 -0.0015895527 -0.12490788 -0.06876688
0.54135734 -0.015261276 -0.0064710774 0.07990919 0.26833746 0.20626423 -0.10101025 0.14086075
-0.15104736 0.28956068 -0.053791497 -0.10310848 0.17677288 -0.046898134 -0.017582815 0.035171255
-0.13574179 0.15811795 0.04180526 -0.028775781 0.002453987 -0.0038012033 0.00040350965 -0.014647426
-0.052979264 0.12538128 -0.16590779 0.62626994 -0.08356729 -0.20547745 0.29969484 0.10235491
-0.27537587 -0.035467636 0.20307945 -0.07952789 -0.22019272 0.26375124 -0.66813785 -0.21847302
-0.17615464 -0.09884659 0.07162891 0.29172406 -0.10614993 0.3339913 -0.11988785 0.18711239
-0.04086009 0.035090487 0.12482866 -0.18675897 -0.16477616 0.18664102 0.14396589 0.04163428
-0.19434935 0.25570878 -0.09198959 0.21016432 0.22081 0.22056301 -0.529219 0.03257622
-0.8546782 0.55751824 0.09913068 0.07037717 -0.21506105 0.16411653 0.2872282 -0.42805713
-0.22562493 -0.3371587 -0.7984457 0.25206062 0.00079381064 0.05755309 0.5661626 0.031058202
0.2836331 -0.51797026 -0.3901229 -0.16670723 -0.018815437 0.19275418 -0.40902257 0.096950166
-0.079516634 0.2928268 -0.093026005 0.67272085 -0.58467835 0.29808635 0.11309213 0.3392727
0.0037276628 -0.08696916 0.21726036 -0.85466766 0.09104293 0.03268285 0.22518657 0.21878344
-0.33998272 -0.18279584 -0.6905025 0.42794177 -0.1477806 -0.1242615 0.06748111 0.04716144
0.39383972 -0.78749585 0.60838836 0.18157613 -0.25671005 -0.0432153 -0.3516615 0.027553296
-0.35802865 0.2700097 -0.24019966 0.046198774 0.6673702 0.40994003 -0.5846177 -0.043149803
-0.6087044 0.4285937 0.017768737 -0.011455277 0.1481009 0.16829377 -0.17200671 0.04793607
-0.33189952 0.23646042 -0.24739069 -0.025401067 -0.08897493 -0.11384575 -0.22055094 -0.2174229
0.2575746 -0.5133136 -0.34451804 -0.11595635 -0.11706443 -0.077854514 0.07045483 0.16977546
0.13494636 0.29801735 -0.12780984 -0.06729773 -0.154744 0.0016343228 -0.25806823 -0.44400996
-0.19276384 -0.21826883 -0.14246364 -0.058523 -0.03604366 -0.08046618 -0.21720071 0.23931268
-0.064651646 0.27092436 0.13175288 0.039333846 -0.17090265 -0.0682008 0.30482453 0.17116071
0.06767613 -0.07993675 0.20220096 -0.26579857 0.002287088 -0.042621147 -0.00883925 -0.13556969
0.035537172 -0.016749527 -0.30130994 0.015425566 0.042159956 0.11426509 0.13327497 0.21548145
0.034223977 -0.20857881 0.18809403 0.30899137 0.14214315 -0.16524565 -0.1455789 -0.15939009
-0.2981714 0.07822509 0.20424104 0.09357296 -0.07299141 0.1443291 -0.01375058 -0.2597195
-0.429562 0.11837283 -0.28651056 0.1773664 -0.38576168 -0.120058455 0.13513367 -0.40221596
00000000: c993 a2bd 8b8a ca3e 9a9f 68be 76bc 0bbe
00000010: 61dd b03e 8d51 723d 9011 003e fa02 633e
00000020: d26c 2bbc d24d 1c3e 64ed df3d 87c0 433e
00000030: bd33 aabe 57fc 3d3e f736 b13e b573 b9be
00000040: c5b6 4e3e f8a5 ff3d dd8f debc 0742 e33e
00000050: 6161 1bb8 1c10 233e b4d1 193e b389 83bc
00000060: 39ff 0dbd 1624 ddbd 9584 a33d e049 1ebe
00000070: d353 5c3c 696d 3f3d 9d23 7fbc 377c 92be
00000080: 4aa8 f73d 2aff 7b3e ad6b 0b3e e654 883e
00000090: 1ee7 56be 8a58 d0ba b4cf ffbd a6d5 8cbd
000000a0: 6596 0a3f 6e0a 7abc 550b d4bb 6ea7 a33d
000000b0: 8763 893e ee36 533e 76de cebd cd3d 103e
000000c0: 29ac 1abe 4c41 943e 7954 5cbd 8a2a d3bd
000000d0: f303 353e 4218 40bd d609 90bc bc0f 103d
000000e0: e5ff 0abe ace9 213e fe3b 2b3d 30bb ebbc
000000f0: 12d3 203b 9c1d 79bb 268e d339 c2fb 6fbc
00000100: c900 59bd f363 003e bbe3 29be 3a53 203f
00000110: 5425 abbd ae68 52be 9a71 993e 739f d13d
00000120: 11fe 8cbe 8346 11bd 0ff4 4f3e 85df a2bd
00000130: 337a 61be 670a 873e 150b 2bbf 64b7 5fbe
00000140: e261 34be 1570 cabd 2eb2 923d db5c 953e
00000150: 2265 d9bd e800 ab3e c387 f5bd 649a 3f3e
00000160: e95c 27bd 0bbb 0f3d 2ba6 ff3d be3d 3fbe
00000170: 15bb 28be d31e 3f3e cb6b 133e b588 2a3d
00000180: 8403 47be 43ec 823e 0a65 bcbd 5135 573e
00000190: 041c 623e 45db 613e e57a 07bf a46e 053d
000001a0: 31cc 5abf 84b9 0e3f 0705 cb3d e821 903d
000001b0: f738 5cbe 2a0e 283e 930f 933e 4e2a dbbe
000001c0: 390a 67be 11a0 acbe f066 4cbf 170e 813e
000001d0: bb17 503a cabc 6b3d 08f0 103f c56d fe3c
000001e0: 5c38 913e b399 04bf 30be c7be 4db5 2abe
000001f0: d522 9abc 5a61 453e 686b d1be cf8d c63d
00000200: 9ed9 a2bd 65ed 953e 6b84 bebd 6f37 2c3f
00000210: 7bad 15bf c69e 983e d99c e73d 27b5 ad3e
00000220: ce4b 743b e31c b2bd 8079 5e3e 80cb 5abf
00000230: b774 ba3d 74de 053d 4f97 663e c408 603e
00000240: 3712 aebe d52e 3bbe c6c4 30bf 2f1b db3e
00000250: cc53 17be d07c febd 8933 8a3d 5b2c 413d
00000260: 5ca5 c93e 5499 49bf 57bf 1b3f 18ef 393e
00000270: 806f 83be 8702 31bd fa0c b4be 73b7 e13c
00000280: 884f b7be b63e 8a3e e6f6 75be ed3a 3d3d
00000290: c6d8 2a3f a9e3 d13e 81a9 15bf d9bd 30bd
000002a0: 0dd4 1bbf a270 db3e be8f 913c eaae 3bbc
000002b0: c3a7 173e 3455 2c3e 8722 30be 9d58 443d
000002c0: bcee a9be ae22 723e fc53 7dbe e615 d0bc
000002d0: 7d38 b6bd f627 e9bd 1bd8 61be 1ca4 5ebe
000002e0: d1e0 833e 8568 03bf ab64 b0be 867a edbd
000002f0: 7abf efbd 3072 9fbd 9f4a 903d 9ed9 2d3e
00000300: 612f 0a3e bb95 983e 95e0 02be 64d3 89bd
00000310: 3675 1ebe c636 d63a 8521 84be 4655 e3be
00000320: e263 45be dd81 5fbe fde1 11be d0b5 6fbd
00000330: 84a2 13bd 74cb a4bd dd69 5ebe 620e 753e
00000340: 1568 84bd 99b6 8a3e 3aea 063e 871c 213d
00000350: 1b01 2fbe dcac 8bbd f611 9c3e c144 2f3e
00000360: c899 8a3d e1b5 a3bd c50d 4f3e c016 88be
00000370: f8e2 153b 8393 2ebd 80d2 10bc c8d2 0abe
00000380: 6d8f 113d 4e36 89bc 4c45 9abe 83bb 7c3c
00000390: ebaf 2c3d d103 ea3d 3c79 083e 2ba7 5c3e
000003a0: 712e 0c3d af95 55be b99b 403e 1e34 9e3e
000003b0: f98d 113e 2836 29be a312 15be 2837 23be
000003c0: eca9 98be 7a34 a03d 9024 513e 2ea3 bf3d
000003d0: 857c 95bd 02cb 133e 1d4a 61bc f4f9 84be
000003e0: 8def dbbe 746d f23d 83b1 92be 8a9f 353e
000003f0: 8e82 c5be 35e1 f5bd 7b60 0a3e 40ef cdbe

module.conv_layers.4.weight f4 [64, 64, 1, 1]
-0.022112677 -0.12514192 0.21944623 -0.20461453 -0.28022417 0.1262827 0.19694184 -0.14107314
-0.09446526 -0.27497143 -0.06266406 -0.27424085 -0.15063912 -0.082749926 -0.042920083 -0.1208721
-0.014505338 0.03510385 -0.029336952 -0.09032909 0.14614727 -0.34826803 -0.097882345 0.12585536
0.21872988 0.38110086 -0.18913925 -0.03194389 -0.07666579 0.03694545 -0.17059197 0.03833823
-0.38196436 -0.041777708 0.1132048 -0.23890671 -0.10029444 0.056068324 -0.2606244 0.13478176
0.16955474 -0.17186034 -0.3209874 0.3672557 -0.10118581 0.15885156 -0.08065904 -0.013647674
0.035692938 -0.28703827 0.04232319 -0.26750475 0.3674353 -0.026009323 -0.10899658 -0.10110544
0.12834688 -0.3850246 -0.4858822 -0.31433392 -0.28147852 0.110976234 0.124942966 0.18374115
0.012294455 -0.024977786 -0.31946072 0.6011628 0.1411857 -0.06516079 0.004936399 0.05779511
-0.20706439 -0.121594116 0.0921515 0.077346556 -0.22123657 -0.24731037 -0.20595486 0.107281744
-0.590013 -0.15027548 -0.3545707 -0.13409609 0.19315706 -0.02035103 0.24512617 0.13017333
-0.1742113 0.25623024 0.07982025 0.1204169 -0.0017311936 -0.05020952 0.089564644 -0.409448
0.033445403 0.25147474 0.21024047 0.24409863 0.6778351 -0.14727396 -0.0067967745 -0.0722127
0.5369145 0.19788253 -0.25021052 0.20317817 -0.14982308 -0.061596654 0.33133236 -0.08521533
-0.6106705 -0.118054904 -0.04559022 0.11098486 -0.013354899 -0.021672295 -0.22453919 0.4172278
-0.124965556 0.008803855 -0.08002276 -0.48070213 0.21071413 -0.18472044 0.007442735 -0.10496306
-0.07474338 0.7870192 -0.35359308 0.21134947 0.032531936 -0.21324703 0.18490516 -0.22771683
-0.0934192 -0.29296285 -0.32660934 0.009214563 0.30231246 -0.10643938 -0.12099306 0.16137971
-0.2927183 0.06444253 -0.028556613 -0.054320473 0.10004853 -0.009883044 0.45591766 0.25829434
-0.34331247 0.18874049 0.08839868 0.023131214 0.003323858 -0.05760645 -0.059764437 0.74261683
-0.036746275 -0.10086837 0.3329858 0.48871207 -0.9245582 0.15062548 0.38605654 0.008204556
-0.3322769 -0.18203376 -0.20149013 0.17547372 -0.009801976 0.21421455 -0.20821945 -0.09557127
-0.48927408 0.031818233 0.069527455 0.2439445 0.19965596 -0.10077109 0.5071564 0.45398575
-0.20030586 -0.56240255 -0.03690204 -0.22369172 -0.19229949 -0.05203135 -0.24307546 0.14232562
0.010994054 -0.2338755 0.5710524 -0.05884368 0.7181635 -0.02585444 -0.15711197 -0.3664868
-0.34116232 0.28578624 0.10065739 0.37023738 0.20157994 0.19487135 -0.3791676 0.2437881
-0.062152646 0.28045347 -0.21576875 -0.04701115 -0.16839148 0.07394322 0.11024746 0.3197553
-0.59559816 -0.22556624 0.03568007 0.19524713 0.65684336 -0.28586167 -0.13509369 -0.30498916
0.34571233 0.33973396 -0.0015536904 0.27952683 0.1298272 -0.027093422 0.1463524 -0.38244256
0.47705805 0.06675475 -0.24056113 0.966657 -0.267895 -0.48835474 -0.28575572 -0.06646827
-0.9614473 -0.8384018 0.41785553 -0.2930788 0.40278116 -0.27274764 -0.07936667 0.21475184
-0.53803813 -0.53187996 -0.44747704 -0.2516227 -0.28324717 0.30465916 -0.06740164 0.1611146
00000000: a525 b5bc 3425 00be 83b6 603e 7986 51be
00000010: 8b79 8fbe 4150 013e 1fab 493e 7a75 10be
00000020: 0177 c1bd 0ec9 8cbe 0456 80bd 4c69 8cbe
00000030: 2441 1abe cb78 a9bd f8cc 2fbd cb8b f7bd
00000040: cca7 6dbc 0ec9 0f3d 0c54 f0bc 75fe b8bd
00000050: a1a7 153e 3050 b2be 8a76 c8bd 3ae0 003e
00000060: bafa 5f3e a71f c33e b8ad 41be 99d7 02bd
00000070: f402 9dbd 1d54 173d a9af 2ebe 8c08 1d3d
00000080: d590 c3be 1a1f 2bbd ebd7 e73d f6a3 74be
00000090: 2c67 cdbd e6a7 653d 9070 85be 3b04 0a3e
000000a0: c29f 2d3e 28fc 2fbe 7658 a4be f008 bc3e
000000b0: 823a cfbd fca9 223e 9130 a5bd 7e9a 5fbc
000000c0: c232 123d aef6 92be 155b 2d3d 62f6 88be
000000d0: 7b20 bc3e 8111 d5bc 9939 dfbd 5e10 cfbd
000000e0: 5d6d 033e f221 c5be 8dc5 f8be 60f0 a0be
000000f0: f41d 90be 8247 e33d 19e2 ff3d a426 3c3e
00000100: af6e 493c 379e ccbc 5b90 a3be cee5 193f
00000110: fc92 103e 0573 85bd 84c1 a13b 91ba 6c3d
00000120: b008 54be 5606 f9bd edb9 bc3d df67 9e3d
00000130: d78b 62be ee3e 7dbe d5e5 52be 88b6 db3d
00000140: 180b 17bf d1e1 19be 4a8a b5be 7c50 09be
00000150: f7ca 453e 34b7 a6bc 5b02 7b3e 284c 053e
00000160: 7264 32be 9c30 833e cd78 a33d 239d f63d
00000170: 38e9 e2ba 7fa8 4dbd ab6d b73d 2ba3 d1be
00000180: 0cfe 083d 4cc1 803e 4749 573e fef4 793e
00000190: 9a86 2d3f fcce 16be 7ab7 debb 41e4 93bd
000001a0: 3b73 093f b8a1 4a3e 981b 80be f00d 503e
000001b0: 396b 19be c64c 7cbd 65a4 a93e 6085 aebd
000001c0: e754 1cbf c5c6 f1bd cfbc 3abd 084c e33d
000001d0: 82ce 5abc 198a b1bc 9aed 65be e29e d53e
000001e0: f1ed ffbd 0b3e 103c f9e2 a3bd 971e f6be
000001f0: 72c5 573e 5b27 3dbe 30e2 f33b dff6 d6bd
00000200: 0f13 99bd 177a 493f 270a b5be ff6b 583e
00000210: 3540 053d 6e5d 5abe c757 3d3e 9a2e 69be
00000220: 9152 bfbd 3aff 95be 5739 a7be aef8 163c
00000230: b3c8 9a3e e4fc d9bd 36cb f7bd b940 253e
00000240: 2cdf 95be 72fa 833d 8fef e9bc 257f 5ebd
00000250: 3ee6 cc3d 7eec 21bc 0a6e e93e 283f 843e
00000260: a7c6 afbe 3045 413e 5e0a b53d ac7d bd3c
00000270: 15d5 593b bef4 6bbd 8ecb 74bd 231c 3e3f
00000280: 4383 16bd 1394 cebd 1d7d aa3e 7838 fa3e
00000290: d9af 6cbf 913d 1a3e 34a9 c53e 676c 063c
000002a0: 3320 aabe 0f67 3abe 6e53 4ebe 62af 333e
000002b0: 7898 20bc 0f5b 5b3e 7b37 55be dfba c3bd
000002c0: 2282 fabe d653 023d 6964 8e3d 96cc 793e
000002d0: 9d72 4c3e 1361 cebd 00d5 013f d270 e83e
000002e0: fb1c 4dbe 9df9 0fbf 9826 17bd 710f 65be
000002f0: 28ea 44be d31e 55bd c6e8 78be cfbd 113e
00000300: 6820 343c 0f7d 6fbe 7d30 123f 1206 71bd
00000310: 90d9 373f b1cc d3bc f6e1 20be 28a4 bbbe
00000320: d4ac aebe 9352 923e 7625 ce3d c18f bd3e
00000330: f96a 4e3e 5b8c 473e 4122 c2be 96a3 793e
00000340: c693 7ebd 9997 8f3e 7cf2 5cbe c38e 40bd
00000350: d16e 2cbe 8b6f 973d 6cc9 e13d f7b6 a33e
00000360: 1f79 18bf d6fa 66be 4425 123d ddee 473e
00000370: e326 283f 765c 92be 0056 0abe 8a27 9cbe
00000380: 3501 b13e 9cf1 ad3e 33a5 cbba 241e 8f3e
00000390: 6cf1 043e 06f3 ddbc 67dd 153e 83cf c3be
000003a0: f440 f43e b7b6 883d a855 76be d576 773f
000003b0: 8929 89be a209 fabe 934e 92be 8420 88bd
000003c0: 6921 76bf 80a1 56bf 29f1 d53e 6d0e 96be
000003d0: 5539 ce3e 94a5 8bbe fe8a a2bd e8e7 5b3e
000003e0: debc 09bf 4929 08bf b61b e5be b1d4 80be
000003f0: c605 91be 49fc 9b3e df09 8abd 3afb 243e

module.conv_layers.5.weight f4 [64, 64, 1, 1]
-0.1319786 -0.16980748 -0.0381102 -0.13199046 0.050092697 0.04484845 -0.422912 0.27776876
-0.26290897 -0.2164753 -0.31654233 -0.13196188 0.07572087 0.36293632 -0.31448054 -0.39753947
-0.059624463 0.07633584 -0.31849122 0.289766 0.050912343 0.38220045 -0.012816552 0.52528113
-0.2080738 0.28977376 -0.15117359 -0.27646586 -0.51465845 -0.22118612 0.8449671 -0.23407587
0.33956504 -0.15823475 0.12237542 0.6094676 0.4897187 -0.06672344 -0.19165115 -0.06554979
-0.075260855 0.113380365 -0.078045025 -0.103424296 -0.22129567 -0.12606156 -0.07991906 -0.25502267
-0.2238066 0.45900315 -0.050794173 -0.37747535 0.5928676 -0.43574214 0.2532954 -0.061660327
-0.6406385 -0.4739633 -0.12227029 0.057149738 0.25674313 0.17915733 -0.029968638 -0.6058239
0.005951952 0.3024724 -0.14818698 -0.10101886 -0.13588212 0.18120494 -0.19640936 -0.08387286
-0.087427825 -0.23806384 -0.019989593 -0.08337163 -0.1341279 -0.26616168 0.021286458 -0.21897717
0.16628939 -0.17294261 0.02154987 -0.0006049839 0.03559327 0.33721718 0.27465105 0.15523371
-0.25150123 -0.21728297 -0.10090658 0.09519383 0.011985128 0.14599681 0.0733258 -0.20709798
0.12624814 0.30927163 0.020776365 0.18447189 -0.18498126 0.013017613 0.20035663 0.088465236
-0.15635982 0.33636722 0.11833599 1.1469791 -0.011445876 -0.23165147 -0.085535154 -0.062182326
0.038222425 0.13701823 0.25066888 0.051543765 0.026720535 -0.1460771 -0.09521395 -0.07847461
0.26434383 0.16368079 -0.0908935 -0.2083243 0.002440438 -0.12712455 -0.085141316 -0.025074381
-0.06292321 0.10252254 -0.053414114 0.15230003 -0.10339848 -0.33175755 -0.1421176 0.020411113
-0.091925494 0.07803392 0.19417149 -0.17101242 0.14815374 0.009745465 -0.016860332 -0.029463997
-0.13686086 0.11935477 0.28571424 0.20728329 -0.18225193 -0.12782997 -0.042633884 -0.14169317
0.14909323 0.177207 0.38587347 0.25306806 -0.059509236 -0.30642843 -0.030724905 -0.33713326
-0.08448329 -0.23238465 0.21405956 0.014696144 -0.13452905 -0.24011318 0.08631301 0.14749475
-0.02766744 -0.4347402 -0.2787248 0.27049345 -0.34961253 0.13159733 0.09825751 -0.25597534
-0.2545464 0.1034478 -0.2531456 -0.34092298 0.012281288 -0.016938811 -0.24184828 -0.13174126
0.23583607 0.0048275413 -0.01190749 0.13074717 -0.0686783 0.032705925 -0.7778776 0.35067722
0.13754573 -0.030698428 0.07860061 -0.119388774 0.0068352777 0.09956793 -0.09435536 0.05340872
0.32969344 0.2007216 0.016619908 0.12544307 -0.25383124 -0.0005561976 -0.21272871 -0.047193583
0.3183549 -0.058751237 -0.08126489 0.1773178 0.5652679 0.0062068067 -0.26253203 0.28213218
-0.05387162 -0.07303417 0.14251058 -0.032238398 -0.07341466 -0.1639996 0.18257998 0.019854942
-0.27426937 -0.09651581 -0.013031141 -0.17141272 -0.14065847 0.07221159 0.07902256 0.20595345
0.21973404 0.031765442 -0.040287152 0.47958678 -0.13488622 -0.14768669 -0.13822539 -0.10946859
-0.09364394 -0.38442564 -0.0515459 0.20330817 0.30815881 0.13285261 -0.029446427 -0.15957479
0.17194659 0.23186073 0.40047452 0.035015617 0.25451 -0.042609658 -0.2266998 -0.13061085
00000000: 6625 07be 03e2 2dbe 7119 1cbd 8228 07be
00000010: 002e 4d3d 02b3 373d ec87 d8be b537 8e3e
00000020: 019c 86be b3ab 5dbe d611 a2be 0421 07be
00000030: 8b13 9b3d cad2 b93e 9803 a1be 4b8a cbbe
00000040: c838 74bd f755 9c3d 4811 a3be 365c 943e
00000050: 7689 503d c7af c33e 84fc 51bc d378 063f
00000060: 4c11 55be 3a5d 943e 40cd 1abe ef8c 8dbe
00000070: a8c0 03bf 9d7e 62be c44f 583f 96b1 6fbe
00000080: 78db ad3e 4a08 22be f79f fa3d 1206 1c3f
00000090: 69bc fa3e 4da6 88bd 3340 44be f83e 86bd
000000a0: 5d22 9abd f733 e83d 12d6 9fbd 1ed0 d3bd
000000b0: 559b 62be 4816 01be 9bac a3bd 5592 82be
000000c0: 8f2d 65be 7602 eb3e 8d0d 50bd 7344 c1be
000000d0: 2cc6 173f 9819 dfbe efaf 813e 8a8f 7cbd
000000e0: e200 24bf 51ab f2be d968 fabd d815 6a3d
000000f0: d673 833e 0575 373e ca80 f5bc 4617 1bbf
00000100: 9808 c33b aadd 9a3e 54be 17be fae2 cebd
00000110: af24 0bbe ca8d 393e 891f 49be 89c5 abbd
00000120: 5c0d b3bd 02c7 73be 37c1 a3bc bfbe aabd
00000130: d358 09be 5846 88be f060 ae3c 8d3b 60be
00000140: c447 2a3e de17 31be 5a89 b03c c897 1eba
00000150: 40ca 113d bba7 ac3e 109f 8c3e 96f5 1e3e
00000160: c5c4 80be 6d7f 5ebe 1ca8 cebd fcf4 c23d
00000170: 455d 443c 3080 153e d62b 963d 7e11 54be
00000180: 3147 013e da58 9e3e 3233 aa3c 33e6 3c3e
00000190: ba6b 3dbe d447 553c 4a2a 4d3e 432d b53d
000001a0: ca1c 20be 5338 ac3e 245a f23d 36d0 923f
000001b0: 7c87 3bbc 0b36 6dbe 0e2d afbd e5b2 7ebd
000001c0: 1e8f 1c3d 824e 0c3e ac57 803e 8e1f 533d
000001d0: 06e5 da3c 3c95 15be 88ff c2bd 4cb7 a0bd
000001e0: 1358 873e f09b 273e 5f26 babd f752 55be
000001f0: c1ef 1f3b f02c 02be 925e aebd ca68 cdbc
00000200: e2dd 80bd 56f7 d13d c2c8 5abd 8af4 1b3e
00000210: 95c2 d3bd 20dc a9be 4787 11be 3535 a73c
00000220: 6f43 bcbd 3fd0 9f3d e4d4 463e e11d 2fbe
00000230: 9db5 173e 71ab 1f3c ae1e 8abc 7b5e f1bc
00000240: 4125 0cbe 4670 f43d 2349 923e 1242 543e
00000250: 40a0 3abe dce5 02be dea0 2ebd 0418 11be
00000260: e5ab 183e c075 353e 3591 c53e 2392 813e
00000270: f5bf 73bd 30e4 9cbe ccb2 fbbc bb9c acbe
00000280: 9305 adbd 3ef6 6dbe 6e32 5b3e 18c8 703c
00000290: fcc1 09be 3be0 75be e0c4 b03d dd08 173e
000002a0: d4a6 e2bc 4496 debe 04b5 8ebe 1e7e 8a3e
000002b0: 6a00 b3be 73c1 063e 3c3b c93d 330f 83be
000002c0: e853 82be 71dc d33d 4d9c 81be 758d aebe
000002d0: 7537 493c 43c3 8abc 13a7 77be 2ee7 06be
000002e0: 037f 713e 5a30 9e3b a217 43bc 96e2 053e
000002f0: 35a7 8cbd a6f6 053d fd22 47bf f78b b33e
00000300: cad8 0c3e 457b fbbc 5bf9 a03d 1a82 f4bd
00000310: 77fa df3b 45ea cb3d 623d c1bd 1ac3 5a3d
00000320: 94cd a83e f789 4d3e 7926 883c 2674 003e
00000330: 2bf6 81be cacd 11ba 8ed5 59be 0f4e 41bd
00000340: 6aff a23e 23a5 70bd 356e a6bd cc92 353e
00000350: 66b5 103f 7862 cb3b 996a 86be a173 903e
00000360: 7da8 5cbd f092 95bd 4bee 113e 690c 04bd
00000370: 6d5a 96bd 83ef 27be 3ff6 3a3e d5a6 a23c
00000380: 096d 8cbe 15aa c5bd 9180 55bc d186 2fbe
00000390: c608 10be ace3 933d 94d6 a13d 76e5 523e
000003a0: f601 613e 7b1c 023d 2404 25bd 668c f53e
000003b0: 9d1f 0abe 2e3b 17be f58a 0dbe 1131 e0bd
000003c0: 65c8 bfbd 70d3 c4be cb21 53bd 0430 503e
000003d0: fec6 9d3e 840a 083e a239 f1bc 9367 23be
000003e0: c412 303e e66c 6d3e ff0a cd3e 896c 0f3d
000003f0: 224f 823e 7787 2ebd fe23 68be dabe 05be

module.conv_layers.6.weight f4 [64, 64, 1, 1]
-0.071259975 0.113924436 -0.4245116 0.45129612 -0.040162586 -0.21498787 -0.1315311 0.038544253
0.27341342 0.19505365 0.17593424 0.007650211 -0.3845538 -0.26320994 -0.18736961 -0.2722618
-0.044157103 -0.12557751 -0.13455662 0.34532872 0.5403195 -0.22520429 -0.25517723 -0.102475755
0.024932282 -0.31166974 0.09353451 0.0017377762 0.24430919 -0.08528936 -0.016840722 0.52120245
-0.10491402 0.079239674 -0.4186206 0.3394856 0.111724034 0.13105024 -0.007432417 -0.023203464
-0.0487946 0.29501778 -0.041458275 0.15226632 -0.18484357 0.16762176 0.2438625 0.008556361
-0.5335484 -0.10233051 -0.102018245 -0.30180952 0.175298 0.033534262 -0.25387183 -0.2320537
1.5591494 -0.064726256 -0.06177363 -0.41873103 0.11022611 0.018461475 0.428573 -0.059228383
0.41159186 0.028598092 -0.3967797 -0.34189537 0.113790736 0.39465892 0.12151965 0.43550205
0.24600303 -0.2646017 0.33225346 0.3464043 1.0447319 -0.09246417 0.4852162 0.25392672
0.22942252 0.001922073 -0.64990616 0.51415974 -0.49508518 0.72058505 -0.050799124 -0.25473747
-0.5616239 -0.3763041 0.3192049 -0.85247386 -0.45781553 -0.16672514 0.18833433 -0.44328696
-0.24905339 0.31663483 0.11105003 0.1938078 -0.026708063 0.26693255 -0.107006595 0.22371735
-0.08983129 -0.24019285 -0.014868544 0.21112537 -0.026689747 -0.120768994 0.7064283 0.24397354
0.6466169 0.12737095 0.0031857167 -0.032969624 0.008751345 -0.07769609 -0.10824129 -0.22741127
-0.02617249 0.4987507 -0.25937662 0.09971109 -0.23470597 0.2772506 -0.1438672 -0.12932095
-0.09308641 0.24644741 -0.060826324 -0.011733463 -0.027932368 0.44778225 0.059753682 0.10697742
-0.0042619384 -0.5679443 -0.05437724 -0.083088115 0.12219948 -0.15476935 0.03568061 -0.17444727
-0.11769809 0.0964573 0.059408553 0.04500886 0.21888359 -0.034102883 -0.02877532 0.10735502
0.007941698 0.30968744 -0.3666469 0.024534458 -0.22539128 -0.0061885924 0.17302567 0.004065138
0.15386268 -0.008609877 -0.016382 -0.09571739 -0.0036705614 -0.082818985 0.18896462 0.0174056
0.0049006334 0.15295208 0.026295101 -0.013217109 0.14198118 -0.19880792 -0.051931445 -0.02963385
0.18488492 -0.05631839 -0.23666362 0.14105074 -0.07881331 -0.16446522 0.09896033 -0.029701103
2.0743363 -0.025056552 0.018693551 0.042429674 0.24739003 0.039764296 -2.0003777 -0.27082893
0.26306868 0.12314491 -0.20303342 -0.16934177 -0.23359767 -0.16532402 -0.1959258 -0.11057171
-0.4912651 -0.24894859 -0.10263937 -0.16965596 -0.06751078 0.29154804 0.28736112 -0.023007076
-0.20740326 0.07639248 0.34406585 -0.0798605 0.06755033 0.20840202 0.09684269 0.14039323
0.34139076 0.06671281 0.42978224 0.10173102 0.1265422 -0.17978558 0.066828795 -0.109072246
-0.280919 0.0028540734 0.22724888 -0.1249527 0.28977546 -0.3407971 -0.073668405 0.07421014
0.00478509 0.25591365 -0.18063086 0.15134244 0.05314058 -0.24489224 0.1316582 -0.37564754
-0.010568037 0.26050186 -0.4503603 -0.0063430527 -0.22540809 0.069571145 0.32939243 -0.19327857
-0.13798976 -0.31592524 -0.15412483 -0.025217999 0.14339377 0.044443462 0.014543209 0.24363218
00000000: c0f0 91bd 3751 e93d 9659 d9be 4910 e73e
00000010: 8681 24bd c825 5cbe 17b0 06be 94e0 1d3d
00000020: d8fc 8b3e 25bc 473e 1b28 343e 9fae fa3b
00000030: 3ce4 c4be 74c3 86be d2dd 3fbe e665 8bbe
00000040: 14de 34bd 6497 00be 36c9 09be edce b03e
00000050: 6152 0a3f f49b 66be 97a6 82be cfde d1bd
00000060: c93e cc3c 2d93 9fbe 058f bf3d 18c6 e33a
00000070: 302c 7a3e 30ac aebd 8ef5 89bc 866d 053f
00000080: 29dd d6bd 6948 a23d 7055 d6be 0ed1 ad3e
00000090: 92cf e43d 0932 063e a28b f3bb 3115 bebc
000000a0: d9dc 47bd 920c 973e 27d0 29bd b4eb 1b3e
000000b0: a247 3dbe 0aa5 2b3e 17b7 793e fb2f 0c3c
000000c0: a196 08bf a992 d1bd f1ee d0bd c786 9abe
000000d0: 5281 333e 395b 093d 7dfb 81be 7c9f 6dbe
000000e0: 3592 c73f 338f 84bd 5906 7dbd ea63 d6be
000000f0: 3abe e13d 853c 973c ec6d db3e 7699 72bd
00000100: 2bbc d23e 8c46 ea3c b526 cbbe e90c afbe
00000110: 1e0b e93d bc10 ca3e 4bdf f83d 20fa de3e
00000120: 38e8 7b3e e079 87be 201d aa3e e85b b13e
00000130: c6b9 853f db5d bdbd 426e f83e af02 823e
00000140: bded 6a3e 11ee fb3a 4060 26bf f99f 033f
00000150: ce7b fdbe 4378 383f be12 50bd f36c 82be
00000160: 95c6 0fbf eeaa c0be d36e a33e ba3b 5abf
00000170: cc66 eabe ffb9 2abe b7da 403e 82f6 e2be
00000180: da07 7fbe f61d a23e 336e e33d 8d75 463e
00000190: deca dabc 62ab 883e 4626 dbbd 2916 653e
000001a0: 78f9 b7bd 1df5 75be 329b 73bc 4031 583e
000001b0: 75a4 dabc bc55 f7bd 7cd8 343f 33d4 793e
000001c0: af88 253f 886d 023e 75c7 503b 280b 07bd
000001d0: cd61 0f3c 211f 9fbd 9cad ddbd 80de 68be
000001e0: b167 d6bc 405c ff3e 03cd 84be 5435 cc3d
000001f0: c356 70be caf3 8d3e ec51 13be b66c 04be
00000200: 16a4 bebd b65c 7c3e 0625 79bd b63d 40bc
00000210: 6cd2 e4bc b743 e53e 47c0 743d fa16 db3d
00000220: bba7 8bbb cc64 11bf abba 5ebd 1a2a aabd
00000230: b943 fa3d db7b 1ebe d525 123d 4ea2 32be
00000240: b20b f1bd 688b c53d 6256 733d 365b 383d
00000250: 0523 603e 77af 0bbd 38ba ebbc f3dc db3d
00000260: e51d 023c 5a8f 9e3e 24b9 bbbe 7dfc c83c
00000270: f9cc 66be adc9 cabb a42d 313e d934 853b
00000280: 2e8e 1d3e 7110 0dbc 8b33 86bc 7b07 c4bd
00000290: cd8d 70bb 009d a9bd f17f 413e 3096 8e3c
000002a0: 7e95 a03b 789f 1c3e d368 d73c 938c 58bc
000002b0: 8463 113e 4e94 4bbe 11b6 54bd b0c2 f2bc
000002c0: 7952 3d3e 1dae 66bd f357 72be 9b6f 103e
000002d0: df68 a1bd 9269 28be b7ab ca3d ba4f f3bc
000002e0: edc1 0440 6643 cdbc 3823 993c bdca 2d3d
000002f0: d053 7d3e e3df 223d 3006 00c0 17aa 8abe
00000300: f0b0 863e 6633 fc3d fee7 4fbe ee67 2dbe
00000310: 3a34 6fbe b34a 29be c6a0 48be 6c73 e2bd
00000320: 1987 fbbe 61ec 7ebe 9734 d2bd 4bba 2dbe
00000330: 1843 8abd c945 953e ff20 933e 5679 bcbc
00000340: 8561 54be a973 9c3d 6629 b03e e78d a3bd
00000350: d457 8a3d 5767 553e 7655 c63d 3ec3 0f3e
00000360: c5ca ae3e baa0 883d 6b0c dc3e 5a58 d03d
00000370: 4794 013e b619 38be 89dd 883d 4561 dfbd
00000380: 9dd4 8fbe 680b 3b3b eeb3 683e 34e7 ffbd
00000390: 735d 943e f57c aebe 76df 96bd 7cfb 973d
000003a0: 3fcc 9c3b 1d07 833e 4cf7 38be 83f9 1a3e
000003b0: f0a9 593d 08c5 7abe 68d1 063e e054 c0be
000003c0: 8f25 2dbc 8060 853e a095 e6be 62d9 cfbb
000003d0: 61d1 66be 517b 8e3d 20a6 a83e d1ea 45be
000003e0: 304d 0dbe f4c0 a1be e6d2 1dbe fa95 cebc
000003f0: d1d5 123e 590a 363d a446 6e3c b77a 793e

module.conv_layers.7.weight f4 [64, 64, 1, 1]
-0.10444211 0.12556075 -0.029870616 0.115974 0.081277445 0.2727707 0.1460201 -0.36501244
-0.10261218 -0.17289466 0.15421729 0.0637107 -0.0999492 -0.24151309 0.025869818 0.0054362775
0.26908028 -0.05355091 -0.25795397 -0.3001192 0.059741598 0.3237614 0.04635385 0.3052303
0.1427002 -0.034670867 0.34720755 0.37047353 -0.021831779 -0.120209254 -0.28635713 -0.31542757
0.21946043 -0.33511165 -0.019723173 0.25895208 -0.23987043 -0.10377507 -0.03273391 0.11339605
-0.07540264 0.27914733 0.03980384 -0.35674828 -0.051145576 -0.30444837 -0.15153688 0.25136584
-0.5358428 0.04635333 -0.12549727 -0.22071798 -0.17173137 -0.11084731 -0.02769323 -0.0034920638
0.38467798 0.24607581 0.12810662 -0.1444364 -0.01489592 -0.08947287 0.22493865 -0.26910877
-0.040302645 -0.1796857 0.0148949465 0.523108 -0.011658697 -0.4867073 0.7423185 -0.11725376
0.015394982 -0.19663446 0.29953435 -0.5720904 -0.40715066 -0.06285542 -0.21229461 -0.19190899
-0.13397785 0.49053124 0.07805776 -0.1704988 -0.13540655 0.34960985 -0.065452 0.32490876
0.4386454 -0.25848508 0.116847895 0.0833981 -0.2703713 0.05999061 -0.13402438 0.32068637
-0.019397454 0.16361338 0.05211932 0.03931824 0.08744871 -0.3229047 -0.17493662 0.22379099
-0.12321954 -0.008015913 -0.5034315 -0.39283586 0.19031712 0.19632651 -0.033880856 0.27457044
-0.036024097 0.05113568 0.49691892 0.2552944 -0.15758543 -0.30855355 0.07797592 -0.35286552
-0.15071481 -0.43729845 -0.25091723 0.31783026 -0.096866734 0.027978007 0.08678984 0.012349033
0.0020018702 0.41294846 0.007701149 -0.096001156 0.28806186 0.042322207 -0.18230896 -0.026050046
-0.023365078 0.13119043 -0.11089956 -0.30106923 0.025192602 0.057579264 -0.0900552 0.04692779
-0.08178211 -0.7898902 0.008481795 -0.96207094 0.056386985 -0.09047608 0.09658802 0.4253689
0.9727897 -0.45148847 0.31901062 0.0029183629 0.06021245 0.03606842 0.07694374 0.28043362
-0.046540085 0.3435221 -0.34826583 -0.004163588 -0.46196797 0.6611526 -0.0027981475 0.37379885
-0.35198936 0.29250363 0.3892477 -0.18566824 0.3011385 -0.22175975 0.045468494 -0.03396494
0.19956554 -0.12756225 0.30197486 0.09048164 0.09947754 0.1083604 -0.39076218 0.33510226
-0.05723048 -0.313968 -0.57467383 -0.11083237 0.06533333 -0.14435194 -0.008715428 0.14480698
-0.01904896 -0.6213971 0.011174867 -0.56527925 0.53070754 0.03993508 -0.089477755 -0.34242555
-0.0045865914 0.19127733 -0.2214624 -0.31439814 0.22464667 0.043629304 -0.20331663 -0.016740419
0.21804088 -0.026975697 0.22326502 0.18237512 -0.026936786 -0.3867495 0.3257145 0.19070037
0.37899366 -0.2807008 -0.16513018 0.27094153 0.07024523 -0.041212812 -0.020138392 -0.29949227
-0.26866955 0.0775594 0.013416527 0.26034927 0.24663204 0.8339242 -0.17858963 -0.32517228
0.2338287 0.029987928 0.049280718 -0.36179712 0.13919501 0.13083744 -0.075618364 0.2614957
0.22494385 -0.030924344 -0.21776384 0.047591027 -0.054739345 -0.31380838 -1.0726731 -0.23106757
0.29607317 0.3358711 -0.09480775 -0.0075693415 0.020428367 -0.050565258 -0.08505583 0.047125407
00000000: bfe5 d5bd ff92 003e 39b3 f4bc c783 ed3d
00000010: ca74 a63d 9aa8 8b3e 4b86 153e e9e2 babe
00000020: 5626 d2bd 4c0b 31be 23eb 1d3e c17a 823d
00000030: 2bb2 ccbd 354f 77be f1ec d33c cd22 b23b
00000040: e4c4 893e 3358 5bbd 8b12 84be 39a9 99be
00000050: 9bb3 743d 0ec4 a53e 89dd 3d3d 2547 9c3e
00000060: 0020 123e 0a03 0ebd 30c5 b13e b5ae bd3e
00000070: 8fd8 b2bc 4530 f6bd 679d 92be b97f a1be
00000080: 3cba 603e c193 abbe 7e92 a1bc 5e95 843e
00000090: 98a0 75be 0688 d4bd fe13 06bd 303c e83d
000000a0: b36c 9abd 66ec 8e3e 5a09 233d b6a7 b6be
000000b0: 067e 51bd a8e0 9bbe 7c2c 1bbe 06b3 803e
000000c0: fe2c 09bf fddc 3d3d 5b82 00be e503 62be
000000d0: 59da 2fbe ea03 e3bd eadc e2bc 1cdb 64bb
000000e0: 83f4 c43e 4cfb 7b3e 622e 033e 23e7 13be
000000f0: 040e 74bc 8d3d b7bd 5156 663e a0c8 89be
00000100: 6314 25bd 87ff 37be ef09 743c 68ea 053f
00000110: 1f04 3fbc b331 f9be 9608 3e3f bd22 f0bd
00000120: 3c3b 7c3c 8b5a 49be 915c 993e 8474 12bf
00000130: 0d76 d0be 58ba 80bd c263 59be ca83 44be
00000140: 7d31 09be e926 fb3e bfdc 9f3d 3d97 2ebe
00000150: 04a8 0abe 1000 b33e b30b 86bd 715a a63e
00000160: 2196 e03e 2858 84be f34d ef3d a0cc aa3d
00000170: 1b6e 8abe b7b8 753d b03d 09be 0131 a43e
00000180: 69e7 9ebc 448a 273e 117b 553d 2a0c 213d
00000190: 4f18 b33d c453 a5be 9622 33be 7729 653e
000001a0: 875a fcbd 2d55 03bc e3e0 00bf c821 c9be
000001b0: 7ee2 423e d109 493e a7c6 0abd 7f94 8c3e
000001c0: 018e 13bd a673 513d 286c fe3e f3b5 823e
000001d0: 135e 21be bbfa 9dbe d7b1 9f3d caaa b4be
000001e0: fc54 1abe 95e5 dfbe 3978 80be a6ba a23e
000001f0: 1162 c6bd 2232 e53c dfbe b13d 9953 4a3c
00000200: cf31 033b fb6d d33e ec59 fc3b 419c c4bd
00000210: d87c 933e 0d5a 2d3d 33af 3abe e866 d5bc
00000220: 1f68 bfbc c956 063e 4f1f e3bd bf25 9abe
00000230: b760 ce3c 3cd8 6b3d dc6e b8bd 5b37 403d
00000240: 617d a7bd 3f36 4abf 3af7 0a3c 484a 76bf
00000250: 0af6 663d 864b b9bd f1cf c53d f4c9 d93e
00000260: bf08 793f 7f29 e7be 5c55 a33e 0142 3f3b
00000270: 54a1 763d 7bbc 133d ae94 9d3d ff94 8f3e
00000280: d1a0 3ebd 21e2 af3e e64f b2be b56e 88bb
00000290: 1187 ecbe 4c41 293f 2061 37bb 9062 bf3e
000002a0: f337 b4be 09c3 953e 794b c73e d11f 3ebe
000002b0: d32e 9a3e fd14 63be 2c3d 3a3d d21e 0bbd
000002c0: e95a 4c3e ae9f 02be 739c 9a3e 704e b93d
000002d0: e1ba cb3d 0fec dd3d fb11 c8be 8692 ab3e
000002e0: 826a 6abd 6ac0 a0be d31d 13bf 15fc e2bd
000002f0: 7bcd 853d ffd0 13be 28cb 0ebc 4848 143e
00000300: 910c 9cbc e113 1fbf ca16 373c 24b6 10bf
00000310: 73dc 073f f792 233d 1d40 b7bd 6752 afbe
00000320: 1e4b 96bb 34de 433e 0ac7 62be cbf8 a0be
00000330: c709 663e a4b4 323d 3c32 50be 3423 89bc
00000340: 1c46 5f3e 23fc dcbc 969f 643e 8bc0 3a3e
00000350: 89aa dcbc 0804 c6be 0dc4 a63e f546 433e
00000360: 750b c23e 04b8 8fbe e317 29be d9b8 8a3e
00000370: bbdc 8f3d c4ce 28bd 45f9 a4bc 0d57 99be
00000380: 0e8f 89be 76d7 9e3d fed0 5b3c 804c 853e
00000390: 1c8d 7c3e 0e7c 553f 33e0 36be fb7c a6be
000003a0: ca70 6f3e 3ea9 f53c 94da 493d 793d b9be
000003b0: 2389 0e3e 40fa 053e cddd 9abd c4e2 853e
000003c0: ae57 663e 0d55 fdbc 7cfd 5ebe cfee 423d
000003d0: 5d36 60bd 7eab a0be 5a4d 89bf fa9c 6cbe
000003e0: e796 973e 4cf7 ab3e 912a c2bd 3d08 f8bb
000003f0: 6459 a73c 841d 4fbd c031 aebd 9206 413d
