denoisers/multi_scale/celebA_320x320_gray/noise_range_0to255_RF_13x13_scale_0/model.pt (torch, 883282 bytes, 59 tensors)

module.conv_layers.0.weight f4 [64, 4, 3, 3]
000000 44 1d a6 be 74 a4 de 3d 52 21 50 be e1 1e 83 be
       -0.32444203 0.10871211 -0.2032521 -0.25609496
000010 82 a2 4a 3d c9 5f a4 3d 63 22 20 bf d9 7a 89 bd
       0.049471386 0.08026082 -0.6255247 -0.067128845
000020 59 19 4d 3e 99 4c 2a 3d 6f 74 03 be ff c1 c6 3d
       0.200292 0.041576955 -0.12837385 0.097049706
000030 c1 be 20 be 7f 94 89 bd c0 91 78 3e d1 24 73 be
       -0.15697767 -0.067177765 0.24274349 -0.23744513
000040 0a c9 8c bc 2b 20 04 3b fa 7b 3f be 0a e3 04 3d
       -0.017185707 0.0020160775 -0.18699637 0.032443084
000050 31 fb 49 be 69 8d d6 3e f9 31 07 3f b1 d5 60 3e
       -0.19724728 0.41904762 0.5281063 0.21956517
000060 f4 fb e3 be 4c 9a 1e bd 6f 15 85 3d 8b ab 7a 39
       -0.44528162 -0.038721368 0.06498229 0.00023905763
000070 da 91 1c 3d cc 55 85 bd 59 a5 71 bc a4 84 f8 be
       0.038225032 -0.06510505 -0.014748895 -0.48538697
000080 b9 e3 cb bc 87 84 34 be 5c 11 73 bd 31 10 f1 bd
       -0.02488886 -0.1762868 -0.059342727 -0.117706664
000090 8d f7 13 bd c7 30 9b be 40 fb 90 bd 89 a7 ae 3c
       -0.036124755 -0.30310652 -0.07079172 0.021320121
0000a0 09 b7 3f 3c dd 68 ad bd c1 98 9d 3e 22 5c 77 3d
       0.011701354 -0.08467267 0.30780604 0.0603906
0000b0 fe f6 46 bd 52 ab 70 3d 01 fb 9d be bf d3 76 3d
       -0.048575394 0.058757134 -0.30855563 0.06026053
0000c0 38 0f c2 bd fb 10 d4 bd 53 9c c7 3d 9a 2c 98 3d
       -0.09475559 -0.10354801 0.09746613 0.07430382
0000d0 a9 43 89 be 29 ce 79 be e9 db 45 3e 14 8e 40 be
       -0.26809433 -0.2439505 0.1932217 -0.18804199
0000e0 6e 19 85 be 40 21 21 be 97 ee e2 bd 6b 7e c7 be
       -0.25995964 -0.1573534 -0.11080664 -0.38963637
0000f0 6d 02 22 3e 67 e5 43 be a2 81 8f 3e 89 ce 79 3e
       0.15821238 -0.19130479 0.2802859 0.24395193
000100 b8 4a 66 3e c2 44 b7 be 6d 8d b8 be 7b bc b8 bd
       0.2248944 -0.35794646 -0.360454 -0.09020325
000110 73 f2 ad bd db ef 63 3e e7 72 aa be 0b bc a5 bd
       -0.08493509 0.22259466 -0.3329079 -0.08092507
000120 e1 dc fc 3e 0c fb a9 3d 71 e2 e9 bd 07 9b 8d bc
       0.49387267 0.082998365 -0.114201434 -0.017285837
000130 ab 12 24 bc 0e e2 95 bd b2 ef d6 bd 00 66 57 be
       -0.010014216 -0.07318507 -0.10494937 -0.21035004
000140 b6 ab bd be 5e aa bc 3d b9 d7 57 3d ae da c8 be
       -0.37045068 0.092121825 0.052695964 -0.3922934
000150 8a 6c 09 3e ff b1 5e bd 34 c5 ca be c6 45 dd bc
       0.1342031 -0.05436897 -0.3960358 -0.02701081
000160 29 53 49 3e b3 59 30 3e 08 f0 97 3e be cd df be
       0.1966063 0.17221718 0.29675317 -0.43711656
000170 d8 49 b0 3e d3 3a 86 3e 42 fb 4a be 28 1d 14 be
       0.34431338 0.26216754 -0.1982241 -0.14464247
000180 ec 85 35 be 05 04 c8 3c a5 a7 ad 3d 08 49 a4 be
       -0.17726868 0.02441598 0.08479241 -0.32086968
000190 6e 0d 30 3e 0c 2a 4d be f0 40 8e 3d 81 5a bb be
       0.17192623 -0.20035571 0.069459796 -0.36592487
0001a0 da 6a 56 3e 11 00 36 3e 22 65 18 3e 02 fa 49 be
       0.20939198 0.17773463 0.14882329 -0.19724277
0001b0 c2 00 e0 3e 30 4c da 3c 9f 3a 44 bf bd e2 2d bf
       0.43750578 0.026647657 -0.7665195 -0.679241
0001c0 01 be 5a be 47 8b 7d be 7b 71 fc bd fb 8b ec bc
       -0.21361543 -0.24760161 -0.12326332 -0.028875342
0001d0 8b a4 88 bd 4e bd d7 3c 71 d5 16 be ee 58 0e be
       -0.06672009 0.026335385 -0.14729859 -0.13901111
0001e0 06 79 27 3e 4e 8a 72 be f8 92 26 be f8 f1 1b 3d
       0.1635476 -0.23685572 -0.16267002 0.038072556
0001f0 b9 46 af bd bd d0 23 bd fa 46 ad 3e 62 05 36 3e
       -0.08558411 -0.03999399 0.33843213 0.17775491
000200 c7 31 6d be c3 97 12 be e9 9c 3b be e6 62 02 3e
       -0.2316352 -0.14315705 -0.18321575 0.1273304
000210 f3 ad 06 3d d5 7e d9 bc 83 e2 21 3e f3 46 5c 3e
       0.032880735 -0.026549736 0.15809064 0.2151144
000220 75 44 29 3e 15 9e 3d bb 47 d3 41 3e ef 86 bb 3e
       0.1653002 -0.0028933336 0.18928252 0.36626384
000230 2c 40 c2 3e 28 77 1d 3e 50 d9 08 3f d4 ec ac 3d
       0.37939584 0.15377486 0.5345659 0.08443609
000240 6d f0 39 3e 08 cf be be 77 59 95 be d3 0d 86 3e
       0.18158121 -0.37267327 -0.2916982 0.26182422
000250 3a c7 03 3b f1 a9 86 3d 04 d4 1b 3e a7 bc 12 3e
       0.0020107762 0.065753825 0.15217596 0.14329778
000260 17 1f d9 3d 69 59 12 3e 8f d9 fe 3c 51 a7 8b 3d
       0.10601633 0.1429192 0.0311096 0.068190224
000270 07 de 9c 3e a5 e2 98 3e 15 ec f1 be 28 fc 6f bd
       0.30638143 0.29860416 -0.4725043 -0.058590084
000280 ba 07 29 3e ad 65 e6 3d 4b 7c ab be e9 28 a4 3e
       0.16506854 0.11249862 -0.33493266 0.32062462
000290 1a d6 1d 3e 3c 5c 25 3b 4b 0a 15 3e 27 38 49 3d
       0.15413705 0.0025231978 0.14554708 0.049125817
0002a0 e0 41 ba 3e 84 b9 d5 be 0c b8 90 bd e6 20 7c 3c
       0.36378384 -0.417431 -0.07066354 0.015388703
0002b0 7e 3e 9c 3e d5 62 0b be 5f 29 81 3e c8 f7 77 3e
       0.30516428 -0.1361192 0.25226876 0.24215615
0002c0 bf aa e6 3d 7e f4 8f 3d a8 32 2c 3e 0a 31 28 be
       0.11263036 0.07029055 0.16816199 -0.16424957
0002d0 82 cd 71 bd a8 1f 98 bd 4e ee 9c 3e dc 3c a0 be
       -0.05903388 -0.07427913 0.30650562 -0.31296432
0002e0 75 e0 69 be b2 b4 82 3e 3a 60 a8 3e 58 f4 1b be
       -0.2283953 0.25528485 0.32885915 -0.15229928
0002f0 e2 aa b1 bd 12 f1 94 3e bf f9 41 bc b2 e8 a9 3e
       -0.086751714 0.29090172 -0.011839329 0.33185345
000300 d1 f1 85 bc 2b 0d c5 3e 31 0b b0 3d 33 f1 e2 be
       -0.016350659 0.3848661 0.085958846 -0.44324645
000310 76 20 3d 3d 92 14 02 3e 6e 38 6c be 09 88 24 3d
       0.046173535 0.1270316 -0.23068401 0.040168796
000320 59 3a 97 be 96 ce 88 bd 25 05 09 bf af ad b8 bd
       -0.29536703 -0.06680028 -0.53523475 -0.090175025
000330 05 23 e8 bd 76 3d 19 3e ef d4 77 3e cb 29 1a bf
       -0.113348044 0.14964852 0.24202321 -0.6022002
000340 1d 8c 34 be bb 0a 27 bf fd 31 46 3e b9 8f 06 be
       -0.17631574 -0.6525075 0.19355007 -0.13140763
000350 1b 1a 9e be 0b 06 f0 3d e2 a6 53 bd 26 73 01 be
       -0.30879292 0.117199026 -0.051672824 -0.12641582
000360 19 f5 9f 3e ed 2f 2f 3e 33 42 1b 3e 9d bd a5 3e
       0.31241682 0.17108126 0.15161972 0.32371226
000370 b7 40 20 bf 74 4b b6 be f2 d0 76 be 02 b9 05 bd
       -0.62598747 -0.3560444 -0.24103144 -0.03264714
000380 0d 79 e1 3c 8a 40 12 3e dc 19 58 be 38 1c 4e be
       0.027523542 0.14282432 -0.21103615 -0.20127952
000390 34 7d a3 3c 8c 4e c9 bd 86 75 7e 3e b4 84 c9 bd
       0.019957162 -0.09829435 0.24849519 -0.09839764
0003a0 24 c4 75 3c b2 cc 5c 3d 58 50 58 3e b2 07 56 be
       0.015000377 0.05390615 0.21124399 -0.20901373
0003b0 75 de 9b bd b0 fc 53 be 00 70 12 be ac 4f 5f 3e
       -0.0761079 -0.20701861 -0.14300537 0.21807736
0003c0 00 cf 62 be 00 d2 4e 3d a3 0e a1 3d c5 b3 f7 bd
       -0.22149277 0.05049324 0.0786412 -0.12094835
0003d0 69 cb 06 be 37 88 cc 3e db 01 1f 3d 09 b1 0a 3e
       -0.13163532 0.39947674 0.03882013 0.13544096
0003e0 1b 23 99 bd 49 5a a3 be bc eb d2 bd f6 87 8a be
       -0.07477399 -0.3190482 -0.10298869 -0.27056855
0003f0 b7 de 59 3c 6d 8d 8d be 8d a5 9c bd 23 78 55 3e
       0.013297728 -0.27646962 -0.07648764 0.2084661

module.conv_layers.1.weight f4 [64, 64, 1, 1]
000000 ca 06 fe 3d 02 f9 4e 3e 14 d3 61 3e da 5c 58 3e
       0.12403639 0.20212176 0.22053176 0.2112917
000010 81 da 8c be 49 6d af 3e 70 97 9f 3e 69 a9 bf 3d
       -0.27510455 0.34263065 0.31170225 0.09358484
000020 17 81 81 3e 01 32 79 bd 67 15 8e 3d 7e d3 e6 3c
       0.252938 -0.060838703 0.06937676 0.02817702
000030 16 33 16 3d b1 3c 5d 3e e9 b9 b6 be c9 1e 91 3d
       0.036669813 0.21605183 -0.35688713 0.0708595
000040 24 4f 83 be 4e b7 89 be 94 d6 25 bd e7 74 aa bd
       -0.25646317 -0.26897663 -0.04048784 -0.083230786
000050 25 60 6c bc ca 8c 0b be 1d 3d b2 3d 9e 4e 8a 3d
       -0.0144272195 -0.13627926 0.08703063 0.06753276
000060 ab 76 b9 bc b5 29 25 3e f9 26 8d bd 4d a2 8b 3e
       -0.022639593 0.16129191 -0.06892199 0.27272263
000070 ad d7 f8 3d e8 64 5f 3d df d7 69 3d 63 eb 3c bc
       0.12150512 0.05453959 0.057090636 -0.01153073
000080 33 17 46 3e 90 19 87 3c 6e 29 00 3d 50 f1 c7 3d
       0.19344787 0.016491681 0.03128951 0.097628236
000090 07 4c f1 3d c8 0d 1b be fa c2 cf be 20 94 c3 3e
       0.11782079 -0.15141976 -0.40578443 0.38198948
0000a0 b7 c6 8c bd 9f 03 e4 bd 56 49 e6 3d e7 07 87 3e
       -0.06873839 -0.11133503 0.112444565 0.26373217
0000b0 bd 4e aa bd ea 79 7e bd d2 c7 8b be c6 d0 9c 3c
       -0.083157994 -0.062127985 -0.27300888 0.01914252
0000c0 e0 5a 03 be 98 4d 39 bd 44 07 db bd a0 9f b6 3e
       -0.12827635 -0.045240015 -0.10694745 0.3566866
0000d0 a5 ea fc be 31 ea 76 3c 7e 24 23 be 03 cb 4c 3e
       -0.4939777 0.015070484 -0.1593189 0.19999318
0000e0 e7 00 33 be 93 1a 03 be fc 40 15 be 4f 88 f0 3c
       -0.17480813 -0.12803106 -0.14575571 0.029361872
0000f0 9e 73 6b 3e 8d 58 60 be 83 a6 73 3e 55 2b 61 3e
       0.22993323 -0.2190878 0.23793988 0.21989186
000100 93 a5 e8 bd 4a 52 37 bd 43 89 88 3e a8 00 1c be
       -0.11359706 -0.04475621 0.26667222 -0.15234625
000110 bc c3 03 bb b5 c4 53 3e c2 3f df 3e aa 62 71 bc
       -0.002010568 0.20680507 0.4360333 -0.014732996
000120 eb f0 88 be f0 f3 73 be 0e c0 78 3d 96 a8 18 3e
       -0.26746306 -0.23823524 0.060730033 0.1490806
000130 2c e0 f3 3d a3 1d 9d 3e cd 4e 4b be 15 7e cd bd
       0.11907992 0.30686674 -0.19854279 -0.10033814
000140 9e d9 37 be 8b 46 6b 3e ba fa 17 3e c1 9c 24 3e
       -0.17954108 0.22976129 0.14841738 0.16075422
000150 27 4f 47 3d 1b 80 49 3e 7c 8d 6d 3d ce 7f 12 be
       0.04865947 0.19677775 0.05799626 -0.14306566
000160 94 c8 28 3e 53 1d d1 bd df 09 d7 3c 6e 03 fb bd
       0.16482764 -0.10210671 0.026249824 -0.122565135
000170 85 10 cd 3d 9f 7e a3 3d 00 d9 35 3e 52 fe d9 bd
       0.100129165 0.079831354 0.1775856 -0.10644211
000180 19 37 7d bd f8 33 2c bd 99 6d 4a 3e fd 20 5e be
       -0.061820123 -0.04204175 0.1976837 -0.21692272
000190 19 11 d9 bc 38 3e 23 be a8 07 f6 3d 30 2a cd bd
       -0.02649741 -0.15941703 0.12013179 -0.10017812
0001a0 04 82 b8 3d f9 4d fd 3e fa d5 18 3c 9e 29 be bc
       0.090091735 0.4947355 0.00932836 -0.023213204
0001b0 aa 61 ca 3d d6 a8 20 be 90 e2 f8 bd 8e fc 16 3e
       0.09881909 -0.15689406 -0.12152588 0.1474478
0001c0 7e bd 31 3e 94 33 71 bd 44 9f fa 3c 8b 88 dd 3d
       0.17357442 -0.05888708 0.030593522 0.10817059
0001d0 f5 e7 37 3e 42 7b 65 be f5 64 24 be d3 3e 53 3d
       0.17959578 -0.224103 -0.16054137 0.051573586
0001e0 43 b4 ad bc 26 04 fa bc a4 66 74 3d d0 0f a8 3e
       -0.02120412 -0.030519556 0.0596682 0.32824564
0001f0 f6 71 63 3e c4 16 44 bd 39 22 1b be b8 85 ad bd
       0.22211441 -0.047873273 -0.15149774 -0.084727705
000200 8a df be bd 85 bd 74 3e 90 b8 9f 3c d4 42 b2 3e
       -0.093199804 0.23900421 0.019497186 0.3481661
000210 34 ab 57 be 9e 76 6a 3e 6c de 11 3d 18 05 8a 3e
       -0.21061403 0.22896811 0.03561251 0.2695701
000220 91 63 e6 3d d1 be 0e be c8 24 ab 3d fc 49 8c 3d
       0.112494595 -0.13939978 0.08356625 0.06850049
000230 25 5c 8d bc 93 69 fb bd cc 0b 8a bd 78 f5 34 be
       -0.017255852 -0.12275996 -0.06740531 -0.17671764
000240 31 03 d1 3d 8f ac 18 be b5 68 64 3e b1 8c bd be
       0.10205687 -0.14909576 0.22305568 -0.37021402
000250 25 07 08 be 69 e3 40 3d 98 90 d1 3d 09 8d 54 be
       -0.13283975 0.047091875 0.10232657 -0.20756926
000260 20 3a 0a 3e d0 0d 06 be 64 1d 95 3d c3 fb dc 37
       0.13498735 -0.13091207 0.072809964 2.634328e-05
000270 a5 8f 97 3c eb 78 01 be ee 12 8c bd 77 49 b0 be
       0.018501112 -0.12643783 -0.06839548 -0.3443105
000280 32 43 8c 3e 8b ed 20 3d 2a 75 de bd 46 49 e5 be
       0.27395016 0.03928904 -0.10862191 -0.44782466
000290 80 58 a8 3d 25 dd de 3d 8e 51 99 3c 36 14 a6 bd
       0.08220005 0.10882024 0.018715646 -0.08109324
0002a0 f8 ab 09 3e fa 66 11 3f 14 cd 3f 3d 31 94 72 3e
       0.13444507 0.56797755 0.046826437 0.23689343
0002b0 2e 9d d6 3c 6e c8 31 be 7f 2a 64 be 7a dd 06 3e
       0.026197996 -0.17361614 -0.22281836 0.13170424
0002c0 a2 06 6e be b8 55 c0 3c fe fd cf be 6a 9b 9f be
       -0.23244718 0.023478374 -0.40623468 -0.3117326
0002d0 12 cc e8 ba c6 02 14 3e 5a e3 8e bd 95 4b 25 be
       -0.0017761013 0.14454183 -0.069769576 -0.16142114
0002e0 8b 00 3d 3d da 1a 85 3e cf 1c 84 3e 40 55 e5 bd
       0.046143096 0.2599705 0.2580323 -0.11197901
0002f0 79 ae 07 be 84 24 c3 bd d0 b2 8f 3e 6d cc 20 be
       -0.1325015 -0.09528449 0.2806611 -0.15702982
000300 cc ce 74 be 85 0a 25 bd 2f 2b 3a bd b0 3e 58 be
       -0.23907012 -0.040293235 -0.04545134 -0.21117663
000310 d4 57 90 be f0 e1 62 3d b5 9f 1d 3d ae 2c f6 bd
       -0.28192008 0.055391252 0.038482387 -0.12020241
000320 60 39 9f bd ad d3 c0 3e 98 cc 2e be 8b b0 97 be
       -0.07774615 0.37661496 -0.17070234 -0.2962688
000330 0b aa fa bd 07 80 78 bd 7d ff a3 3d ce de 78 3d
       -0.12239464 -0.06066897 0.08007715 0.060759358
000340 b3 af d9 3e 10 b4 99 3b 01 fc ea 3e 4c d2 9f be
       0.4251686 0.0046906546 0.4589539 -0.3121513
000350 85 45 76 be 2f 51 14 3d d8 a8 80 be 48 91 58 3e
       -0.24049957 0.036210235 -0.25128818 0.2114917
000360 22 21 74 3e bb 2c 53 be 6f b4 f5 bc 5e a0 89 3e
       0.23840764 -0.20622532 -0.029993264 0.26880163
000370 af a5 14 bf 4d e5 f8 bd 95 06 80 bd a6 1e 47 be
       -0.58065313 -0.12153111 -0.062512554 -0.19445285
000380 99 fd fe 3e 49 98 c6 bc 62 a2 b5 3d dc 91 a0 be
       0.49802855 -0.024242537 0.08868863 -0.31361282
000390 a5 cf 99 3e 30 60 1f 3e 0a 3a dc 3d 67 b4 2c be
       0.30041233 0.15564036 0.107532576 -0.16865693
0003a0 25 61 8f 3c bb c0 85 bd 79 2b 2b be 10 2a 7d be
       0.017502377 -0.06530901 -0.16715802 -0.24723077
0003b0 dc 4f dd be 5d 03 be 3e 38 a4 b6 3d b2 a0 36 3e
       -0.4322499 0.3711194 0.08918041 0.17834738
0003c0 9f 39 5b be e0 8b 17 3d aa 3d d5 3e 18 9a aa 3c
       -0.214087 0.03699863 0.41648608 0.02082543
0003d0 9c f6 80 3e 96 39 9e 3c 7b 9e 1a 3f c1 b4 84 bd
       0.25188148 0.019314568 0.6039807 -0.064797886
0003e0 35 7b c1 3d 9f f2 7d bd 18 16 52 be 51 9a f7 bd
       0.09447328 -0.06199896 -0.2051624 -0.120899804
0003f0 cb 10 f2 3d a7 a0 c7 be e5 f7 83 be f4 96 d3 be
       0.11819609 -0.38989756 -0.25775066 -0.41326106

module.conv_layers.2.weight f4 [64, 64, 1, 1]
000000 81 a8 7b 3d 2b 59 79 3d 13 27 17 be 3d 76 ef 3d
       0.061439995 0.060876053 -0.14761 0.11692474
000010 e2 75 88 be 41 67 4d 3d 5a 39 bb bd e5 63 09 3a
       -0.26652437 0.0501473 -0.09141798 0.00052410207
000020 e9 45 8d 3d 4f 68 25 3e fb e7 ec 3d 18 c9 07 bd
       0.068981 0.16153072 0.11567684 -0.033150762
000030 b5 18 92 be 8e 7c b0 be 87 80 aa bd 25 8d af bd
       -0.28534475 -0.34470028 -0.08325296 -0.08571843
000040 a1 fb 78 3d 8a 54 01 be 79 ca a2 3d 6e e8 76 bc
       0.060786847 -0.12629905 0.07948775 -0.015070064
000050 9e 32 c0 bd 8f 07 b0 3d c5 a0 ac 3c ad 8f d2 be
       -0.093846545 0.08595192 0.021072755 -0.4112524
000060 a7 90 e6 3b f8 ae 89 3e fa c4 b7 3d df 98 e1 3d
       0.007036287 0.26891303 0.08973117 0.11015486
000070 94 b4 da 3e 36 ee 2c be 9e 95 d4 3d 90 1c 00 3e
       0.42715895 -0.16887745 0.103801 0.12510896
000080 10 34 29 3e 17 e1 b2 be 6a 9e 14 3d 57 ba 35 bd
       0.16523767 -0.34937355 0.036283888 -0.04436716
000090 a8 6c ac bc 3c 2a 82 3d 95 ee 05 be c5 3b 64 be
       -0.021047905 0.06355712 -0.13079293 -0.22288425
0000a0 a7 ca a4 3e 8c c0 a6 3e 1a 41 e1 bc bb 64 0a be
       0.3218586 0.32568777 -0.027496863 -0.13514988
0000b0 ce 2e fa 3d 9c c2 59 3b a6 37 fb bd 2f ec 31 3d
       0.122159585 0.0033227568 -0.122664735 0.043438133
0000c0 12 ff 23 be b8 aa 7e bd 0c 4e e5 3c df 41 0b 3e
       -0.1601527 -0.06217453 0.027991317 0.13599347
0000d0 75 74 41 be 6f 34 d4 3d b2 e1 46 3e bc ca 94 bd
       -0.18892081 0.103615634 0.19422033 -0.07265231
0000e0 d3 14 53 3e b2 a7 43 bd 12 e1 c7 3e 52 52 18 be
       0.20613413 -0.04776735 0.39038903 -0.14875153
0000f0 24 4c a9 bc 02 cc 7b 3e da f9 0e 3e ec 75 20 bd
       -0.02066619 0.24589542 0.13962498 -0.03917496
000100 fa 10 bb 3b 73 d0 eb 3e 38 fa 22 3e c6 51 2a bc
       0.005708811 0.46057472 0.15915763 -0.010395473
000110 35 f8 b7 bd df 33 0e bf 73 f5 80 be 6f 1b 81 be
       -0.089828886 -0.555479 -0.25187263 -0.25216243
000120 c5 42 4b bd fb eb dc bd 11 27 f9 3d 92 83 e2 3c
       -0.049624223 -0.10787197 0.121656545 0.027650628
000130 e9 3d c9 bd a7 6f aa bc ee 84 8d be c2 86 bd bd
       -0.098262616 -0.020805193 -0.2764048 -0.09254219
000140 24 b1 39 bc e9 17 a3 be fe ad 7e be a1 ad b3 3c
       -0.0113337375 -0.3185418 -0.2487106 0.021933379
000150 a9 02 2c bc c8 3b 2f be fb 8e 4f 3e e8 e6 3e 3e
       -0.010498681 -0.17112648 0.20269386 0.18642771
000160 0a 61 ef bd 07 92 95 3d c6 d2 f6 3d 6d 8b cd bc
       -0.116884306 0.07303243 0.120519206 -0.025090897
000170 ab 52 f3 3e 66 6c 2f be e0 31 b7 3d ba f5 a6 3e
       0.47524008 -0.17131194 0.0894506 0.3260935
000180 f0 2c 9f bb 2c 07 1b bd 1d 8d 5d bc b7 61 1a 3e
       -0.004857652 -0.037848637 -0.013522414 0.15076338
000190 ab 55 34 3d f9 20 d2 3d ce ba 18 be 69 ee 75 be
       0.04402701 0.10260195 -0.1491501 -0.24016728
0001a0 e7 2b 0c 3e 46 86 98 3e db c6 a8 3e 17 80 4e 3e
       0.13688622 0.29789943 0.32964215 0.2016605
0001b0 b2 c5 ad bb 28 4b 1b 3d d9 9b b5 be 82 e4 0b be
       -0.005303108 0.03791347 -0.35470465 -0.13661388
0001c0 ed 68 02 be ce 44 bc bc 68 c2 7d 3e 02 79 b7 3c
       -0.12735339 -0.022982027 0.24781191 0.022396568
0001d0 86 f9 4d bd c2 40 06 3c ea 5c 00 3d ac 9d 8a 3e
       -0.050286792 0.00819415 0.03133861 0.2707342
0001e0 ea 70 14 bc 6f ee 40 bd ba 62 64 3e 11 1f c7 3e
       -0.009060124 -0.047102388 0.22303286 0.3889089
0001f0 0b 48 3c be d7 77 ae 3d 54 d0 00 3e 0b 4a 74 be
       -0.18386857 0.085189514 0.12579471 -0.2385637
000200 78 1c cf 3c 5f bd b1 3e 5c d0 29 3e c5 f6 c4 3b
       0.02528213 0.3471479 0.16583389 0.0060108625
000210 6c a3 85 be 73 54 88 bd 29 c4 1c be ee ae 06 3d
       -0.26101243 -0.066567324 -0.15309204 0.03288167
000220 cb 0c b8 3d 80 24 a9 3e 69 7c 81 3e ad 36 dc 3d
       0.08986815 0.3303566 0.2529023 0.10752616
000230 ca 8d 4c 3d 66 56 5a 3e c2 95 d9 bb 37 ea b8 bb
       0.049939908 0.21322021 -0.006640167 -0.005643155
000240 27 17 64 3b 07 d8 ac be 94 57 9a 3e 78 05 6a be
       0.003480384 -0.33758566 0.30144942 -0.22853649
000250 01 05 80 bd c7 e9 1a bd ee 5e 61 3e 11 db 3b bd
       -0.062509544 -0.037820604 0.22008869 -0.045863215
000260 c9 19 86 3e ef 92 18 bd 27 15 ab 3b d9 43 f7 3e
       0.26191548 -0.0372495 0.0052210274 0.4829395
000270 0f ee 39 3e c3 92 8a be fa 23 42 be cd 71 30 3e
       0.18157218 -0.27065095 -0.18959036 0.17230912
000280 1b 93 ed bd 2d 50 d2 bd 65 82 bb be 5b 5a 19 be
       -0.11600324 -0.102691986 -0.3662292 -0.14975874
000290 86 28 6f 3e 22 87 53 3d 1f 47 bb bd d7 db 11 bc
       0.23355302 0.051642545 -0.09144425 -0.008902512
0002a0 17 5c 63 3e 6c 96 bb 3e 70 0f a3 bd a8 e9 76 3d
       0.22203098 0.366382 -0.07961929 0.060281426
0002b0 c9 4b 9c be 19 63 62 be eb 14 14 bf 21 0f 80 bd
       -0.3052657 -0.22108115 -0.5784442 -0.062528856
0002c0 b5 af eb 3d 2a c8 42 3e a9 05 c3 3d e1 0f 8a bd
       0.11508123 0.19021669 0.09522564 -0.0674131
0002d0 c7 f8 07 be c0 af 15 3e e0 f1 c9 3e 64 64 a1 be
       -0.13278495 0.14617825 0.39442348 -0.31521904
0002e0 e5 2b f4 3c f3 ba 61 be a8 96 24 3d e4 c6 2e 3b
       0.029806087 -0.22043972 0.04018274 0.002666884
0002f0 39 9c 50 3e db d0 9f 3d da a2 67 3d 10 bb 9a 3d
       0.20372094 0.07803508 0.05655179 0.075552106
000300 d9 df a4 3d 12 1f 84 3d b6 57 8c 3e d7 ec 48 bd
       0.08050508 0.06451239 0.27410668 -0.049053993
000310 f1 3e 9f bd c0 e0 93 be 23 96 8d bc 71 4d a6 3d
       -0.07775677 -0.28882408 -0.017283505 0.081202395
000320 da 50 e4 bd 10 eb 0b bd 38 5e 12 be f7 79 c0 be
       -0.11148234 -0.03415972 -0.14293754 -0.37593052
000330 5d 41 12 be 53 ba dd 3d 2e 8c 5e bd 4e a9 af bd
       -0.14282747 0.10826554 -0.054332905 -0.08577214
000340 db 93 c6 3d a7 02 2e 3e f4 11 1a bd 87 c6 01 b9
       0.0969617 0.169932 -0.037614778 -0.00012376356
000350 d0 2e f1 bd 8c c3 35 be 30 86 d9 bd 3a b8 9e be
       -0.11776507 -0.17750376 -0.10621297 -0.3099993
000360 34 b1 95 bd 33 a1 0f be 13 b3 87 3d ce 79 69 bd
       -0.073091894 -0.14026336 0.066259526 -0.057000928
000370 e8 78 c3 3d 5a 25 4b 3e 47 df 6d ba 7c 05 92 3c
       0.095445454 0.19838467 -0.00090741034 0.01782488
000380 4f 1c 30 3e 9f dd 37 3e 46 aa 6d 3d 0e ee 27 bd
       0.17198299 0.17955635 0.058023714 -0.04099851
000390 cd a4 19 bd c6 f6 24 3e c6 ef 0c be a7 e3 a3 be
       -0.037510682 0.16109762 -0.13763341 -0.32009622
0003a0 de de 8b 3e d1 50 01 be 7d d0 72 3d c4 2b 63 be
       0.27318472 -0.12628485 0.05928086 -0.22184664
0003b0 de ed 02 3d f6 a3 c8 bd 41 3f 43 bd 64 f0 2f be
       0.03196513 -0.09796898 -0.047667746 -0.17181545
0003c0 2e f7 ad 3c d5 07 99 3d 8b ee b2 be f8 87 10 bf
       0.021236029 0.07472197 -0.3494762 -0.5645747
0003d0 4d 15 ac bd 14 7f ce 3d 32 bd d9 be e1 16 94 be
       -0.084025 0.10082832 -0.42527157 -0.28923705
0003e0 1e a0 8a be ed 23 c5 3e db 48 98 3d c8 16 0a be
       -0.27075285 0.38503972 0.07435771 -0.13485253
0003f0 3d 44 7c 3d 2b 25 63 bd b5 9e 81 be 0c 33 2d 3e
       0.061588515 -0.055455368 -0.25316396 0.16914004

module.conv_layers.3.weight f4 [64, 64, 1, 1]
000000 dd ea e4 be 89 c3 64 3e 3d d7 cc 3e 38 25 ec 3d
       -0.44710436 0.22340216 0.40007964 0.115305364
000010 b4 9e 13 be ea 74 11 be d7 24 24 3e 53 d8 a5 bd
       -0.14416009 -0.14204755 0.16029678 -0.08097901
000020 b4 6c 60 bd 61 13 9c be 25 00 0a be 30 cf 01 bf
       -0.054791167 -0.30483535 -0.13476618 -0.5070677
000030 00 8a b7 bd fd a0 61 3e d2 ec b7 be d4 ca 48 be
       -0.08961868 0.22034068 -0.35922867 -0.19608623
000040 83 37 d0 bc 2a f7 05 be fe 3f 89 bf 3a 50 6b 3d
       -0.025417095 -0.13082567 -1.0722654 0.057449557
000050 3f ff 12 be 4d f1 56 3c e8 c1 d4 3d b1 e2 84 3e
       -0.14355181 0.013119054 0.10388547 0.25954202
000060 36 4a 1e be d6 8e b7 3a 4a 98 61 be 02 a0 43 3c
       -0.15457997 0.001400436 -0.2203075 0.011940004
000070 3d f9 3e be 81 ad 50 3e 94 43 51 3e 17 06 e2 be
       -0.18649764 0.20378686 0.20435935 -0.4414527
000080 59 ee fe bf 32 ae 9b 3c fb 7f 23 be 3f d3 58 3e
       -1.9916488 0.019003961 -0.1596679 0.21174334
000090 83 71 81 bd 27 74 49 ba 6b 90 8b 3e 6a a0 a8 3d
       -0.06320479 -0.00076848496 0.2725862 0.082337216
0000a0 f1 11 5e 3e fe 92 31 3e 75 97 1a bd d8 99 52 3e
       0.21686532 0.1734123 -0.037742097 0.20566499
0000b0 64 3a 3e be 80 5a e6 bd 1d 19 37 be db 47 ac 3d
       -0.18576962 -0.1124773 -0.17880674 0.08412143
0000c0 a0 58 04 3d bb 5e be bd c0 f5 91 be c1 aa 07 3e
       0.032311082 -0.09295412 -0.28507805 0.13248731
0000d0 9f dd c6 3d 1a cb 93 be d0 d4 3a bf 86 00 a3 3e
       0.097102396 -0.28865892 -0.72980976 0.31836337
0000e0 c3 b5 36 be a0 14 ea bd a8 0e 8c 3e ab 50 3a bc
       -0.17842774 -0.11429715 0.27354932 -0.011371772
0000f0 41 96 17 3d 05 33 a2 3e 13 0a e1 3f 65 86 68 be
       0.037008528 0.3167955 1.75812 -0.22707517
000100 c2 62 3e 3d 40 be 06 3e 4a 0f 68 3e fa 04 62 3d
       0.0464809 0.13158512 0.22662082 0.055180527
000110 8e f1 86 b8 05 2c aa 3c eb c1 5e bc e2 84 58 be
       -6.434611e-05 0.020772943 -0.013596038 -0.21144441
000120 de 83 0a bf a2 1c 35 bd b4 39 17 bd b5 df 32 3d
       -0.54107463 -0.04421676 -0.036920264 0.043670375
000130 80 26 54 be f2 dc 6a bd b6 75 e1 bd 75 92 d0 3d
       -0.20717812 -0.057339616 -0.1100878 0.101841845
000140 65 8f 5b 3e e6 93 3e 3e f3 1b 4d bf b6 7b b9 bd
       0.2144142 0.18611106 -0.8012077 -0.09056799
000150 20 62 74 bd 5b 5a 3b 3e e9 b4 63 bd a1 2b 33 3e
       -0.05966389 0.18296187 -0.05559245 0.17497112
000160 89 77 af be ae c8 a5 3d d7 30 ba 3d 82 d6 e4 bd
       -0.34270886 0.08094917 0.09091347 -0.111737266
000170 ce 1d f1 be 12 0c a3 bd 78 ce cb 3d a8 e0 9c 3d
       -0.47093052 -0.079612866 0.0995149 0.07660037
000180 00 33 1c be 30 cd a1 bd 4d e5 2f 3e 4c 48 1f 3e
       -0.1525383 -0.079004645 0.17177315 0.15554923
000190 ab bb 69 bd 68 cb 04 be b2 02 6b bd 4b bf d6 be
       -0.05706374 -0.12968218 -0.057375617 -0.4194282
0001a0 79 f4 4c 3f bf e3 8b be 9f 3f f7 3d 84 2d 2e 3d
       0.80060536 -0.27322194 0.12072682 0.042523876
0001b0 55 4c 85 3e 98 04 f6 3d f5 a2 96 bc 00 fa de 3c
       0.260348 0.12012595 -0.01838825 0.027218819
0001c0 7f 99 ac 3d c2 27 44 bc 94 ec 0e 3e 29 30 ce be
       0.084277146 -0.01197237 0.13957435 -0.40271118
0001d0 b7 82 d1 bd b3 51 86 bd 16 7f ae 3d 2e 1f dd be
       -0.1023001 -0.06558552 0.085203335 -0.4318785
0001e0 d1 23 46 3e 9c 3b df be 12 b4 7b 3e 47 69 05 bd
       0.193496 -0.43600166 0.2458041 -0.032571103
0001f0 2d 02 6c 3e f5 66 39 be 06 2d 17 3f db 6e c4 bd
       0.23047705 -0.18105681 0.59053075 -0.095914565
000200 0b c1 4a 3e 89 f0 c3 be ad 46 7b be b0 2d e5 bd
       0.19800203 -0.3826945 -0.2453868 -0.11190355
000210 c7 91 99 3e 7e 18 26 3e db 72 3e 3e e2 67 4e 3d
       0.29994032 0.1622028 0.18598501 0.05039204
000220 85 36 ff 3e 80 12 48 be 45 51 25 3e 5f a2 2d bd
       0.49846283 -0.19538307 0.16144283 -0.042391177
000230 b3 ba de be b3 86 17 bd 64 c1 19 be 4a 1f a9 be
       -0.43501815 -0.036993694 -0.15015179 -0.33031684
000240 dd 16 1f be 00 58 76 3e 18 7e 6e be 4e 61 43 be
       -0.15536065 0.24057007 -0.23290288 -0.19080088
000250 87 04 78 be 9a 4d 2d 3d 45 08 3c bc c9 2e a5 3d
       -0.24220477 0.042310335 -0.011476581 0.08065564
000260 e6 4a 23 3d d0 94 25 bd a3 df 2e 3d cb 84 bd 3e
       0.03986635 -0.04042512 0.042693745 0.37015375
000270 94 14 f5 3e f9 23 86 be 72 54 02 3e 85 9a 2d 3d
       0.47867262 -0.2619932 0.12727526 0.04238369
000280 85 09 ad 3c 50 df e0 3b a0 8e 4a be 06 27 9b be
       0.021122703 0.0068625584 -0.1978097 -0.3030321
000290 79 74 1d be 1a 69 d1 3e f5 37 ae 3c 84 7e f3 be
       -0.15376462 0.409005 0.021266917 -0.4755746
0002a0 96 e9 ea 3d 98 f6 4e be 98 bf 80 be f7 9d 66 3e
       0.11470334 -0.20211256 -0.25146174 0.22521196
0002b0 e0 8d 8f bd 52 97 30 3e c4 1b 38 3e 65 2f f2 bc
       -0.070094824 0.17245224 0.17979342 -0.029563615
0002c0 f3 32 5c 3c 79 5c 16 bf b5 b3 41 3d 40 03 c8 bd
       0.013439882 -0.5873485 0.047290523 -0.09766245
0002d0 bd c4 d5 bc 24 d4 ee 3e a8 9a ec be 5f 3e 8b 3e
       -0.026094789 0.46646225 -0.46211743 0.27196023
0002e0 ee 3f 13 be 8d f1 61 be b6 dd 4a 3e 02 6e 5c be
       -0.14379856 -0.220648 0.19811139 -0.2152634
0002f0 d3 9f 1f be 6d 14 27 3d fa f1 7e 3c 31 6c 05 3e
       -0.15588312 0.040790964 0.015560621 0.13029553
000300 ab 57 61 3d 48 9b a2 3d e6 79 78 bd 6c d0 4b be
       0.055015247 0.07939774 -0.060663126 -0.19903725
000310 67 4a cf 3b 12 e0 f1 bd 2b 14 03 3e 6a dd c1 bc
       0.006326008 -0.11810316 0.12800662 -0.023665149
000320 91 3e 55 3e 60 f4 82 3e 78 1c e5 bd 1b e2 cb bd
       0.20824648 0.25577068 -0.111870706 -0.099552356
000330 90 c6 e1 3d ef f7 02 be 9b c9 dd bc 34 1c 04 3e
       0.11024201 -0.12789892 -0.027073672 0.12901384
000340 74 bc 55 3e 4e a4 af bd a7 25 e0 3d 7e 11 a6 3d
       0.2087267 -0.085762605 0.109446816 0.08108805
000350 f4 d8 36 be ec f8 f2 bd 33 c8 31 bd c0 84 23 be
       -0.17856199 -0.11863884 -0.043403815 -0.15968609
000360 a1 5d 52 bd d8 21 24 3e a2 f9 ce bd 35 42 d3 bd
       -0.051358823 0.16028535 -0.101062074 -0.10315362
000370 ba d8 44 3d 3b 3c 8d 3d 81 0d d5 3c 0a d1 9f 3d
       0.04805825 0.06896254 0.026007416 0.07803543
000380 89 7b 48 bd 8a 73 0e 3e fe 53 62 bd a7 7f 7a 3e
       -0.048945937 0.13911262 -0.055255882 0.24462758
000390 f2 d8 a4 3d be 22 7b be 58 44 d2 bc fa 00 50 3e
       0.080491915 -0.24524972 -0.025667354 0.20312873
0003a0 70 d1 3d be c4 ab 93 3d eb 03 aa bd 09 40 e0 bd
       -0.18536925 0.07210496 -0.083015285 -0.10949714
0003b0 08 75 8e bd c0 79 59 bb 17 01 19 3d 0a 7d 06 be
       -0.06955916 -0.003318414 0.037354555 -0.13133636
0003c0 57 15 82 3e e7 52 3b 3c 24 92 0e 3e bc df ad bc
       0.25406906 0.01143334 0.13922936 -0.021224849
0003d0 e9 27 14 be 8a 51 18 be 1b fb b4 3c 9e 45 12 3d
       -0.1446835 -0.14874855 0.022092393 0.035710923
0003e0 83 e7 5f 3d 20 be 88 bd 26 9d 15 3e b8 e6 83 3e
       0.054664146 -0.066768885 0.14610729 0.25761962
0003f0 97 3e df bc 22 c3 49 3e a5 94 00 3e d1 36 dd 3c
       -0.027251525 0.19703344 0.12556703 0.027003678

module.conv_layers.4.weight f4 [64, 64, 3, 3]
000000 65 13 ba 3b cb 23 3c 3c d7 57 99 3e bc ef 0c bd
       0.0056785815 0.011483143 0.2994983 -0.034408316
000010 47 23 9b 3d 2f 34 66 3d 3e 28 f4 ba 14 d7 23 3d
       0.07575088 0.05620211 -0.0018627716 0.040000036
000020 43 af b2 bd 43 6e da bd e6 0a 48 bd dd 56 e4 bb
       -0.08724835 -0.10665562 -0.04883852 -0.0069683627
000030 b9 0e 93 bd 5b c3 1d be 9c d5 b0 bd 2d b1 9d bc
       -0.071805425 -0.15406553 -0.08634493 -0.019249523
000040 d1 11 e7 bd fb 38 94 3c 4f 72 7c 3b 71 8f 2f 3e
       -0.11282695 0.018093577 0.0038520282 0.17144562
000050 a7 30 6e be 49 4d 51 bb 37 80 a5 3e a3 ec 81 be
       -0.23260747 -0.0031936935 0.32324383 -0.25375852
000060 42 1a 19 3d 1c f3 ca 3e 7b c4 8f be d6 2e 4e bc
       0.037378557 0.39638603 -0.2807959 -0.012584409
000070 d9 59 8b bd 27 d8 77 bd 02 9d b1 3d 66 32 3e bd
       -0.068042465 -0.060508873 0.08672525 -0.046434782
000080 e4 84 45 bd af ce 09 3d 66 90 30 be 8f f2 87 3d
       -0.048222438 0.033644374 -0.17242584 0.06638061
000090 de 32 2b bd 56 59 42 bd a0 ca c6 bc 9b 1e 8e 3d
       -0.041796558 -0.04744848 -0.024266541 0.06939431
0000a0 3e 37 ec bc 6a c7 3a 3d 3d 21 21 3d 18 93 33 bc
       -0.028834935 0.045600332 0.03933834 -0.010960363
0000b0 29 76 38 bd 51 39 cf bc 97 81 09 bd 6f 96 7b b8
       -0.04503456 -0.025295885 -0.033570852 -5.9983166e-05
0000c0 21 8f 74 3d 77 6a d5 bc 37 34 7c 3e 82 57 f2 3c
       0.05970681 -0.026051743 0.24629293 0.029582743
0000d0 6f 44 7e bc be 5f 83 bb 14 5d 91 bd fa 5e bc 3d
       -0.0155192455 -0.004009216 -0.07097831 0.09197803
0000e0 1d f2 8a 3e 36 a6 ef bd d2 b3 f0 3c cd bc 5e 3e
       0.27137843 -0.11701624 0.02938262 0.2175171
0000f0 88 9b 81 bd 33 9b 49 3e 0f 1e 9a 3e 2c de e9 bc
       -0.06328493 0.1968811 0.30101058 -0.028548323
000100 2d b8 1e bd 16 db 50 3d cf b0 0f 3c b8 89 68 3c
       -0.038749862 0.050990187 0.008770182 0.014192991
000110 89 ea b2 3d 4b 73 3e bd 3b ed 6e bb cf 8b 1b 3e
       0.0873614 -0.04649667 -0.0036457318 0.15190051
000120 9a 6e ee bb 23 cb 2b bd d8 ae 61 3e ad e7 2a bd
       -0.0072763683 -0.041941773 0.22039354 -0.04172485
000130 f0 22 c6 bd 3f b3 46 3e 6b 21 8d bd 5b bb 08 be
       -0.096746325 0.19404314 -0.068911396 -0.1335272
000140 8b b8 92 3e 0f 9e b4 bc be 75 80 3d 1e 08 5b 3e
       0.2865642 -0.022048024 0.062724575 0.21389815
000150 bb 17 ac bc 11 12 42 bd b4 1b 7f 3e c8 b3 55 bb
       -0.02100741 -0.04738051 0.24912912 -0.0032608379
000160 ca ef bb 3b 45 0d 62 3e b4 f9 8c 3d a3 1f de 3d
       0.005735372 0.22075374 0.068835646 0.10845878
000170 47 8d 26 3e 5a ea 22 bd ce ac 8d bd a1 2a b3 3d
       0.1626483 -0.039774276 -0.069177255 0.08748365
000180 1d 6b c9 3c 17 95 5e 3d 67 44 82 3d 5e 8e 21 bd
       0.024587208 0.054341402 0.06360703 -0.039442413
000190 e4 46 de 3d 0b ef 13 3e e9 f4 84 bc 2e a1 31 3d
       0.10853365 0.14446656 -0.016230064 0.043366604
0001a0 5f eb 9d 3c 7b df 88 bd 1a 3b cd 3d 3e 44 2e 3c
       0.019277273 -0.066832505 0.10021038 0.010636387
0001b0 9a b7 4b bd 9f 8a 0c bd 84 42 b8 3e 7b b8 1b be
       -0.049735643 -0.034311887 0.35988247 -0.15207092
0001c0 d5 c3 0e 3e 7d 25 a6 3e 24 6c 5f bc 43 0b 0a 3e
       0.13941891 0.32450476 -0.013636623 0.13480859
0001d0 fa 80 94 3e bb d7 19 be 85 cd 88 3d dc 1b 01 3e
       0.2900465 -0.15023701 0.06679825 0.12608284
0001e0 8a 2f 9a 3c c0 e5 af bb 35 e4 0b 3e 67 89 85 3d
       0.018821497 -0.0053679645 0.13661273 0.06520348
0001f0 3b 0d fc bc 9d 31 15 3d 51 a0 2e be 21 f4 1d bc
       -0.030768028 0.036424268 -0.17053343 -0.009640724
000200 0c 90 cb 3c 71 68 ab bd 02 10 d0 3c 36 a7 33 3d
       0.02484896 -0.0836953 0.025398258 0.043860637
000210 c8 3f 92 3c b6 4e cb bd d8 bb a9 3d e3 14 d1 3c
       0.017852679 -0.09927122 0.082877815 0.025522655
000220 28 a1 be bc 91 c9 70 3d d8 81 2e bd 92 37 8e bd
       -0.023270205 0.05878598 -0.042604297 -0.06944193
000230 e7 3f 8a 3d 1a 51 fa bb 9e b1 6c 3d 2e 03 5c 3d
       0.0675047 -0.0076390626 0.057786576 0.05371397
000240 88 70 e9 3d f9 19 8f bd dc a8 d0 3d 2f 15 62 bd
       0.11398417 -0.06987376 0.10188457 -0.055195983
000250 5b c9 19 bd 39 69 9a 3d d4 d4 47 3c 2f dd 13 bd
       -0.037545543 0.07539601 0.012196738 -0.03609961
000260 08 25 7a 3d 7c 81 d0 3c 29 b9 68 bd e4 8f 11 3e
       0.061070472 0.025452368 -0.056817207 0.14215046
000270 d1 06 14 bd aa ee fb 3d 2f 1b 7f 3e 99 ee 5e bc
       -0.036139313 0.12301381 0.24912713 -0.013606691
000280 c9 a3 93 bc 55 a8 37 3e 36 15 9e bd 8d 5e e9 bd
       -0.018022435 0.17935307 -0.077188894 -0.11394987
000290 48 eb c3 3e 3c 2a 41 bd 7f 00 6f be 19 44 a4 3e
       0.38265443 -0.04715942 -0.23340033 0.32083204
0002a0 6a 08 1a bc e2 a4 f2 bd ad c6 b2 3e 4a b8 d7 bc
       -0.00940142 -0.11847855 0.34917203 -0.026332993
0002b0 e4 bb 94 3c 19 b4 05 bc 5e 25 18 bc 0a a8 8b 3e
       0.018156 -0.008160614 -0.009286253 0.2727664
0002c0 47 27 96 bc 80 4b 62 bd 35 da a2 3c e5 1f 51 3d
       -0.018329276 -0.055247784 0.01987944 0.051055808
0002d0 cd dd 61 bc d9 7e c7 bd e8 5b fe 3d 20 c0 a9 39
       -0.013785792 -0.09740991 0.124198735 0.00032377336
0002e0 06 ff 6d be 89 36 2e 3e 8e 03 d6 3c 81 63 c6 bd
       -0.23241815 0.17012991 0.026124742 -0.096869476
0002f0 cf 81 fa 3c 7a c3 1e 3c 0e 5f 08 3d 66 b5 25 3e
       0.030579476 0.00969016 0.033293776 0.1618248
000300 55 ff 8c 3d 1e 92 32 3d 32 39 0b 3e 41 e4 08 3c
       0.06884638 0.04359638 0.13596037 0.008355201
000310 67 f8 79 3c bb 6f 36 3e 5f 3e 96 bc 2d bc 4f bd
       0.015256978 0.1781606 -0.018340288 -0.050716568
000320 37 99 90 3e 3b 48 68 bd a5 59 ea bd 07 b5 82 3e
       0.28241894 -0.05670951 -0.114428796 0.25528738
000330 b2 c3 12 bd 68 c7 00 be 34 cc 8f 3e d7 a5 6a bd
       -0.03583116 -0.12576067 0.28085482 -0.057287063
000340 e2 62 13 bd 3c 6b 41 3e b2 a3 82 bc bb e3 52 3e
       -0.035982974 0.18888563 -0.015947197 0.20594685
000350 87 6d 46 3e 85 f2 18 bd 7a b3 ce 3c b5 25 3e 3e
       0.19377719 -0.03734066 0.025232065 0.18569072
000360 21 15 0c be 54 1a 66 bc 7e 77 23 3e 5c fe 43 bd
       -0.13679935 -0.014044363 0.15963551 -0.047849998
000370 e5 dd 74 bd a9 7f 8b 3d 2e bc ca bd 2a b0 b6 3c
       -0.059781928 0.068114586 -0.09899174 0.022300798
000380 81 c4 f3 3d 22 c0 1a bd 53 93 bb 3d 0d b5 9b 3d
       0.119027145 -0.03778089 0.09158959 0.07602892
000390 fb 54 27 3c a1 22 a5 3d a0 f4 81 3c b0 06 d0 bc
       0.010213132 0.080632456 0.015863717 -0.025393814
0003a0 67 a7 a1 bd df 8f 0d 3e 10 72 67 bd 2b ae 22 3c
       -0.078932576 0.13824414 -0.056505263 0.00992922
0003b0 ab a4 85 3e aa 52 b7 bd f8 57 65 3e e7 78 ab 3d
       0.26102194 -0.08951314 0.22396839 0.0837267
0003c0 a1 88 42 bd 17 52 f7 3d 5f 37 65 3d 1d 4d ec bb
       -0.04749358 0.12076204 0.05596101 -0.007211341
0003d0 e1 34 aa bd cd 58 22 3c 72 56 bb bd 33 e4 87 be
       -0.08310867 0.009908867 -0.091473475 -0.2654129
0003e0 53 59 3d bd 35 c8 9d 3c 9f 3a 58 3d 8e a1 d2 3d
       -0.046227764 0.019260505 0.05279028 0.1028472
0003f0 43 33 03 bb 6d 6d 24 bc b0 85 0f be 25 64 ed 3c
       -0.0020019568 -0.010035855 -0.14015841 0.028978417

module.conv_layers.5.weight f4 [64, 64, 1, 1]
000000 97 20 d9 3e 0a 7c 12 3e af b9 5d be 20 96 05 bd
       0.42407677 0.1430513 -0.21652864 -0.032613873
000010 ba 96 64 3d 3e 13 3d be 15 d9 e4 3d 51 c2 43 3e
       0.055807807 -0.18464372 0.111742176 0.19117095
000020 ad d1 c6 3d b6 a5 2e be e9 0d ac 3e fb e4 5a be
       0.09707961 -0.17055401 0.33604363 -0.21376412
000030 9f 4b a0 3e 77 48 84 3e 9f b0 74 be be 57 2c bd
       0.31307694 0.25836536 -0.238955 -0.042075865
000040 56 d9 5d 3e 03 26 c8 3e 70 b0 0a 3e fd b8 93 be
       0.21664938 0.390915 0.13543868 -0.28852072
000050 8d 1b 89 bc 49 7e d3 3d 76 62 d8 3d a5 1c 2f be
       -0.01673677 0.10326821 0.10565655 -0.17100771
000060 cc 4c 27 3d df 25 23 3e 7b c1 24 3e 7f 45 17 3e
       0.040844724 0.15932415 0.16089432 0.14772604
000070 c6 ec b9 bb 5f 0d d1 3d 89 78 1e 3d 54 8a 09 3e
       -0.0056739775 0.102076285 0.03868917 0.13431674
000080 a1 fc 7a be 8c 89 39 3e 98 3a af 3e 64 d9 62 3d
       -0.24510433 0.18118876 0.3422439 0.0553831
000090 0d f6 c9 3d 34 9a 94 be c4 aa d2 3d be c3 bf 3e
       0.098613836 -0.29023898 0.10286477 0.37454027
0000a0 dc 8f 89 3e b6 c7 85 3e 03 15 1a be c2 ff 15 3e
       0.26867568 0.2612893 -0.15047078 0.14648345
0000b0 36 24 6c be 0f 3a c1 3d 6b 54 3b bc f2 96 38 be
       -0.23060688 0.09434902 -0.011433701 -0.18026331
0000c0 59 17 0f be 50 e6 92 be ba 7c 49 3d aa 88 80 bd
       -0.1397375 -0.2869134 0.049191214 -0.062760666
0000d0 e8 ed c2 3d 0c 06 57 bb 7d 9e 1e bb 3a 88 9a bd
       0.09518033 -0.003281 -0.0024203353 -0.075455144
0000e0 e3 5b 3a 3e c8 9e 2b 3d c1 e3 6a be 69 9d 8e bd
       0.18199115 0.041899472 -0.22938444 -0.06963617
0000f0 ec bd d8 bc f6 dd 9c bd ec cd a0 3e 00 e6 2c 3e
       -0.02645775 -0.07659523 0.31407106 0.16884613
000100 6e a3 30 3e 4d ce 0d be 4d 72 1f be 59 c9 b7 be
       0.17249843 -0.13848229 -0.15570946 -0.35895804
000110 07 2b be be 33 ae 0e 3e 25 4b ec 3c 47 f0 08 3d
       -0.37142202 0.13933639 0.028844425 0.03343227
000120 ec c0 7c 3e a9 5a 1d 3e 8d c7 58 3e c9 85 aa bd
       0.24682969 0.15366615 0.21169873 -0.08326299
000130 46 78 24 be ab 73 11 be 5e ba 66 3c 8f 96 c2 3e
       -0.16061506 -0.1420428 0.014082519 0.38005492
000140 be 18 9e 3e 88 01 09 bd d9 8f 55 be 2f 64 32 be
       0.30878252 -0.033448726 -0.20855655 -0.1742103
000150 c1 bd e5 3c 69 f1 e4 bd 09 86 a6 bd 72 86 9e be
       0.028044583 -0.11178858 -0.08131034 -0.3096195
000160 ef 71 a1 bd c3 74 50 3c 18 95 07 bf ee 21 aa bd
       -0.07883059 0.012723151 -0.52961874 -0.08307253
000170 7d a5 88 be 2f 06 97 3c cc 30 8a bc 93 6a 1a bd
       -0.26688758 0.018435566 -0.016868971 -0.037699293
000180 9c 3c 4a 3e ba 0f 7d be 16 48 d8 3d bc e4 0a bd
       0.19749683 -0.2471303 0.10560624 -0.033909544
000190 9e 4b 4e be 9f 7c 05 bf 60 1e d0 3d 70 86 3a be
       -0.20146033 -0.5214328 0.101620436 -0.18215346
0001a0 1f 6d 03 3d fe de a2 3d c5 33 85 be 84 2a 2a 3d
       0.032086488 0.07952689 -0.2601606 0.041544452
0001b0 f2 f6 9a 3d 8f 70 6f 3e 0a 68 46 be d9 10 d2 3b
       0.07566632 0.23382781 -0.19375625 0.0064107
0001c0 88 b8 ea 3c 04 7c af be 68 5f 72 be e0 05 5b bd
       0.028652444 -0.34274304 -0.23669207 -0.0534724
0001d0 b9 7d d1 3d 6c c8 a6 bd d0 50 f9 bc 02 c7 47 bd
       0.10229058 -0.08143696 -0.030434042 -0.048773773
0001e0 b7 ea 07 bc ca 90 be be c8 58 9b 3e 67 3e af bc
       -0.0082957065 -0.3721984 0.30341172 -0.02139206
0001f0 d1 c2 d9 3d 39 fd 00 be 44 fd 4b 3d f0 0e 92 3e
       0.106328614 -0.12596597 0.04980208 0.2852702
000200 44 bf 7c bd d0 d1 91 be ed 23 10 3c 73 9b 34 be
       -0.061705843 -0.28480387 0.008797628 -0.17637424
000210 70 27 ca bc c0 7f 5f be 12 a1 d6 3d 67 cd 44 bd
       -0.024677008 -0.21826077 0.104799405 -0.04804745
000220 02 02 38 be 5a 96 15 be cd f9 2d bd ea 92 22 be
       -0.17969516 -0.14608136 -0.042474557 -0.15876356
000230 1e 8b 31 be fa 4e 34 3e da c4 13 be b9 60 c7 3c
       -0.17338225 0.17608252 -0.14430562 0.024338113
000240 91 f5 b6 bd c5 7e 1f be 5d 13 e5 be 0a a5 12 3e
       -0.08933557 -0.15575702 -0.44741336 0.1432077
000250 2b ad 6c 3d 80 ec 3e 3e a1 d7 27 be 16 57 e9 bd
       0.057782333 0.18644905 -0.1639085 -0.113935634
000260 a4 80 33 be 3d c1 54 be 2f 0a 72 3c bd a3 41 be
       -0.17529541 -0.2077684 0.014772936 -0.18910117
000270 82 d1 2a 3e c2 91 ca bc 60 c4 36 3e 31 00 92 bd
       0.16681483 -0.024727706 0.17848349 -0.07128943
000280 8d 32 95 3e c0 15 7d bd f0 72 9f 3e ee 31 d2 bc
       0.2914013 -0.06178832 0.31142378 -0.025658574
000290 bc f8 ab be 14 d6 a2 be fd eb c2 be c9 b9 1f be
       -0.33588207 -0.31803954 -0.3807067 -0.15598215
0002a0 90 1b 2b be 36 67 4d be 72 b1 2d be 43 0d ae 3c
       -0.16709733 -0.20058903 -0.16962221 0.021246558
0002b0 5b 55 28 3d 55 be 30 3e d7 58 09 be 60 61 22 be
       0.041097026 0.17260106 -0.13412796 -0.15857458
0002c0 b8 b2 38 be d2 cc 5c 3c 79 d0 f3 bd 40 99 a2 bb
       -0.18036926 0.013476567 -0.119049974 -0.0049621165
0002d0 05 70 1e 3b 8f 12 3b be 73 c6 93 bd 8d 9c b0 3e
       0.0024175656 -0.18268798 -0.072155856 0.3449444
0002e0 5c 0f 2f 3d 98 22 2d 3d 8f 1d c2 bd 9a 8a 86 be
       0.042739257 0.04226932 -0.09478294 -0.2627762
0002f0 3c 26 21 be 81 b1 5a 3d 95 a9 0f 3e b3 e2 53 3d
       -0.15737242 0.053391937 0.14029534 0.05172987
000300 94 44 09 3d 33 86 4b 3e 6c 0d dd 3c dc 78 8d be
       0.033512667 0.19875412 0.02698394 -0.2763127
000310 45 64 7e 3c 11 a6 7a 3e ba 85 29 3e 12 ee 67 bd
       0.015526836 0.24477412 0.16554919 -0.056623526
000320 c0 0e e7 bd 98 f6 7d bb 91 1a 0a 3e 8b 4c c2 be
       -0.1128211 -0.0038751718 0.13486697 -0.37949023
000330 a5 db 95 3a 7b f1 fa 3d 16 b9 d7 3d 40 59 33 3e
       0.0011433257 0.1225309 0.10533349 0.17514515
000340 7a d3 6d be f7 83 6f bd a7 a5 9c be 33 6d 88 3d
       -0.23225203 -0.05847546 -0.30595133 0.06661453
000350 c0 c9 60 be a2 85 4b bd f0 69 4e 3c fc db 8a 3d
       -0.21951962 -0.04968799 0.0125985 0.0678024
000360 e5 53 a5 3e b1 19 49 3b 7a aa 71 3e 9f e1 8b 3e
       0.3229057 0.003068548 0.23600188 0.27320573
000370 b4 d3 3a 3e 3e 75 09 be 21 2c a8 bb b4 4e e9 3c
       0.18244821 -0.1342363 -0.0051322137 0.028479911
000380 cd 91 54 3e 34 9d 74 bd a1 72 3e 3e 0e e8 50 3d
       0.20758744 -0.059720233 0.18598415 0.051002555
000390 55 04 3b bd e7 53 04 be b6 89 2f bd 07 a1 13 3e
       -0.04565843 -0.12922631 -0.04285594 0.14416896
0003a0 55 28 c1 bd b4 eb 14 bd c3 e4 65 be f5 68 09 be
       -0.09431521 -0.036357597 -0.22450547 -0.13418944
0003b0 fb 8c 1d 3e 28 19 0c bd 40 13 e5 3d ac 66 56 3e
       0.15385811 -0.03420368 0.11185312 0.20937604
0003c0 6f f5 06 be 28 8c 95 be cb 64 0f be 31 f9 45 be
       -0.13179563 -0.29208493 -0.14003293 -0.1933334
0003d0 fa f7 0d 3e 05 5a 8c be d1 d1 36 be 5d 9a fe bd
       0.13864127 -0.2741243 -0.17853476 -0.12431786
0003e0 c8 d1 3f be 37 97 b1 be e9 c1 03 3e 28 d7 ac bd
       -0.18732369 -0.3468568 0.1286694 -0.08439475
0003f0 6c 55 4f 3c 4d 33 0e be ac e8 99 be 2e f8 ab bc
       0.0126546435 -0.13886757 -0.30060327 -0.020992365

module.conv_layers.6.weight f4 [64, 64, 1, 1]
000000 99 50 a9 be 5d 7f 4d 3e 78 74 ea 3d 0d a9 25 bc
       -0.33069304 0.20068116 0.11447996 -0.010111106
000010 70 fa 1e be 49 c4 0f 3d 6d b1 88 bd 4d 81 32 be
       -0.15525222 0.0350993 -0.06674466 -0.17432137
000020 af 40 cd bd 14 23 01 be 95 25 24 3d cf 14 69 3d
       -0.10022103 -0.12611037 0.040074904 0.05690461
000030 51 3e f1 be bf 73 21 3d dc b7 aa 3d 83 9f fe bd
       -0.47117856 0.039417025 0.0833585 -0.12432768
000040 d0 d4 ed 3d e8 f1 e7 bd 14 e1 2f 3d 03 81 e2 bd
       0.116128564 -0.11325437 0.04293926 -0.11059763
000050 61 8a 83 be 6f 2d f9 3c 8b f3 82 bd eb 50 1c bd
       -0.25691512 0.030417172 -0.063941084 -0.038163107
000060 70 cf 46 3d 0d 5e c6 3e 31 cb a3 be 54 a4 fe 3e
       0.04853767 0.3874363 -0.3199096 0.49734747
000070 59 19 37 bd 75 de e6 bd e4 bb 1e 3e 0f 59 7a 3a
       -0.044701908 -0.11272899 0.15501362 0.0009550014
000080 97 3a ac 3d 90 44 24 3e 2a d9 7b be 9f 50 5e 3e
       0.084096126 0.1604178 -0.2459456 0.21710442
000090 39 c2 de bd 16 0c b7 3d d7 cd 6c bd bb b7 d1 3d
       -0.10876889 0.08937852 -0.05781349 0.10240122
0000a0 b2 3a b0 bd ee e3 92 bc 1b cd 39 3d 1b eb 8b bd
       -0.08604945 -0.017930951 0.04536162 -0.06831952
0000b0 6b 9a 57 3e 68 6e f6 3d 61 d3 9d 3e c9 16 0f 3e
       0.21055 0.12032777 0.30825332 0.13973536
0000c0 a5 d4 83 3e 79 49 40 be 2a a6 ff 3d 61 f0 c6 3c
       0.25748172 -0.18778028 0.12482865 0.024284543
0000d0 8f 87 f8 bc 56 74 33 be b8 d5 11 be bd f7 14 be
       -0.030338077 -0.17524847 -0.14241683 -0.1454763
0000e0 ca e7 3e be 19 db 6f 3c 7d bd f5 bd 03 c1 17 3d
       -0.18643108 0.014639639 -0.11999033 0.037049305
0000f0 e3 b4 25 3e d6 46 cd 3c ed 71 81 3e 96 99 ed 3d
       0.16182284 0.025058191 0.2528223 0.1160156
000100 1b 10 ae bd ab f9 3c be 40 30 35 be 84 dc 3a 3e
       -0.084991656 -0.18454616 -0.17694187 0.18248183
000110 3c 8e 8a 3d 95 0c 77 3e 44 a8 9f 3d 9a 2d 0b 3e
       0.0676541 0.24125893 0.07795766 0.13591614
000120 2a ee dd be 2a 4c 0e be fb 91 8c 3e 7c c4 91 bd
       -0.43345767 -0.13896242 0.27455124 -0.071175545
000130 a9 18 5a 3e 73 9f 42 bd 38 ac ef 3c 87 69 a0 be
       0.2129847 -0.047515344 0.029256925 -0.3133051
000140 39 6f 64 be 9e f2 b0 bc c4 92 d6 bd 99 a6 c4 bd
       -0.22308053 -0.021600064 -0.10477212 -0.096020885
000150 3b 9f 39 bf dc 20 5b be 8c 89 fc bd 6d ca f7 3d
       -0.7250859 -0.21399254 -0.123309225 0.120991565
000160 7d bd 91 bc c8 5f ef bd 36 13 f8 3b 28 51 b0 bd
       -0.01779055 -0.11688191 0.0075706495 -0.08609229
000170 58 49 ea 3e 23 17 0d be 52 a2 38 3e 38 97 0a 3f
       0.45759082 -0.13778357 0.1803067 0.5413699
000180 a1 55 33 be 6d 0d fa 3d 55 c4 9c bd 02 e6 d0 3e
       -0.17513134 0.12209592 -0.07654635 0.40800482
000190 01 d5 90 3b f5 6f fc bd d6 5a 9d 3d c5 5f 7f be
       0.0044199233 -0.123260416 0.07683341 -0.24938877
0001a0 a3 cd 2c 3d 1e 80 4c 3d f4 cd 35 3e 3a 59 1c 3e
       0.042188298 0.04992687 0.17754346 0.15268412
0001b0 f5 50 a6 3d 41 f5 1e bd f7 78 6b bd 1f cf 78 be
       0.0812091 -0.03880811 -0.057488408 -0.2429776
0001c0 2b fb d1 be 16 6c 57 3e 44 61 83 3d 6c c3 ba be
       -0.41011938 0.21037325 0.06415036 -0.3647722
0001d0 2e fe 4e 3e da a9 dc 3d 57 e3 82 3e 2c d1 bd bd
       0.2021415 0.10774584 0.25564072 -0.09268412
0001e0 67 f2 07 3f a4 d0 65 be 12 56 bc be de 62 72 bd
       0.5310425 -0.22442871 -0.36784416 -0.05917632
0001f0 28 6c 3b 3e 50 1e ab bd ac 51 b5 3d 7b e6 4a 3d
       0.18302977 -0.08355391 0.08853468 0.04953621
000200 bf ea 65 3e c0 9f d4 3a 2a d1 8f 3d cb 83 be 3d
       0.2245283 0.0016221926 0.07022317 0.09302481
000210 bf ea 7d bd 9c 68 93 be 78 69 ad 3e 74 47 24 3e
       -0.06199145 -0.28790748 0.3386953 0.16042882
000220 24 63 1d 3d ce 53 0e 3d 55 90 54 3e 62 83 41 3d
       0.038424626 0.03474789 0.20758183 0.047244437
000230 db c9 6f 3d d9 15 7a be 78 1d 4b 3e 07 c0 51 bc
       0.058542114 -0.24422397 0.1983546 -0.012802131
000240 99 62 aa 3d c4 dd 4d bc 99 e0 88 bd f8 eb 35 be
       0.08319587 -0.01256508 -0.066834636 -0.17765796
000250 0b 2c b4 3d b3 5d 07 be 95 6f 31 bd 1f 4a ff 3d
       0.08797463 -0.13219337 -0.043319304 0.12465309
000260 b2 50 1f 3d a4 b9 84 be 53 b6 08 bd 9f 16 66 3e
       0.038895316 -0.25922883 -0.033377003 0.22469567
000270 c2 8c 24 3e ce d5 d2 bd 5c 40 5b 3e 30 a5 ef 3d
       0.1606932 -0.10294686 0.2141127 0.11701429
000280 47 df 87 bc b9 80 b9 3d 5a 62 9b be f9 bb 57 be
       -0.01658596 0.09057755 -0.30348474 -0.210678
000290 fb 38 86 be cd bc b0 3d 5f e1 31 3e 80 4d f4 bd
       -0.26215348 0.08629761 0.17371128 -0.119288445
0002a0 06 9f b2 bc a0 46 93 bd 24 7e 63 3e e6 27 12 3e
       -0.021804344 -0.07191205 0.22216088 0.14273033
0002b0 5a 9f c8 be 4f 81 0f 3b 34 5f 17 be 7a 0b aa 3d
       -0.39184076 0.0021897142 -0.14782411 0.0830297
0002c0 79 92 87 bc 98 0f c1 bd cb e2 8e bd ba 76 4d bc
       -0.016549336 -0.094268024 -0.06976851 -0.012540514
0002d0 aa 01 6a 3e e8 0a df 3d fc fc d3 3d 6e e1 f3 3d
       0.22852197 0.10890752 0.10350987 0.11908232
0002e0 cf 3e a5 bd b5 b4 0c 3c ce 2c 7d be 2e a4 b2 3d
       -0.080686204 0.008588006 -0.24724123 0.08722721
0002f0 96 05 11 3e 34 71 a1 3a a8 55 23 3e e0 3b 9a bd
       0.14162287 0.0012317062 0.15950644 -0.075309515
000300 0f a0 44 3e 22 33 3d bc 67 8d d5 3c 48 21 e6 3d
       0.19201683 -0.011547836 0.026068402 0.11236817
000310 e2 a9 7c be 19 8b f9 3d a6 9e aa bb 03 12 7d 3d
       -0.2467418 0.12184734 -0.0052069006 0.061784755
000320 b3 d5 fb bd d2 f8 27 3e 89 b7 cb 3d 64 46 09 be
       -0.12296619 0.16403511 0.09947116 -0.13405758
000330 eb 52 60 bc 02 1e b2 bc 3f 05 0e 3d 2a 9d 58 be
       -0.013691644 -0.021742824 0.03467297 -0.21153703
000340 85 e7 19 3e 4b ce c8 bd a5 b9 9c 3d 57 9a 6e 3c
       0.15029724 -0.09804972 0.076525964 0.014563165
000350 9d ae 8b 3d 14 74 e5 bd 0a 3d 07 3e 78 b1 6c 3d
       0.06820414 -0.11203781 0.13206878 0.057786435
000360 08 f1 c9 3d c9 55 e8 3e c8 8a a1 3e bf e6 39 3e
       0.09860426 0.4537795 0.31551194 0.18154429
000370 50 5d 66 be 78 e8 87 be 5c a9 32 be a0 54 b7 be
       -0.22496533 -0.26544547 -0.17447418 -0.3580675
000380 89 9d bb 3d b7 6b b2 3c db 88 06 3c 4c 4f 7c 3e
       0.09160907 0.021779878 0.00821134 0.24639624
000390 9a 79 e7 3d 4d ea cd 3c 63 49 42 be 98 53 94 be
       0.113024905 0.025136137 -0.18973307 -0.28970027
0003a0 ac 73 17 be fe 31 58 be 8f 69 1b bd ac 7a c8 bb
       -0.14790219 -0.2111282 -0.037942465 -0.0061181393
0003b0 4c f3 0a 3e 56 8b 98 3d 1f db 85 3e 12 2f 60 3e
       0.13569373 0.07448451 0.2614374 0.21892956
0003c0 27 62 e4 bd cb f0 5a 3e 53 e2 b2 3d 96 b7 dc bc
       -0.111515336 0.21380918 0.08734574 -0.02694301
0003d0 6b 53 72 3d d7 55 a9 be 52 5b 45 be d0 64 77 ba
       0.059161585 -0.33073303 -0.19273117 -0.00094373245
0003e0 75 1d 1b 3e 89 17 89 bc 99 59 49 3e 38 19 de 3d
       0.15147956 -0.016734855 0.19663085 0.10844654
0003f0 26 f6 82 3c 80 f5 a7 3e 1a 3a 8d 3e 6e d2 8a 3e
       0.015986513 0.3280449 0.2758339 0.2711367
