denoisers/flat/celebA_160x160_gray/noise_range_0to255_RF_9x9/model.pt (torch, 604730 bytes, 59 tensors)

module.conv_layers.0.weight f4 [64, 1, 3, 3]
0	0xbf0e2f73	-0.5554115
1	0xbee0e11e	-0.4392175
2	0xbc467a64	-0.012114141
3	0xbec914c2	-0.3927365
4	0x3f487136	0.78297746
5	0xbde95faa	-0.113951996
6	0x3f706a7d	0.9391249
7	0x3fbac5ab	1.4591573
8	0x3e81df6d	0.25365773
9	0x3e93fa2f	0.28901812
10	0x3e26e390	0.16297746
11	0xbf160aa2	-0.58609974
12	0xbf4ec03c	-0.80762076
13	0xbdf57835	-0.11985818
14	0xbead7cd4	-0.338843
15	0x3f24e9b2	0.6441909
16	0x3ee71d03	0.45139322
17	0x3eb86da3	0.36021146
18	0x3e4023d7	0.18763672
19	0xbe6803d5	-0.22657712
20	0x3ed46dfe	0.41490167
21	0x3f01fd48	0.507771
22	0xbf8a8663	-1.0822262
23	0xbe435695	-0.19075997
24	0x3e8b2068	0.27173162
25	0x3f03c6bb	0.51475114
26	0xbecc268c	-0.3987316
27	0xbd6d2ce6	-0.057904147
28	0xbd3b84df	-0.045781013
29	0xbc956840	-0.018238187
30	0x3c66eb12	0.014094131
31	0x3dd22ef3	0.10262861
32	0xbe5588ca	-0.20852962
33	0xbdec7348	-0.11545426
34	0xbef73634	-0.4828354
35	0x3f516b7b	0.8180463
36	0x3f1a38f8	0.6024318
37	0xbf350de5	-0.70724326
38	0xbda87216	-0.08224885
39	0x3d91bad3	0.07115712
40	0x3d842719	0.0645277
41	0x3e832055	0.25610605
42	0xbeb37961	-0.35053542
43	0x3ddf47ca	0.109023646
44	0x3d118fd3	0.035537552
45	0xbf545367	-0.8293976
46	0x3efc9442	0.49331862
47	0x3ebcbc92	0.36862618
48	0xbb6acace	-0.0035826447
49	0xbdcb3324	-0.09921864
50	0xbf5477c3	-0.8299524
51	0x3ea6a37f	0.32546613
52	0xbd698cf3	-0.057019185
53	0x3f38b974	0.7215798
54	0xbf9739d1	-1.1814519
55	0xbea9f1e7	-0.3319237
56	0x3f433c81	0.76264197
57	0x3ec4c1a5	0.3842899
58	0x3e582660	0.21108389
59	0xbee03596	-0.43790883
60	0xbc9e6dd7	-0.019339485
61	0x3f1d9b32	0.61564934
62	0xbc1cd30d	-0.009571803
63	0xbe80d033	-0.25158843
64	0x3f6282b2	0.88480675
65	0x3f6c9504	0.9241488
66	0x3dbb5386	0.0914679
67	0xbeede35d	-0.46462527
68	0xbee9ff67	-0.4570267
69	0xbefd727d	-0.4950141
70	0xbefbf1b7	-0.4920785
71	0x3f2fa3ee	0.6860951
72	0xbf074ced	-0.52851754
73	0xbf0bd481	-0.5462113
74	0xbf1b8207	-0.6074528
75	0xbede2e94	-0.4339491
76	0x3eb1fcd2	0.347632
77	0xbee98c9f	-0.45615098
78	0x3f0074d8	0.5017829
79	0x3efd2adb	0.4944676
80	0x3f84bd2c	1.0370231
81	0xbf7b54e1	-0.9817639
82	0x3f2c4103	0.672867
83	0xbe6c7b20	-0.23093843
84	0xbf5f754e	-0.8728837
85	0x3e90ad02	0.28256994
86	0x3e2afa60	0.16697073
87	0x3f55f05f	0.835699
88	0x3e11c830	0.14236522
89	0xbe0ee868	-0.13955843
90	0x3f50f46d	0.81622964
91	0x3ecb8d53	0.3975626
92	0x3ec893a2	0.39175135
93	0x3ec2b1d2	0.3802629
94	0xbfa702f2	-1.3047774
95	0x3ea0697f	0.31330487
96	0x3f435fb6	0.7631792
97	0x3f970438	1.1798162
98	0xbc4a3fc4	-0.0123443045
99	0xbf12b008	-0.5729985
100	0xbf96bd2a	-1.1776478
101	0xbe43a3e4	-0.19105488
102	0x3f06f44e	0.5271653
103	0x3eefe1cf	0.46851966
104	0x3dd88c80	0.10573673
105	0x3e307711	0.1723292
106	0x3f17f7de	0.5936259
107	0xbe94cf55	-0.29064432
108	0xbf654883	-0.8956377
109	0xbe030fee	-0.12799045
110	0xbc7ec47d	-0.015549776
111	0xbe55bccb	-0.208728
112	0xbcaf3747	-0.021388663
113	0xbfa41dcd	-1.2821594
114	0x3dcb7278	0.099339426
115	0x3f452d6a	0.7702242
116	0xbf360183	-0.71096057
117	0x3e0e2f26	0.13885173
118	0x3f145248	0.5793805
119	0x3e160b82	0.14652827
120	0xbf42d00d	-0.7609871
121	0x3d123250	0.035692513
122	0x3f18a344	0.59624124
123	0xbf2a1786	-0.66442144
124	0x3e2b3b92	0.16721943
125	0xbe275519	-0.16341056
126	0xbe2b54bc	-0.16731542
127	0xbe46e090	-0.19421601
128	0x3dfffa7f	0.1249895
129	0x3e4a4be2	0.1975551
130	0xbd2817e9	-0.041038428
131	0xbe1c7cb0	-0.1528194
132	0x3f23b4ad	0.63947564
133	0xbe8d84c6	-0.2764036
134	0xbde4589f	-0.11149716
135	0xbf6ebde2	-0.9325849
136	0xbf21c5fe	-0.6319274
137	0x3f6376ef	0.88853353
138	0x3e17bd1c	0.14818233
139	0x3c808a54	0.01569096
140	0x3db8c1e8	0.0902136
141	0xbea806ef	-0.3281779
142	0x3f6a680a	0.91565
143	0xbe59f203	-0.21283726
144	0xbedf9c2e	-0.43673843
145	0x3e5e05fd	0.21681972
146	0x3e7e4ebd	0.24834724
147	0xbf020fea	-0.5080553
148	0xbe2cc29d	-0.16871114
149	0xbef08bdc	-0.46981704
150	0x3f804c62	1.002331
151	0x3e9907ff	0.29888913
152	0xbde91621	-0.11381174
153	0xbf0dab5f	-0.55339617
154	0xbef22493	-0.4729353
155	0x3f77aa01	0.9674378
156	0xbf179cf1	-0.5922385
157	0x3f5a4095	0.85254794
158	0x3e345048	0.1760875
159	0xbf2334b8	-0.6375232
160	0xbf8015f9	-1.0006706
161	0xbe8e2733	-0.27764282
162	0x3ff73ecd	1.931604
163	0xbd0a065d	-0.033697475
164	0xbf25b62b	-0.6473109
165	0x3e5af36f	0.21381925
166	0xbf749015	-0.9553235
167	0xbbb7396b	-0.0055915616
168	0xbf6447bc	-0.8917196
169	0x3efb611f	0.49097535
170	0x3c8deeec	0.01732584
171	0x3f042129	0.516131
172	0x3f6ab566	0.9168304
173	0xbe361425	-0.17781122
174	0xbeee2560	-0.4651289
175	0x3d89f095	0.067353405
176	0x3ecafe54	0.39647162
177	0xbf8f390c	-1.1189284
178	0xbe202e5f	-0.15642689
179	0x3e0432f5	0.12910064
180	0x3f1964ce	0.5991944
181	0xbece0f64	-0.40246117
182	0xbed2d9d2	-0.4118181
183	0x3e772932	0.24136809
184	0x3c2ef3ac	0.010678213
185	0x3c8c3f3f	0.017120002
186	0x3d921134	0.071321875
187	0xbd077c9a	-0.033077814
188	0xbd709f01	-0.058745388
189	0xbece8a8d	-0.4034008
190	0xbe130f0e	-0.14361212
191	0xbf6c9103	-0.9240877
192	0xbe1cdf34	-0.1531952
193	0x3f47cec4	0.78049874
194	0xbd863794	-0.065535694
195	0xbf325484	-0.6966021
196	0x3e20e037	0.15710531
197	0x3ab5ea68	0.0013879063
198	0x3e4c7f09	0.19970335
199	0x3e2f8e88	0.17144215
200	0x3e958bfb	0.2920836
201	0xbf698fbf	-0.91234964
202	0x3ebfa1ad	0.37428036
203	0xbea23778	-0.31682944
204	0x3f88c1ef	1.0684184
205	0xbf857ee9	-1.0429355
206	0xbed5defd	-0.4177169
207	0x3e212910	0.1573832
208	0x3f142b59	0.57878643
209	0xbf25b1d6	-0.6472448
210	0x3db68729	0.089124985
211	0xbd999686	-0.07499413
212	0x3e7c8c1d	0.24662824
213	0x3f2a3c66	0.6649841
214	0xbf306db8	-0.6891742
215	0xbe9e919c	-0.30970466
216	0xbe4bfb4c	-0.19920081
217	0xbe1d9f5d	-0.15392824
218	0xbf1a1d15	-0.60200626
219	0x3ef87ffc	0.48535144
220	0x3e21cf62	0.15801767
221	0x3e6ef6ad	0.23336287
222	0xbe13561f	-0.14388321
223	0x3f36b0b1	0.7136336
224	0xbf13cace	-0.5773133
225	0xbf006c73	-0.5016548
226	0x3d8c5ae5	0.06853274
227	0xbeccea14	-0.40022337
228	0xbf1b6bd8	-0.6071143
229	0x3f53d58d	0.8274773
230	0xbf2ac4e6	-0.66706693
231	0xbe6b4dd7	-0.22978912
232	0x3e023270	0.12714553
233	0xbdb6eec8	-0.08932263
234	0xbed577e1	-0.41693023
235	0xbf60de0a	-0.87838805
236	0xbe1fbff7	-0.15600573
237	0xbf0b2eab	-0.54368085
238	0x3f38b89d	0.721567
239	0xbe91d5a0	-0.28483295
240	0xbd15b138	-0.036545962
241	0x3f812370	1.008894
242	0x3edef28c	0.43544424
243	0xbf832391	-1.0245229
244	0xbc9dd93d	-0.019268626
245	0x3e1d9f93	0.15392904
246	0xbf4b8fdb	-0.7951638
247	0x3f9267a3	1.1437877
248	0x3f6cb6df	0.9246654
249	0xbf8af6b8	-1.0856543
250	0xbec3eaf2	-0.38265187
251	0x3d73b740	0.059500933
252	0xbf02c78d	-0.5108574
253	0xbf4df944	-0.80458474
254	0x3e2d2d91	0.16911913
255	0x3e7b5aff	0.24546431

module.conv_layers.1.weight f4 [64, 64, 1, 1]
0	0x3efcee0a	0.4940036
1	0x3fb7385b	1.4314073
2	0x3f858683	1.0431675
3	0x3e0c20cb	0.13684385
4	0xbec97df4	-0.39353907
5	0x3dcce3cc	0.10004386
6	0xbe27c42c	-0.16383427
7	0x3f1b62a0	0.60697365
8	0x3e1eaddd	0.15496011
9	0x3f30e79a	0.69103396
10	0x3e1fb2e9	0.15595593
11	0xbee949be	-0.45564073
12	0x3eda7344	0.42666066
13	0x3f1ae812	0.6051036
14	0xbe1383dd	-0.1440577
15	0xbd998448	-0.07495934
16	0x3f890bdf	1.0706748
17	0xbef2f4bb	-0.4745234
18	0x3f2f9bf3	0.68597335
19	0xbc2052f6	-0.009785404
20	0xbe92402d	-0.28564587
21	0xbe38edca	-0.1805946
22	0x3ec16cc4	0.37778294
23	0xbd1e7434	-0.03868504
24	0xbf4705ec	-0.7774341
25	0x3e0cdb25	0.13755472
26	0x3de26713	0.11054816
27	0xbf4ad3ee	-0.7922963
28	0xbe82d2ef	-0.25551555
29	0xbfc1453f	-1.5099257
30	0xbe2ad030	-0.1668098
31	0x3f3f34da	0.7469002
32	0xbed9632a	-0.4245847
33	0x3f8d8e13	1.1058983
34	0x3e17198f	0.14755844
35	0xbdcdc38e	-0.10047065
36	0x3e467492	0.19380406
37	0xbea6aa17	-0.32551643
38	0xbf94e04f	-1.1630954
39	0xbdb1d6da	-0.08683558
40	0x3f11965b	0.5687005
41	0x3e45f653	0.19332246
42	0xbf169033	-0.5881378
43	0xbed93dc5	-0.4242994
44	0x3d4e40be	0.05035471
45	0x3ef32712	0.47490746
46	0x3ec841e4	0.3911277
47	0xbdf00dbd	-0.1172137
48	0x3f704717	0.93858474
49	0x3ed68321	0.41896918
50	0x3ef5f016	0.48034734
51	0x3f986183	1.1904758
52	0xbe87332b	-0.26406226
53	0xbf8fa2c0	-1.1221542
54	0xbe28efd8	-0.16497743
55	0x3e9bd14a	0.30433112
56	0x3f5e794f	0.8690385
57	0xbeb052ce	-0.34438175
58	0x3eab0af2	0.33406788
59	0x3efaa9c5	0.4895765
60	0x3df30ea1	0.118680246
61	0xbf069c35	-0.52582103
62	0x3cfa84a7	0.030580832
63	0x3f1bea09	0.60903984
64	0xbee2d1e9	-0.44300774
65	0xbe432767	-0.19058
66	0xbf169e44	-0.58835244
67	0x3f117e3a	0.5683323
68	0x3de617f0	0.112350345
69	0x3e8b8b7d	0.2725486
70	0xbe34c141	-0.17651846
71	0x3f24e54c	0.6441238
72	0x3eb530d6	0.3538882
73	0xbeee86a9	-0.46587113
74	0xbe68fa3a	-0.22751704
75	0xbebf3844	-0.37347615
76	0xbf18e8ca	-0.5973021
77	0xbe5f5b30	-0.21812129
78	0x3e6341b9	0.2219304
79	0xbf319416	-0.69366586
80	0xbee49a8d	-0.44649163
81	0x3e89a104	0.26880658
82	0x3dd3bf51	0.10339225
83	0x3f041a6b	0.5160281
84	0x3e349394	0.17634422
85	0x3d60cd36	0.054883204
86	0x3e6d741a	0.2318882
87	0x3ed9d164	0.42542565
88	0xbf96551c	-1.1744723
89	0xbdb4eb20	-0.08833909
90	0xbf03088f	-0.51184934
91	0xbd0f31e9	-0.034959707
92	0x3d4cdcce	0.050015263
93	0xbee53cc1	-0.44772914
94	0xbdbd3ac6	-0.09239726
95	0xbdfea126	-0.124330804
96	0x3f280745	0.6563609
97	0x3ee4a5cf	0.44657752
98	0xbe933708	-0.28752923
99	0xbd36eb92	-0.04465825
100	0xbe4c6632	-0.1996086
101	0x3dc8c7d6	0.09803741
102	0x3f06e2ce	0.52689826
103	0xbe134079	-0.14380063
104	0xbf8e6614	-1.1124902
105	0x3e0e62e9	0.13904919
106	0x3da1a8c7	0.0789352
107	0xbdb523b2	-0.08844699
108	0xbf2353b7	-0.63799614
109	0x3e899fe4	0.268798
110	0x3c385710	0.011251226
111	0x3e1ab47c	0.15107912
112	0xbeb9de7a	-0.3630255
113	0x3ebc4804	0.36773694
114	0x3e56e33c	0.2098512
115	0x3ea98b8f	0.33114287
116	0xbeeb0db6	-0.45908898
117	0xbf1d3ef3	-0.6142418
118	0x3f938115	1.1523768
119	0x3c34eb40	0.011042416
120	0xbaaf80f5	-0.0013389873
121	0xbeec0102	-0.4609452
122	0x3ef3a5dd	0.4758748
123	0xbeffdde0	-0.49973965
124	0xbf202b07	-0.62565655
125	0x3ec60a43	0.38679704
126	0xbe9c9f85	-0.30590454
127	0xbfaee766	-1.3664367
128	0x3ec9d1f2	0.39417988
129	0x3ecb7484	0.39737332
130	0x3d59c439	0.053165648
131	0x3e9645da	0.29350168
132	0x3e6e1cbe	0.23253152
133	0x3e5859c1	0.21127988
134	0x3ef81170	0.48450804
135	0xbedde7f2	-0.43341023
136	0x3f2be569	0.6714693
137	0x3ee7d5c6	0.45280284
138	0xbe8d8058	-0.2763698
139	0x3f90c1d4	1.1309152
140	0x3f18f1e8	0.5974412
141	0xbec2b09f	-0.38025376
142	0x3eb897c8	0.360533
143	0x3e82de03	0.25560006
144	0x3edc9d4d	0.4308876
145	0x3e0cb2c8	0.13740075
146	0xbf2080a0	-0.62696266
147	0xbf19a879	-0.60022694
148	0x3e8152af	0.25258395
149	0x3f2dd19f	0.6789798
150	0xbd3990e6	-0.0453042
151	0xbe16439e	-0.14674231
152	0x3dd1f4f1	0.10251797
153	0x3faff221	1.3745767
154	0x3f0ebed4	0.5575993
155	0x3ddef321	0.10886217
156	0x3d540f62	0.051772483
157	0xbe30fa9a	-0.17283097
158	0x3e03a781	0.12856866
159	0xbe81043a	-0.25198537
160	0xbec53245	-0.38514915
161	0xbe82cb52	-0.25545746
162	0xbe8fe21a	-0.2810219
163	0xbe19da08	-0.15024579
164	0x3f9e558f	1.236986
165	0xbece6787	-0.4031336
166	0xbd9e6691	-0.07734407
167	0x3e3cc368	0.18433917
168	0x3e7a2894	0.24429542
169	0x3edabd87	0.42722723
170	0xbecb2a92	-0.39680916
171	0x3ef1066a	0.47075206
172	0xbce91220	-0.028451025
173	0xbf4a882d	-0.7911404
174	0x3f9539e4	1.1658292
175	0xbef149ac	-0.4712652
176	0x3d98e632	0.07465781
177	0xbdd3cd16	-0.103418514
178	0xbf2bf26d	-0.6716679
179	0xbc9bdb23	-0.019025391
180	0xbdd182ed	-0.1023005
181	0x3e8b31bb	0.2718638
182	0x3edca603	0.43095407
183	0x3ee025fd	0.43778983
184	0xbece9225	-0.40345874
185	0x3dbd0e6d	0.09231267
186	0x3d1aa5dd	0.037755836
187	0xbe93c2b2	-0.28859478
188	0x3dbe4ce4	0.092920095
189	0x3ed5c638	0.4175279
190	0x3dd1793b	0.10228201
191	0xbf08f33a	-0.53496134
192	0x3e8ff1b3	0.2811409
193	0x3ed96cb7	0.42465755
194	0xbecbf3cb	-0.39834437
195	0x3eb6ec93	0.35727367
196	0xbe88d6c5	-0.26726356
197	0x3f1c8d61	0.6115323
198	0x3eb88d2c	0.36045206
199	0x3ef3984e	0.47577137
200	0x3e98ef50	0.2987008
201	0xbc4617e4	-0.012090657
202	0xbd176320	-0.036959767
203	0x3c634539	0.013871484
204	0xbeacb783	-0.33733758
205	0xbecef6c6	-0.40422648
206	0x3de73829	0.112900086
207	0xbea8cb3b	-0.32967553
208	0xbe50d92b	-0.20395343
209	0x3eb69007	0.3565676
210	0x3dc034d2	0.09385075
211	0xbdb1def0	-0.086851
212	0x3e939c51	0.28830197
213	0x3d9d2acd	0.07674179
214	0x3ed876aa	0.42278033
215	0x3e7e32bb	0.2482404
216	0xbdebf19d	-0.115206935
217	0x3dcf8c61	0.10134197
218	0x3e92ea9e	0.28694624
219	0x3e3ab7d5	0.18234189
220	0xbea17579	-0.31534937
221	0xbe408bcf	-0.18803333
222	0x3f86b8e1	1.052517
223	0xbea1ed7e	-0.31626505
224	0x404bd046	3.184587
225	0x3f02e52f	0.51130956
226	0xbe9c8e32	-0.30577236
227	0xbd471c6c	-0.04861109
228	0xbd0a4ea4	-0.033766404
229	0x3e8139bc	0.2523936
230	0x3d54675e	0.05185639
231	0xbddb8b62	-0.107199445
232	0x3d329ebd	0.043608416
233	0xbee42139	-0.44556597
234	0x3e5b9b2e	0.21445915
235	0x3d90d3d0	0.0707165
236	0xbdf766d9	-0.120801635
237	0xbde7346b	-0.11289295
238	0x3da40a3c	0.080097646
239	0x3f777be4	0.9667342
240	0xbe9d84b6	-0.30765313
241	0xbf18ce22	-0.59689534
242	0x3de04a29	0.10951645
243	0x3e92daed	0.28682652
244	0x3d0d20d9	0.034455154
245	0xbf040ba2	-0.5158025
246	0x3eb24006	0.3481447
247	0x3ec52e4e	0.3851189
248	0xbeebbb0b	-0.4604114
249	0x3f8e0e71	1.1098157
250	0xbe0586eb	-0.13039748
251	0xbe16d92f	-0.14731286
252	0x3e8945ec	0.2681116
253	0xbd22ef3c	-0.039778933
254	0x3d851148	0.06497437
255	0xbe3f4bd6	-0.18681273

module.conv_layers.2.weight f4 [64, 64, 1, 1]
0	0x3f1f2095	0.6215909
1	0x3f86299b	1.0481447
2	0xbf0b7518	-0.54475546
3	0x3d397bd5	0.04528411
4	0xbe8c86d6	-0.27446622
5	0x3e18fba1	0.14939739
6	0xbedafebd	-0.42772475
7	0x3e511cb4	0.20421106
8	0x3ed1b864	0.4096099
9	0xbf3eb7c3	-0.7449915
10	0x3e426bf6	0.18986496
11	0xbcb1923a	-0.021676172
12	0xbe3dd03e	-0.1853647
13	0xbcf01ee2	-0.029311601
14	0xbeda9632	-0.42692715
15	0x3e0e5cf6	0.1390265
16	0x3ecc6627	0.39921686
17	0xbebfa125	-0.3742763
18	0xbe298e5e	-0.16558215
19	0x3e5510d0	0.20807195
20	0x3ed58075	0.41699567
21	0x3e3ae0d3	0.18249826
22	0xbcbb1257	-0.022835894
23	0x3da61cbe	0.08110951
24	0xbf83ccf5	-1.0296923
25	0x3e70c232	0.2351158
26	0x3f17f68c	0.59360576
27	0xbe646ad6	-0.2230638
28	0x3efaef6a	0.49010783
29	0xbf21cd05	-0.6320346
30	0xbf41a6d4	-0.75645185
31	0xbe7dfcd7	-0.24803482
32	0x3f7666de	0.9625071
33	0xbf424191	-0.75881296
34	0x3f9115bc	1.1334758
35	0xbee2bb96	-0.44283742
36	0x3e0c4f6a	0.13702169
37	0x3f0ba3ea	0.5454699
38	0x3e90f84b	0.28314433
39	0x3eeacd42	0.45859724
40	0xbe8106c1	-0.25200465
41	0x3d82f117	0.063936405
42	0x3e860de9	0.26182488
43	0x3c01234a	0.007881949
44	0x3e8bd54d	0.27311173
45	0xbebfe545	-0.37479606
46	0xbe618336	-0.22022709
47	0xbe34d7fc	-0.17660517
48	0x3ea33b55	0.31881204
49	0xbdd3f5bf	-0.10349607
50	0xbda2d268	-0.07950288
51	0x3ea78e4d	0.32725754
52	0x3df7aa6c	0.12093052
53	0x3d2cd7a2	0.04219783
54	0x3deccffc	0.11563107
55	0x3eebae91	0.4603162
56	0x3f018118	0.50587606
57	0x3f0f3251	0.5593615
58	0x3f827ca6	1.019429
59	0x3f0fec9d	0.5622042
60	0x3ddfb1c6	0.109225795
61	0x3e97419e	0.2954225
62	0xbe456fc0	-0.1928091
63	0xbdcc1e4c	-0.09966716
64	0x3efccac2	0.49373442
65	0x3d32ddf3	0.0436687
66	0xbeab4a0c	-0.3345493
67	0xbe411bb6	-0.18858227
68	0xbcaed2dc	-0.02134078
69	0xbe28f92a	-0.16501299
70	0x3dfc3cf3	0.12316313
71	0xbdf9b8d3	-0.121934555
72	0x3f0fb9b4	0.56142735
73	0x3f2e8375	0.6816934
74	0xbe0ca109	-0.13733305
75	0x3e82617a	0.25464994
76	0x3e17d4b3	0.14827232
77	0xbe5e12ef	-0.2168691
78	0xbf0283b4	-0.50982213
79	0x3e859768	0.26092076
80	0x3e4f869f	0.20266198
81	0x3ef17ed4	0.47167075
82	0xbea6b78a	-0.32561904
83	0x3e8fe650	0.28105402
84	0xbc0dcbbc	-0.008654531
85	0xbe5d422e	-0.21607277
86	0xbf37f0b7	-0.71851677
87	0xbf38f168	-0.72243357
88	0xbf1d7428	-0.61505365
89	0x3eb3ed01	0.35141757
90	0x3ecff690	0.406178
91	0x3f0d412d	0.55177575
92	0xbd6bd5bf	-0.05757689
93	0x3e725be4	0.23667866
94	0xbe6465ae	-0.22304413
95	0xbed73438	-0.42032027
96	0x3e7f7cd3	0.2494996
97	0xbe3ca9d5	-0.18424161
98	0x3ec76eab	0.3895162
99	0xbdb67d3f	-0.089106075
100	0x3eaa218d	0.33228722
101	0x3f5dd5fd	0.86654645
102	0x3df1fb7c	0.11815545
103	0x3e9c9700	0.30583954
104	0xbf0b2417	-0.54351944
105	0xbf07446f	-0.52838796
106	0x3ebca71e	0.3684625
107	0xbe8dcf7d	-0.27697363
108	0x3e0f9764	0.14022595
109	0xbd0fb1b8	-0.035081595
110	0xbdddbcd7	-0.10827034
111	0x3e19c295	0.15015633
112	0x3f525d75	0.82173854
113	0xbe7f934b	-0.24958532
114	0x3fa10a3d	1.258125
115	0x3f21e5ef	0.63241476
116	0x3eab92e9	0.3351052
117	0x3dd4a7d6	0.10383575
118	0x3ed48230	0.41505575
119	0x3f170ad5	0.59000903
120	0x3f32dbf7	0.6986689
121	0xbeab0e0d	-0.33409157
122	0x3e4397d6	0.1910089
123	0x3e93b4d3	0.28848895
124	0xbddeeca6	-0.10884981
125	0x3e74bd77	0.239004
126	0x3e7ec0be	0.24878213
127	0x3ef1bd03	0.47214517
128	0xbf5d944d	-0.86554414
129	0xbe07c20b	-0.13257615
130	0xbe485a4a	-0.19565693
131	0x3ea35291	0.3189893
132	0x3e0f0645	0.13967235
133	0xbdae75f5	-0.08518592
134	0xbf3f1cf6	-0.74653566
135	0xbcf24feb	-0.029579123
136	0xbf85e8df	-1.0461692
137	0x3f6a6ac1	0.91569144
138	0xbfbbc2af	-1.4668788
139	0xbeda2424	-0.42605698
140	0x3d92c09b	0.07165643
141	0x3f68145f	0.90656084
142	0xbf09a295	-0.53763705
143	0x3e56319e	0.20917365
144	0xbeabe224	-0.3357097
145	0xbdd49dea	-0.10381682
146	0x3e4de927	0.20108472
147	0xbe465953	-0.19370012
148	0xbd7dc4b2	-0.06195516
149	0xbc03edc5	-0.008052294
150	0xbd953f95	-0.07287518
151	0x3db74cb0	0.08950174
152	0x3d30ebea	0.043193735
153	0xbe1cd735	-0.1531647
154	0xbf801ed5	-1.0009409
155	0x3e527b15	0.20554765
156	0xbf19f6ae	-0.6014203
157	0x3db47efc	0.08813283
158	0xbe329c49	-0.1744243
159	0x3ea6a30b	0.32546267
160	0x3e31ed4b	0.17375676
161	0x3dab6eb7	0.083707266
162	0xbe8ab6bb	-0.27092537
163	0xbeae41cd	-0.34034577
164	0xbf9eef83	-1.2416843
165	0xbf983623	-1.1891521
166	0xbea4b3c5	-0.32168403
167	0xbdecbd89	-0.115595885
168	0x3f95ebea	1.171262
169	0x3e7b6d48	0.24553406
170	0xbec81425	-0.3907787
171	0x3efead34	0.49741518
172	0x3dc8c0f3	0.09802427
173	0xbe281044	-0.16412455
174	0x3e112ec6	0.14177999
175	0x3e230b51	0.15922286
176	0x3d0f87e0	0.03504169
177	0x3eb91e56	0.36155957
178	0xbb90a59a	-0.0044142725
179	0xbf1ed5ae	-0.620448
180	0x3f071ffe	0.5278319
181	0x3ed10df4	0.40830958
182	0xbec92702	-0.39287573
183	0xbebc41d6	-0.3676898
184	0x3eff1cd9	0.49826697
185	0xbde80a19	-0.11330051
186	0xbeac02b1	-0.33595803
187	0x3ebe19dc	0.37129104
188	0xbe8d8b02	-0.27645117
189	0xbea2be1e	-0.31785673
190	0x3e6fb91f	0.23410462
191	0xbedb181a	-0.42791826
192	0xbf119c85	-0.56879455
193	0x3edea3ec	0.43484437
194	0xbe5fba87	-0.21848498
195	0x3ea4b9f9	0.32173136
196	0xbe836468	-0.2566254
197	0xbe5d7829	-0.21627869
198	0xbe697971	-0.22800232
199	0xbf3a8586	-0.7285999
200	0xbedff917	-0.43744728
201	0x3f61fe9b	0.8827912
202	0xbf143915	-0.578996
203	0x3df45d34	0.119318396
204	0xbf23fb28	-0.6405511
205	0x3f1b9fe7	0.60790867
206	0xbf2cd807	-0.6751713
207	0x3e327bee	0.17430088
208	0x3ec9f608	0.3944552
209	0xbd66be3c	-0.056333765
210	0x3e00795c	0.12546295
211	0x3e64fbd6	0.22361693
212	0xbbac19aa	-0.005252083
213	0x3e23ac54	0.15983707
214	0xbf39d3e2	-0.7258893
215	0xbebb6604	-0.3660127
216	0xbf19694e	-0.5992631
217	0xbe137f05	-0.14403923
218	0xbf2e4f16	-0.68089426
219	0xbf32baf0	-0.69816494
220	0x3dd0d029	0.101959534
221	0xbe24784e	-0.16061518
222	0x3ea55b71	0.32296327
223	0xbd8254e4	-0.06363848
224	0x3e3397ec	0.17538422
225	0xbdc6d32f	-0.09708249
226	0x3e8d8adf	0.27645013
227	0xbeb34cb7	-0.35019466
228	0xbe2ce2e2	-0.16883424
229	0xbf696848	-0.91174746
230	0xbed8a222	-0.42311198
231	0x3dab1f20	0.08355546
232	0x3ea89a49	0.3293021
233	0xbe0e75a8	-0.1391207
234	0xbed9ee92	-0.42564827
235	0x3e472f3d	0.19451614
236	0x3d9c431a	0.07629986
237	0xbf26f28d	-0.65213853
238	0x3f366006	0.7124027
239	0x3e7b543d	0.24543853
240	0x3ec68fbd	0.3878154
241	0x3d937641	0.072002895
242	0xbe59a8de	-0.21255824
243	0x3e9096b8	0.2823999
244	0xbd1a59f0	-0.037683427
245	0x3f3d37b0	0.739131
246	0x3dfd33b9	0.12363381
247	0xbf026247	-0.5093121
248	0x3da388c9	0.07985074
249	0xbdeb7bdd	-0.114982344
250	0xbea53460	-0.3226652
251	0x3f4be009	0.79638726
252	0x3e05620f	0.13025688
253	0xbc89d4f5	-0.016825179
254	0x3de0b2b7	0.10971587
255	0xbf5e2ffe	-0.8679198

module.conv_layers.3.weight f4 [64, 64, 1, 1]
0	0xbebf11e8	-0.3731835
1	0xbe1f6081	-0.15564157
2	0x3d9b588e	0.0758525
3	0xbbc1aa63	-0.0059102043
4	0x3e9b83e7	0.3037407
5	0x3e80d52c	0.25162637
6	0x3dd8b1b1	0.10580767
7	0x3e118905	0.14212425
8	0xbb19e3c2	-0.0023481702
9	0xbdfc59f9	-0.123218484
10	0xbe9d6ad9	-0.3074558
11	0xbe71e015	-0.23620637
12	0x3e90b0c7	0.2825987
13	0x3deaceb3	0.11465206
14	0x3d6dd302	0.05806256
15	0x3c31e2a0	0.010857254
16	0x3efc3459	0.49258688
17	0xbd09a15b	-0.033601146
18	0x3d8020b6	0.06256239
19	0x3ef7e63e	0.48417848
20	0x3e0cf3f9	0.13764943
21	0xbf97e128	-1.1865587
22	0x3e41c8a0	0.18924189
23	0x3db3831f	0.08765244
24	0xbf14e976	-0.58168733
25	0xbc9fa974	-0.019489981
26	0xbef4a32f	-0.4778075
27	0xbdd45929	-0.103685685
28	0xbcfd751f	-0.030939637
29	0x3e447420	0.19184923
30	0x3eca7507	0.3954241
31	0x3da841d3	0.0821568
32	0xbfcdeaf3	-1.6087326
33	0xbd200b3f	-0.039073225
34	0x3e849221	0.25892738
35	0x3e8a26ba	0.2698267
36	0x3dfdbb18	0.12389201
37	0x3ef9ee98	0.48814845
38	0xbd695f23	-0.056975495
39	0xbe0c7529	-0.13716568
40	0xbd2ae6fd	-0.041724194
41	0xbe36dc40	-0.17857456
42	0x3c36f8de	0.011167733
43	0xbdf46326	-0.119329736
44	0x3e6ec375	0.23316748
45	0x3e506547	0.20351134
46	0x3c21e112	0.009880321
47	0xbdc6cafc	-0.09706685
48	0x3e074fd3	0.13214044
49	0xbe528ddb	-0.20561926
50	0x3e24bf6c	0.16088647
51	0x3e4d9c1a	0.2007908
52	0x3d0366bf	0.03208041
53	0x3ecb981a	0.39764482
54	0x3d815a29	0.06316025
55	0xbdebb968	-0.11509973
56	0x3e2d209a	0.16906968
57	0xbe96b5a1	-0.29435447
58	0x3de61f07	0.11236387
59	0xbf0d343e	-0.5515784
60	0xbf76b856	-0.96375024
61	0xbf3c6884	-0.7359698
62	0xbf2564ee	-0.6460713
63	0x3eabca9f	0.33553025
64	0x3fc49ea2	1.5360911
65	0x3e39a842	0.18130592
66	0xbd47fadf	-0.048823234
67	0x3f195491	0.59894663
68	0x3e57f74e	0.21090433
69	0xbdf565b7	-0.11982291
70	0xbfc83481	-1.5641023
71	0xbf8e40ed	-1.1113564
72	0x3b3c55e3	0.0028737716
73	0x3ed1d7fe	0.409851
74	0x3f346473	0.70465773
75	0xbd3995a5	-0.045308728
76	0x402a45d6	2.6605124
77	0x3fa4537e	1.283798
78	0xbf9a1bb8	-1.2039709
79	0x40166c70	2.3503685
80	0x3f885550	1.0651035
81	0x3e295310	0.16535592
82	0xbea457ac	-0.32098138
83	0x3f0048bc	0.50110984
84	0xbf926ef5	-1.1440111
85	0x3d4dee3f	0.050276037
86	0x3c11aa4f	0.008890702
87	0x3eb94462	0.36184984
88	0xbe0ad2eb	-0.13557021
89	0x40783117	3.8779962
90	0x3f35b126	0.7097343
91	0x3f9b359d	1.2125736
92	0x3ea3ebcb	0.32015833
93	0x3f88b710	1.0680866
94	0x402bbbe1	2.6833422
95	0x3f2d544a	0.6770674
96	0xbdd33c83	-0.10314276
97	0x3f70f051	0.94116694
98	0x40539b55	3.3063557
99	0x3f8fb765	1.1227843
100	0x401025b6	2.2523017
101	0x3f0e41a1	0.5556889
102	0x3e1d6c9d	0.15373464
103	0x40489e71	3.1346705
104	0x3d555395	0.052081663
105	0x3df88b06	0.121358916
106	0x3ed29e0a	0.411362
107	0x3f94d688	1.162797
108	0x3ecf8503	0.40531167
109	0x3db81689	0.08988673
110	0x4022960a	2.5404077
111	0x3df9b9af	0.121936195
112	0x3d4a1c3e	0.04934334
113	0x40094c4a	2.1452813
114	0x40253786	2.581514
115	0xbf6400e4	-0.8906386
116	0x3fe559df	1.7918051
117	0x3f57ef94	0.8434994
118	0xc01d0306	-2.4533095
119	0x3dc8e7c5	0.098098315
120	0x3f845ca0	1.0340767
121	0x3f894d3c	1.0726695
122	0x3fe47a43	1.7849811
123	0xbe9d04b6	-0.30667657
124	0xbe42639d	-0.18983312
125	0xbe794416	-0.24342379
126	0x3e8d2a8d	0.27571526
127	0xbeb6aa52	-0.3567682
128	0x3ac157d6	0.0014750909
129	0xbeb604cd	-0.35550538
130	0xbe546334	-0.20740968
131	0xbe829e13	-0.25511226
132	0xbec58ede	-0.38585562
133	0xbd48a571	-0.048985902
134	0x3e50165a	0.20321026
135	0x3e14174e	0.14462015
136	0x3e7b3874	0.24533254
137	0xbc870e85	-0.016486416
138	0x3ce01b0a	0.027356643
139	0xbdf91deb	-0.121639095
140	0x3ec1bfa7	0.37841532
141	0x3eb00905	0.3438188
142	0xbeb83c9e	-0.35983747
143	0x3e03bc25	0.1286474
144	0x3ef3c648	0.47612214
145	0x3b824c5f	0.0039763893
146	0x3ecda955	0.40168253
147	0x3ea52af3	0.3225933
148	0x3e42acb3	0.19011192
149	0xbef316b8	-0.4747827
150	0xc03d05ea	-2.953486
151	0x3e8ebcb5	0.27878347
152	0xbee07f67	-0.438472
153	0x3bb213a8	0.005434472
154	0xbe5845ee	-0.21120426
155	0x3e5bc7f4	0.21462995
156	0x3e8788f2	0.26471668
157	0x3ebc6c12	0.368012
158	0x3de7c344	0.11316541
159	0x3e19eaa9	0.15030922
160	0x3c0d6318	0.008629583
161	0xbdb0a7d9	-0.086257644
162	0x3e82067b	0.2539557
163	0x3e5f0a14	0.21781188
164	0x3e32d1db	0.17462866
165	0xbf3750cb	-0.71607655
166	0xbeb093b9	-0.34487703
167	0xbe31398b	-0.17307107
168	0xbe756328	-0.23963606
169	0xbe48d394	-0.1961196
170	0x3d167739	0.036734793
171	0x3df3f830	0.119125724
172	0x3e9b85f8	0.30375648
173	0xbd118bb9	-0.03553364
174	0x3ce3864b	0.027773997
175	0x3dbb0adc	0.09132931
176	0xbe79794d	-0.24362679
177	0xbe27356f	-0.16328977
178	0x3e8911c5	0.2677137
179	0x3ec68146	0.38770503
180	0xbd3e3d8b	-0.04644541
181	0x3ec4b69e	0.38420576
182	0x3dbc97a6	0.09208612
183	0x3da8d958	0.0824458
184	0x3ef9dbff	0.48800656
185	0xbd56481c	-0.052314863
186	0x3cf2d7bf	0.029643891
187	0x3ec1f739	0.37883928
188	0x3eaccd93	0.3375059
189	0x3e1d9e09	0.15392317
190	0xbe501950	-0.20322156
191	0xbe1c10e6	-0.15240821
192	0xbf2fcb11	-0.6866923
193	0xbf300cb5	-0.6876939
194	0x3e79fba5	0.24412401
195	0xbee45a96	-0.44600362
196	0xbe87b172	-0.26502568
197	0xbe8675d9	-0.26261786
198	0xbd8abba9	-0.067740746
199	0xbe0e6ae5	-0.13907965
200	0x3e7d3e87	0.24730884
201	0x3eb61d98	0.35569453
202	0x3def98af	0.11699044
203	0x3ec7fbcc	0.39059293
204	0x3ea30e07	0.3184664
205	0xbeb6c10d	-0.3569416
206	0xbe6014af	-0.2188289
207	0xbd90de78	-0.070736825
208	0x3ea4e44f	0.32205436
209	0x3ee47ffb	0.4462889
210	0xbdcbe770	-0.099562526
211	0x3ed9c624	0.42533982
212	0xbcfe8fec	-0.031074487
213	0xbea2a02c	-0.31762826
214	0xbf658fb1	-0.8967238
215	0x3e8736b7	0.26408932
216	0xbdb17fe6	-0.08666973
217	0xbe5f39a3	-0.2179933
218	0xbe96f960	-0.29487133
219	0x3e25f6ec	0.16207474
220	0x3e82f011	0.2557378
221	0x3e4e8205	0.20166786
222	0x3eb5d6c6	0.35515422
223	0xbf2b4332	-0.66899407
224	0xbe177ac1	-0.1479292
225	0xbf622787	-0.88341564
226	0xbd2fcc55	-0.042919476
227	0xbf5175ae	-0.8182019
228	0x3e8f737a	0.2801779
229	0xbe1fdf8d	-0.15612622
230	0x3e64a18e	0.22327253
231	0x3e7d7b99	0.2475418
232	0xbef054a4	-0.46939576
233	0xbab9e82b	-0.0014183571
234	0xbdd571ec	-0.104221195
235	0xbd814778	-0.0631246
236	0x3e893ce8	0.2680428
237	0xbeb11fa0	-0.3459444
238	0xbc18f724	-0.009336267
239	0xbee50170	-0.4472766
240	0xbe86f5c5	-0.26359382
241	0xbc850978	-0.016239867
242	0x3e7181df	0.23584698
243	0x3d80c2bb	0.06287142
244	0x3e3848e2	0.17996553
245	0x3c9f3439	0.019434081
246	0x3e80203f	0.25024602
247	0xbe98d4ca	-0.29849845
248	0x3b8df452	0.0043321038
249	0x3f097400	0.53692627
250	0xbed1d91e	-0.4098596
251	0xbdeebd0a	-0.1165715
252	0x3dd47605	0.10374073
253	0xbe9a2feb	-0.30114684
254	0x3e8a8e3b	0.27061638
255	0xbe17cca4	-0.14824158

module.conv_layers.4.weight f4 [64, 64, 1, 1]
0	0xbe8c29f1	-0.2737575
1	0x3c5db538	0.013531975
2	0xbd6bba3f	-0.057550665
3	0xbe42494a	-0.1897327
4	0x3b0063a3	0.0019590638
5	0x3e560d32	0.20903471
6	0xbdd990c6	-0.106233165
7	0x3e7ac491	0.24489047
8	0xbe2b482e	-0.16726753
9	0x3eb3ba8d	0.35103264
10	0x3db86540	0.09003687
11	0x3db5a8c9	0.08870084
12	0x3e01270d	0.12612553
13	0xbeda1ff7	-0.42602512
14	0xbe655cf0	-0.22398734
15	0x3e065ec3	0.13122086
16	0xbec4a4e3	-0.3840705
17	0xbdd72269	-0.1050461
18	0x3dc12301	0.094305046
19	0xbe996617	-0.299607
20	0xbd1e25f2	-0.038610406
21	0xbdd02a49	-0.10164315
22	0xbeff3224	-0.49842942
23	0x3d7e2f4b	0.06205682
24	0xbe8ec05e	-0.2788114
25	0xbd38d1cf	-0.045121964
26	0xbdd5d1b0	-0.10440385
27	0xbe86790c	-0.26264226
28	0xbdc92785	-0.09821991
29	0x3e0bd96c	0.13657159
30	0xbef9ecba	-0.4881342
31	0x3b3667e8	0.002783293
32	0xbe5c83e5	-0.21534689
33	0xbe6ee101	-0.2332802
34	0x3cd18e25	0.025580475
35	0xbdb805cf	-0.08985483
36	0xbe0c3b30	-0.13694453
37	0xbd94b3c6	-0.072608516
38	0x3e5b3684	0.21407515
39	0x3db9eea5	0.09078721
40	0xbe319d64	-0.17345196
41	0x3e356de1	0.17717697
42	0xbe1ebd6d	-0.15501948
43	0x3eadc2f6	0.33937806
44	0x3dc6a7e2	0.0969999
45	0xbe2c330e	-0.16816351
46	0xbcf6f9a4	-0.030148335
47	0xbe313bdf	-0.17307995
48	0xbdfbfbc0	-0.12303877
49	0xbe1fd7ef	-0.15609716
50	0x3d43de8c	0.04781966
51	0x3ddd87f8	0.108169496
52	0xbbebbc9d	-0.0071941153
53	0xbe0f4005	-0.13989265
54	0xbda2817e	-0.07934855
55	0x3d607c4c	0.05480604
56	0xbda811ae	-0.08206497
57	0xbd9fa9f8	-0.07796091
58	0xbdb17f83	-0.08666899
59	0xbe9a7386	-0.30166262
60	0xbdebba52	-0.11510147
61	0xbec497d4	-0.38397086
62	0x3ca11271	0.019662114
63	0xbe428627	-0.18996488
64	0x3e2167df	0.1576228
65	0xbef2e257	-0.4743831
66	0xbdeafcdd	-0.11474011
67	0x3e7bacf2	0.24577692
68	0xbfafb0e0	-1.3725853
69	0x3eb237a8	0.34808087
70	0x3ebc209b	0.36743626
71	0x3e658ce4	0.22417027
72	0xbeeb7edb	-0.4599522
73	0xbec601c1	-0.38673213
74	0x3f81717a	1.0112755
75	0x3d3fd8df	0.046837684
76	0xbe164ed1	-0.14678504
77	0xbeb21d82	-0.34788138
78	0x3e4cf4ae	0.20015213
79	0x3db33348	0.087500155
80	0x3e7caab9	0.246745
81	0xbf0768a4	-0.52894044
82	0x3daaddb7	0.0834307
83	0x3f82c834	1.0217347
84	0xbd9f3150	-0.077730775
85	0x3d667fd7	0.05627426
86	0x3e96a7d1	0.2942491
87	0x3e92fb6b	0.28707442
88	0x3f70233f	0.9380378
89	0x3f3757ab	0.71618146
90	0x3f3bedb7	0.734096
91	0xbe96768f	-0.29387328
92	0x3d767b7f	0.06017637
93	0x3f6d113b	0.92604417
94	0xbdf046fe	-0.11732291
95	0x3e98473a	0.29741842
96	0xbde59ca6	-0.11211519
97	0x3f122f6e	0.5710362
98	0xbdc95b89	-0.09831912
99	0x3f4b8075	0.79492885
100	0x3c93f95c	0.01806324
101	0x3f788068	0.9707093
102	0xbdac153c	-0.08402488
103	0xbf41602d	-0.7553738
104	0x3fe9f848	1.8278894
105	0x3f01f346	0.5076183
106	0xbd5cda03	-0.05391885
107	0xbf29b8a8	-0.6629739
108	0xbdeebaec	-0.11656746
109	0x3ee630e2	0.4495917
110	0x3f4a82d9	0.7910591
111	0xbed00c72	-0.40634495
112	0xbe1ff2a4	-0.15619904
113	0xbe4bb612	-0.19893673
114	0x3ec4a603	0.38407907
115	0x3f63ca5b	0.88980645
116	0x3e5a0486	0.21290788
117	0xbf3afd78	-0.7304301
118	0xbe0c5a8d	-0.13706417
119	0xbd250df2	-0.040296502
120	0x3d84165f	0.064495794
121	0xbdf07af2	-0.117422
122	0x3dbc0a74	0.09181681
123	0xbf86b779	-1.0524741
124	0x3fae2a3f	1.3606642
125	0x3c4fc8f4	0.012682188
126	0x3c80f1d1	0.015740307
127	0x3e535d43	0.20641045
128	0xbf554775	-0.8331216
129	0x3fcf56cb	1.6198362
130	0xbde3b20d	-0.11117945
131	0xbe905ad6	-0.28194302
132	0xbf43da93	-0.7650539
133	0xbeddd5a8	-0.4332707
134	0xbd01ecdf	-0.03172004
135	0xbd1b26fe	-0.037878983
136	0x3d4251ab	0.047441166
137	0x3cd5e7fc	0.026111595
138	0x3ef27eea	0.47362453
139	0xbba8470d	-0.005135423
140	0x3e589f28	0.21154463
141	0xbf1fa40a	-0.6235968
142	0x3e62ef22	0.22161534
143	0x3bbbb87c	0.0057287794
144	0xbe3b55c6	-0.18294439
145	0x3cf2bd1d	0.029631192
146	0xbf968239	-1.1758491
147	0xbf87e69f	-1.0617255
148	0x3f4bf842	0.79675686
149	0x3e80d242	0.25160414
150	0xbf0fd792	-0.5618831
151	0xbf600121	-0.8750172
152	0x3ecfc8fd	0.4058303
153	0xbe6115d1	-0.21980979
154	0x3d5dab54	0.05411847
155	0xbe742173	-0.23840885
156	0x3e24c80e	0.1609194
157	0xbdf8a757	-0.121412925
158	0xbe954b2f	-0.29158923
159	0x3f87dbf4	1.0613999
160	0x3d35bb15	0.04436787
161	0xbce09d18	-0.027418658
162	0xbf11e2c4	-0.5698664
163	0xbb2988e4	-0.0025868947
164	0x3facbbe5	1.3494841
165	0x3e27ef8a	0.1639997
166	0x3de2cc0a	0.110740736
167	0x3e4ba972	0.19888857
168	0x3e81a51a	0.25321275
169	0xbecf9893	-0.40546092
170	0x3d5b3364	0.053515807
171	0xbec6d4a0	-0.38834095
172	0xbef87402	-0.48526007
173	0x3c500bf0	0.012698159
174	0xbf1a4f62	-0.6027738
175	0xbe04f6b8	-0.1298474
176	0xbf0437fa	-0.51647913
177	0xbed54f6e	-0.41662163
178	0x3e865fc4	0.26244938
179	0xbdad35da	-0.08457537
180	0xbe314386	-0.17310914
181	0x3e8173fe	0.25283808
182	0x3dc0104c	0.093781084
183	0xbf20794d	-0.6268509
184	0x3f8dcc65	1.1078001
185	0x3ddaf41a	0.1069109
186	0xbcd1b4c5	-0.025598893
187	0xbe568d49	-0.20952334
188	0x3fb14a43	1.3850788
189	0xbdce63e0	-0.100776434
190	0x3f3b7ef1	0.7324057
191	0x3f28d9b4	0.6595719
192	0xbdd727ec	-0.10505661
193	0xbe8084d6	-0.25101346
194	0x3d381d8b	0.04495005
195	0x3e6bd636	0.23030934
196	0xbe34db79	-0.17661847
197	0xbee45ea7	-0.44603464
198	0xbe9a43d0	-0.30129862
199	0xbf370771	-0.7149573
200	0x3ebea43e	0.37234682
201	0xbd3b4643	-0.045721304
202	0xbe807b71	-0.25094178
203	0xbd81fdca	-0.063472345
204	0xbe057a67	-0.13034974
205	0x3e735e57	0.23766457
206	0xbe5c43cf	-0.21510242
207	0x3df6f149	0.1205774
208	0xbd9b579d	-0.0758507
209	0xbda053e2	-0.078284994
210	0xbddf3aba	-0.10899873
211	0xbe6b8882	-0.23001292
212	0x3cca7b7b	0.024717083
213	0x3e04017b	0.1289119
214	0x3e6c04b2	0.23048666
215	0x3e4d9bf1	0.20079018
216	0x3a687127	0.00088669587
217	0x3d830968	0.063982785
218	0xbe5fc179	-0.21851148
219	0x3d620818	0.0551835
220	0x3e0041eb	0.12525146
221	0x3e811020	0.25207615
222	0xbec596b0	-0.38591528
223	0x3d4d37cf	0.05010205
224	0x3debe2b3	0.11517849
225	0x3bbf546c	0.0058389213
226	0xbda66b19	-0.08125896
227	0xbe65f9d2	-0.2245858
228	0xbcb5a89a	-0.022175122
229	0xbd370138	-0.044678897
230	0x3efb7643	0.49113664
231	0x3dcfd9ad	0.1014894
232	0xbdb0dd1e	-0.08635925
233	0xbe849599	-0.25895384
234	0x3da7e0e2	0.0819719
235	0x3b74a810	0.0037331618
236	0x3d57d9e8	0.052698046
237	0x3c796125	0.015220915
238	0xbe885065	-0.26623836
239	0xbda18ebb	-0.07888552
240	0xbd837f55	-0.06420771
241	0x3eb210d6	0.3477847
242	0x3ea0435c	0.3130139
243	0xbe9e58d1	-0.30927137
244	0xbe1d8273	-0.15381794
245	0xbdacf9f7	-0.084461145
246	0xbe9c1225	-0.30482593
247	0xbd3b0de5	-0.045667548
248	0xbe111266	-0.14167175
249	0xbdd3c1cf	-0.103397004
250	0xbed56674	-0.41679728
251	0x3de9a64a	0.1140867
252	0x3e4fd877	0.20297419
253	0xbe5c09ce	-0.21488115
254	0xbed163b0	-0.40896368
255	0x3d4d02c6	0.050051473

module.conv_layers.5.weight f4 [64, 64, 1, 1]
0	0xbe4a0485	-0.19728287
1	0xbbd00697	-0.006348442
2	0xbe9088e6	-0.28229445
3	0x3dedd782	0.116133705
4	0xbe2ba0e3	-0.16760592
5	0xbe18af10	-0.14910531
6	0x3e43c9fd	0.19120021
7	0x3d8544a7	0.06507235
8	0x3d159990	0.0365234
9	0xbe2eb092	-0.17059544
10	0x3d9081ed	0.070560314
11	0xbe3fe5d7	-0.1874002
12	0x3b212831	0.0024590606
13	0x3d198ac4	0.037485853
14	0x3c49cfcd	0.01231761
15	0xbd8229d6	-0.06355636
16	0x3d47bd59	0.04876456
17	0xbe75c184	-0.23999602
18	0x3d73c244	0.059511438
19	0x3cbd569a	0.023112584
20	0xbeb5a29b	-0.3547562
21	0xbe4c0e40	-0.19927311
22	0xbe2c2b9b	-0.16813509
23	0xbdf62db0	-0.12020433
24	0xbe008ac4	-0.12552935
25	0xbe6eb6b4	-0.23311883
26	0xbd37e225	-0.044893403
27	0xbe52c42d	-0.20582648
28	0x3e27755c	0.16353363
29	0xbebea1df	-0.37232873
30	0xbe75120c	-0.23932666
31	0xbcbd8b44	-0.023137696
32	0x3b55c365	0.0032617685
33	0xbe3f53f9	-0.18684377
34	0xbd2474ec	-0.040150568
35	0x3de989da	0.11403246
36	0x3bc27ff9	0.0059356657
37	0xbe16e692	-0.14736393
38	0xbe459499	-0.19294967
39	0xbed0c7d8	-0.4077747
40	0xbe741cb0	-0.23839068
41	0xbebea0f0	-0.3723216
42	0xbd155bb1	-0.036464397
43	0xbdaf66e9	-0.085645504
44	0xbdde9612	-0.108684674
45	0xbe6c4b97	-0.2307571
46	0x3e4cdb88	0.2000562
47	0xbda462c1	-0.08026648
48	0xbe134040	-0.14379978
49	0xbe5b3372	-0.21406344
50	0x3d294830	0.04132861
51	0x3eef4753	0.46734104
52	0x3e1afe96	0.1513618
53	0xbb4f9f3e	-0.003168061
54	0xbed560bd	-0.41675368
55	0xbe488325	-0.19581278
56	0xbe94c350	-0.29055262
57	0xbcd44d79	-0.025915848
58	0x3e89fd20	0.26950932
59	0xbe12c613	-0.14333372
60	0x3e1e3a33	0.15451889
61	0xbe188177	-0.14893137
62	0xbe9e8843	-0.30963334
63	0xbed59180	-0.4171257
64	0x3daf5b3b	0.08562323
65	0x3e47760e	0.19478628
66	0x3eaf74e0	0.34268856
67	0x3e1f96fc	0.1558494
68	0xbf66d20a	-0.90164244
69	0x3f4ffecd	0.8124817
70	0xbf2efe5e	-0.68356884
71	0x3fa106ca	1.2580197
72	0x3ebc80a1	0.36816886
73	0x3e0f7c6c	0.14012307
74	0x3f2ddec0	0.67918015
75	0xbeb71ee6	-0.3576576
76	0xbcc83493	-0.024439132
77	0x3da26f97	0.0793144
78	0x3fbac867	1.4592408
79	0x3eb88b8f	0.36043975
80	0xbe697f49	-0.22802462
81	0x3eac0dd2	0.33604294
82	0x3f1c2df9	0.6100765
83	0x3eb91c92	0.3615461
84	0xbf12a785	-0.57286865
85	0x3e434fc9	0.19073404
86	0x3eef596b	0.46747908
87	0xbee62ba8	-0.44955182
88	0x3e286795	0.16445763
89	0x3ed3180c	0.41229284
90	0xbe0eca42	-0.13944343
91	0xbe684f0b	-0.22686402
92	0x3e6b7690	0.22994447
93	0x3f8519f9	1.0398551
94	0x3f27ecc8	0.65595675
95	0x3e9455c7	0.28971693
96	0x3e4e66c0	0.20156384
97	0x3ea19857	0.3156154
98	0xbf413218	-0.7546706
99	0xbe4a1502	-0.19734576
100	0x3eef6029	0.46753052
101	0xbf6efeff	-0.93357843
102	0x3e199f3d	0.15002151
103	0xbefb0296	-0.4902541
104	0x3da51730	0.08061063
105	0x3f13f0be	0.5778922
106	0x3e890ef1	0.26769212
107	0xbeb828e0	-0.35968685
108	0x3f10a0ea	0.56495535
109	0x3e2e8b25	0.17045267
110	0x3f0a4fdc	0.54028106
111	0xbe25c4f0	-0.16188407
112	0xbddb1f5f	-0.10699343
113	0xbf1f5673	-0.62241286
114	0x3dfdbb54	0.12389246
115	0x3ea8adee	0.32945198
116	0x3c6d7413	0.014493006
117	0x3f5f0f85	0.87133056
118	0xbe9ea1b2	-0.3098274
119	0xbf802b29	-1.0013171
120	0xbe87061d	-0.26371852
121	0x3f366098	0.7124114
122	0xbf73d8e4	-0.95252824
123	0x3ec0840d	0.37600747
124	0xbe2f66ad	-0.17129011
125	0x3f049f57	0.51805633
126	0xbe056062	-0.13025048
127	0xbcf6171a	-0.030040313
128	0x3e2cac20	0.16862535
129	0x3ef413b8	0.47671294
130	0x3ee8332f	0.4535155
131	0xbd17ca38	-0.037058085
132	0xbe6375de	-0.22212932
133	0xbea7fe23	-0.32811078
134	0xbeae14db	-0.34000286
135	0x3f616225	0.8804038
136	0x3ecddf12	0.40209252
137	0x3e8d49e4	0.27595437
138	0x3e08d724	0.1336332
139	0xbcc5ffee	-0.024169888
140	0x3f198f34	0.59984136
141	0xbcdf6e4d	-0.027274275
142	0x3ee10549	0.43949345
143	0xbd5398cc	-0.05165939
144	0x3e1e7333	0.15473633
145	0xbee3f539	-0.44523028
146	0x3e2cd620	0.16878557
147	0x3e1be3ab	0.15223567
148	0xbeedbb7c	-0.46432102
149	0xbefe8abd	-0.49715224
150	0x3dbd4e80	0.09243488
151	0xbdc654a1	-0.096841104
152	0xbcf073ad	-0.029352034
153	0x3e91b449	0.2845786
154	0x3d862f0c	0.06551942
155	0xbdda2e22	-0.106533304
156	0xbde5f2bd	-0.11227939
157	0xbf44021c	-0.7656572
158	0x3e12170a	0.14266601
159	0xbea93627	-0.33049127
160	0xbf071087	-0.52759594
161	0xbaea18f6	-0.0017860222
162	0x3d20e17e	0.039277546
163	0x3ec7a66b	0.38994154
164	0x3c6dd63e	0.014516411
165	0xbe05e5e4	-0.13075978
166	0x3e53f8cd	0.20700379
167	0xbe07c457	-0.13258491
168	0x3d3f0124	0.046631947
169	0xbe752017	-0.23938023
170	0xbf0b58ba	-0.5443226
171	0x3e67749c	0.22603077
172	0x3ed35216	0.41273564
173	0x3e19d5e7	0.15023004
174	0x3e98cf7e	0.29845804
175	0x3e05fb2f	0.130841
176	0x3f6af822	0.9178487
177	0xbeb81854	-0.3595606
178	0x3f55db32	0.8353759
179	0xbd6ce2f1	-0.057833616
180	0xbefcb463	-0.49356374
181	0x3ea40760	0.32036877
182	0xbe4b155d	-0.19832368
183	0xbe5ba088	-0.21447957
184	0xbdd3c25b	-0.10339805
185	0xbc4c138f	-0.012455835
186	0xbdf123b4	-0.11774388
187	0x3f1228ab	0.57093304
188	0xbe616be1	-0.22013809
189	0xbf808943	-1.0041889
190	0x3e460efc	0.19341654
191	0x3f16347d	0.5867384
192	0x3ea5cfd6	0.3238513
193	0xbd9c1446	-0.07621054
194	0x3e3656d1	0.17806555
195	0xbc82da2e	-0.015973177
196	0xbe4e4220	-0.20142412
197	0xbe5b4cb2	-0.21415976
198	0x3ec80d68	0.39072728
199	0x3f0375bf	0.5135154
200	0x3f7afd89	0.98043114
201	0x3e50139c	0.2031998
202	0xbcdb1c16	-0.02674679
203	0x3f54015d	0.8281458
204	0x3c51d95f	0.012808173
205	0xbe8a1999	-0.26972654
206	0x3cf803d8	0.03027527
207	0xbe5fd386	-0.21858034
208	0x3e998693	0.29985484
209	0x3d07387c	0.033012852
210	0xbd9b9965	-0.07597617
211	0xbe00d040	-0.12579441
212	0x3d5dcc13	0.0541497
213	0x3e4255a6	0.18977985
214	0xbe67e313	-0.22645216
215	0xbdb31503	-0.08744242
216	0x3fb88de3	1.44183
217	0x3f3cc386	0.73735845
218	0xbe9046a6	-0.281789
219	0x3e9477db	0.28997692
220	0xbdc9eb06	-0.0985928
221	0x3e88e94c	0.2674049
222	0x3bd9f7fa	0.0066518756
223	0x3ec56965	0.38556972
224	0xbdbcdde1	-0.092220075
225	0xbd9e6117	-0.07733362
226	0x3d8f9e1a	0.07012577
227	0xbd066435	-0.03281041
228	0xbdfc8b59	-0.12331266
229	0x3f370add	0.7150095
230	0x3f9515c5	1.1647269
231	0x3d55f959	0.05223975
232	0x3e9fb281	0.31190875
233	0x3e07ed1f	0.13274048
234	0x3d69f070	0.057114065
235	0x3ea3fba8	0.32027936
236	0x3e1a5336	0.15070805
237	0x3ea67a80	0.32515335
238	0xbc8a9c9d	-0.016920382
239	0x3e872cd2	0.26401383
240	0xbe066784	-0.13125426
241	0x3dc21f0f	0.0947858
242	0xbe42d24c	-0.19025534
243	0xbd773e16	-0.060361944
244	0xbe146d92	-0.14494923
245	0x3b876723	0.004132168
246	0xbe0a57ec	-0.13510102
247	0x3dec5747	0.11540084
248	0x3ea6c46e	0.3257174
249	0xbda6e697	-0.0814945
250	0x3df29bde	0.118461356
251	0xbe2c0cb2	-0.16801718
252	0x3e8f6750	0.2800851
253	0x3f87a89a	1.0598328
254	0x3f07017f	0.5273666
255	0xbe5581eb	-0.20850341

module.conv_layers.6.weight f4 [64, 64, 1, 1]
0	0xbde6c664	-0.11268309
1	0x3e46843b	0.1938638
2	0x3ddd05fe	0.107921585
3	0x3dd091b0	0.10184038
4	0x3ed18b5e	0.4092664
5	0x406db157	3.713949
6	0xbeee6ad7	-0.46565887
7	0xbec29f09	-0.3801196
8	0x3e845898	0.25848842
9	0x3ecd2d63	0.4007369
10	0x3e5e3743	0.21700768
11	0x3efe3aa2	0.49654108
12	0xbf2f8583	-0.685631
13	0xbdb6632e	-0.08905636
14	0x3f36c313	0.7139141
15	0x3e749f71	0.23888947
16	0xbd825833	-0.06364479
17	0x3f8b7073	1.0893692
18	0x3e3336b9	0.17501344
19	0x3e850b7f	0.25985333
20	0xbf3430de	-0.70387065
21	0x3e1bc18a	0.15210548
22	0x3e1eea5d	0.1551909
23	0xbe86fa20	-0.26362705
24	0x3eb379c4	0.35053837
25	0x3eab36cd	0.33440247
26	0x405013c4	3.2512064
27	0x3e417724	0.18893105
28	0xbe75894e	-0.23978159
29	0x3e014d50	0.12627149
30	0xbd0539fd	-0.032526005
31	0x3edeb869	0.4350007
32	0x4002948f	2.0403173
33	0xbf6b9799	-0.92028195
34	0xbf4f8379	-0.81059986
35	0xbdad5dff	-0.08465194
36	0x3f29cbcd	0.663266
37	0x3d282d33	0.04105873
38	0x3c0f7962	0.008756967
39	0xbcaca989	-0.021076934
40	0xbd7ddfae	-0.061980896
41	0xbe004fb9	-0.12530412
42	0xbf415308	-0.7551732
43	0x3f8bafc6	1.0913017
44	0x3f1b40b2	0.6064559
45	0x3e9b11cc	0.30287015
46	0xbea68c13	-0.32528743
47	0xbdd105ab	-0.10206159
48	0x3d6182dd	0.05505644
49	0x3cdda593	0.027056491
50	0xbe4c5fe8	-0.1995846
51	0xbeb436c9	-0.35198048
52	0x3f5ca18a	0.8618399
53	0xbee37bb8	-0.44430327
54	0xbe7d0c62	-0.24711755
55	0x3e041ee9	0.12902416
56	0x3f25213b	0.6450383
57	0x3e7097a6	0.2349535
58	0x3f1b7062	0.6071836
59	0xbf93c335	-1.1543947
60	0xbd77624f	-0.06039649
61	0x3e050fca	0.12994304
62	0xbe270083	-0.16308789
63	0xbefbd07b	-0.49182495
64	0x3c949033	0.018135166
65	0x3f868b57	1.0511273
66	0xbe225113	-0.1585124
67	0x3da12b71	0.07869614
68	0x3e92f740	0.28704262
69	0x3d732204	0.05935861
70	0x3f29f2c0	0.6638603
71	0x3e86b2c4	0.26308262
72	0x3cc9312c	0.02455958
73	0xbe330a07	-0.17484294
74	0x3e1b0726	0.15139446
75	0xbfb69765	-1.4264952
76	0x3ed1f224	0.4100505
77	0xbdf8bb28	-0.12145072
78	0x3f94a443	1.1612629
79	0xbe97f7ac	-0.29681146
80	0xbe27b090	-0.16375947
81	0x3f75891e	0.9591235
82	0xbeb7a7a9	-0.35870102
83	0xbf4454c7	-0.7669186
84	0x3f3d2f69	0.7390047
85	0x3ebb41c9	0.36573628
86	0x3eb1b7c3	0.34710512
87	0xbcac4c04	-0.02103234
88	0xbf09c56e	-0.5381688
89	0xbf6f2fa9	-0.934321
90	0x3e225413	0.15852384
91	0xbda9ec0e	-0.08296977
92	0xbf003a2e	-0.50088775
93	0x3de1a344	0.110174686
94	0x3ef8556a	0.48502666
95	0xbeeca4fb	-0.4621962
96	0x3f64a4d7	0.89314026
97	0xbf0689f4	-0.5255425
98	0xbefc8ba7	-0.49325296
99	0x3db8019b	0.08984681
100	0xbe65d721	-0.22445346
101	0x3ea59588	0.32340646
102	0xbddbdd57	-0.107355766
103	0xbe9e389e	-0.3090257
104	0x3da14e4c	0.07876262
105	0x3fab85d0	1.3400211
106	0xbf2ba768	-0.67052317
107	0xbefcc667	-0.4937012
108	0xbd852377	-0.06500905
109	0x3ede6a8b	0.4344066
110	0xbdccbfca	-0.09997518
111	0xbfb1b983	-1.3884739
112	0x3e7e3465	0.24824674
113	0x3d0ff918	0.035149664
114	0xbeabd4bb	-0.33560738
115	0x3e12f270	0.14350295
116	0xbf08a939	-0.53383213
117	0x3d3b79df	0.045770522
118	0x3f985681	1.1901399
119	0x3eb55e3d	0.3542346
120	0xbeb39f07	-0.35082266
121	0x3e749dac	0.23888272
122	0x3f1953f2	0.59893715
123	0x3f0bff8f	0.54686826
124	0x3e279c8f	0.16368316
125	0xbcf9e376	-0.03050397
126	0xbf61fc6d	-0.88275796
127	0xbe15a4d1	-0.14613654
128	0x3df2db95	0.11858288
129	0x3e168896	0.14700541
130	0xbf04e622	-0.51913655
131	0xbcb36fad	-0.021903837
132	0xbe43cda9	-0.19121422
133	0xbe8b5bb6	-0.27218407
134	0xbf6bcaf8	-0.9210658
135	0x3fbc1216	1.4693019
136	0x3f19029e	0.5976962
137	0xbf00e478	-0.50348616
138	0x3f279aa1	0.6547032
139	0xbf45776f	-0.77135366
140	0x3e80abf3	0.25131187
141	0xbed1ab52	-0.4095102
142	0x3e691c17	0.22764622
143	0xbd32bebb	-0.043638926
144	0xbe6d1c05	-0.2315522
145	0x3f516f82	0.8181077
146	0xbe8f64c9	-0.2800658
147	0xbd932b86	-0.07186036
148	0x3ece09cd	0.40241852
149	0xbdf98b6a	-0.12184794
150	0x3e0f2ac2	0.13981155
151	0x3bdcf95c	0.006743593
152	0xc03bd8e9	-2.9351141
153	0x3d55a26a	0.052156843
154	0xbe886e02	-0.2664643
155	0xbd4034cb	-0.046925347
156	0xbe9194a8	-0.28433728
157	0x3ebac2c3	0.36476716
158	0x3e980a34	0.29695284
159	0xbd497bb7	-0.04919025
160	0xbf19c414	-0.60064816
161	0xbfc417ff	-1.5319823
162	0xbed1c5c3	-0.40971193
163	0x3d1e0ada	0.038584568
164	0x3fca7dd1	1.5819646
165	0x3db2c5d2	0.087291375
166	0xbea8368a	-0.3285411
167	0x3e90c690	0.2827649
168	0x3d4a9edd	0.04946791
169	0x3e765a48	0.24057877
170	0xbe130f01	-0.14361192
171	0xbe2037ba	-0.15646258
172	0x3f151533	0.5823547
173	0x3e2f4cac	0.17119092
174	0x3f0f4cd1	0.5597659
175	0xbfe7b3d2	-1.8101752
176	0x3c2d216b	0.0105670495
177	0x3de469ce	0.11152993
178	0xbdfb86fe	-0.12281607
179	0x3ecbc1ed	0.3979639
180	0xc0079eae	-2.11906
181	0x3dee90b1	0.116486914
182	0xbe398341	-0.18116476
183	0x3e63d514	0.22249252
184	0xbe16f91e	-0.14743468
185	0x3e226a39	0.15860833
186	0x3ef0f89c	0.47064674
187	0x3ebe2051	0.3713403
188	0xbda451ae	-0.08023392
189	0x3eb80a0f	0.35945174
190	0x3d94ab12	0.072591916
191	0x3e9ce222	0.30641276
192	0xbdcec1aa	-0.10095532
193	0xbeeb066e	-0.45903343
194	0xbe2b2e6f	-0.16716932
195	0x3e2c0240	0.16797733
196	0xbe529233	-0.20563583
197	0x3e44593c	0.19174665
198	0x3e0bf36c	0.13667077
199	0x3e1e38f0	0.15451407
200	0x3f1ae731	0.6050902
201	0xbeb6f6f2	-0.3573528
202	0xbd55d5a0	-0.05220568
203	0xbe6648ed	-0.22488756
204	0x3e8c0664	0.27348626
205	0xbb96f38f	-0.004606671
206	0xbea0fae1	-0.31441405
207	0x3db9009c	0.09033319
208	0x3e458955	0.1929067
209	0xbdb967c9	-0.090529986
210	0xbae16d6e	-0.001719875
211	0x3dcb2c3c	0.099205464
212	0xbec12ab1	-0.37727883
213	0xbd90c51f	-0.07068848
214	0x3e59dd8e	0.21275923
215	0xbe36c2aa	-0.17847696
216	0xbdce22b7	-0.10065215
217	0xbdb90fcf	-0.090362184
218	0x3ee390ad	0.44446316
219	0x3e2015c0	0.15633297
220	0x3e9e7ee3	0.30956182
221	0x3c3af6b9	0.011411362
222	0x3de251ab	0.11050733
223	0x3cabbd55	0.020964304
224	0xbf07ded7	-0.530744
225	0xbde3d271	-0.11124123
226	0x3e92a125	0.2863857
227	0x40162a96	2.3463492
228	0xbe9b9c8c	-0.30392873
229	0xbe06abf6	-0.13151535
230	0x3dfea1c7	0.124332
231	0x3fb2d88e	1.3972337
232	0xbe3085e7	-0.1723858
233	0xbee0ccbc	-0.439062
234	0x3d184bbd	0.037181605
235	0xbd092552	-0.033482857
236	0xbf02b727	-0.5106072
237	0xbcc2688b	-0.02373149
238	0x3e1285f0	0.14308906
239	0xbd4cee00	-0.050031662
240	0x3d8b9d2b	0.06817087
241	0x3e9787b4	0.2959572
242	0xbd64a833	-0.05582447
243	0x3e869e66	0.26292723
244	0xbe07288d	-0.13199063
245	0xbdb374c7	-0.08762508
246	0x3e9ef533	0.31046447
247	0x3e9bafad	0.30407467
248	0x3e262b5c	0.16227478
249	0xbce34288	-0.027741686
250	0xbd419e04	-0.047269836
251	0x3e9d351b	0.3070458
252	0xbc7441e8	-0.014908291
253	0xbc4632ce	-0.012097074
254	0xbf09321e	-0.535921
255	0xbda22a48	-0.07918221
