denoisers/flat/celebA_160x160_gray/noise_range_0to255_RF_13x13/model.pt (torch, 871762 bytes, 59 tensors)

module.conv_layers.0.weight f4 [64, 1, 3, 3]
00000000: 014e 313e b457 623f 4f41 ee3d a07d 91be
00000010: c644 d6be 5136 16bf a5a8 90be 625d 3f3f
00000020: 3bc7 1b3f 3690 fd3e 473b 2a3d e4ec cbbe
00000030: ba54 0ebf 6733 6abf cc0e 95be a69b 893e
00000040: 5ac5 ab3e 7bbe 273f 5bec f4be df42 78bf
00000050: 5ad2 a03e b3f1 983e a107 3d3f 8625 313f
00000060: c7a2 2f3e 2671 cebe b489 4cbf 5e98 10be
00000070: 8ce8 2dbe 7ca8 46bf bfbe 613d cd33 91bd
00000080: 2d9a 333e 2380 5bbc c08c 98be a8bb 81bd
00000090: fdf4 943e 2521 a63e b53f 06bf 65d2 7a3d
000000a0: 4bb0 b53e acb9 ccbe 7076 38bf 3c3b 693d
000000b0: e8c3 0d3f 2162 bf3e e1c7 1ebf a731 3bbf
000000c0: af8e d3bf 0204 b9be 4124 d7bc 8d74 28bc
000000d0: 7647 ec3e 4a14 dfbe 3976 8d3f 523f 7c3f
000000e0: 05db 203e 051a e1be c4ab 5bbe 4596 febe
000000f0: c4a0 39be b358 8a3e 513e 69bf f9ea f93e
00000100: 3d4a ac3e ac03 80bf 7cfd 4a3f 4b1a 59be
00000110: a1e7 45be 009e df3e 956e c9be 8476 2b3d
00000120: 5235 893e 875b eabe b380 5f3d d2bd 643f
00000130: 93e1 23bf ee26 9d3e 5225 37bf 63ca 7c3f
00000140: c8d2 163f 726f 86bc 2610 1dbf 9c98 acbd
00000150: 4247 63be db1f b2be e91a 423f 7564 90be
00000160: f4cd e13d 7b4f 163f b521 84be e9fe 1b3e
00000170: 46b7 9c3e 3bff 2e3e 3c76 17bf 58ef 5bbc
00000180: 39b4 e43d 34c2 913d c6a9 813d 0f03 1cbe
00000190: e809 7e3e c1b6 2ebf 6f27 543e 2bc9 36be
000001a0: caf0 363e f1ab 453e f335 f2bd f2c4 883e
000001b0: ca1f 94be 2d98 f4be b75b a83e 2ab8 9e3c
000001c0: fd48 8d3d 7c54 b73e 062f 2abe c76b a8be
000001d0: 7c4b 043f ff20 94bd 0dfc 9ebe 2d90 883d
000001e0: 4dfc 263e 9c4e 043e 48f0 cc3e 7417 e13e
000001f0: 8b9e f3be 067d 433e 3430 fd3c 36cf 753f
00000200: 6065 f63e a16f 35bf c48d 31bf f52a 42bd
00000210: 5519 123e 959e 3e3e 354d 093f d487 3cbf
00000220: f99a 933e 1cd2 343e 2d20 093f 93a1 28bf
00000230: 53d0 813e 337f 963e f463 e6bc 6560 65be
00000240: 7553 003f e508 963e 8c31 9ebe 6aa1 02bf
00000250: 7909 10bf 8acd 443f 9c0a c03d 8d7f 2bbe
00000260: ae95 b73e 1883 e63d 7128 b03e 54da bdba
00000270: 26ae 723f 4e5c 6cbf b7a8 b83d d432 c53e
00000280: c9a3 4d3e 73d3 8b3d fe8c 333f f4f1 0b3e
00000290: c0be 43bf 6acc 173d f4a8 a5bc 8951 f33d
000002a0: 0b76 713c ce0f 7b3e 684f 09bf 008a 34bd
000002b0: 8e83 82be bc1d 523f c137 92be a6e6 26be
000002c0: eadc 00bf 0619 3fbf 75d5 6b3f bd81 ab3e
000002d0: 781f a3bf 5d32 503e d3cb 2f3e 527a 8ebf
000002e0: bf6b 2bbe 2db7 e4be e1f0 ed3e 141b 7bbe
000002f0: 83d9 b63e e2f1 ab3d 3e93 3abf c947 f8be
00000300: 7d8f e63d 4578 893e 2612 4fbf a368 373f
00000310: 0494 a3bd d6cb 933d f43d 37be c565 ba3d
00000320: 6964 843d 2d52 a3be 80c1 52bf 8a29 9bbe
00000330: 2050 b4be 1f7c 0fbf ea00 cabe 48f1 81bd
00000340: 96ce 703d 372d 013f 2a3f 433f abce 1fbd
00000350: cb71 4c3f 0394 1abe c73a febe 6c08 e53e
00000360: 67f5 583f 5e06 f23d 0eac 75bf 86ad 0dbd
00000370: 3f5c 06be c26f 5c3d 9254 123f 0412 48be
00000380: 61bd a5be 7fbf 0fbf 1e7b b4be 4abf ca3e
00000390: 0deb cc3e 2915 a7be de10 213f 8005 34bf
000003a0: e08b 053f 54d7 7d3e 5cb8 f83e 1ec9 7fbe
000003b0: 7b40 163e f8ef 453f df80 803e cbf7 28be
000003c0: a20c 34be 6de2 f0bb 4813 833d 48e0 18bc
000003d0: b5ad 873d f411 773d 67d5 1bbf 6a96 283f
000003e0: ac9c 9e3e 83a9 3c3f 1bf4 8fbe 7494 7fbd
000003f0: df4c a9be 3043 383f ab2f 883c 62cb 38bf
0.17314912 0.88415074 0.116335504 -0.28416157 -0.41849345 -0.5867663 -0.28253666 0.74751866
0.60850877 0.49524087 0.041560438 -0.3982917 -0.5559803 -0.91484684 -0.29112852 0.26876563
0.33549005 0.65525025 -0.47836575 -0.9697704 0.31410486 0.29871902 0.73839766 0.6919788
0.17151938 -0.403207 -0.7989762 -0.14120623 -0.16983241 -0.77600837 0.05511355 -0.07089958
0.17539282 -0.013397249 -0.29794884 -0.06334621 0.2909316 0.32447162 -0.5244096 0.061235804
0.35486063 -0.39985406 -0.7205572 0.056941256 0.55377054 0.37379554 -0.6202374 -0.7312264
-1.6527919 -0.3613587 -0.026262404 -0.010281694 0.4614827 -0.43570167 1.1051704 0.9853412
0.1570855 -0.43965164 -0.21452242 -0.49724022 -0.18127733 0.27020797 -0.9111071 0.48812082
0.3365039 -1.000112 0.79293036 -0.21201436 -0.1932664 0.43675232 -0.3934218 0.041861072
0.26798493 -0.45772955 0.054566097 0.8935214 -0.64016074 0.30693763 -0.7154132 0.9874632
0.58915377 -0.016410563 -0.61352766 -0.084275454 -0.22195151 -0.3478993 0.7582231 -0.28201643
0.110256106 0.5871503 -0.25806966 0.1523396 0.30608577 0.1708955 -0.59164786 -0.013423763
0.11167187 0.071171194 0.0633121 -0.15235542 0.24808466 -0.6824761 0.20718168 -0.17850177
0.17865291 0.19303872 -0.11826696 0.26712757 -0.28930503 -0.4777235 0.32882473 0.019374926
0.06898687 0.35806644 -0.166195 -0.32894728 0.5167768 -0.07232856 -0.31051674 0.06668124
0.16307183 0.12920612 0.4002707 0.43963206 -0.47581896 0.19090661 0.030906774 0.96019304
0.48124218 -0.7087346 -0.6935694 -0.04740425 0.14267476 0.18615182 0.53633434 -0.7364476
0.28829172 0.17658275 0.5356472 -0.6587154 0.2535425 0.2939392 -0.028123833 -0.22400053
0.50127345 0.2930366 -0.30897176 -0.5102755 -0.56264454 0.7687613 0.093770236 -0.16747876
0.35856384 0.11255473 0.34405854 -0.0014484623 0.9479698 -0.92328346 0.09016555 0.3851534
0.2008201 0.0682744 0.7013701 0.13666517 -0.76462936 0.03706018 -0.020222165 0.11880786
0.014737616 0.24517748 -0.5363679 -0.04407692 -0.25490993 0.8207662 -0.28558162 -0.16298923
-0.5033709 -0.7464756 0.92122585 0.3349742 -1.2743979 0.20331712 0.17167597 -1.1131079
-0.1674032 -0.44671002 0.4647284 -0.24522048 0.35712823 0.08395745 -0.72880924 -0.48492268
0.11257837 0.2684957 -0.8088707 0.7164404 -0.07987216 0.07216613 -0.17894727 0.09101442
0.06464464 -0.31898633 -0.8232651 -0.3030513 -0.3521738 -0.5604877 -0.39453822 -0.06344849
0.058790766 0.5045962 0.76268256 -0.039015453 0.79861134 -0.15095524 -0.4965422 0.44732988
0.84749454 0.11817621 -0.9596566 -0.034589313 -0.13121127 0.053817518 0.57160294 -0.19538122
-0.32371047 -0.56151575 -0.3525018 0.39599067 0.4002308 -0.3263333 0.6291636 -0.7032089
0.5216656 0.24789172 0.48578155 -0.24979064 0.14673035 0.7731929 0.2509832 -0.16500776
-0.17582944 -0.007351211 0.06400162 -0.009330817 0.06624929 0.060319856 -0.608725 0.65854514
0.30978906 0.73696154 -0.28115925 -0.062397435 -0.3306646 0.7197752 0.016624292 -0.7218534

module.conv_layers.1.weight f4 [64, 64, 1, 1]
00000000: 7003 af3e 5d72 80bd 12dd afbe 2bb8 5bbe
00000010: c4b1 353f 5f41 8c3e fb6c 593d 55bc 20be
00000020: cbc7 9a3e bb5b 053a 339c db3d 3c64 30be
00000030: 694a 98bc 77ca 7dbd 941a 84be 74b1 503e
00000040: 7f31 44be dad0 913e 26b0 44bf ef5e 823f
00000050: 2a70 303e 4d0e aabe 47cc 973e aae2 093e
00000060: 4c17 4cbf 0168 023e 67f3 593e 26cd 2dbd
00000070: 7a5d 18bf 9fbe d0bb bb50 b53c 63ba c2be
00000080: b682 4d3d 38c1 a83d 92ad a9be f36b dc3d
00000090: 0c51 713d 7c85 403d 7965 84be 5035 953e
000000a0: 25ba 143e 36e5 0abd 9d58 59bc 6074 743e
000000b0: 4241 dfbd 7ce3 00be 5e16 d53e cc32 f93e
000000c0: ea22 2f3e 2111 17bd 4876 8cbb ada7 bc3e
000000d0: 5e71 f9be f62b dc3e 8f34 aebd daf8 083e
000000e0: cfe3 ea3d 4f90 47bd bfc8 443f f2eb 21be
000000f0: cf09 eabd 0357 fb3d 450c 3abd a4a4 1bbd
00000100: 8175 3b3f f633 bebd 4535 5b3d 2452 47be
00000110: 5946 1cbd 13e0 763d 2746 983d 02dc 6abe
00000120: 8f92 273d 17aa cb3c 04c6 143e 8268 483e
00000130: 6477 66be 1556 443e b534 853e 0bfd c938
00000140: a64d 9e3e aeb1 24bd 6e1c 81bc 83eb 8d3e
00000150: f1ef 63be ab04 c4be fe20 593d 22c3 50be
00000160: 726c abbe 2f80 bdbd babf 9abc c9fd 01be
00000170: ada5 213e 47bd d4be 141c d6be 874d 8d3d
00000180: 4e55 dd3e b6cd f9bd cfac 5fbe 7b0f 7a3d
00000190: 205d a4be 7381 b5bd bc6f 143e 5bd6 68be
000001a0: 99e3 823d abce 24bd 90bd e5be c23e fe3d
000001b0: 8b13 f7bd c9d3 43be 08ab 2e3d da2d bebe
000001c0: 3746 b23c f07e 16be c326 39be a75a a03c
000001d0: 3410 a43e 4512 a4be aaed 0abe 9044 1ebe
000001e0: 92ea 433e 31b8 76be d0b3 50be 5874 d8bc
000001f0: 38b2 34bf a484 e7bc f444 93bd b177 9fbe
00000200: 3541 963d f4d8 2b3e 8c4f 6ebe daea 663d
00000210: 3bf1 813d bfb2 d73d 4d33 5e3c d82b da3d
00000220: 670e b6ba c2a9 d33e d412 9dbd 31ac 99bc
00000230: 716a 573e c713 5e3d e598 8b3e a9b9 b3bd
00000240: a9c8 a73d 43d4 283d ca16 6abe cedf 643c
00000250: d31e 44bb b8b4 ebbd b9c5 c13d 6eda 943d
00000260: 6b22 5fbe 35cc 743d 3101 5fbe b87c d13d
00000270: 641b 353e 85fb 51be d3e0 3f3e 2dba 3bbd
00000280: e7c2 8b3e 55d6 a4be d11b 333f 73d3 903e
00000290: 23d8 0d3e 692f 85be 2627 ab3d 2676 d6be
000002a0: a50b c9bd 4bfc 913e 0504 763e 6777 26be
000002b0: 119a 59bd 49eb 003f b2f6 ba3e 504d c6bb
000002c0: 8aa9 65be 144c c13e b1d2 343c 44a3 6e3e
000002d0: 4da5 86bd 8360 3cbd adea 96bd 6764 15bd
000002e0: 0ea2 c73e 8e19 a53e 3bce 4bbe c7dd 033e
000002f0: 8c35 3bbe 29e3 f43c 5226 913e 3e5f 9cbd
00000300: 6dc5 b5bd c9c9 323e f8fc 4cbe c90e d7bd
00000310: dcc7 213e 4928 c73e 4003 733e db91 29be
00000320: ad2a 54be a8b4 093e 75ed 81be eef5 1cbe
00000330: 8633 b5be 0a86 37bf 176d 563e fe6f 90be
00000340: b406 c23e bc54 e2bc 72f2 a33d d7e1 333d
00000350: 9d41 153f bd46 b93d 44af c43e 0b20 e73c
00000360: b749 533e e0d3 d2bd c0c5 f7be a785 be3d
00000370: 4c95 013d b797 d8be 0ce1 983e 6bbc eebd
00000380: 057b 03bd b61b 653e cc39 06be 6455 953e
00000390: 7613 a1bd 710f 2ebf 336d 2f3d 4516 953c
000003a0: 73d2 27be 2602 a5be 512f 01bd 3b54 033d
000003b0: 1615 cfbe 2984 6dbd b7ec 373e 93c7 95be
000003c0: 37ae 6c3e 3421 bf3e 2797 91bd 43e0 9a3e
000003d0: fd51 813d d89a 0c3d ac01 83bd d257 a8bd
000003e0: ff7b 44be 00c7 9abe 5fcd ecbd fb1e ce3e
000003f0: d3b4 e53d 7c50 8ebd fe3a 833e e00b 95bd
0.3418231 -0.06271813 -0.3434835 -0.21456973 0.70974374 0.27393624 0.053082447 -0.15696843
0.30230555 0.0005087216 0.10723152 -0.17225736 -0.018590169 -0.061960664 -0.25801528 0.20380193
-0.19159506 0.28479654 -0.7683128 1.0185221 0.17230287 -0.33214036 0.2964804 0.13465372
-0.7972305 0.12734987 0.21284257 -0.042431973 -0.59517634 -0.00637038 0.022133222 -0.38032827
0.050173484 0.082399786 -0.33140236 0.10762777 0.058915183 0.0470023 -0.25858667 0.29142237
0.14524134 -0.03391 -0.013265756 0.23872519 -0.10901119 -0.12586778 0.41618627 0.48671567
0.17103162 -0.03688157 -0.004286561 0.36846676 -0.48719305 0.4300229 -0.085061185 0.1337618
0.11469232 -0.048721608 0.76868814 -0.15812662 -0.11427652 0.122724555 -0.045421857 -0.03799881
0.7322617 -0.092872545 0.0535176 -0.19464928 -0.038153026 0.060272288 0.074352555 -0.22935489
0.040911254 0.024861379 0.14528662 0.19571117 -0.22506481 0.19173463 0.26016775 9.63156e-05
0.30918616 -0.04020851 -0.015760627 0.27718744 -0.22259499 -0.3828481 0.05300998 -0.20386937
-0.33481175 -0.09252965 -0.01889025 -0.12694468 0.15785857 -0.41550657 -0.41818297 0.06899553
0.43229145 -0.121974394 -0.21843265 0.06104992 -0.321023 -0.08862581 0.14495748 -0.2273802
0.06391067 -0.040236156 -0.44871187 0.12414314 -0.120642744 -0.19123758 0.042643577 -0.37144357
0.021761997 -0.1469686 -0.18081193 0.019574476 0.32043612 -0.3204519 -0.13567224 -0.15455842
0.1913245 -0.24093701 -0.20381093 -0.026422665 -0.7058444 -0.02826149 -0.07190886 -0.31146005
0.07336656 0.1678198 -0.23272532 0.056376316 0.06344839 0.1053214 0.013562036 0.10652894
-0.001388979 0.41340452 -0.07669607 -0.018758865 0.21036698 0.05421808 0.27265087 -0.08775646
0.0819257 0.041218054 -0.22860256 0.013969375 -0.00299256 -0.11509079 0.09461541 0.07268225
-0.21790473 0.05976506 -0.21777798 0.10228866 0.1768623 -0.20506103 0.18738107 -0.045831848
0.27297136 -0.32194772 0.6996432 0.28286323 0.13851981 -0.26012734 0.08357076 -0.41887015
-0.09816674 0.28512797 0.24024971 -0.16256486 -0.053125445 0.50359017 0.3651634 -0.006051697
-0.22427955 0.37753356 0.011036561 0.23304468 -0.06574497 -0.04599048 -0.073689796 -0.036472704
0.38990825 0.3224606 -0.1990289 0.1287757 -0.18282145 0.029893475 0.2834955 -0.076353535
-0.088755466 0.17459787 -0.20018375 -0.10500867 0.15798897 0.38897923 0.23731709 -0.16559546
-0.20719405 0.13447821 -0.25376478 -0.1532819 -0.35390872 -0.716889 0.20940052 -0.28210443
0.3789574 -0.027628295 0.08005227 0.04391655 0.5830324 0.090466954 0.38414967 0.028213521
0.20633589 -0.10294318 -0.4839306 0.09302836 0.03163652 -0.4230325 0.29859197 -0.116570316
-0.032099742 0.22373852 -0.13107985 0.2916671 -0.0786504 -0.6799231 0.04282875 0.018199096
-0.16388874 -0.32228202 -0.031539265 0.03206275 -0.40445775 -0.057987366 0.17961393 -0.29253826
0.23113333 0.3733002 -0.07108908 0.30249223 0.06314466 0.034327358 -0.06396803 -0.082198754
-0.19187926 -0.3022995 -0.11562609 0.4025801 0.1121613 -0.06948945 0.25630945 -0.072776556

module.conv_layers.2.weight f4 [64, 64, 1, 1]
00000000: bd8f d6bd 1b11 9cbe 2614 8cbe fb26 49bd
00000010: de4d 26bd 0bce a93e 9cb7 ba3e 02bb 2a3e
00000020: a16a ec3e 114c b5bc 4a5c 4fbc 1a0d 17bf
00000030: 18f4 df3c 6dd3 473e b0c4 45bc 1efd c8be
00000040: d773 bc3e a326 553e aae4 1abe 80b4 2a3e
00000050: c3c3 a23e 64d2 b63e 13a1 5b3e 84b6 283c
00000060: 8b6d ef3c 2cce 7dbe e3ac e73c 5d56 913e
00000070: 2d44 663e c1b6 283f f904 823e 39cf be3e
00000080: 3ed5 40be 0f96 223d f977 663e 348d 123f
00000090: cfa4 6b3d 8c62 ba3e 2b7f 92be c3e2 9dbd
000000a0: d73d 983e 1aab 733e fe52 1bbe 1a20 cb3d
000000b0: b88b 703e 7e82 203e cd81 fcbc 8b65 c93c
000000c0: 51b1 5cbd 98c0 8a3d 5e14 7b3e 0019 03bc
000000d0: 0154 553e 77ff 603e ce43 e23e c8de d83e
000000e0: aca4 d03e a55d 953d be18 103e 7076 cdbd
000000f0: ebb7 b13e 5ecb 253d 22d1 b73e c351 763e
00000100: f85f 07be 834c 05be 6c70 fabd 319a f8bd
00000110: 6ed4 2ebe 14b6 3f3d 3422 9bbe 9d07 debe
00000120: bbbc eebc 111a 513d 69de 3fbe 73a3 063e
00000130: 1012 a7be 4f4c 253d c7b6 053c 4d5e c63e
00000140: a225 963e 566f e23e 1850 2abd 8838 9c3d
00000150: da9f 5c3e 7af9 05be 3aa6 02bf 907b dcbb
00000160: e0f1 43bd ac5e 2a3c e726 883e 8805 b4be
00000170: cad7 1d3e 163e d9be a0f6 22bc e5fd a33d
00000180: 0df4 7e3e 671f 1bbf c6da 803d e1b6 1cbe
00000190: d5bb 91bd 118d 52bd fcca a43d d787 603e
000001a0: 9f6d 293e 6125 883e b11b 1bbe 312b 53be
000001b0: abbd 693d 081d 8f3d c078 2fbe 69df 143d
000001c0: 8e6a 73bd e3fd edbe c37f 21be ddd7 83be
000001d0: 1804 263c 3184 3abe 29af 2f3c 81de 88bd
000001e0: 99cc 2f3d c35e 453e 9188 2d3d 1843 5e3e
000001f0: 3028 fdbe efae 7cbb 7426 a73c 112d 83be
00000200: 4b6d d83d a8d8 36bd 187d 07be aeeb 2abd
00000210: c51c 9e3e 44ad 4dbe c57f b43e 0ca5 343e
00000220: 5331 1bbd c542 c43c 315e a0be 70af 7cbe
00000230: de38 ffbe 02e5 06bf 44f4 91bc 8892 3e3e
00000240: c174 b93d f6cb adbd 085f 0bbe 2c83 06be
00000250: cfba 65be 009f 2dbe fcca dcbe c104 5bbc
00000260: bb23 9c3d 626e d33e 2880 e03d 6c2a a23e
00000270: 8195 b63d b3cd 52be acb7 96be 3891 3c3e
00000280: 1065 063e 7812 1dbf 2f23 debe 2e2c 79be
00000290: 96ca 62be d8e8 013e 6921 14be 25f7 c3be
000002a0: c31b 07bd 6310 233e a835 6abe e04c 5f3d
000002b0: 63f2 9fbe 5b9c 87be 3f67 4d3e 94a8 a93d
000002c0: f6d9 4a3e 91ff eebc de6f b83e 6d40 5dbd
000002d0: e193 803e 3150 d13e ebf6 e63d 5ca1 33be
000002e0: 45e3 c33c 82b6 acbd d4cd c1bd b42f 24bd
000002f0: 76ec a4bd a7a8 ba3d 7c64 ed3d bf19 36be
00000300: 7798 4b3e 6e84 f9bd ff47 19be 6133 6f3d
00000310: e731 3b3f 46b1 55bc a35d 13be 49cc 1b3d
00000320: cf6a 803d d85d ca3b 0a3c ba3e 3eba 94bd
00000330: 9a03 e7bd ddf8 033e 43e2 993c aaa6 043f
00000340: 70fe f13b 5c39 0cbc 238f 5c3c e22d 1f3d
00000350: 5ec7 30bd 13c6 423d 2da0 c8bd 9764 573e
00000360: 881e e2bd 6816 58be c850 b33d 9ea3 db3d
00000370: 65b0 593e dae4 943c 3477 5f3e 1651 2dbe
00000380: 17d0 073e 76cf 00bd c737 bcbe d38d cabd
00000390: 8315 30bc a2c0 6d3d e815 323e d637 643d
000003a0: 8e09 78bb 6c41 1c3e b561 453e e1ec 35be
000003b0: 4fbb 25bb a665 11be 99e6 bd3b 40b9 803f
000003c0: ba26 db3f bd63 1e3f fb84 183f b7e8 1a3e
000003d0: 4f81 b1be f5c5 15be 3c34 613d efac 18bd
000003e0: c350 7e3d 6167 893c e9fd 9e3c b2ee 933d
000003f0: 2a7a 693e 7ebc 9c3d ba28 80bc a60c 263e
-0.10476635 -0.304818 -0.27359122 -0.04910944 -0.040601604 0.3316501 0.36468208 0.166729
0.461751 -0.022130998 -0.012656281 -0.59004366 0.027338073 0.19514246 -0.01207082 -0.39255613
0.3680713 0.2081552 -0.15126291 0.16670418 0.3178998 0.3570739 0.21448164 0.010297421
0.029227039 -0.2478568 0.028280681 0.28386202 0.22486944 0.6590386 0.2539442 0.37267473
-0.18831345 0.03969389 0.22506703 0.5724671 0.05753022 0.3640331 -0.28612646 -0.07709267
0.2973468 0.23795739 -0.15168378 0.09918232 0.23490798 0.15674779 -0.030823613 0.024584552
-0.05388004 0.067750156 0.24519488 -0.008001566 0.20832826 0.21972452 0.44192356 0.4235747
0.40750635 0.07293252 0.14071938 -0.10032356 0.3471063 0.04047715 0.35901743 0.24054627
-0.13220203 -0.13017468 -0.12228474 -0.12138785 -0.17073223 0.046804503 -0.30299532 -0.43365183
-0.029142728 0.05105025 -0.18737186 0.13148288 -0.32630968 0.040355977 0.008161253 0.3874382
0.29325587 0.44225568 -0.04158029 0.0762797 0.21545354 -0.13083449 -0.5103489 -0.006728597
-0.04783809 0.010398548 0.2659218 -0.3516047 0.15414348 -0.4243018 -0.009946495 0.08007411
0.24897785 -0.6059479 0.06291728 -0.15304138 -0.07115904 -0.051404063 0.08046529 0.21926819
0.16545723 0.26591018 -0.15147282 -0.20621945 0.057065647 0.06987959 -0.17135906 0.036345873
-0.05942779 -0.46482763 -0.15771393 -0.25750628 0.010132812 -0.1821449 0.010722914 -0.06683064
0.04291973 0.1927443 0.042366568 0.21705282 -0.49444723 -0.0038556417 0.020404078 -0.2562032
0.10567721 -0.044640213 -0.13231313 -0.041728668 0.30881324 -0.20085627 0.3525373 0.17641085
-0.037888836 0.02395762 -0.31321862 -0.24676299 -0.49848074 -0.5269319 -0.01781667 0.18610585
0.09055472 -0.08486168 -0.1361047 -0.13135976 -0.22434543 -0.16955185 -0.43123615 -0.013367833
0.076240025 0.41295153 0.10961944 0.3167299 0.08915234 -0.2058628 -0.29437006 0.18414772
0.1312449 -0.61356306 -0.43386218 -0.2433326 -0.22147593 0.12686479 -0.1446587 -0.38274494
-0.03298546 0.1592422 -0.2287203 0.054516673 -0.31239614 -0.26486477 0.20058917 0.08284107
0.19809708 -0.029174598 0.36022848 -0.05401652 0.25112823 0.40881494 0.112775646 -0.17542022
0.023912081 -0.08433248 -0.09463087 -0.040084556 -0.08052914 0.09114199 0.115914315 -0.17783259
0.1988238 -0.12183462 -0.1496887 0.058398608 0.7312302 -0.013042754 -0.14391188 0.03803662
0.06270372 0.006175738 0.3637393 -0.072620854 -0.11279984 0.12887903 0.018784648 0.5181681
0.0073850676 -0.008558597 0.013461861 0.038862117 -0.04315888 0.04755218 -0.09796176 0.21034466
-0.110409796 -0.21102297 0.08755642 0.10724567 0.21258695 0.018175531 0.21822816 -0.16925463
0.13262974 -0.03144785 -0.36761305 -0.09890332 -0.010747316 0.058045037 0.17391169 0.05571731
-0.0037847492 0.15259331 0.19275554 -0.17766143 -0.0025288647 -0.14198932 0.0057953116 1.0056534
1.7121193 0.6187094 0.5957791 0.15127836 -0.34668967 -0.14626296 0.054981455 -0.037274297
0.06208874 0.016772928 0.019408183 0.07223262 0.22800508 0.076531395 -0.01564442 0.16215762

module.conv_layers.3.weight f4 [64, 64, 1, 1]
00000000: bb78 1ebf 17fe afbb 7895 3fbc 7fd7 513d
00000010: 6ab8 36bd ce22 94bd 2909 3e3d b4aa c33d
00000020: 6217 45be 22da 73be b183 01be 6889 8a3c
00000030: 103d 023e 7407 843d 167a ecbc ef28 aebe
00000040: 39e9 7f3c 39e0 74be 10e9 31bd 6b0d 16be
00000050: 0163 c73d 0657 bdbe f5d1 3d3e 1949 10bd
00000060: 3a1d 15be 01ee 6abc 8e69 f83b 5cb6 403d
00000070: 0510 cebe 2164 ba3d 71b1 c6bc 9317 543d
00000080: 318c b93d 6293 b9bd 26ab 00bd 28a4 2b3e
00000090: 612a 883e 99bd d8be 16ad 78bd edd9 ae3d
000000a0: 2e9a 813e 782f ed3d be7a f0bc 638e bebe
000000b0: 7a14 ad3e e285 b2be 4e62 9dbe 3e23 49be
000000c0: 6ede 133d aa04 51be dd05 a3be dac6 f43d
000000d0: 2763 0fbd d016 debd 1e21 04be a1e7 1ebe
000000e0: b8ad cfba fd53 bfbe e5fe 85bd 002c 693d
000000f0: 99f2 a03e 9b80 5c3c feec 46be 44fe 5abe
00000100: f007 a7be e50e 253e 76bf d4bc b1b7 f7bc
00000110: 9b36 ff3d 8ad7 9f3e 5030 3bbd e4f9 313c
00000120: 5a3c 9dba 446e afbd 2fb6 4e3d 2e1a a0be
00000130: 957d 773d f59d bebc 4697 053e eab5 32bd
00000140: bd14 f33c 79d4 f53c b5ed 60be febb 0abd
00000150: f4a7 073e 3829 be3c 5be7 29be ddbc 133d
00000160: bb10 7e3c bd4d 8cbe 759c 4d3e 3d35 9c3e
00000170: b037 e23c 7401 3d3f aecb ec3d f8f0 a2bc
00000180: e249 4c3e 4423 383d 214d 253e 8be2 8d3d
00000190: 3c6a f8bc 3c7d d4bd f940 41bd 3a2c b33d
000001a0: 9902 8b3c e9fe b23c 372e 14be 29b5 9ebd
000001b0: af14 19bb 370e bebd 90c5 263f 3008 adbc
000001c0: ccb4 5ebe 0b20 8bbe 1ddf 223e 5011 b03d
000001d0: bb40 e1bd 8961 393c 86ae 0cbd b335 32bd
000001e0: af0e 82bd 807f aabc 218c c73d 5164 0bbe
000001f0: 9fc9 de3e e292 0a3b ac02 00be 4c38 2b3e
00000200: 315f f8be ef18 d03d 809c 14be 20f5 15bd
00000210: a80d 85bd 30a2 dcbe 367a 80be e50f bcbe
00000220: 6b4c 80be c755 86be 385d e03d e328 e9be
00000230: 74d9 e1bd b905 de3d 7034 c7be 399f 8c3d
00000240: 9d10 2a3f 03a5 3b3f 8310 9fbb 9e9e ed3e
00000250: eb98 9f3e c80b 4dbe 0a46 c8be f86b 733e
00000260: 9ddd 68be 0133 753e 19a8 8e3e efff 6fbe
00000270: c32e ae3e d540 4ebe 2284 493f a907 f03e
00000280: 674c 043f ff08 c93d 7814 f7bd ac8f 073d
00000290: 69bc e6be 17c7 3c3f 5e42 8d3e 588a 443e
000002a0: 1be6 c0be c16b 2b3d b7c0 9cbe a6db bc3e
000002b0: fa88 93be bb90 103e 06d8 c63c c1d4 af3e
000002c0: afc5 90bd 4f3c 9fbe b55f e3bd 2f5f 91be
000002d0: cc4e a8be aa68 b5be a82d 83be 1d99 19bd
000002e0: 59d9 313e c6bf 15bc 5c2c 7c3d 79ca 2f3e
000002f0: 28a2 e13e b22b 2f3f 665a 98be cd75 b8bd
00000300: 7cfa b9bc b248 f03e 2fc1 943e ca78 5fbe
00000310: 44cf 4cbe 8151 0abe 3325 a33e 50cb 37be
00000320: 1116 cc3c f7e2 303e d242 9e3e d833 25be
00000330: 5913 f73e a616 aabd 0f89 fb3c 8962 86bd
00000340: 5e43 3e3d 010b 68be 0f4a 9c3e d86b d3bd
00000350: 395f 1f3d ff82 503e 1bb4 6e3e c420 253e
00000360: e4b2 1cbd 5448 d3be 93f4 793d f125 21be
00000370: 3346 ca3c 479e 12bd 75ae a2be 224e 433e
00000380: f40e ea3d d3f3 973e 1b32 6e3e f4c0 213e
00000390: 40bb 29be 0f17 563e e032 603d e0d1 fa3d
000003a0: a920 84be 08b4 cd3d 646a 1bbe d1e2 613e
000003b0: 7327 dabd 3cbf b83d daee 403d 5efc 35bd
000003c0: 5421 7fbe c5f0 da3d efe8 e73d 904c a4bf
000003d0: 55bc e7bd b44a adbd 310c cfbd 1de3 cbbe
000003e0: 0e0a cfbd 08f0 953d 648f db3d 6009 44be
000003f0: 30dc e93d ca09 0a3e a49f 20be d4dc 19be
-0.6190297 -0.005370866 -0.011693351 0.051230904 -0.044609465 -0.07233201 0.046395455 0.095540434
-0.19247201 -0.2381368 -0.12647893 0.016911224 0.12718606 0.06446734 -0.028866809 -0.34015605
0.015619569 -0.23913659 -0.043435156 -0.14653556 0.0973568 -0.36980456 0.18537124 -0.03522596
-0.1456193 -0.014338971 0.0075809425 0.04704891 -0.40246597 0.09101129 -0.024254533 0.051780295
0.090599425 -0.09061314 -0.03141322 0.1676184 0.26594833 -0.42332152 -0.060711943 0.0853766
0.25312942 0.115813196 -0.029355403 -0.37218007 0.33804685 -0.3486777 -0.30739063 -0.1964235
0.036100797 -0.20411935 -0.3184041 0.119519904 -0.03500667 -0.10844195 -0.12903258 -0.15518047
-0.0015844619 -0.37368765 -0.06542758 0.056926727 0.31435087 0.013458396 -0.19426343 -0.21386057
-0.32623243 0.16118963 -0.025970202 -0.030238958 0.12461587 0.3121913 -0.04570037 0.010862801
-0.0011996136 -0.085659534 0.050466713 -0.31269974 0.0604225 -0.02326868 0.13045987 -0.043630518
0.029672975 0.030008541 -0.21965678 -0.03387069 0.13247663 0.023213014 -0.16592161 0.036068786
0.015506919 -0.2740306 0.20079215 0.30509368 0.027614444 0.7383034 0.11562286 -0.019890293
0.19950059 0.044955507 0.16142704 0.06927975 -0.030324094 -0.10375449 -0.047181103 0.0874867
0.016969012 0.021850066 -0.14470755 -0.07749397 -0.0023358276 -0.09280055 0.65145206 -0.021122068
-0.21748656 -0.27172884 0.15905423 0.08597052 -0.109986745 0.011314758 -0.034346126 -0.043508243
-0.06350457 -0.02081275 0.09743524 -0.13612486 0.435132 0.0021144678 -0.12501019 0.16720694
-0.48510125 0.10161006 -0.14512825 -0.036610723 -0.06496745 -0.4309249 -0.2509324 -0.36730877
-0.25058302 -0.26237318 0.1095528 -0.45539007 -0.11027804 0.10840935 -0.38907194 0.06866307
0.664316 0.7329866 -0.0048542633 0.46410078 0.31171355 -0.20024025 -0.39115936 0.23771656
-0.22740789 0.23945238 0.27862623 -0.23437475 0.3402005 -0.20141919 0.78717244 0.46880844
0.5167908 0.09816169 -0.12064451 0.033096 -0.4506562 0.73741287 0.27589697 0.19193399
-0.37675557 0.04185081 -0.3061578 0.36886328 -0.28815442 0.1411771 0.02427293 0.34342006
-0.07068955 -0.311007 -0.11102239 -0.28392932 -0.32872617 -0.35431415 -0.2562077 -0.037499536
0.17368068 -0.009139961 0.061565742 0.17167081 0.44069028 0.6842605 -0.2975647 -0.09006844
-0.022702448 0.46930462 0.29053637 -0.21823421 -0.2000094 -0.13507654 0.31864318 -0.17948651
0.024912866 0.1727408 0.30910355 -0.16133058 0.4825695 -0.08305101 0.030705003 -0.06561763
0.046450965 -0.22660448 0.30525252 -0.10323304 0.03890917 0.20362471 0.23310892 0.1612578
-0.03825654 -0.4126612 0.06102426 -0.1573713 0.024691677 -0.035795476 -0.31773725 0.19072774
0.11428633 0.2967821 0.23261301 0.15796262 -0.16575336 0.20907234 0.05473602 0.12247062
-0.25806168 0.10044104 -0.15177304 0.2205918 -0.106520556 0.0902085 0.047102787 -0.04443013
-0.24915057 0.106904544 0.113237254 -1.2835865 -0.11315218 -0.08461514 -0.10109747 -0.3982171
-0.1010934 0.07321173 0.10720709 -0.19144201 0.114189506 0.13480297 -0.15685898 -0.15025645

module.conv_layers.4.weight f4 [64, 64, 3, 3]
00000000: 92c8 f5bd b03e b3bd d7a4 b1be 247e 27be
00000010: 0af1 24be 9d06 653d b31e 233e 1098 e1bd
00000020: 68fc 9a3c b8b2 cfbd 14e1 23be a148 9f3d
00000030: b21d 093e d188 243d 8303 2d3e 6a67 a5bc
00000040: d004 3fbd 5532 7c3d 66c8 533e 5438 9ebd
00000050: 1be1 1dbe 1563 d4bc dc34 04be 8518 94bd
00000060: 4254 053e c94d b6bc 3677 343e 0f60 1e3d
00000070: d08f ba3d f3c5 643e bbf5 293e 4629 413d
00000080: 9141 5c3d 35aa f03d 668c 223e f72f c03c
00000090: b47a 2c3e 4584 00be 70b4 f4bd 0055 4bbd
000000a0: 14fb 973d 5a1a 1abe 1d26 033e ec52 9c3c
000000b0: 26d3 82bd ff93 32be a1a3 f33c efaa 07be
000000c0: 0800 e7bd 14d8 a7bc 14cc 123e 52d0 b7bc
000000d0: 0dd8 d6be f49b 81be f596 953d d19b 843c
000000e0: ac6b e33c f4e6 85bc b840 83bc e2a4 683d
000000f0: d6b7 fd3d 05c1 dcbc 253c 0e3d 770f cfbd
00000100: f76d e8bd 13bc babb c4ac c33b 1c11 603b
00000110: 826c 3e3d 07ce 0abe a4a4 daba 9bef 79bd
00000120: 6924 673b a4e3 40be af47 87be 3715 9bbd
00000130: 9ada 19be c649 393d 451d 8abe 996d a23d
00000140: a857 90bd ee5f 543d e5ec b2bb 7c49 6d3d
00000150: 838a 4c3e ce7d 843d e4b4 553e bd50 a9bd
00000160: 75a4 f93d 20fb bf3d 7016 08be c171 bfbd
00000170: 505f 25bd a414 63bd 73e9 8dbd 79f1 e0bd
00000180: 06da db3c 8c78 96be 69c3 94be e20a 0abc
00000190: ffe7 b43d 945a b2bd 067e 8f3c 9088 6f3b
000001a0: 018b 313e e6cc 753d cce3 903d 1fdc a33e
000001b0: ef56 fdbd dcc0 a73c 4843 16bd 6e9c 813d
000001c0: f2c9 903d 1c1a 0d3e f059 b43d fe62 d73d
000001d0: a13e 543d 54f3 10bd e5ee d43c 126f 7d3d
000001e0: 8138 b83d cb6e dfbc bfe0 68bd ef9e 683c
000001f0: 12a2 7fbc 3a5e b2bc c42d 13be 1ec7 ca3d
00000200: 0eaa 0a3e 2c83 493d 3581 4bbe 188a 78bb
00000210: 23ad 113e 3037 4ebc 532a 173e 66a1 07be
00000220: 51c8 c53c bd50 093e e5e3 023c 0bc4 f03b
00000230: 4182 933c 022e c23c 03cf d1bd f2db 853d
00000240: 2a54 e93b f7e1 97bc 8d80 333e bb69 1439
00000250: 7aca 5b3d 40e8 1e3e 3942 28bc 1f72 d5be
00000260: 1402 91be 2efc d03d 2416 2ebc fb32 9dbd
00000270: 3538 a93c ccb8 5c3e 5361 493e 73d0 01be
00000280: 45cd f93c faab 413e 558b 7bbd 1a25 d33d
00000290: 2ac0 d13d 8603 283e 14bf debc fd5b f23d
000002a0: 6fec 133d deed eb3d 83dc 373e 62db aabd
000002b0: 5820 b3be 1fe5 88bd dde7 57be 69ad 9cbe
000002c0: 0c06 e83d 52cc d4bd 55b7 e3be b0ca 303b
000002d0: 170f e53c f2b9 a0bd f24b 9ebb 46ba b43c
000002e0: a8be 283e d8a3 c03d 5e90 843b f61f 04bb
000002f0: 657f 7fbd 5e90 463c 92f6 c13c aa1e f63c
00000300: 03c5 8abd 5fbf 5d3b 4333 59bd b0a0 b6bb
00000310: 9ba6 903d 5312 bcbc 63c1 a33d 885f 0ebd
00000320: bdfd 563e 7bfc 3cbd 943f d3bc 8639 fbbc
00000330: e709 09be a353 55bc 7d16 793d f3ae bbbd
00000340: 8fbb 1dbe 3ea3 8bbe 64c4 aebd c1fd b9be
00000350: 0c42 083e 56fa 16be 1e63 8639 70a9 983b
00000360: 740b 053d 21b3 16be 9868 83be f46b ed3c
00000370: c384 74bd e741 02be 2a09 1c3d 8999 1cbe
00000380: 09b5 4a3d 6a06 2d3e 3d4b 063d 4810 31bd
00000390: 3e61 1c3c 01d5 afbc 5475 31be 8226 9cbd
000003a0: 77ed 84bd 94b1 09be 3d88 333e 5937 573e
000003b0: 1188 e93d 4e00 03bd f1c1 efbb e99b 21be
000003c0: db39 2abb 8e30 c4bd 0344 3fbd 48dd a7bd
000003d0: 549d 69bd 67ca 3c3d 0934 aabd 815c c7bc
000003e0: ed57 c63d 42b0 293d f7eb ca3d dea2 843d
000003f0: 651d 623d 9e66 ad3d 8034 37be 0b5d 28be
-0.120011464 -0.08752191 -0.34696075 -0.16356713 -0.16107574 0.05591451 0.1592968 -0.11015332
0.018919185 -0.1014151 -0.16003829 0.07777525 0.13390234 0.04016954 0.16895871 -0.020190913
-0.04663545 0.061571438 0.20681915 -0.077255875 -0.15417902 -0.025926152 -0.12910789 -0.07231239
0.13020423 -0.022253888 0.176236 0.038665827 0.09109461 0.22341137 0.16597645 0.047158502
0.053773466 0.117512144 0.1587387 0.023460371 0.16843683 -0.12550457 -0.11948478 -0.04964161
0.07420936 -0.15049115 0.12807508 0.019082509 -0.063879296 -0.17439269 0.02974111 -0.132488
-0.11279303 -0.020488776 0.14335662 -0.022438202 -0.4196171 -0.25314295 0.073041834 0.01618758
0.027761303 -0.016345479 -0.016022071 0.05679787 0.123885795 -0.026947508 0.034725327 -0.101103716
-0.11349099 -0.0056986897 0.005971523 0.0034189885 0.0464902 -0.13555156 -0.0016681147 -0.06101952
0.0035269505 -0.18836838 -0.26421878 -0.07572406 -0.15024796 0.04523637 -0.26975456 0.0793106
-0.07047969 0.0518493 -0.005460369 0.05793141 0.19974713 0.06469308 0.20869786 -0.08267353
0.12189571 0.0937407 -0.13289809 -0.09347869 -0.0403741 -0.055439606 -0.069292925 -0.10983557
0.02683736 -0.29388845 -0.29055336 -0.008425446 0.08833312 -0.08708683 0.017516147 0.0036549903
0.17338182 0.06000986 0.07074699 0.32003877 -0.12370097 0.020477705 -0.03668526 0.06328665
0.07069768 0.13779491 0.08806217 0.10516928 0.05181754 -0.035388306 0.02599282 0.061873503
0.08995152 -0.02727451 -0.05685496 0.014198049 -0.015602605 -0.021773446 -0.14372927 0.0990126
0.13541433 0.04919736 -0.19873507 -0.0037924107 0.14226203 -0.0125864 0.14762239 -0.13245162
0.02414337 0.13409705 0.007988905 0.007347589 0.018006446 0.023703579 -0.102445625 0.06536092
0.007120629 -0.018540366 0.17529507 0.00014153768 0.053659894 0.15518284 -0.010269695 -0.4168863
-0.28321898 0.102043495 -0.010625396 -0.076757394 0.020656684 0.2155487 0.19666032 -0.12677173
0.030493388 0.1891326 -0.061412174 0.10309811 0.102417305 0.16407594 -0.027190723 0.118339516
0.036114153 0.11519979 0.17955212 -0.08342625 -0.34985614 -0.066843264 -0.21084543 -0.3060105
0.11329278 -0.103905335 -0.4447581 0.002697628 0.027961297 -0.07847966 -0.0048308307 0.022061478
0.1647898 0.09406251 0.00404553 -0.0020160652 -0.062377352 0.012119381 0.023677144 0.030043919
-0.06775858 0.003383599 -0.053027403 -0.0055733547 0.070630275 -0.022957956 0.0799587 -0.034759074
0.20995231 -0.04613922 -0.025787152 -0.030667078 -0.13382684 -0.013020429 0.060812462 -0.09164228
-0.15403579 -0.2727298 -0.08533552 -0.3632641 0.13306445 -0.14743933 0.0002563232 0.0046588704
0.032481626 -0.1471677 -0.25665736 0.02898214 -0.059696924 -0.12720452 0.038094677 -0.15292944
0.049489055 0.16896978 0.032786597 -0.043228418 0.009544669 -0.021463873 -0.17329913 -0.07624532
-0.06490605 -0.13446647 0.1753244 0.21017207 0.11402906 -0.031982712 -0.007316821 -0.15782131
-0.0025974426 -0.095795736 -0.04669572 -0.08196503 -0.057034805 0.046091463 -0.08310706 -0.024336101
0.09684739 0.04142786 0.09908288 0.06476377 0.055203814 0.08466838 -0.17891121 -0.16441743

module.conv_layers.5.weight f4 [64, 64, 1, 1]
00000000: 6cfb 79bd fe9a 70be 6a9b a4be e788 05be
00000010: defa 883e 163f 5f3c 14e6 ffbd 0183 bf3d
00000020: 710c cc3d 8842 163f 96eb 413d 414b 83bd
00000030: bb65 9b3e d5ba edbd effe 23be 600c 463e
00000040: 270d ebbd 69c6 c83d bbb4 42be f2c2 f53d
00000050: 9331 743e 8a7a a4be 0022 4d3d ae61 873e
00000060: 5576 03be 9d91 cbbd 0487 96bb 236a 2c3d
00000070: d8f2 4d3d a481 dcbe db8d 58bc 2a97 a9bd
00000080: 0c38 7dbd 5c25 56bd 3493 013f 1353 6b3e
00000090: 0de0 183f 94bc 713e e147 84be fa3e 88be
000000a0: 9e9c 243d c542 7dbd e9fb 8cbd 4a6e d8bd
000000b0: 02a9 84be 1ce5 cbbd 4871 87bd 6c1d 5dbe
000000c0: 464d 27be 3029 1ebd 7cd2 cd3e 04d4 f63d
000000d0: e665 45be 43c9 5b3d ee42 0b3e 75df 07bd
000000e0: a0f4 ef3e 3703 24bd 00ef cbbb 34c3 fa3d
000000f0: c221 bd3d 4dbc ebbd cb9b 533d a74f 6f3d
00000100: d18d 05be dbb8 29bc fa23 0abe 503d 05be
00000110: e636 4abc 2b0e 15be 0219 c73c 2595 af3b
00000120: 0c5e 9cbd 4c81 7b3d f09d 573e 0c72 973d
00000130: 94e0 573d 66e6 e03c ffa2 9fbe 262a 133d
00000140: 3370 d3be f102 9c3e 3603 aa3d d074 733e
00000150: 619f 8e3e 0226 b5bf bf77 853c c476 c0be
00000160: 0795 823d a4bd 113d d12c 403e 2192 173e
00000170: c591 073e c954 27bd 35cb 27be 8848 e33d
00000180: 3317 fabd 7264 44be af85 c8be bff4 b13e
00000190: 86ac 323e ebaf 643e a7e1 923e 3576 e0bd
000001a0: b601 2c3f 9b9d ffbd 7e7d f33d 6eb7 1dbe
000001b0: 5665 59be fea6 51be 1195 463d 123f edbd
000001c0: 54ff 6fbe 6656 afbd 06f7 e73d 93dd 883d
000001d0: 4436 05be 993a 1f3d 32ef 123e 53ae 29be
000001e0: fa82 9cbd 28b3 463e 7b92 c6bd 5746 fd3c
000001f0: 33ec 423e a250 8f3e a5e8 cf3d 4aa9 b43d
00000200: 09bc 5d3c 87af 17be e3a7 2739 c131 4cbe
00000210: 9585 60bf 3b7b a1be bc2b 3abe 6111 833d
00000220: c625 94bd 827b 5f3d 19d6 dbbe 6ec3 133e
00000230: 577c 0bbd 4bae 183d 5acc 30be e166 a8be
00000240: ebfc 21bf 213c 113d 4709 323e 493b 2cbf
00000250: 8d30 1a3e 90f2 fabd 5d89 18bc a60a 9b3e
00000260: 1a9a dcbd 33d0 a03d 17ed 72be 905f 463e
00000270: a6b0 77bf 80ae 38be 4341 ddbd 8e34 133f
00000280: b042 e73d 1e12 edbd 62ec 69bc b180 32bd
00000290: e499 46be 4e98 97bb 7914 3d3e d9ee 223e
000002a0: f83c c63e 5573 38be 813b 783e df4f b03d
000002b0: 9b53 27bd f749 c7bc c1b2 2cbe 77f9 69be
000002c0: aff0 6fbe 433c 1abd dcc5 8b3e 0bdf 133f
000002d0: d59c b2bd 5d12 153e 9588 ad3b 2a7a 8cbc
000002e0: dc82 08be ccd5 42be 6ea3 56be 0192 a6be
000002f0: 34d4 babe 0109 603c 70e3 1bbf 816f 05bd
00000300: b0de b63c 8655 493e b236 b33e 9233 7dbb
00000310: 6e7a 993d 4a3a 0bbe 053b 353f 78f1 873e
00000320: a248 893d 15a3 903d b163 b73d 7860 ce3a
00000330: 9ee8 6cbd 7888 c13e f0a4 0dbe f49d 34be
00000340: 6d0f e63d 12c1 27be 9de9 ad3d 59e6 07be
00000350: abba 9fbe 1a2c 8f3e e5b8 223e 4e77 e93d
00000360: e4bc 8a3e f05a 81be 9143 fdbc acef 4a3d
00000370: d6c4 a13e 8d46 a03e c8f6 ec3d 4140 bb3d
00000380: 3800 af3d dea7 8cbe 1d95 783e f453 283f
00000390: 82cc 1ebf 0643 cb3c 99fc 973e f253 b73e
000003a0: 6854 4a3d 9211 50be cf22 35bd 8d5f 133e
000003b0: b26d f2bc 2929 bc3c 58fc 44bd ba78 febd
000003c0: 0744 cf3d a94d 72bd 262b 5fbe acb5 6cbe
000003d0: 6c08 ad3e 7e3e 1b3e cca5 18bf ecd7 e33c
000003e0: 58d3 9ebe d455 333e 58e4 91bd 5b77 263e
000003f0: 2cd0 b0be 2b2c 593d b979 6d3c 3f13 083e
-0.06103079 -0.23496625 -0.32149822 -0.13040505 0.26753896 0.013625881 -0.12495056 0.09351159
0.099633105 0.5869527 0.047343813 -0.06410838 0.30351052 -0.11607901 -0.16015218 0.19340658
-0.11477118 0.09803469 -0.19014256 0.120000735 0.23847036 -0.3212474 0.050081253 0.2644171
-0.12838109 -0.09939883 -0.004593732 0.042093407 0.050280422 -0.43067658 -0.013217415 -0.082807854
-0.06182103 -0.052281722 0.5061524 0.22980909 0.59716874 0.23607093 -0.2583609 -0.26610547
0.040188424 -0.061831255 -0.068839855 -0.10567911 -0.25910193 -0.099558085 -0.066134036 -0.21593255
-0.16338071 -0.0386135 0.4019965 0.120521575 -0.19277152 0.053658735 0.1359975 -0.03317209
0.46866322 -0.04004213 -0.0062235594 0.12244263 0.092349544 -0.11510525 0.051662248 0.05842557
-0.1304238 -0.010359014 -0.13490286 -0.1301167 -0.01234219 -0.14556186 0.024303917 0.0053583556
-0.076351255 0.061402604 0.21056342 0.073947996 0.05270441 0.027453613 -0.31179044 0.035928868
-0.4129654 0.30470994 0.08301394 0.23775029 0.2785597 -1.4152224 0.016292451 -0.3759061
0.06376081 0.035581246 0.18767096 0.14801838 0.132392 -0.04085234 -0.16386111 0.110978186
-0.12211456 -0.19178942 -0.39164492 0.3475704 0.17448625 0.22332732 0.28687784 -0.10960046
0.6719011 -0.12481233 0.1188917 -0.15402004 -0.21230063 -0.20473859 0.048482005 -0.11584295
-0.23437244 -0.08561401 0.11326413 0.06682887 -0.13008982 0.038874242 0.14349058 -0.16570406
-0.07642169 0.1940428 -0.09695908 0.03091733 0.19035415 0.27991205 0.10151795 0.08821352
0.013533601 -0.14813052 0.00015988904 -0.19940855 -0.8770383 -0.3153933 -0.18180746 0.06399799
-0.07233767 0.054561146 -0.4293678 0.1443002 -0.034054127 0.037275594 -0.17265454 -0.3289099
-0.6327655 0.035457734 0.17386352 -0.6727796 0.15057583 -0.122532964 -0.009310094 0.30281562
-0.1077158 0.07852211 -0.23723255 0.19372392 -0.9675392 -0.18035316 -0.10803463 0.5750207
0.112920165 -0.11575721 -0.014277549 -0.04357976 -0.19394642 -0.0046263104 0.18464841 0.15911426
0.3871839 -0.18012746 0.24241449 0.08608984 -0.040851217 -0.024327261 -0.16865064 -0.2284907
-0.23431657 -0.037655126 0.27299392 0.5776221 -0.087213196 0.14557786 0.005295823 -0.017148096
-0.13331169 -0.1902687 -0.20960781 -0.32533267 -0.36490023 0.013674022 -0.6089392 -0.03257704
0.022322983 0.19661531 0.35002667 -0.0038635475 0.07494055 -0.13596454 0.7079318 0.26551414
0.06703307 0.070623554 0.089545615 0.0015745303 -0.05783903 0.3779943 -0.1383245 -0.1763838
0.11233411 -0.16382244 0.08491824 -0.13271464 -0.31197104 0.27963334 0.15890844 0.11399709
0.27097237 -0.25264692 -0.030916007 0.049544975 0.31595486 0.31303826 0.11570507 0.09143115
0.085449636 -0.27471823 0.24275632 0.657531 -0.62030804 0.024812233 0.29684904 0.35806233
0.049396902 -0.20319203 -0.04422265 0.14391918 -0.029593322 0.022968845 -0.048092216 -0.124253705
0.10120397 -0.059156094 -0.21793804 -0.23116177 0.33795488 0.15160558 -0.59627986 0.02781292
-0.31020617 0.1751321 -0.07123631 0.16256468 -0.34533823 0.053020637 0.014494353 0.13288592

module.conv_layers.6.weight f4 [64, 64, 1, 1]
00000000: 60be 0f3e fd27 843e ce9f d4be 2248 8fbe
00000010: d208 e1bd 3da7 983d a4c5 2b3e 3441 1b3c
00000020: e19b bf3d 9c56 96bd aa0a 55bd 834a 8abe
00000030: 2c38 3d3e bbeb 223d dbee 153f 3ebc a6be
00000040: 43f0 4b3d 66e6 123e f76e 723e 215f af3e
00000050: 85a2 dd3e 5ae1 753e 4919 3bbe 806f 48be
00000060: 8780 743d b743 f5bd 92be 9e3e ee34 383e
00000070: 91a0 e1bc 0478 2ebe 576a 42bc 1924 c53e
00000080: c937 b3be b8af 14be 85c4 4e3e 430e 583e
00000090: b713 8d3e 7837 b4bd a9e3 5bbe 9a2f 4ebe
000000a0: 3fc5 833e f8a4 ba3d 4f77 59be e36e cf3d
000000b0: 17e8 bd3e 4255 75be 5f28 4f3d b64d 1e3e
000000c0: 40e1 74be 165e fa3d 10d0 29bf 1c98 dbbd
000000d0: 672c 1f3d 10e2 1b3f 179c 66be 7cc0 6bbc
000000e0: 4c01 b9bc 3f44 dcbe c3aa 84bd 3695 f2be
000000f0: 6e51 dc3e f55a 3b3f 1c15 c3be 8cc0 3f3e
00000100: 93a7 bebc 4d1c d6be c908 3c3e 6c2b e1be
00000110: 303f 823d fdb0 1c3d 1596 15be f1a9 473e
00000120: d12f c8bd 88c5 21bd 531a ddbd 5a00 213d
00000130: 617e efbe 658c 90bd cb91 4abd c6cc 133e
00000140: 63a2 bb3c 5935 88be 1d0d 6c3e ecf5 97bf
00000150: 4ff1 d73e 509f aa3e 004c 163e 7b03 913e
00000160: 83e0 32bd df61 603e 389c 3cbb 3fd7 e0be
00000170: 3b52 a5be 0068 03be f468 323e a53a 813e
00000180: d431 713e 0b00 03bf 78b8 02be be38 89bc
00000190: f2fa 2ebf f0d7 4d3d 824f a0bd 5920 9abe
000001a0: 96fa 90bd c459 283e e7ad af3e 5409 8dbe
000001b0: 42d9 86be 7aa0 c3bd 6d2b 503e a0a8 6abe
000001c0: ae04 ccbc 61c7 a7be 73b6 493e 830a 763d
000001d0: 2c26 bdbe ac14 cbbe 4dd9 ac3e e14c 14bd
000001e0: 329d 3dbe f6a5 c6bb 0c58 2cbc 3812 183b
000001f0: b800 fabe a5a1 ffbd d745 b43e 3355 0dbe
00000200: dd21 bebc 7a38 603d 7d7c 4d3d 1a7a 483c
00000210: 8071 e43d d269 16bd 30d1 00be 1de5 423d
00000220: 0753 67bd 20a3 ff3d 38c4 debd 8231 813e
00000230: 90d4 f33d 59f6 083d e78f 943e 6f0d 693e
00000240: 8a7a 163d 2216 17be 6ceb 09bf 3e2d 1b3e
00000250: d0c6 d93e f8bb 87be fb89 063f 2d20 3e3e
00000260: 580f dc3e 50e7 623d 9ca4 0d3f 2038 ed3e
00000270: 6eb5 85be 0e3e 353e 3436 103d baf0 e1be
00000280: 3d67 f43e 7a5a 51be a74b 84bb e444 7dbe
00000290: d885 473d c30f 063f b742 583e 8227 2fbe
000002a0: eaa0 6f3e 3400 623e 388a a9bd 6b92 e03e
000002b0: 6e40 053e fb18 893c eb9d 30be f39e 1e3e
000002c0: 00e7 5b3e 9573 f73e ab9f d23d 8b64 34be
000002d0: 5d5f 4c3d b20f 503c afe3 26be 4238 2dbe
000002e0: a603 013f 4ded d8bd 5307 b63c 8638 233e
000002f0: 8503 6ebd edb9 5c3e c028 7e3e d702 833d
00000300: a461 23bc 0f73 adbe 557f a9bd 9a5e 41be
00000310: 0cca bfbe 3e56 d4be 6693 923e 1a75 3fbe
00000320: c2f9 18be a9f9 adbe f5e0 1cbe 822d e6be
00000330: fb9e fcbc 0296 23be 3d21 01be 709f b7be
00000340: dcf6 c23c fc4a 993d 3649 0ebe 7cea aa3f
00000350: 93f4 173f 64f9 8e3e 4438 4cbe a9e4 4bbe
00000360: c710 5c3e cfe0 4b3e 2d6c f53d 2188 563e
00000370: 510e a23c 89c2 cdbe 0653 a2be 6c76 b83e
00000380: 19ec 8cbe 0ae3 4b3e 7540 083e 6a81 263e
00000390: 6734 743e e6b3 98bc 8a7f 56be a42e 373f
000003a0: 2e93 a7bd 276f 893d de95 72be 055a b43d
000003b0: eaa4 9dbe bbab 8a3e 2ca4 883e 225a b5be
000003c0: 6b30 be3e 050e 7d3e 165d 27be ed43 a03d
000003d0: 01f6 f83e 3642 46bf f151 2abf d9ce 4b3e
000003e0: e0f0 b4bb 7728 bdbe d9cb 35bf 33dd fd3d
000003f0: 8c94 4a3e 3892 833e 66c5 99be 4038 7ebe
0.14037466 0.2581176 -0.4152817 -0.2798472 -0.109880105 0.07453773 0.16774613 0.009475995
0.093559034 -0.07340738 -0.052012123 -0.27009973 0.18478459 0.03977559 0.5856759 -0.32565492
0.04978968 0.14345703 0.23675142 0.34252265 0.43288055 0.24011746 -0.18271364 -0.19573784
0.059692886 -0.11975806 0.3100477 0.17988941 -0.027542384 -0.1703797 -0.011866174 0.38504103
-0.35003498 -0.14520156 0.20192154 0.2109919 0.27554104 -0.08799642 -0.21473564 -0.20135346
0.25736424 0.091134965 -0.21236919 0.10128572 0.37091133 -0.23958305 0.05057561 0.15459332
-0.23914051 0.12224977 -0.66333103 -0.10722372 0.038860705 0.6089182 -0.22520481 -0.014389154
-0.022583626 -0.43020818 -0.06477883 -0.47379464 0.43030876 0.73185664 -0.38102043 0.18725795
-0.023273265 -0.41818467 0.18362726 -0.4397844 0.06359708 0.038254727 -0.14608033 0.19498421
-0.09774745 -0.03949502 -0.107960366 0.039306976 -0.46776107 -0.07058028 -0.049455445 0.14433584
0.02290458 -0.266032 0.23051877 -1.1871924 0.4217629 0.3332467 0.14677429 0.28322968
-0.043671142 0.21912335 -0.0028779637 -0.4391422 -0.322893 -0.12832642 0.17422849 0.25240055
0.23554164 -0.5117194 -0.12765682 -0.01675069 -0.6835166 0.050254762 -0.07827665 -0.30102804
-0.070790455 0.16440493 0.34312364 -0.2754618 -0.2633763 -0.09552093 0.20329066 -0.22915888
-0.024904575 -0.32769302 0.19698505 0.06006862 -0.36943185 -0.3966421 0.33759537 -0.03620613
-0.18516997 -0.0060622646 -0.010519039 0.0023204219 -0.48828673 -0.12482003 0.35209534 -0.13802032
-0.023209507 0.05474136 0.05016755 0.0122361425 0.11154461 -0.036722012 -0.12579799 0.04758178
-0.056475665 0.124822855 -0.108772695 0.25233084 0.119057775 0.03343806 0.2901604 0.22759031
0.036737956 -0.14754537 -0.5387485 0.15153977 0.42534494 -0.26510596 0.5255429 0.18566962
0.42980456 0.055396378 0.553293 0.46331882 -0.26114982 0.17699453 0.035207942 -0.44128972
0.47735015 -0.2044467 -0.004037339 -0.24733311 0.048711628 0.523678 0.211192 -0.17104915
0.23401228 0.2207039 -0.08278316 0.43861708 0.13012859 0.016735544 -0.17247741 0.15490322
0.21474838 0.4833037 0.102843605 -0.17616479 0.049895633 0.012699055 -0.16297792 -0.16915992
0.5039619 -0.105921365 0.02222029 0.1593953 -0.058108825 0.215553 0.24820232 0.06397026
-0.00997201 -0.33876845 -0.0827624 -0.18883744 -0.37458837 -0.41472048 0.2862808 -0.18697014
-0.14939025 -0.33979538 -0.1532019 -0.44956595 -0.030837527 -0.15975192 -0.12610336 -0.3586383
0.023799352 0.07485005 -0.13895115 1.3352809 0.59357566 0.27924645 -0.19943339 -0.19911446
0.21490775 0.19909976 0.119835235 0.20950367 0.019782217 -0.4018748 -0.31703967 0.3602785
-0.27523878 0.19910827 0.13305838 0.16260305 0.23848115 -0.01864047 -0.2094709 0.7155554
-0.08182369 0.06710654 -0.23689982 0.08806232 -0.30789882 0.27084145 0.26687753 -0.35420328
0.37146315 0.2471238 -0.16344103 0.07825456 0.48625186 -0.7744478 -0.6653128 0.19903125
-0.0055218786 -0.36944935 -0.7101417 0.12395706 0.19783229 0.25697494 -0.30033416 -0.24826145

module.conv_layers.7.weight f4 [64, 64, 1, 1]
00000000: 4266 5dbf 7c4e aebe ac76 063d 5f6f b33e
00000010: c720 d63e 3b6f 043f 3777 d7bd 7f17 8fbe
00000020: 3747 7d3c cd39 46bf 35c0 943c d1aa dcbe
00000030: c64f 103d b93c cc3d e000 26bd 5e4c bf3e
00000040: bb5b ac3d c1de 16bd f79f 973e fb5f 02be
00000050: b8cc a33e cdc3 eabd 6f23 2e3e ad44 cfbd
00000060: 5088 22bf 4cb5 263e 6480 20be 5b2c 5ebe
00000070: e362 d33e 5bba 29be 8d92 00bf 2b1a 953e
00000080: 83b3 3a3d 3bd1 e23d 4052 b73e 603a b33e
00000090: cb6b 02be 793b 403f d655 c33d 0502 c33e
000000a0: 23a2 6d3e 571f ccbd 00f4 bb3e 5fed 393e
000000b0: 1b00 79ba 1325 8dbe 9562 923d 638d 073f
000000c0: 8f96 2c3e 8dc9 b4bd 1193 453c f0d6 673e
000000d0: f42e 003f 0e66 b1be 44dc b6bb 57c7 9d3d
000000e0: ac73 c8bd 52c9 7dbe ac4f c83e cfbd 7dbe
000000f0: c83a 373e eb8c 33be 02fc e83d 1030 963d
00000100: eb2e dabe ceb7 3dbe ef71 273e 0ac6 3c3e
00000110: 99fb e5be bd30 db3d c98d aa39 6dfd 0ebe
00000120: 5fcf 1a3e 7f02 bebe 86cd edbe 27f8 3b3f
00000130: ea74 10be c225 063e 1595 343d a25c 6c3e
00000140: ab93 0ebe 3615 b2be ea0d be3d 4a9a 3bbd
00000150: a4ed f93d e80b babe c766 8dbd 6e0d a23c
00000160: 82ac 81bf cb17 01bf 5324 1ebf 9737 e03e
00000170: 4d4a 033f ee20 833e 4133 12be 54c7 88be
00000180: ada5 c4bd d7b5 4fbf 1a35 f8bc 9c3b 17be
00000190: 3c50 3ebf a6fa 4abe a789 593f 996f 92bd
000001a0: fde6 8bbd be11 26be cdaf 7bbd 8097 8c3e
000001b0: 25c8 933c 47a5 2dbf 987f dabe 679d 9cbe
000001c0: eb67 f03d 5f7f 813d 57ad 56bf 3082 6f3e
000001d0: 9a31 41bb 2022 2bbe 69da 9fbe 3e93 78be
000001e0: 3712 993e 2c25 f9be 9de5 2bbe 36f7 a7bf
000001f0: 4afa dabf 6d66 bfbe 40d2 e03e 5602 6abe
00000200: 31de 04bf 9202 7cbe 6039 88bc 742e 203e
00000210: d6cb 983b ed1f 853c fdf8 5b3e 3369 0bbe
00000220: d254 a43e 32cb b6bc 0f5a f93d c444 b6bd
00000230: 273e 0b3d 64b1 72be 5930 e7bd e615 993d
00000240: 86d9 8bbe c3bb 00be e39d 06be 7eaf 7fbe
00000250: 5fd8 98bd ea6d 053f ef78 683e 9391 9dbc
00000260: 7cb5 203d 0a2f 2cbe 8060 673f b4f4 a33e
00000270: 8d46 d6bb cf8b dcbc 92d3 33bd 27d1 24be
00000280: 1614 173e 3ac2 e5be 4373 b23e 4bf2 bfbe
00000290: 432a f6be 591a 63be fed6 55be 010d c3be
000002a0: 7901 42be 22a9 933e 03ba 6ebd e225 24bd
000002b0: 3f0d 3abe a6dc de3c 4600 90be 9783 93be
000002c0: a79a e9bc ae38 8d3d 8a2c a1be 5c9f 2e3e
000002d0: f9ab 7b3e f6dd 5ebc 4a63 e33d 8ec8 2abe
000002e0: cd05 59bd 0a3a 6fbe a053 243e b0b4 f23e
000002f0: a289 6e3e 50c2 45be d182 2f3e 658f 36bf
00000300: 124a b1bb fbc1 fcbd 1943 46bc 05b3 5e3d
00000310: f78f 833e 4ba0 843e 02e7 d0bc 5e1e 6e3d
00000320: 75a0 ff3d f2e1 0cbf 82e4 d63c 55fc 13be
00000330: 2d33 c4bd 7f6a ef3d e10d a0be 8b87 173e
00000340: 6582 123e f4ae 383e 0253 ddbd 219a 01bf
00000350: 2f95 dfbe 7f6e c5bd 4bd1 b9be 542f 1cbf
00000360: 12ba 353f bf56 853f 6f7c 82be 099d 873e
00000370: 10b4 003f 3065 0c3e 3753 f43e c797 333e
00000380: 69ec e7be 1317 aa3e 1ebc 253b 5766 753e
00000390: 42d1 893e a1a7 eebc 9c76 8fbe ccc6 b73e
000003a0: 6c8b 28bd da81 9ebd 64a4 bbbe 6548 853e
000003b0: 5b16 bcbe f07d 48be f56d 80be 358f 753e
000003c0: d609 373d cfb2 acbc 999f f0bd 11a8 9e3f
000003d0: 0c98 5a3d 2db8 903e 3fe4 1ebd f8c0 acbd
000003e0: 3850 b03e 2281 163e 8c8d 0c3f 9022 b83e
000003f0: 39fa 10be d37a c43c cfe3 4a3e 2f98 dcbe
-0.8648416 -0.34044254 0.032828018 0.35045907 0.41821882 0.51732224 -0.10520785 -0.27947614
0.0154588735 -0.77431947 0.018158058 -0.43099073 0.035232328 0.099725194 -0.04052818 0.3736295
0.08415934 -0.03683353 0.2961423 -0.12731926 0.31992126 -0.11463127 0.17005704 -0.10120521
-0.63489246 0.16280097 -0.15673977 -0.21696608 0.41286382 -0.16574995 -0.5022362 0.29121527
0.045581352 0.11075064 0.3580494 0.35005474 -0.12736432 0.7509075 0.09537856 0.38087478
0.23206381 -0.09966915 0.36709595 0.18156956 -0.0009498612 -0.27567348 0.07147709 0.52950114
0.16854309 -0.08827505 0.012058989 0.22640586 0.50071645 -0.34648174 -0.005580457 0.07704037
-0.09787688 -0.24783829 0.39123285 -0.24779437 0.17893517 -0.17534225 0.11376192 0.07333386
-0.4261392 -0.18527147 0.16352056 0.18434921 -0.44918516 0.107026555 0.00032530565 -0.13963862
0.15118168 -0.3711128 -0.46445864 0.73425525 -0.14107099 0.13100341 0.04408749 0.23082212
-0.13923518 -0.34781808 0.09279998 -0.04580144 0.122035295 -0.3633721 -0.06904369 0.019781794
-1.013077 -0.5042693 -0.61774176 0.43792412 0.5128525 0.2561106 -0.14277364 -0.26714575
-0.09601913 -0.8113684 -0.030298758 -0.14768833 -0.7434118 -0.19822177 0.84975666 -0.07150192
-0.06831167 -0.16217706 -0.061446954 0.27459335 0.018039772 -0.6783032 -0.4267547 -0.30588838
0.11738571 0.06323122 -0.83858246 0.23389506 -0.0029479028 -0.16712236 -0.3122132 -0.24274918
0.2989671 -0.48661172 -0.1678681 -1.3122318 -1.7107632 -0.37382832 0.43910408 -0.22852454
-0.5190154 -0.24610355 -0.016628921 0.1564272 0.004662971 0.016250575 0.214817 -0.13614349
0.32095963 -0.022313688 0.121753804 -0.08899835 0.03399482 -0.23700482 -0.112885185 0.0747488
-0.27314395 -0.12571625 -0.13146167 -0.24969289 -0.074631445 0.5212084 0.22702383 -0.019234454
0.039235577 -0.16814819 0.9038162 0.3202263 -0.006539172 -0.026922135 -0.04390294 -0.1609541
0.14753756 -0.44874746 0.34853563 -0.37489542 -0.48079118 -0.2217802 -0.20882794 -0.3809586
-0.18945874 0.28839976 -0.058282863 -0.04007519 -0.18169115 0.027204823 -0.2812521 -0.28811333
-0.028516127 0.068955764 -0.31479293 0.17052978 0.24577321 -0.013602724 0.11102922 -0.16678068
-0.052984048 -0.23361984 0.16047525 0.4740348 0.2329469 -0.19312406 0.17139746 -0.7131255
-0.005410441 -0.12341686 -0.012100958 0.054369945 0.25695774 0.25903544 -0.025500778 0.05813443
0.124817766 -0.55032265 0.026232008 -0.14451726 -0.095800735 0.116902344 -0.3126059 0.147978
0.14307554 0.1803549 -0.10806848 -0.5062581 -0.43668506 -0.09640216 -0.3629249 -0.61009717
0.70987046 1.0417098 -0.2548556 0.26486996 0.50274754 0.13710475 0.47719738 0.17538367
-0.45297554 0.3322073 0.0025289129 0.23964821 0.26917464 -0.029132666 -0.2802018 0.35893857
-0.041148588 -0.07739611 -0.36648858 0.26031795 -0.36735806 -0.19579291 -0.2508389 0.2398041
0.044687115 -0.021081356 -0.11749191 1.239504 0.05336766 0.28265515 -0.03879189 -0.08435243
0.34436202 0.14697698 0.54903483 0.3596387 -0.14157952 0.023984348 0.19813465 -0.43084857
