denoisers/multi_scale/celebA_320x320_gray/noise_range_0to255_RF_13x13_scale_1/model.pt (torch, 883284 bytes, 59 tensors)

module.conv_layers.0.weight f4 [64, 4, 3, 3]
00000000: 265f 273d 4ec4 153e 16b7 8a3d 1b48 5fbe
00000010: ab84 3fbe 4e26 6cbe 6fcb 423e 2116 0d3e
00000020: 4484 39be 122f 6e3e 598f bdbd 5ea4 28be
00000030: f9af 92bc b390 1b3e e948 c8bd 525e 72be
00000040: 2f0f e43d 4026 c6be ffe2 37bd 7da3 56be
00000050: ca22 53be 406a 1abe c980 63bd 7ec8 8bbd
00000060: ed26 9cbd 7961 163e e869 2bbc d6d9 163e
00000070: 5bf4 953d 0312 13be 5546 fa3d 5625 4abe
00000080: 18c0 19be a30b 31bd 5464 8f3e 524e 753e
00000090: ebeb bdbe 5124 513e a7d0 16be cde6 0abf
000000a0: 789f 6e3e c96a 373d afb3 293e a588 de3e
000000b0: a7fd d0bc c03c 26bd 4933 cdbd 0002 95be
000000c0: ceda 2abd 8367 05bf 0060 b73e 3088 813d
000000d0: 1cd6 993e 4d2c aebe 1644 303e d3bb ea3d
000000e0: d128 36be d559 f6ba 702e a83e 44bc 05be
000000f0: 3bbc 553d 41bf 503d 6637 ac3c 9a69 8e3e
00000100: b30b 8cbd 50dc f8bd a947 3ebe b03e ccbe
00000110: e444 bbbe 8f77 24be 5f3e e1bd b8cc 823d
00000120: 37f3 e2bd d251 b03d d300 d43e 4276 063d
00000130: 8199 913e bcfe b9bd dba3 5bbe 4ec5 383e
00000140: 9b69 72bc 5668 4a3e 7283 933e 1003 553e
00000150: c092 0d3d 47a2 7c3d d90d 4ebe e8d1 733b
00000160: 0829 ebbe fd0f 9b3e 5564 a23d ebe1 98bd
00000170: 5624 773d 6935 ccbd fd9b bd3b 0548 f63c
00000180: d0e0 95be 4631 b1be b7b7 093f b32b d238
00000190: 1af6 463e e92e 9d3c 58ff 5fbd d075 263d
000001a0: cc6c b63e d9a6 d33d 6762 97be deda 58bd
000001b0: 7cf9 0e3e 6b50 11be 1716 7a3e b91d 8dbd
000001c0: ca48 1c3e 76c3 dbbe 2568 f63e ee22 453e
000001d0: 10f3 973d e2a8 6cbe d7cb a4bd bd74 bcbc
000001e0: a6be 54be c969 a2be 3607 b53d 42de 163e
000001f0: 82d2 12bd ecbc eb3e 010b 7fbd 7432 91be
00000200: b8ed 24be 9ec1 9c3e a918 37bf 3465 c0bb
00000210: e36a 083f e3cd 1c3e 7abe 5c3e d3b5 54bd
00000220: 0059 4f3e a60b 223e ee9c a03d 7957 343e
00000230: ef6c cebe 7e77 91be 38c5 1dbe c63d 2d3e
00000240: 7a2c 90be 9b6e b4bd aa33 223e 1d87 1abe
00000250: 2ae7 b33e 1042 99ba 9d20 bb3d d695 c4bd
00000260: 031c 18be c14e f5bd b080 0a3e 799d a13e
00000270: 5582 7d3e 7099 17be d7c4 0abe ff96 17be
00000280: 7a8d 92be 850a 323e e71f 8338 5fcb 30be
00000290: 4a77 2ebd 7153 6ebe 9764 d23c 05bc 60bd
000002a0: beb6 3f3e cf66 45be 6080 3cbc 738c 9abe
000002b0: 52e9 513d 5ba6 a5be 6746 03bd c971 b3be
000002c0: 2426 87bd befc f43d f09f e3bd f48d 2fbe
000002d0: 85b9 473e 3595 3d3e ff69 f3be 84ba 56be
000002e0: 7001 1fbf c1f8 24be 2ee6 8b3e f29a 923e
000002f0: e542 09be 7355 2dbd 17b0 153d f7a5 d0bb
00000300: 7542 87be 0c82 a53e 4162 7c3d a1af 663e
00000310: 8530 0cbd 67df bd3e c25c 8ebe eb4b 683e
00000320: 317f 1dbe 83b0 27be d8c4 4bbe ae6f efbd
00000330: 5dd9 003e faef ffbd 42ac 593e 9764 113e
00000340: 792c c7be 7cb2 723d 9f9e 1dbe 90b6 15bf
00000350: eda9 1f3e fd69 e73d e6c4 80be 5e31 f73d
00000360: cfbc f3be d0ad 7e3d f8f4 9fbd 2408 87be
00000370: 4768 1e3e be06 eebb c552 3d3d 0d8d 08bd
00000380: e276 57be 2ae6 1ebd 0844 91bd 4928 bdbe
00000390: 79b3 a2be 8a5e 76bc 4b65 9abc 78ce 3b3e
000003a0: be5f 37bc f049 2d3e bec5 ecbd 7f2f 6cbd
000003b0: d1a3 5fbd 75d9 0dbe 025d 6d3e 2f19 c1bd
000003c0: 55ca 383c ff3c 0cbe 6071 95be f804 643c
000003d0: 0319 12be 1380 323e f93a 85bd 123c 1f3e
000003e0: b856 e93e cf35 e33c 0e23 adbe cfec 283e
000003f0: 494d 243e 9994 32bc c6c6 973e 8b2f d0bd
0.040862225 0.14625666 0.06773202 -0.2180485 -0.18702953 -0.23061487 0.19022916 0.13777973
-0.18116862 0.23260143 -0.09255857 -0.16468951 -0.017906176 0.15191917 -0.097795315 -0.23668793
0.111357085 -0.38701057 -0.044894215 -0.20960803 -0.2061874 -0.15079594 -0.05554274 -0.0682535
-0.07624612 0.1468562 -0.010462262 0.14731535 0.07321998 -0.1436234 0.12220446 -0.19740805
-0.15014684 -0.04322399 0.28006232 0.23955658 -0.37094054 0.2042401 -0.14728032 -0.54258424
0.2330302 0.044779573 0.1657245 0.43463627 -0.025511576 -0.04058528 -0.100195475 -0.29103088
-0.041712575 -0.5211107 0.3581543 0.06324804 0.30046165 -0.34018174 0.17213473 0.11461606
-0.17789008 -0.0018795083 0.3284793 -0.13060099 0.052181464 0.050963644 0.02102251 0.27814943
-0.06838169 -0.12151396 -0.18582024 -0.39891577 -0.36575997 -0.16061233 -0.109982245 0.06386703
-0.11081546 0.08609356 0.4140688 0.032827623 0.28437427 -0.0908179 -0.21449225 0.18044016
-0.014795686 0.19766364 0.28811222 0.2080195 0.03456378 0.061678197 -0.2012247 0.0037203971
-0.45929742 0.30285636 0.07929293 -0.074649654 0.060337387 -0.09971125 0.0057864175 0.030063638
-0.2927308 -0.34607905 0.5379595 0.0001002172 0.19429818 0.019187408 -0.054686874 0.0406397
0.3562988 0.10334558 -0.29567263 -0.052943103 0.13962358 -0.14190833 0.24422489 -0.06890435
0.15262142 -0.42922562 0.4812633 0.19251606 0.07419407 -0.23111299 -0.08046692 -0.023004884
-0.20775852 -0.31721333 0.08839266 0.14733222 -0.035845287 0.46042573 -0.062266354 -0.28358805
-0.16106308 0.30616468 -0.71522003 -0.0058714394 0.53288096 0.15312915 0.21557036 -0.051931214
0.20248795 0.15824756 0.07842432 0.17611493 -0.40317485 -0.28411478 -0.15407264 0.16918096
-0.28158933 -0.08810159 0.15840021 -0.15090604 0.35137302 -0.0011692662 0.0913708 -0.095988914
-0.14854436 -0.11977912 0.13525653 0.31565455 0.24756749 -0.14804626 -0.13551651 -0.14803694
-0.28623563 0.17386825 6.252509e-05 -0.1726508 -0.04259423 -0.23274018 0.02568273 -0.05486681
0.18722054 -0.192775 -0.011505216 -0.3018528 0.051247902 -0.32353482 -0.032049563 -0.3504775
-0.065990716 0.11962269 -0.1111449 -0.17143995 0.19504364 0.18513949 -0.47541806 -0.20969588
-0.6211157 -0.16110517 0.2732405 0.2863384 -0.13404424 -0.04231782 0.036544885 -0.006367441
-0.2641789 0.3232578 0.06161714 0.22527935 -0.03422596 0.37084505 -0.27805144 0.2268521
-0.15380551 -0.16375928 -0.19899309 -0.11691223 0.12582918 -0.12496944 0.21257117 0.14198528
-0.38901117 0.059252247 -0.1539254 -0.58481693 0.15592165 0.112995125 -0.25150222 0.12069963
-0.47604987 0.06217748 -0.07810396 -0.26373398 0.15469466 -0.0072639873 0.046221513 -0.03333764
-0.21041444 -0.03879372 -0.07093054 -0.36944798 -0.31777552 -0.015037188 -0.018847128 0.1834048
-0.01119226 0.16922736 -0.11561154 -0.057662483 -0.054599587 -0.13852485 0.23180011 -0.094286315
0.011278708 -0.13695143 -0.2918806 0.0139172 -0.14267354 0.17431669 -0.06505389 0.15550259
0.45573974 0.027735619 -0.33815807 0.16496585 0.16045107 -0.010899686 0.2964384 -0.10165318

module.conv_layers.1.weight f4 [64, 64, 1, 1]
00000000: afe5 6dbd 55ce c73c 5d2b 9b3c dd6d 31be
00000010: 1979 033f 1e18 0e3e 4494 703e 43db 403e
00000020: c750 303e a4ec 7c3e 84b6 a4be 41ad 02be
00000030: 3e8b ffbd 2177 f3bd 193c 8f3e 8d9e 6c3e
00000040: 88e3 083e 0755 853e 1484 06be 4664 ab3d
00000050: 9cd1 053e fff6 fbbe 6ccb 043e 55ed 19be
00000060: c5e5 f53e cfb4 0ebe 395e bc3e 573c 5b3d
00000070: 79e0 2abe 4ff2 983e 5e83 303e 7d46 f0bd
00000080: 725b 17be 891b bc3e 6300 0e3f 33bd 1f3e
00000090: 9029 1ebe 2dd2 613e b59a 3e3e 3e5c 473e
000000a0: 7cfa 36be e75b 013e c6fa d0bb 2b0e a2be
000000b0: e11d 60bc 1a31 e2be 2386 53be f80e 053e
000000c0: 1140 06bc 04e3 363b 6e67 823e fcec 8ebc
000000d0: e0c9 cbbc 7e1a 4c3d 7ee9 ebbb a74d 633e
000000e0: fe6c 15be 1d12 52bd ba4a 86bd 7edd c23d
000000f0: d7bf 45be e9dd 48bd c61d 2dbd 2bef af3d
00000100: 44cb d83d fad1 02be 1c54 48bc d5e5 673c
00000110: aed0 023e 4ca4 013e 9661 0d3e 1105 dc3d
00000120: b768 f93d 6465 77be 951f 4a3e 75a2 7bbe
00000130: bec8 4f3e f498 00be 1e0f ec3d e1a7 973e
00000140: a64f dc3c 9ccf 543c f11e 323e ae58 1cbd
00000150: 3b90 883e 7477 80bd c331 afbd 6bf2 a83b
00000160: c3b8 023d 9682 b13d 60ce c9bd af4a 503e
00000170: ebc0 68bd 4332 82bd 1ade a0be 82de 47bb
00000180: 7cd6 293e 3bcf a63e d52a eabd 25b5 ca3c
00000190: 4302 fabc 1b74 ccbc aa55 3d3e 8270 dabd
000001a0: 5632 28be b131 b9be 3556 873e 0e7b 1fbe
000001b0: d999 073e 117c 70bd c554 9abe fd9c 88be
000001c0: 6b17 d6bd c9df 3bbd 65b0 b9be a1b5 ddbd
000001d0: 5ed6 5cbe 57db c73e ed06 103e 51e3 193e
000001e0: d2d0 083e f907 f5bc e8bf 5e3e 9fa4 903d
000001f0: 5150 d03d 1926 2ebd 8c37 68be 1d6d a13e
00000200: 9c2b c2bc 5de7 35be 496f da3d 73a7 833e
00000210: 4c4f 3e3e 1732 153e 8d1c a3bd 0382 6fbe
00000220: fbbb de3c 0315 80bd c720 22bd a618 86be
00000230: e5cd e23d 91ce 063e ff4a 423e c1d2 293e
00000240: 8b7e 38be 4c56 5f3e b3da 903e 1ce5 953e
00000250: 0c0d ce3e ac0b fb3c 0ebb ac3d 4938 b33e
00000260: 0633 213e 462b fbbe 14a9 4b3e eb3a 54be
00000270: 6cff 57be 729a 53be 929f 20be f1a4 053b
00000280: 3674 a93c 893d 623c cf9f 983e e9ce 0bbe
00000290: 5a95 1abe d27c 063d 7957 933e 2fdd 8dbe
000002a0: a6ac 29be 5b9a 243e 81ad 89bd 9850 aabd
000002b0: 6566 893e 9825 983e c548 fabd 00f9 1ebd
000002c0: d320 40be 3623 97be 77de bebc 99cd bcbd
000002d0: 1310 3c3d fcaf 0a3e 9063 503c dc19 0abe
000002e0: 3813 7ebe 8e53 e6bd 56be 05be 5279 fcbc
000002f0: 7e6a c2bd e52b 30bb b936 94be a515 42bd
00000300: 7903 4b3e 0b7d 883e 54bd 703e 2555 7f3d
00000310: a582 963e 2a98 e13d f339 0bbc f8f0 e8be
00000320: 1462 d33e 450f 473e 758d c1bd 59d3 50be
00000330: ceec 03be c218 9d3c c78a 623e 6f12 99bd
00000340: afb7 70bb c890 073b 541c 9bbe 57b3 79be
00000350: 721e babe 6f96 4f3d ab94 b73d 6778 2abe
00000360: 7c34 eabe b6f9 4b3e 34b3 babe d846 4dbe
00000370: cb99 e1bd 25bc 3c3e 15eb bbbd 4de6 b3bd
00000380: 05cc ad3e 1563 ddbd 82db 2ebf 2154 44be
00000390: 549d f3bd a003 ddbe f5a1 cd3c d367 bb3d
000003a0: 37e9 a03d 87b4 3cbd 0e11 b13d 5cd9 a2be
000003b0: adfa 31bc d3d0 193d 5412 75be 6fd7 3b3e
000003c0: fef5 d73d c1b3 33bd 2231 ff3e 3f0a 453e
000003d0: f9cb 283e aa11 bebd 4f39 463e d87a 963d
000003e0: 15c6 cfbd 6f1e cf3e a97d 1cbd ce1e c1be
000003f0: 7267 8c3d 65ac 74be c663 273e 57d0 d73d
-0.05808037 0.024390379 0.018941576 -0.17327066 0.51356655 0.13876387 0.23494059 0.18833642
0.17218314 0.24699646 -0.32170498 -0.12761404 -0.1247773 -0.118879564 0.27975538 0.23107357
0.13368046 0.26041433 -0.13136321 0.08368735 0.13068241 -0.4921188 0.12968224 -0.15031941
0.48026863 -0.1393616 0.36790636 0.05352434 -0.16687192 0.29872367 0.17237613 -0.117321946
-0.14780977 0.36739758 0.5546934 0.15599518 -0.15445542 0.22052832 0.18613704 0.19468781
-0.1786899 0.12632714 -0.006377551 -0.31651434 -0.013678999 -0.44178087 -0.20656638 0.12993991
-0.008193986 0.0027906308 0.25469536 -0.017446987 -0.024876535 0.049829952 -0.0071994653 0.22197591
-0.14592358 -0.051286805 -0.06557222 0.095149025 -0.19311462 -0.049039755 -0.042264722 0.085905395
0.10585645 -0.12775412 -0.0122270845 0.014153917 0.12774917 0.1266033 0.13806757 0.10743154
0.12178176 -0.24159771 0.1973861 -0.24573691 0.20291421 -0.12558347 0.11526321 0.2962027
0.026893448 0.012988951 0.17394616 -0.03817051 0.2667254 -0.06272784 -0.08554413 0.0051558516
0.031914484 0.086674854 -0.09853816 0.2034099 -0.056824606 -0.06357243 -0.3141945 -0.0030497615
0.16585726 0.3257998 -0.11433951 0.02474458 -0.030518657 -0.024957707 0.1848971 -0.106659904
-0.16425452 -0.36170724 0.26432958 -0.15574285 0.13242282 -0.05871207 -0.301428 -0.26682273
-0.104536854 -0.045867715 -0.3626739 -0.108256586 -0.2156615 0.3903453 0.14065142 0.1502812
0.13360909 -0.029911028 0.21752894 0.07062649 0.10171569 -0.0425168 -0.2267744 0.3152856
-0.023702435 -0.1776404 0.10665757 0.2571369 0.18584937 0.14569889 -0.0796443 -0.2338944
0.027189245 -0.06254008 -0.03958204 -0.2619068 0.110744275 0.13164736 0.18973921 0.16584302
-0.18017022 0.21810263 0.28291854 0.2927636 0.4024433 0.030645214 0.08434115 0.3500388
0.1574212 -0.49056453 0.19888717 -0.207256 -0.2109353 -0.20664385 -0.15685871 0.0020392502
0.020685297 0.013808616 0.29809424 -0.13653149 -0.15096036 0.03283388 0.28777674 -0.27707812
-0.16569766 0.16074507 -0.06722546 -0.08316153 0.26835933 0.29716182 -0.12220911 -0.038811684
-0.18762521 -0.2951905 -0.023299439 -0.09218902 0.045913767 0.13543695 0.01271905 -0.13486427
-0.24812019 -0.112464055 -0.13060889 -0.030819569 -0.09492968 -0.0026881632 -0.28948 -0.047383923
0.19825543 0.266579 0.23509723 0.06233706 0.2939655 0.11015351 -0.008497703 -0.45496345
0.41285765 0.19439419 -0.09450809 -0.20393123 -0.12883303 0.019176845 0.22123252 -0.07474219
-0.0036730578 0.0020685662 -0.3029505 -0.24384819 -0.36351353 0.050680574 0.08963903 -0.16647492
-0.45743167 0.19919476 -0.36464846 -0.20046556 -0.11015662 0.18431146 -0.09175698 -0.08784161
0.33944717 -0.10809914 -0.6830369 -0.19172718 -0.11895242 -0.43166828 0.025101641 0.09150662
0.07856982 -0.0460706 0.08645831 -0.31806457 -0.010862988 0.037552666 -0.23932773 0.183439
0.10544966 -0.0438726 0.49842173 0.1924219 0.1648406 -0.09280713 0.19357799 0.07347649
-0.10145203 0.40452906 -0.038205776 -0.37718815 0.06855668 -0.23893888 0.16346654 0.105377845

module.conv_layers.2.weight f4 [64, 64, 1, 1]
00000000: c4eb b03d 6118 3abe 825b 2e3e eee0 213c
00000010: 7714 813c 869f 7abb acef a3bc a213 d13d
00000020: 8e30 013d 3cc3 edba 4002 0e3d ba71 063d
00000030: 0ad8 35bd 8c9b c83e 370c d9bd b160 a9bc
00000040: 383e e83c 6c9b 8f3a b5db 1b3e 5649 c1be
00000050: 0889 873e 77ff 03be acbe d23a 3504 173e
00000060: e8c7 bcba 5d99 c9bd 1154 743e 8d33 f03d
00000070: 24c2 27bc 3ea1 0abd a3e2 293e 463c 92be
00000080: f3a4 103e d405 0f3e ed93 c63d b36c 64bd
00000090: 279e 6a3c 68c6 9f3e 3862 13be 3bda 3dbf
000000a0: 5b07 75ba e7b7 31be 1a07 f83c a4c4 4bbe
000000b0: 9a3a ebbc 9220 983e 540a 823e 6071 a23c
000000c0: 6eb5 09be 5bbd 4cbd d955 93bd c5ab 823b
000000d0: 5be0 a53b feb9 17be 7c7f b23d 45ba 78be
000000e0: ee5c fbbc c23a c53c 513e 98bd bdaf a43e
000000f0: d138 473e 0b58 bcbd 5493 2fbe 93a9 0abf
00000100: f28b cebe 6099 93bd c7b6 243e 3a40 38be
00000110: af2d 9cbd 151b d0bd e316 98bd 20ba 9cbe
00000120: 12f8 39be 5cd6 dd3c 2c9c 73bd 9165 fc3d
00000130: 98ac 6fbc 8373 ccbd 407a 2fbe 0fad 57bd
00000140: 5540 e83d a013 c0bd cfd6 06be d3f5 823d
00000150: 5b29 66be a279 43be 8d0c b2bd c11f 5fbd
00000160: 2a52 79bd 4ae6 303e e16f 13be a197 33bd
00000170: 49df 7a3b cfd5 00be c531 ccbd 00ea c8bd
00000180: b52e b2be 34cb 5cbe 947c a1bd 739d 30be
00000190: 77b5 983b 5cbd 6b3e 5a5f e1bd 1556 19bd
000001a0: 227f 27be 1ae6 023e 4b2c bbbd 1475 8d3c
000001b0: 513b 6e3d 8111 c83d 0a63 593d fcc6 083c
000001c0: ad06 2ebe dfff 873d 9c4e c83c 2edb 63bd
000001d0: e8bf 40be 570a 593e 0fe3 c73c a706 ae3c
000001e0: 5ba0 1cbf 53dd b5bd 884d 26bd 0b33 133d
000001f0: 9503 1abe 197e 73bd 5c4d 08be 2c39 c0bd
00000200: 9b8e e73c 9d38 b9bd 577e 35be 5e28 4a3e
00000210: e6b6 1abd 416a 313e fd36 57bd ad0e 06bc
00000220: 9753 8b3d 4b14 6a3d 3c28 24bd 42db 1dbe
00000230: f4be 223e 5943 84bd c0e9 313d 5843 8c3e
00000240: 1f1e 27bd 9c7a f93d 736f f63d cc2e 6f3f
00000250: 108c 9dbe ae52 59be 5e4f 2d3e 9dd9 07bd
00000260: 8bdd 113e 425b ae3d fe49 1c3e 9db5 7c3d
00000270: e25f aa3d a72e 4e3e fafa 79be d18c 153e
00000280: 95e9 9c3d 1b9a 3f3e ebdb af3c 1f0b 5b3d
00000290: a94c 06be 76cd 4abc 4290 783c ed12 073e
000002a0: e8ac 8e3e 7458 3d3e 581b 52bd bac6 0c3d
000002b0: fbb2 e93d ad53 a7bd 09ba 05be 43a1 ebbc
000002c0: 0032 95ba d1a0 a93e 717b 16be 1c2a 723d
000002d0: 0483 2e3e 5ef2 b03d 3dfd 093e 7928 10be
000002e0: 4065 ea3e cb1b 6a3e 6edb df3d 546c 563d
000002f0: a03c 5dbc 8960 263e 2dd4 96bd 78ff 5dbd
00000300: ba19 a0bd 0897 423d 8ea9 c9bd 9e17 22be
00000310: 8c5f 0abd 32b4 6fbe 4702 09be a6b9 15bc
00000320: e921 fcbc d04a 9b3c 5383 9e3c da91 9fbc
00000330: b0cb e4bd c288 6abe 6c53 3bbe 7feb aa3b
00000340: c577 363d 42f2 6b3c 2bfc bebd 1e76 8c3e
00000350: d0d4 c3be 7150 86bb 0a2a 5abe 6588 febb
00000360: 33a6 cebd 5e5e d33c 8764 31be 04eb dcbc
00000370: 8eed a73d f9cd eabd 6ef2 f23d dac7 9dbd
00000380: 24e8 75bd 73a0 9ebd b902 2ebd e1e6 f3bd
00000390: fbe7 113e 5b2f 173d 4f69 13be bc4e 97bd
000003a0: df99 a2bd feff 93be 3238 d5be fe3a 1e3e
000003b0: 49c8 8e3d 20a9 cc3d b7f9 6c3e 14aa eabd
000003c0: 108f 1a3d 50c5 d73d a74a 9dbc 5b7b dcbc
000003d0: 4aba 16be 5632 0ebe 54ab 87bd 0612 dfbd
000003e0: b6ee a9be 7863 d7bc cd14 9fbe abb0 14be
000003f0: ab48 9cbd 48c0 49be 3961 90bc 9bb6 9abd
0.08638719 -0.18173362 0.17027095 0.009880288 0.015756829 -0.0038242056 -0.020011745 0.10208823
0.031540446 -0.0018139849 0.034670115 0.0328233 -0.044395484 0.39181173 -0.10598033 -0.020675989
0.02834998 0.0010956354 0.1522053 -0.37751263 0.26471734 -0.12890421 0.0016078553 0.14747699
-0.0014402838 -0.09843705 0.23860194 0.117285825 -0.010239158 -0.03384518 0.16590361 -0.2856161
0.14125423 0.13967067 0.09696183 -0.055767726 0.014319933 0.3120606 -0.14392936 -0.7416112
-0.00093471044 -0.1735531 0.030276824 -0.19899231 -0.028714467 0.2971235 0.25398505 0.019829452
-0.13448116 -0.04998527 -0.071941085 0.0039877617 0.0050621456 -0.14817044 0.08715722 -0.24289806
-0.03068396 0.02407587 -0.07433761 0.32165328 0.19455267 -0.0919648 -0.17146045 -0.54165
-0.40341145 -0.07206988 0.16085349 -0.1799325 -0.07625901 -0.101614155 -0.0742624 -0.30610752
-0.18161038 0.027079754 -0.05947511 0.1232406 -0.014628552 -0.099829696 -0.17136478 -0.052655276
0.11340395 -0.09378743 -0.1316788 0.063945435 -0.22476713 -0.19089368 -0.086938 -0.054473642
-0.060869373 0.17275348 -0.14398147 -0.043845776 0.003828006 -0.12581562 -0.0997043 -0.09810257
-0.3480126 -0.21561891 -0.078850895 -0.17247562 0.004660304 0.23021454 -0.11004515 -0.03743561
-0.16357091 0.1278309 -0.091393076 0.017267741 0.058162037 0.097689636 0.053072967 0.008348223
-0.16994734 0.066406004 0.024451546 -0.055628948 -0.18823206 0.2119535 0.024400262 0.021243406
-0.61182183 -0.08880105 -0.040601283 0.03593735 -0.15040429 -0.059446428 -0.1331076 -0.09385905
0.028266242 -0.09044001 -0.17723976 0.19741961 -0.03777208 0.17325689 -0.052542675 -0.00818221
0.06803053 0.05714826 -0.040077433 -0.15415671 0.15893155 -0.06458158 0.043435812 0.2739513
-0.04080021 0.12181589 0.12032976 0.9343078 -0.30770922 -0.21222946 0.16924807 -0.033166517
0.14244668 0.085135 0.15262601 0.061696637 0.083190694 0.20134984 -0.24412146 0.14604498
0.0766174 0.1871113 0.02146717 0.053477403 -0.13115181 -0.012378087 0.0151711125 0.13190813
0.27866292 0.18490773 -0.05129561 0.034369208 0.11411091 -0.08170257 -0.13059248 -0.028763419
-0.0011382699 0.33130506 -0.14695527 0.05912219 0.17042166 0.08639978 0.13475509 -0.14077939
0.45780373 0.22862165 0.10930525 0.052349404 -0.013503224 0.16247763 -0.07364688 -0.054198712
-0.07817407 0.047507316 -0.09846793 -0.15829322 -0.033782527 -0.23408583 -0.13379775 -0.0091385
-0.030777888 0.018956572 0.01934973 -0.019478727 -0.11171663 -0.22903731 -0.18293542 0.0052160616
0.044547815 0.0144010205 -0.09325441 0.27433866 -0.382483 -0.004098945 -0.21305099 -0.0077677243
-0.10090294 0.025801834 -0.17323504 -0.026967533 0.08199607 -0.114650674 0.11862646 -0.07704134
-0.06003584 -0.07745447 -0.042483065 -0.11909271 0.1424865 0.036910396 -0.14395641 -0.07388064
-0.07939505 -0.28906244 -0.41644436 0.15452191 0.06971795 0.099931955 0.23142134 -0.11458221
0.03773409 0.10535681 -0.019200636 -0.02691429 -0.14719501 -0.13886389 -0.06624475 -0.108921096
-0.33189934 -0.026292548 -0.31070557 -0.14520518 -0.07631048 -0.19702256 -0.017624484 -0.075543605

module.conv_layers.3.weight f4 [64, 64, 1, 1]
00000000: a3d0 80bd 2feb 40be 105e 4ebd 05cd 333e
00000010: 2628 433e b121 03be 31dd e33d 3c16 673d
00000020: fe0b d5bd ca24 733d 8b64 d63c 0126 febd
00000030: 9155 92be 011e 433e 7904 55be ee6f 8cbe
00000040: 412d 133e 10a5 1d3e 77c4 e03c 5202 b93e
00000050: 2baf 1cbe 170f 403e 718e 9b3c e709 8ebc
00000060: 6f13 19bd 73f0 483d 561b af3d 49fe 8bbe
00000070: ee4a dcbd 18d4 443e 68f9 53be c4d8 e33d
00000080: 294b 3d3d 0575 a5be 9844 90be 4e81 ba3d
00000090: a53f f43d 1409 89bd a7c3 5e3e b11c 003e
000000a0: 4b16 9a3d b61b 27be 1829 ccbe 477a 54be
000000b0: e940 15be 12f2 54bd 9336 e4bd 7c23 9ebd
000000c0: c091 663e 0e0b 95bc c18c 28bc 5abd 243e
000000d0: 0b3b 0ebe 4c55 213d b32e 88bd c8b3 e43c
000000e0: 8b57 8ebd 1355 bb3e 850e 2e3e 97f5 0e3e
000000f0: b24a 2e3e ef8a b53d ac83 b93b 0c76 9d3d
00000100: 591a 523e ebbc 93bd a722 c2bd 04a7 b13e
00000110: 7224 863c 54cb babc c4e7 093e 08fd 2b3e
00000120: b4db de3d 6fb0 fe3e 85fc 033e fbd5 8cbe
00000130: 9007 d73d 613f ac3d 15a3 6fbe 137d 043e
00000140: cee6 a93d af07 be3d c303 6cbe 468e 7dbe
00000150: 940f 88bd 95fc a8be d523 58bd d6f1 1ebe
00000160: 8dbe c63d 77e0 f8bd bb3d 1f3d 60f3 a23d
00000170: 2a50 4a3d 9cb7 df3d 134b 6c3e 0263 0dbe
00000180: 2546 1d3f f569 893d dd08 0abc 18ba fcbc
00000190: 3364 7bbc 49ec 35bd d64c a4bd 7e81 bcbd
000001a0: 0743 a23d c153 393e d252 053c dd27 bbbd
000001b0: 6df8 de3d 27ba dcbc 4a1e 9a3d c4f3 87bd
000001c0: 3df3 1bbe b5e4 9e3e 1cbc 76be b6de 80bc
000001d0: f6c1 283e fbd1 533e 7f49 273e 6370 743e
000001e0: 6482 92be 6cef 04be 4815 1ebe 765d 1f3d
000001f0: fb60 7fbe 65bf 0bbd 9516 40be b64c 943e
00000200: 4715 883d 22ef 353e 248f 1d3e a922 ae3e
00000210: a9a3 89bd ee17 443e 7fed 893d 70eb d1b9
00000220: 9252 07be f0f6 32be a502 cf3d f197 c43e
00000230: a5a1 803d d68e 353a 97b8 2fbe 5835 653e
00000240: 9d74 52bd abd3 bf3d ed57 a9bc 5737 47be
00000250: 81a2 dfbe b4fc 66be 1bf4 b2be 6838 56be
00000260: 38a3 7a3d 07cd babe 939c d73b eb09 ca3d
00000270: 779c 5bbe 1904 99bc 5122 39bb ece8 db3d
00000280: 06ba 76be ac7e e8bd df59 42be 8e60 d53d
00000290: d08e 753c 6ab3 aebd 8f05 01ba dc73 90be
000002a0: de97 f33b fb8b 2d3d 9503 32be 5c07 9d3d
000002b0: 288b e5bd 5f9b 33be 999a 6d3d aa7f c63d
000002c0: eb90 a43d 0fb8 94be 842f 973e 4823 1cbe
000002d0: 802f b0bd d40f 133e 9ccc 5bbe f11e 133e
000002e0: d78e 5fbe 1038 453e 27b4 6a3e 8d9f 42bd
000002f0: f069 c73d 2c79 66be df0d 4e3e 46d5 b53e
00000300: 466f 503d 7a94 8e3e e1c4 c5bb 7afc 9b3d
00000310: f139 4dbc fb76 11be b4db 96bd 596c d5bc
00000320: 84fa 2a3b d71d 4c3e a3cc dfbd b4bd 9bbd
00000330: 94e1 f7bd a90a a5bd 2022 04be 353f 91be
00000340: b533 8e3a 1ef0 42be be94 c83c 88e1 a33e
00000350: edc4 083e 2797 fc3c c9e4 3dbe eab7 bdbd
00000360: a647 d13c 8e05 87bd fb79 ccbc b372 f6bd
00000370: 602e 95bd 0ac1 1fbe a5b7 b1be d234 76bd
00000380: b7e5 283d 15ee 373e 4b62 ab3d d1d6 abbc
00000390: 427c 983e 0ad8 c4bc f63a 76be 8a9b 763e
000003a0: 4264 e13d 6f3e bb3d c131 103d cca1 0c3e
000003b0: 333f 80bd 4e8c 7a3d 0ae4 ee3d b11d 4fbe
000003c0: 59b6 263e e4be febd 65a2 953d e0b4 4e3c
000003d0: f4c4 ccbd c49d 633d 67e3 dcbd eccf 263e
000003e0: 701a 4d3e e69c 3ebe 71ad f0be 5b25 2aba
000003f0: 62f0 c2bd 337c 8c3d c1f5 9dbd 417b 7ebe
-0.06289794 -0.18839715 -0.050382674 0.17558677 0.19058284 -0.12805821 0.11126173 0.05641769
-0.10402678 0.059361257 0.02617099 -0.124095924 -0.28580907 0.19054414 -0.20802487 -0.27429146
0.14372732 0.15394998 0.027437432 0.36134583 -0.15301196 0.18755756 0.01898882 -0.017338706
-0.03737205 0.049057435 0.08550136 -0.27342442 -0.10756479 0.19221532 -0.2070061 0.11125329
0.046214256 -0.3231584 -0.28177333 0.09106694 0.11926202 -0.06691185 0.21754323 0.12510945
0.07523783 -0.16319165 -0.39875102 -0.2074977 -0.14575543 -0.05198867 -0.11143222 -0.07721612
0.22516537 -0.018193748 -0.010287465 0.16087857 -0.1388971 0.039387986 -0.06649532 0.027917758
-0.06950291 0.36588344 0.16997726 0.13960873 0.17020682 0.0886439 0.0056614485 0.07688531
0.20517863 -0.072137676 -0.09479266 0.34697735 0.0163748 -0.022802033 0.13467318 0.16795743
0.10881749 0.49743983 0.12889297 -0.27507004 0.10499489 0.08410526 -0.23402055 0.12938337
0.082959756 0.09278809 -0.2304831 -0.24761304 -0.06643596 -0.33005205 -0.052768547 -0.1552194
0.097043134 -0.12152188 0.03887723 0.07956576 0.049392857 0.109236926 0.23075514 -0.138073
0.6143516 0.06709663 -0.008424965 -0.030850455 -0.015343714 -0.044414792 -0.08022468 -0.09204386
0.07922941 0.18098356 0.008137422 -0.09138463 0.10887227 -0.026944233 0.075253084 -0.066382915
-0.15229507 0.31033865 -0.24095196 -0.015731197 0.1648024 0.2068557 0.1633663 0.23870997
-0.28615105 -0.12981957 -0.15437806 0.03890749 -0.24939339 -0.034118075 -0.18758614 0.28964776
0.06644683 0.17767003 0.15386635 0.3401082 -0.06720669 0.19149753 0.06734752 -0.00040039
-0.13215092 -0.17477012 0.10107926 0.38397172 0.06280831 0.0006925886 -0.17160259 0.2238363
-0.051380742 0.09366544 -0.02067181 -0.19454704 -0.43678668 -0.22557336 -0.34951863 -0.20919955
0.061190814 -0.36484548 0.0065799444 0.09865173 -0.21446405 -0.018678712 -0.0028249214 0.10737786
-0.240944 -0.11352286 -0.18979596 0.10418807 0.014987662 -0.08530314 -0.0004921788 -0.28213394
0.0074338755 0.042369824 -0.17384179 0.07667419 -0.112081826 -0.17539738 0.058008764 0.09692319
0.080354534 -0.29046676 0.2952844 -0.15247834 -0.0860281 0.14361507 -0.21464771 0.14367272
-0.21831833 0.19259667 0.22920285 -0.04751544 0.09737003 -0.22507161 0.20122479 0.35514277
0.05088737 0.27847654 -0.0060354327 0.076165155 -0.012526021 -0.14205544 -0.07366124 -0.02605264
0.002608926 0.19933258 -0.10927703 -0.076045424 -0.121035725 -0.08058674 -0.12903643 -0.28368536
0.001084915 -0.1903691 0.024484988 0.32008004 0.13356371 0.030833794 -0.18544306 -0.092635944
0.02554686 -0.06592856 -0.024960509 -0.12033596 -0.07284236 -0.15600982 -0.34710422 -0.060108967
0.0412347 0.17961915 0.08368357 -0.020976456 0.297823 -0.024028797 -0.2404593 0.24082771
0.11005451 0.09142768 0.0352037 0.13733596 -0.06262054 0.06116896 0.11664589 -0.2022617
0.16280498 -0.12438753 0.07306365 0.012616366 -0.09998503 0.05557038 -0.10785561 0.16290253
0.20029616 -0.1861454 -0.47007325 -0.0006490552 -0.09518506 0.068596266 -0.077128895 -0.24851705

module.conv_layers.4.weight f4 [64, 64, 3, 3]
00000000: f3b5 25bd 7855 2cbe f100 5e3e ce19 5cbe
00000010: 0c32 03bc e9e1 a73d 977f c63d 8bc5 46bc
00000020: fe2d 38bd 6e4f c4bc 3dda 0e3c 58c8 023d
00000030: 4057 903c df36 d0bc d403 5fbc a907 bf3c
00000040: 526d 8d3c 10ae 033d 3e94 82bd a594 773b
00000050: 7b54 11bc c2e5 c6ba 3622 ce3d 6f18 e1bd
00000060: 080e 3a3d e030 523c 4469 e3bd 607c 85ba
00000070: 3cb0 ad3c 8a9b 103d f721 ac3d cb2c a3bc
00000080: 5ae3 ffbb 9bd5 39bc 49e9 89bd 5c33 dcbd
00000090: fd67 053e cf79 e83c b636 1fbe a261 1abb
000000a0: 5e9c 27bd 585f 733d 87ff d0bd 258a 253d
000000b0: bd1e 633e fc0c 0fbd ed67 8bbd 09f2 84bd
000000c0: d085 b33d d3b6 1dbe 5336 6abd 6bf8 683d
000000d0: f76b 2cbe 5be3 56bd b64f 20be aac2 4abd
000000e0: bb8d 273b 36d8 e1bd 94bc 4f3d 5ecc 5cbe
000000f0: e76a a6bd f3ab 203d 9592 233d 37f3 903d
00000100: d72b e13d 485d e53d b2fc 883d 5244 953d
00000110: 1a09 e13d 9f46 5bbd 7b34 8dbd 220d 133b
00000120: 57e1 c7bd 777b acbb 5af4 4cbe 3181 613e
00000130: 312c bebc 7c02 81be 92e4 aebd d399 973c
00000140: ffe9 0cbe aaa7 e73c 868f eabd 661e 02bd
00000150: 69f9 b4bd 910b fbbd 3912 abbd a6f7 c5bd
00000160: 9b44 a43d 952b 43bd 9a03 b5bc c3db b1bd
00000170: 7f67 b9bd 9c41 a63b dced f73c c6f5 b5bd
00000180: dbaf 393d bcfc 4abd c027 aa3d 3f18 30be
00000190: a8f2 4dbe ede5 bcbe 39bd 0cbe 5f1a 95be
000001a0: f65c c2be afbf 20be 568c b8be 4913 02be
000001b0: f312 ee3d bb9f a1ba c930 96bc 6ecd 483d
000001c0: cb7f a0bc 692b 323d 5950 fd3d 4293 6f3d
000001d0: 25fd de3d 57ee 62be 6994 92be cf0a fb3c
000001e0: 3410 92bd 00e5 9e3c c28b 98be a007 30be
000001f0: fded b6be 6d11 96bc 3412 803d 5517 403e
00000200: d0e5 293d 9173 0cbe 3ae6 e6bc 5e66 863d
00000210: 07dc 013d d3b4 933d a5d4 ef3c 731a 9ebb
00000220: 73f4 1ebd b1ed 90bd 5983 063d 5d5f 9dbd
00000230: 87a2 dd3c 376f 3f3d efed 87bd 6d75 52bd
00000240: 44dc 2b3d af01 fc3c 6310 4abd 4bed 413d
00000250: b7a2 9a3d 3c5b 103d 0a60 88bd 3582 b43d
00000260: 6795 8f3d 4693 a7bd d862 893d 886b 26bd
00000270: fbdb 90bd 9407 33bd 31a2 e93c ad24 95bd
00000280: 0ab9 87bd d855 89bd 0232 10be 2b4e 87be
00000290: a1b8 94be f4d0 1fbe 5637 aebe e221 9ebe
000002a0: 620a e7bc 0e98 e6bd 69b7 f43d 7e9d babd
000002b0: e726 623c d22b cc3c c69e aebc 9e3b f13d
000002c0: c9b8 0f3e e5d1 553c c98f 53bd 24cf 79ba
000002d0: 19c0 d73e 52ac 233f 1ab3 cf3e a009 ba3e
000002e0: 49ff b53e 9eeb 023f d80f 023f 60b0 043f
000002f0: da0f e13e 8ab2 d7bd b993 85bd 8f28 fd3d
00000300: 9132 23be 47cb 82bd b16c dd3d 3cfc cd3a
00000310: f5d6 c8bd 1002 143c dfe0 15bd 6184 96bd
00000320: 18f5 51bd 75ec d43c f4d1 d7bc 6ae3 0a3e
00000330: f508 bcbc 9579 bf3d a890 95bd 2df0 6cbc
00000340: d5fd c83d 7971 633e 7b73 8abd a0a4 8dbc
00000350: 8cf2 653d 144c 3dbb 5240 b9bd 37a1 58be
00000360: 1ced 48be a84f d9bc fa2d 0e3e df8e abbd
00000370: eac1 0abe 47cc bc3c 3df4 bbbd 9fc4 083c
00000380: fec2 c93d 8b2d 0c3d cb1a 073d 6d1f 0ebd
00000390: 2630 123d b487 21bb fcad 6ebd 042e a5bd
000003a0: 9f28 133d ab4f 58bd 14d0 8c3d d01d e4bd
000003b0: 232a bd3c 7a29 afba 1a5a 0dbc 019d f93d
000003c0: 8cf8 31bd 4c91 4d3c f446 a83b b8e7 543e
000003d0: f539 2fbe 82f3 513e 6043 133e 34b8 8f3d
000003e0: 73e6 573e 99f5 1abd 168d 553e e18b f13c
000003f0: 4134 0abe aa63 2dbd 6c28 2ebd 4b34 98bd
-0.040456723 -0.16829479 0.21680047 -0.21494219 -0.008007538 0.08197386 0.096923046 -0.012132059
-0.044965737 -0.023963656 0.008719024 0.031929344 0.017619729 -0.02541679 -0.013611753 0.023319082
0.017264042 0.03214842 -0.06375931 0.0037777808 -0.008870239 -0.0015174674 0.10065119 -0.109909885
0.045423537 0.0128290355 -0.11104062 -0.0010184161 0.0212022 0.035304584 0.08404916 -0.01991882
-0.007809085 -0.011342431 -0.06733949 -0.107519835 0.1302795 0.028378395 -0.15548214 -0.002355673
-0.040920608 0.0594171 -0.10204988 0.040414948 0.22179694 -0.034924492 -0.06806932 -0.06491477
0.08765757 -0.15401773 -0.057180714 0.056877535 -0.1683806 -0.052462917 -0.15655407 -0.049502052
0.0025566656 -0.11027567 0.05071695 -0.21562335 -0.08125859 0.039226484 0.039934713 0.070776395
0.1099469 0.111994326 0.06688823 0.07288422 0.10988064 -0.053534146 -0.068947755 0.0022438248
-0.09759777 -0.0052637416 -0.20015088 0.22021939 -0.023214431 -0.25197208 -0.0853969 0.018505966
-0.13761137 0.02827819 -0.11453156 -0.03176727 -0.08836634 -0.122580655 -0.08353085 -0.09666376
0.08020898 -0.047648985 -0.022096444 -0.08684494 -0.090529434 0.005073739 0.030264787 -0.08884768
0.045333724 -0.049557433 0.08308363 -0.17196749 -0.20112097 -0.3689417 -0.13744058 -0.29121682
-0.3796155 -0.15698121 -0.36044568 -0.12702669 0.11624708 -0.0012330929 -0.01833381 0.049024038
-0.019592186 0.04349843 0.12368841 0.058490045 0.10888127 -0.22161232 -0.28628853 0.030644802
-0.07131997 0.019396305 -0.29794127 -0.17190409 -0.35728446 -0.018318856 0.06253472 0.187589
0.041478932 -0.1371596 -0.028185952 0.06562494 0.031703975 0.07212224 0.029276202 -0.0048249303
-0.038807344 -0.07076586 0.032840107 -0.07684205 0.027055038 0.046736922 -0.06637179 -0.051381517
0.04195811 0.030762522 -0.049332034 0.04734544 0.07550567 0.035243258 -0.06658943 0.088138975
0.07010918 -0.08182387 0.06708306 -0.040629894 -0.07073208 -0.0437084 0.028519722 -0.07282386
-0.0662709 -0.067058265 -0.14081576 -0.26426825 -0.2904711 -0.15607053 -0.34026593 -0.30885226
-0.028203193 -0.11259471 0.11949045 -0.091120705 0.01380322 0.024923239 -0.021315943 0.11778949
0.14035334 0.013050531 -0.051650796 -0.00095294625 0.42138746 0.63934815 0.4056633 0.36335468
0.3554633 0.51140773 0.50805426 0.51831627 0.43957406 -0.105321005 -0.065223165 0.123612516
-0.15937258 -0.06386428 0.10811747 0.001571543 -0.09806625 0.009033695 -0.036591407 -0.07349468
-0.05125913 0.025991658 -0.02634523 0.13563314 -0.02295349 0.09349362 -0.073029816 -0.014461559
0.098140396 0.22211255 -0.067603074 -0.017290413 0.056139514 -0.0028884457 -0.09045471 -0.21155249
-0.196217 -0.02652724 0.13884726 -0.0837686 -0.13550535 0.023046626 -0.09177444 0.008347659
0.09851645 0.03422312 0.032984536 -0.03469794 0.03569045 -0.0024647536 -0.058271393 -0.080654174
0.03592741 -0.052810352 0.06875625 -0.11138499 0.023091381 -0.0013363801 -0.008627439 0.12188149
-0.043449923 0.0125468485 0.0051354114 0.20791519 -0.17111953 0.20503047 0.1438117 0.07017556
0.21084003 -0.037831876 0.20854601 0.029485645 -0.13496496 -0.042331375 -0.042519018 -0.07431849

module.conv_layers.5.weight f4 [64, 64, 1, 1]
00000000: 7eff 153e dce7 923e af00 24be 4442 613e
00000010: 1119 b8be 2942 5a3d ef33 3e3d e3ad bfbe
00000020: f63e ea3d 45dd 1fbc 6b64 de3d 6dc2 ee3c
00000030: 5da6 f3bd b603 6c3e 6ae4 ee3c 9e47 5f3e
00000040: b8dd 253e 478e e43d 3b52 0abe 281d 953d
00000050: ebed d7bd 74a2 d33e 48fe 8ebd 79db 96bd
00000060: c11a 4abe 74dd 0c3e 6c54 503e 21b5 3fbe
00000070: 1935 ac3b f60f 49be 63e2 5abe 1f29 92bc
00000080: 85d9 9a3e e38a 3abe be0c 173e 6e64 8bbc
00000090: 0c9b a03e 7130 4ebe 7a85 593e 23c0 243e
000000a0: 31cd dc3d ce6e 843d 59b5 05be b99f e53d
000000b0: 2826 9b3e a6ce 0ebe 1cf5 b33e e165 823d
000000c0: ca50 6b3d 9c2a 66be 54b3 4cbe 609a f13d
000000d0: ed9b 6bbd 622c 36be eb00 cf3d e0fd a53e
000000e0: bb63 09be 2215 9d3d 983d 2c3e f4da 653d
000000f0: 916a 273e 3ea2 c53d 0503 f43d 80b5 103e
00000100: 69ba fa3e 97ef b9bc 1fb0 113f 3efe b73e
00000110: c172 c83d 64f6 8cbd 2475 9b3e fdc4 98be
00000120: 5571 84bd ea15 813e d01b f3bc 5cb2 c2bc
00000130: 2e53 cb3d 2133 9a3e ca2c 833d 5f55 c43d
00000140: eb75 053f a935 59bf fb0b 4c3e 5ea6 5a3c
00000150: 9fdb e1be 5afe 58bd 8159 a9bd b413 8e3d
00000160: 6cab 87be fa34 703d f6a8 83be 34ad b2be
00000170: 4678 423e 2e92 b93e 3f2f 80be 8c49 8bbd
00000180: 6e80 a33b 2c2c 2dbd ab2a 333e ba2c 36be
00000190: e585 5ebd ab91 483e 2be4 87be f262 8c3e
000001a0: 03c0 243e f3f1 80bd 7786 8b3e 0ce9 223d
000001b0: ef93 8ebd 92d6 1cbe ce8b 18be 79a8 593e
000001c0: aafe 113f 9ea8 963e 1e75 58bd f713 0d3e
000001d0: e89a 83be 8302 f93d 92c8 053f 8a14 173e
000001e0: df71 863d 7adb 913d ea0d 1abe 2f72 bbbc
000001f0: 302b b93c 2b80 10bf ef08 b53e a25f 573e
00000200: 6f2a b8be 98d9 d43e 6e22 413d cce0 d23c
00000210: fbcc a83d 0a0a 8c3e 3272 023e a87b 8b3e
00000220: 404a da3d 4c4f 02be 917e e7bc aef7 433c
00000230: c16e e1bc 5d58 963d 7051 25be d168 c0bd
00000240: 7958 ecbd 14c1 693e 1ada d5be 9bab 263d
00000250: efb6 d03d 3dae b7bd fe71 dfbd 32ca 653d
00000260: 8699 663e 9d6d 953e e350 95bd f9d7 bcbc
00000270: 07c5 33be 1a99 54bd 07d7 50be e231 13bd
00000280: e8f9 433e 126d 563e 8408 6b3e 374a 353e
00000290: b39a ddbd f6ac 8c3d 998d b6bc a5b5 cd3d
000002a0: 9c57 cb3c cc14 0f3e 89f5 c6bd 9ef1 d93d
000002b0: c6d0 38bd 6e69 1b3d 4d05 f63c 6bfc d23d
000002c0: b16b 54bd 969b 103e 92e0 d2be 61af 143d
000002d0: ef12 76be ec80 a3bd 724b 0a3c c074 8abc
000002e0: af5f 443d 8985 b5bd 2f72 0ebc e83b 25be
000002f0: 5c94 88bc 63df dfbd 1d0f bfbd d243 0a3e
00000300: e955 ebbd 1703 bebe fb10 2ebe 5965 4e3e
00000310: cbfd cd3e f777 9e3d 4529 a5bc c0b5 9e3d
00000320: 4a19 56be feb4 8abe 2681 003e a3ec 9cbb
00000330: 0fd5 55bd b1db 0ebe 924e 383e 991f 28bd
00000340: 5092 2dbe 0f88 bd3d c3c5 e53d 8203 a3be
00000350: 9b41 2b3d c600 043c c5a1 bcbc f22d a33d
00000360: b75d 3f3b f3db 843b 95a3 0e3e 75f1 5c3d
00000370: 54d7 94bd 4567 94be 9768 64ba 3b81 5b3d
00000380: db6a 763e a2cd adbd f402 e9bd 702d 493e
00000390: 11a2 b8bd 6273 83be 3dd4 c33d e26a 5abe
000003a0: 5efd 003f b134 fbbd 7e6f c43b 5c1e 823d
000003b0: 1b79 73be 6383 13be b881 85be 71b6 ffbd
000003c0: 4054 e13d 9a84 4c3e 9499 733e b5bf b23d
000003d0: 2dda 853d 9e66 bf3d 7f40 cc3d aeb4 e1bc
000003e0: b39c c73e 4107 c53d dd7e 323e 7770 b13d
000003f0: baee a139 bc26 9e3d 805d 30be b46a d9be
0.14648244 0.2869252 -0.16015886 0.21997935 -0.35956624 0.05328575 0.046436246 -0.37437353
0.1143779 -0.009757345 0.10858997 0.029145444 -0.11896966 0.2304829 0.02916165 0.21804664
0.1619786 0.1115995 -0.13507931 0.07280952 -0.10543426 0.4133488 -0.06982094 -0.0736608
-0.19736768 0.13756353 0.20344704 -0.18721439 0.005255353 -0.19634995 -0.21375422 -0.017841874
0.3024408 -0.18217044 0.14750955 -0.017015662 0.3136829 -0.20135666 0.21242324 0.1608892
0.10781325 0.06466447 -0.1305746 0.11212105 0.30302548 -0.13946018 0.3514794 0.06367088
0.057450093 -0.22477192 -0.19990283 0.11797023 -0.05752175 -0.17790368 0.10107597 0.32420254
-0.1341695 0.076700464 0.16820371 0.056117013 0.16349246 0.09650086 0.119146384 0.14131737
0.48970345 -0.022697253 0.56909364 0.3593616 0.097875126 -0.06882933 0.3036281 -0.2983779
-0.06466929 0.25212032 -0.029676348 -0.023766689 0.09927975 0.30117133 0.06405027 0.09586596
0.52133054 -0.84847504 0.19926445 0.013345329 -0.4411287 -0.052976944 -0.08269025 0.06937352
-0.26497972 0.058644272 -0.25714844 -0.34897768 0.18991193 0.3624434 -0.25036046 -0.06801137
0.0049896752 -0.042278454 0.17496745 -0.177905 -0.05432691 0.19586818 -0.26541266 0.2741924
0.16088872 -0.06296148 0.27251026 0.039773032 -0.0696181 -0.15316227 -0.14897081 0.21255673
0.5702921 0.2942552 -0.052846067 0.13777147 -0.25704122 0.12158682 0.5225917 0.14753929
0.06564688 0.0712194 -0.1504437 -0.022881595 0.022603601 -0.5644557 0.35358378 0.21032575
-0.35969874 0.4157226 0.047151975 0.025741957 0.08242222 0.2735141 0.12738875 0.2724278
0.10658693 -0.12725562 -0.028258594 0.011960907 -0.027518632 0.07341073 -0.16144347 -0.09394992
-0.11540312 0.2282756 -0.4176796 0.040691 0.10191142 -0.0896878 -0.10910414 0.05610103
0.22519502 0.2918519 -0.072908185 -0.023052203 -0.17555629 -0.05190382 -0.20394526 -0.035936244
0.191383 0.20940045 0.22952467 0.17704092 -0.10820522 0.06868927 -0.022284316 0.100444116
0.024822049 0.13972777 -0.09714801 0.10641788 -0.045120977 0.037942342 0.030031824 0.10302051
-0.051860515 0.14121851 -0.4118696 0.036300067 -0.2403066 -0.07983574 0.008440839 -0.016901374
0.047942813 -0.088633604 -0.008694216 -0.16136134 -0.016672306 -0.109312795 -0.093290545 0.13502434
-0.114909954 -0.37111732 -0.16998665 0.20155849 0.4023269 0.07737725 -0.02016128 0.0774951
-0.20908085 -0.2709121 0.12549266 -0.0047889515 -0.05220514 -0.13950993 0.17998722 -0.04104576
-0.16950345 0.09254467 0.11219361 -0.31838614 0.041810613 0.008056825 -0.023026356 0.07967748
0.0029200146 0.0040545403 0.13929589 0.05394121 -0.07267633 -0.28985038 -0.0008713095 0.05359004
0.240642 -0.08486487 -0.113775164 0.1964624 -0.09015287 -0.25673968 0.095619656 -0.21329835
0.5038661 -0.122659095 0.005994736 0.06353447 -0.23776667 -0.14405589 -0.2607553 -0.1248597
0.110023975 0.19972458 0.23789054 0.087279715 0.06535754 0.093457446 0.09973239 -0.027551975
0.3898674 0.09620524 0.17431207 0.08664029 0.00030886178 0.07722232 -0.17223167 -0.4246422

module.conv_layers.6.weight f4 [64, 64, 1, 1]
00000000: f588 a2bd ccbf 25bd 59d1 babd d3e7 8a3d
00000010: 9d81 b33d d00a f43c 408d 90be 85eb d7be
00000020: 0eac 1e3d 6137 6fbe 4847 62be 25be 1c3e
00000030: 2984 96bd a8e8 40bd 7fda cfbe 8f07 b63b
00000040: 7638 95be ee2b 61be a1c9 94be c0b0 523e
00000050: 104a a23e c069 073e a1fc 44bd fe25 c73d
00000060: 845c 16be 59c7 873f 8e07 4fbd c619 3d3e
00000070: e693 25be c006 9d3c f4da 7dbd f4ba 54bf
00000080: f12b cd3d 4886 81be 0eab 6dbd 19af 113e
00000090: 8c3f 09be 2079 0c3f 46e5 313e 860e cc3d
000000a0: 4bda c1bd ccef f13e b246 10be 7453 283e
000000b0: 7579 73bc 5c92 703e 0398 5c3a 1b6d 05bf
000000c0: 41ad 003e 000f b0be d5d9 acbe 3111 323c
000000d0: 2f6f 1c3e af51 fabd 1b43 bfbe cd04 0dbf
000000e0: b420 6abf 1752 e43e 24ee 843f 1d08 35bf
000000f0: 1b76 f83d 1ff7 35bd 00f3 48bf a804 87be
00000100: e01f 5fbd 0d3e e8bc a3f5 a3bc 4be2 c43d
00000110: 9d57 4e3e 580f 523e 0974 67bc 9d4e 5d3e
00000120: 841b aa3d 69b5 f0bd 0504 743e 6106 1b3e
00000130: 614b 263b 32fc e13e 7bf3 16be b99c e93c
00000140: c84e 84be 4c8c 4dbe 2880 e83d 269f 91bd
00000150: d07a 0b3e a654 a83e 5b34 313d 62e8 e5bd
00000160: 025c c83e 6c1e 053d 17a3 2a3e fea0 71be
00000170: c6de 683d 14af ec3e 5cc8 e13d b4ca 0ebc
00000180: ba0f 01bd 85c2 0b3e b3fd 603e ddc0 873d
00000190: 00ad e9bd 3195 6e3e 7320 253e 034c c3bd
000001a0: ae0a 2b3e a107 20be 787c cdbd 8a75 1ebc
000001b0: 3319 e33c 745f 4b3e 13f8 d53d c883 1a3e
000001c0: d9a7 8bbe 635e e3bd b5aa 313e 12b4 283c
000001d0: 2569 ab3d acf6 17bd 95f4 803e 2e17 473c
000001e0: ad4b 713e edf2 cebd 5c48 803e 36b9 213e
000001f0: 2b22 81be af67 bebc f113 8d3e 761a b93b
00000200: 69b7 043e ec2f 25bf 99a5 dc3c f194 df3e
00000210: 9cca 773d 668c 6c3b 057e ebbe 2c93 57be
00000220: ea25 e5be 15da 9e3d 94e2 553d d948 2f3e
00000230: 4061 133e 718a 4c3e eaa2 0ebe 7436 35be
00000240: 51fd f0bd 63d2 e53e 3bcb 85be d431 8a3d
00000250: 08ba 3a3e 2bc4 77be 918e 1cbf 196c c7bd
00000260: 7800 2c3e 68da 93bd b1dc c43d c6b7 b53e
00000270: 4486 72be df42 27be f64f e63e 1f74 3c3e
00000280: e423 8e3e d54b 823e 9599 913c 34ae 98be
00000290: e1d7 543d 39bb e43e 01d7 143e c40a 9cbe
000002a0: 2b09 7bbd 52a9 96bc abc6 b93d a4ca 6d3d
000002b0: d499 813c d5fa e33e 5f09 39be 82df f33e
000002c0: 5a7d 073e a271 42bd 625b a2be abcd 503d
000002d0: 8518 bf3e e139 29be c9b1 b2be fbbb 4fbe
000002e0: 131c e4be edbe a0be a2a4 64bd 5fd5 05bf
000002f0: 39c6 e23c e252 92be 6d61 06bf 599d c4be
00000300: 42ae 323e dc54 b5be 08d6 15bd 4ee2 263e
00000310: 2403 7dbe bf8a 3d3e fc13 d2be fbb7 73be
00000320: f5f3 643e 8f67 4b3e 38aa 97bd 143b 74bd
00000330: e020 40be 9f75 e53d 5c37 a33d 5de1 093e
00000340: 7003 67bd e635 65bd 5186 2fbe 5b93 37be
00000350: 95a4 023e 1737 8ebd 67b9 36be b220 e4bd
00000360: 54b9 1dbc 116a 5ebd 1ea9 923e a229 a33e
00000370: a255 c63d 9c11 c0be bf44 013e a3ad 43be
00000380: be4e 0b3e be01 a9bd ac3e a1be 2cf5 a7be
00000390: 6573 943e ab23 e1be 04e7 e2bd daf5 c3bd
000003a0: 381c 913e 7ada c33e 21ae ac3d a03a 26bc
000003b0: 074a 8f3e 6a70 233e 71e5 7a3d 2b37 373e
000003c0: a8b7 c9be 9602 81be 7f76 4abe ca8e 693e
000003d0: bac2 80bc 5e45 fc3d 6e40 533e 2d5d 0c3d
000003e0: e386 54be efa1 dabe c541 8bbb f5de cf3d
000003f0: 7bcb c0be ecab 843d 21eb 0dbe 7d79 a5be
-0.07936279 -0.040466115 -0.09121961 0.06782498 0.08764956 0.029790312 -0.28232765 -0.42171875
0.038738303 -0.23360969 -0.22097504 0.1530691 -0.07349426 -0.04709688 -0.40596387 0.0055551003
-0.2914464 -0.21989414 -0.2906008 0.20575237 0.3169713 0.13223934 -0.04809249 0.09724043
-0.1468373 1.0607711 -0.050544314 0.18466863 -0.161697 0.019168258 -0.061976388 -0.8309777
0.10018147 -0.2529776 -0.05802446 0.1422695 -0.13403147 0.5487232 0.17372617 0.099637076
-0.09465464 0.47253263 -0.14089468 0.16438085 -0.014860501 0.23493332 0.00084149855 -0.52119607
0.12566091 -0.34386444 -0.33759943 0.010868357 0.15276788 -0.12222611 -0.37355885 -0.5508545
-0.9145615 0.4459388 1.0385175 -0.70715505 0.12131902 -0.044425126 -0.7849579 -0.2637074
-0.054473758 -0.0283499 -0.02001459 0.096134745 0.2015061 0.20513666 -0.014126786 0.2161202
0.083060294 -0.11753351 0.23829658 0.15139152 0.002537452 0.44137722 -0.14741318 0.028517114
-0.25841355 -0.2007305 0.11352569 -0.07110433 0.13621068 0.32877082 0.04326282 -0.11225964
0.39132696 0.032499716 0.16663776 -0.2359657 0.05685308 0.46227324 0.11024544 -0.00871532
-0.03150914 0.13648422 0.21971779 0.066285826 -0.1140995 0.232991 0.1612566 -0.095359825
0.16703293 -0.1562791 -0.10033506 -0.009671578 0.027721977 0.19860631 0.10447707 0.15089333
-0.27276495 -0.11101987 0.17350276 0.010296838 0.08369664 -0.03710048 0.251866 0.012151523
0.23564024 -0.10104928 0.25055206 0.15793309 -0.2522138 -0.0232428 0.27554277 0.0056489063
0.1296059 -0.6452625 0.026934432 0.4366832 0.060495958 0.0036094426 -0.45994583 -0.21052235
-0.4475549 0.077564396 0.052218035 0.17117633 0.14392567 0.19974686 -0.13929334 -0.17696553
-0.11767066 0.44887075 -0.26131615 0.06747785 0.18235028 -0.24195926 -0.6115504 -0.09737415
0.16797054 -0.07219392 0.09612406 0.3549177 -0.23684031 -0.16334103 0.4498288 0.18403672
0.27761757 0.2544848 0.017773429 -0.29820406 0.05196369 0.4467409 0.14535142 -0.30476964
-0.06128804 -0.018391285 0.09071096 0.05805458 0.015820421 0.44527307 -0.18069981 0.4763146
0.13231412 -0.04747165 -0.31710345 0.05097739 0.37323394 -0.16525985 -0.34901264 -0.20286553
-0.4455267 -0.31395665 -0.05582107 -0.52278703 0.02768241 -0.2857886 -0.5249241 -0.38401297
0.17449287 -0.35416305 -0.03658107 0.16297266 -0.2470823 0.18509959 -0.41030872 -0.23800652
0.22358687 0.19863723 -0.074055135 -0.059626654 -0.18762541 0.11204075 0.07969543 0.13464876
-0.056399763 -0.055959605 -0.17141081 -0.17927305 0.12758096 -0.06944101 -0.17844163 -0.11139049
-0.009626705 -0.05430037 0.2864465 0.318677 0.09684302 -0.37513435 0.12623881 -0.19109206
0.13604257 -0.082522854 -0.31493127 -0.3280424 0.2899429 -0.43972525 -0.11079219 -0.09568377
0.28341842 0.38252622 0.0843165 -0.010145813 0.27986166 0.15960851 0.06125397 0.17892139
-0.3939793 -0.25197285 -0.19771765 0.22808376 -0.015717853 0.12317918 0.20630047 0.034268547
-0.2075458 -0.4270167 -0.0042497837 0.101499476 -0.37655243 0.06478104 -0.13859226 -0.3231925

module.conv_layers.7.weight f4 [64, 64, 1, 1]
00000000: d1d9 b93e 452a 583a 0a4a acbd 3c33 833e
00000010: b21c 01be 4445 823e a357 cc3d cc35 61ba
00000020: 4ee0 8abe 9d5a 563d 732f 9e3d 6fe8 373f
00000030: 7802 0c3e 53d6 b53d d28a d33c 5445 92be
00000040: db49 a4bd dd10 aabe 65b1 8bbe ae0f 92bd
00000050: d981 77be f2d9 16bf 11c0 00bf 5cc6 1cbe
00000060: 23d1 59bd 0747 6fbe 9d5e 353f 1fb9 e2be
00000070: d534 9c3d c80b 413e 3c67 01be 31cc c73d
00000080: 2bd4 efbd a045 813d c355 37be 7974 f1bc
00000090: c67b 723e f38c 0dbf 7330 653e b8b9 39be
000000a0: 6851 3dbe f190 2d3e 551d 0cbe 122f ed3d
000000b0: cf9f 983e c8f9 39be a0f3 6fbe fb1f 5e3e
000000c0: ef50 13bd 53af 01be c151 c83d 863e 013f
000000d0: b0c8 acbe 3480 533e ab07 9a3d 83cd ef3d
000000e0: 72a8 9d3d 2b21 263e dda1 cd3b 18f8 40be
000000f0: cbd3 dfbd 3b75 2b3e b9cd 6a3e 13ac 853d
00000100: b448 9f3d c862 913d 7194 96be fab6 123e
00000110: a951 54be d5ae 513e 2978 433d 80bb a5be
00000120: ad15 11be 6dca 713e 3c16 e93c 4b74 2dbf
00000130: 3397 393d 2dd2 75be 97b4 853e 20d0 f1bc
00000140: d9b0 1f3f 343e 7c3c 8949 113f 410c 92bd
00000150: 654e d9be 0945 aa3d 3f96 92be 818d 7b3c
00000160: 2e02 e4bc 4e17 98bc 8f32 81bd a631 f53d
00000170: 6716 473e 7dfd b73e 5317 873d 25de 053d
00000180: 4e03 67bd fe58 24bc be36 09be 428a 033e
00000190: b69a b3bd 2e16 de3e 342c 3abe 3b34 1a3e
000001a0: 48a8 e93e 1535 5bbd c23b 9f3e cc46 a03e
000001b0: 2d6d 85be 251b 89be 5563 62be 525f 41bf
000001c0: 33bc b0bd 252f f93d bce8 33be 5679 103f
000001d0: 242f 5d3e 927a e53d 2c16 5bbd 23e5 8bbd
000001e0: f6d0 84bd 4bda d33d a590 073e 387b 443e
000001f0: eeeb 143e 72b1 64be fdb4 5f3c 3c00 193e
00000200: 3d6f 183d 39a3 a83b 6ef8 683d ef8b 573e
00000210: 42d3 573d 691d 0dbe 8c56 0cbd 2f89 ddbd
00000220: d7d3 8ebd 484b 1a3e 809b 033e 6953 bb3d
00000230: 1af0 5c3e e9d4 d03d aeab 9abc 6bbb f73c
00000240: 1bd6 dcbd 765b 873d 9930 6ebe 7a7f 0cbe
00000250: 94bb 77bd 4f07 383c 4ec6 e43d 6d90 bebc
00000260: c1c6 0abe 344b 223d af3e 933d 6ae1 3d3d
00000270: f2e3 a43d 048b 60be 870d 6fbc 2a6e cb3d
00000280: 87f9 f73c 3c64 d43c 8dbb 20bc a91c 843e
00000290: 6ec8 5ebd a26b a83c 2142 c0bd 9306 f0bd
000002a0: d349 a03d 50bb 07bc 96e5 863c 5f07 1c3c
000002b0: a469 813d 5e1b 403f 9950 93bd 7216 12be
000002c0: 2a08 a53a b1e1 0b3d 9ae2 983e 5fb6 173d
000002d0: 44e2 d8bd 698f c33d 7816 b7bd 721d 9bbd
000002e0: 001a 8f3e 71c6 ca3c 7703 b8bc 499b a8bd
000002f0: 576b 7b3e 6cae 54bd 95a1 16bc be02 66bb
00000300: 62d3 89bd fc5d 343e 0cb5 0abe f675 a0bb
00000310: b078 ba3e c211 d23d 161b f43d 048f 043d
00000320: e0e2 94bb 26b9 df3c 9ed0 8fbd d4d6 95bd
00000330: a883 ee3d ec38 9dbd d82f 363d 05a9 72bd
00000340: 9ca5 f5bb 76da e23b 0299 bcbd dece 2e3e
00000350: 1528 03be ce54 d2bc a085 b9bc b95d 64bb
00000360: decd 363e 1945 a3bc 98e6 73bd cc44 32bd
00000370: c3b1 2c3d 0978 34bc 13e1 cbbc 858e 77bd
00000380: 4642 333e d083 16be 52ec f33b 61c4 d23c
00000390: c44e 903d e69f 3c3d f300 88bc 854e 2dbd
000003a0: ea75 10bd ad48 7a3c 7778 05bc b106 973d
000003b0: ae80 c3bb 9c25 ba3c 80c9 1dbd 7ede a4bd
000003c0: 8434 cb3c 7747 efbc 886c 413e 1a87 21bd
000003d0: 1a8b c53d a583 ddbd e696 26be d7bc 503c
000003e0: 2dd7 133d 3076 a83c e82f ecbd 4cd4 9a3d
000003f0: bde6 23be bac1 0bbe 0197 b83d e261 853d
0.36298993 0.0008246045 -0.08412559 0.25625026 -0.12608603 0.2544347 0.09977653 -0.0008591085
-0.27124256 0.05233251 0.07723894 0.7183904 0.13672817 0.0887877 0.02582303 -0.28568518
-0.08021899 -0.3321599 -0.2728378 -0.07131897 -0.24170627 -0.5892631 -0.5029307 -0.15310043
-0.053177964 -0.23366939 0.70847493 -0.4428186 0.076272644 0.1885215 -0.12637037 0.09755743
-0.1171039 0.06312108 -0.17903809 -0.029474484 0.23680028 -0.55293196 0.22381763 -0.18137252
-0.18488085 0.16949822 -0.13683064 0.115812436 0.29809424 -0.1816169 -0.2343278 0.21691887
-0.035965856 -0.12664537 0.09781218 0.5048603 -0.33746862 0.20654374 0.07520994 0.1170912
0.07698144 0.1622359 0.006275399 -0.1884464 -0.10929068 0.16743939 0.2293004 0.06526961
0.07777539 0.07098919 -0.29410127 0.14327613 -0.20734276 0.2047685 0.047722016 -0.32369614
-0.14168425 0.23612376 0.028452985 -0.67755574 0.04531021 -0.24005957 0.26114342 -0.029518187
0.62379223 0.01539569 0.5675283 -0.071312435 -0.42442623 0.08313949 -0.28630254 0.015353561
-0.02783307 -0.0185658 -0.063084714 0.1197236 0.1944214 0.35935584 0.065962456 0.032682557
-0.056399636 -0.010030983 -0.13399789 0.1284571 -0.08769743 0.43376297 -0.18180925 0.15058987
0.456362 -0.05351742 0.3110028 0.31304014 -0.26059857 -0.26778522 -0.22108205 -0.7553607
-0.08629646 0.12167195 -0.1756925 0.56435144 0.21600014 0.11205019 -0.05348794 -0.06830814
-0.06485169 0.103443705 0.13238771 0.19187629 0.14543125 -0.22333315 0.013653991 0.14941496
0.03721546 0.005146411 0.056877546 0.21049474 0.052691706 -0.1378075 -0.034262225 -0.10817181
-0.06973999 0.1506778 0.12852287 0.091467686 0.21575966 0.101968594 -0.018880691 0.030240735
-0.10783025 0.06609242 -0.23260726 -0.13720503 -0.060481623 0.011232211 0.11170636 -0.023262227
-0.13552381 0.0396225 0.0718969 0.04635755 0.080512896 -0.2192803 -0.0145906275 0.099331215
0.030270351 0.025926702 -0.009810341 0.25803116 -0.054390363 0.020559136 -0.09387613 -0.11720004
0.07826581 -0.008284405 0.016466897 0.009523242 0.063189775 0.7504176 -0.07193107 -0.14266375
0.0012590934 0.034150783 0.29860383 0.037039157 -0.10590032 0.09548838 -0.089398324 -0.075739756
0.27949524 0.024752827 -0.02246259 -0.08232743 0.24552666 -0.051924154 -0.009193798 -0.003509685
-0.06729771 0.17613977 -0.13545626 -0.0048968745 0.36420202 0.10257293 0.11919229 0.032362953
-0.004543647 0.027309965 -0.070222124 -0.07316366 0.11646205 -0.076768726 0.04447922 -0.05924322
-0.007496549 0.006923015 -0.092088714 0.17071101 -0.12808259 -0.025675204 -0.022646725 -0.0034845902
0.1785197 -0.01993041 -0.059546083 -0.04352264 0.042161714 -0.011014947 -0.024887597 -0.06043865
0.1750575 -0.1469872 0.007443943 0.025728406 0.07046273 0.04605093 -0.016602015 -0.04231121
-0.0352687 0.015276116 -0.008146397 0.07374323 -0.0059662675 0.022723012 -0.038522243 -0.080502495
0.024805315 -0.029208882 0.18889058 -0.039435484 0.09645672 -0.10816125 -0.162685 0.012740335
0.03609388 0.020564169 -0.11532575 0.07560024 -0.16005988 -0.1364812 0.09013177 0.0651281
