denoisers/multi_scale/celebA_160x160_gray/noise_range_0to255_RF_9x9_scale_0/model.pt (torch, 620517 bytes, 59 tensors)

module.conv_layers.0.weight f4 [64, 4, 3, 3]
0.49783936 -0.31046405 0.07189207 0.15318751 0.1763735 0.36408114 -0.50634533 -0.4225182
-0.06931509 0.21892744 -0.3045895 0.1510459 -0.1381842 0.11200639 -0.06240454 0.10386953
-0.2728488 -0.4201082 -0.39143997 0.107038185 -0.335661 0.045940615 0.40349877 -0.08546653
0.039562713 -0.53623736 0.067408666 -0.12340581 0.056200013 0.16891333 -0.13812348 -0.23392017
0.066059954 -0.07337212 0.014422116 0.1726229 -0.07818016 -0.049045894 -0.049463194 -0.003714535
0.43549034 0.12942196 -0.55500335 0.25103197 0.19380397 -0.38310555 -0.26642978 0.21011183
0.13190226 0.18053845 -0.19810924 -0.013235266 0.22473483 0.14801838 0.20538871 0.011848993
-0.25114548 0.029326163 0.48422813 0.025253257 0.17798933 0.090411745 -0.40979168 0.0030631998
-0.27696607 0.036296412 0.05288589 0.551119 -0.111058354 0.18823397 0.1744547 -0.094184324
0.3317756 0.5253099 -0.17948237 -0.30184573 -0.47587755 -0.57521725 0.1618719 0.3317189
0.22897883 -0.0638804 0.057080436 0.08971481 -0.14538606 0.17304845 0.008643416 -0.35393062
0.11262211 -0.11179164 -0.08259289 0.1791007 0.01739105 0.033394583 -0.07995536 -0.41956455
-0.3828733 0.17222846 -0.02921902 -0.1308316 -0.06648242 -0.0037899886 0.09351008 -0.005814547
-0.24331075 0.09780685 -0.026600735 0.029981919 -0.23412184 0.07587115 -0.35031295 0.30951262
-0.21835361 -0.16944833 -0.45883012 0.002676036 -0.14027627 0.061126955 0.15076295 0.15527648
0.08777233 -0.1412858 0.03468222 -0.084627554 0.1960019 -0.23169124 -0.2257894 -0.2434607
-0.0030354816 0.034795124 0.09494691 0.16253275 0.06929494 -0.07698201 -0.054956533 -0.15165858
0.25221556 -0.42442998 0.41165754 0.3837317 -0.03607352 0.038975246 0.16423938 0.028895384
0.01963684 0.57639337 -0.47428823 -0.13019557 -0.14493428 0.045189325 -0.027617909 -0.12046563
0.25804818 0.023667464 -0.2935194 -0.017639643 -0.353315 -0.6663899 0.058706343 0.28688025
-0.19626792 0.08743924 0.15503453 -0.023798877 0.33193803 0.0011399022 0.018421376 0.23566946
-0.052714415 -0.20689972 -0.3549265 0.028745966 0.20145962 -0.28896046 0.09682121 0.28994316
0.12815517 0.2760548 -0.114786506 0.21841852 0.250553 0.5167316 -0.14103721 0.20724867
-0.00626996 -0.015056871 -0.16039443 0.15019408 0.21259882 0.24501102 -0.06671823 0.12968057
0.24173267 0.5328199 0.120839566 0.296435 -0.23409632 0.2373716 0.06599154 0.12506318
0.016663928 0.13387114 -0.35084307 0.047860596 -0.20207085 -0.12492188 -0.34949297 0.0016553554
-0.35738933 0.17819417 -0.36996582 -0.23271042 0.11606795 0.03769292 -0.5340213 -0.24839424
0.07675417 0.07059752 0.32372367 -0.14826132 0.20038967 -0.18026185 0.057517786 0.29325196
0.3098048 0.07080162 -0.39097473 0.035555363 0.16864976 0.54521626 -0.31422508 0.35617155
-0.18431957 -0.32626098 0.1254631 0.26815942 -0.11284974 -0.039735503 -0.2912505 0.13583821
0.19619544 -0.09022087 -0.014503795 0.074150145 0.20350096 0.17971273 -0.077180326 0.36748043
0.028856974 0.57923925 0.16123673 0.40563002 -0.020501986 -0.015237891 0.46284422 -0.49287117
00000000: cde4 fe3e 25f5 9ebe 263c 933d 30dd 1c3e
00000010: 419b 343e d868 ba3e d99f 01bf 4e54 d8be
00000020: 12f5 8dbd 842e 603e 28f3 9bbe c7ab 1a3e
00000030: 2980 0dbe 9b63 e53d e79b 7fbd 8cb9 d43d
00000040: d7b2 8bbe 6c18 d7be d26a c8be d636 db3d
00000050: c2db abbe 3a2c 3c3d 6497 ce3e 1309 afbd
00000060: 830c 223d da46 09bf 8e0d 8a3d 2fbc fcbd
00000070: fc31 663d 9ef7 2c3e 3e70 0dbe c588 6fbe
00000080: 714a 873d 1f44 96bd bd4a 6c3c 0fc4 303e
00000090: eb1c a0bd 59e4 48bd eb99 4abd 8e6f 73bb
000000a0: 97f8 de3e 3187 043e b314 0ebf 4387 803e
000000b0: 8c74 463e 6926 c4be 7c69 88be 8e27 573e
000000c0: 6311 073e 12df 383e 26dd 4abe bbd8 58bc
000000d0: e320 663e 2192 173e 6b51 523e 4722 423c
000000e0: 2496 80be 6c3d f03c c0ec f73e ebdf ce3c
000000f0: d642 363e cb29 b93d 37d0 d1be f7bf 483b
00000100: 7fce 8dbe 8cab 143d e09e 583d 2316 0d3f
00000110: 9072 e3bd 68c0 403e 41a4 323e b6e3 c0bd
00000120: 7ede a93e b67a 063f 3aca 37be 868b 9abe
00000130: 39a6 f3be 7041 13bf bfc1 253e 0fd7 a93e
00000140: 6d79 6a3e bad3 82bd 2dcd 693d 66bc b73d
00000150: 15e0 14be 9d33 313e 1d9d 0d3c 6536 b5be
00000160: 6ca6 e63d 04f3 e4bd 7626 a9bd 2d66 373e
00000170: ad77 8e3c c2c8 083d a3bf a3bd 2ad1 d6be
00000180: f807 c4be a85c 303e ba5c efbc b8f8 05be
00000190: ef27 88bd 7561 78bb 3682 bf3d f587 bebb
000001a0: 7426 79be f54e c83d c9e9 d9bc a49c f53c
000001b0: a3bd 6fbe 5562 9b3d 385c b3be 7078 9e3e
000001c0: 1798 5fbe dd83 2dbe c8eb eabe 6f60 2f3b
000001d0: 95a4 0fbe 4260 7a3d 9a61 1a3e cc00 1f3e
000001e0: fbc1 b33d 3aad 10be f20e 0e3d 3651 adbd
000001f0: b9b4 483e 7840 6dbe 5635 67be c34d 79be
00000200: eeee 46bb 5585 0e3d 8773 c23d fc6e 263e
00000210: 81ea 8d3d bea8 9dbd 1a1a 61bd 634c 1bbe
00000220: 6622 813e e34e d9be c7c4 d23e 7b78 c43e
00000230: d4c1 13bd 82a4 1f3d 5e2e 283e 03b6 ec3c
00000240: 70dd a03c 848e 133f e8d5 f2be fd51 05be
00000250: a769 14be 7118 393d f43e e2bc afb6 f6bd
00000260: e41e 843e 45e2 c13c 2d48 96be 0381 90bc
00000270: b4e5 b4be 8798 2abf 1076 703d f8e1 923e
00000280: 75fa 48be 5813 b33d 5fc1 1e3e ddf5 c2bc
00000290: c8f3 a93e c568 953a 6de8 963c 5653 713e
000002a0: 12eb 57bd 85dd 53be edb8 b5be a97c eb3c
000002b0: 6e4b 4e3e a0f2 93be 334a c63d 6e73 943e
000002c0: 1c3b 033e 0e57 8d3e 3015 ebbd 1ba9 5f3e
000002d0: 7c48 803e 8648 043f 0f6c 10be ff38 543e
000002e0: 3d74 cdbb 18b1 76bc 703e 24be 7acc 193e
000002f0: 81b3 593e 2be4 7a3e 91a3 88bd fcca 043e
00000300: c588 773e e366 083f bc7a f73d 54c6 973e
00000310: f2b6 6fbe 8a11 733e 9326 873d 9010 003e
00000320: ca82 883c 8415 093e b4a1 b3be 7909 443d
00000330: a9eb 4ebe 0bd7 ffbd bef0 b2be 83f8 d83a
00000340: bcfb b6be 8878 363e 296c bdbe a44b 6ebe
00000350: 09b5 ed3d e463 1a3d 9fb5 08bf 0f5b 7ebe
00000360: 4a31 9d3d 6f95 903d 1cbf a53e d1d1 17be
00000370: f332 4d3e 9096 38be c597 6b3d 1f25 963e
00000380: bc9e 9e3e 7100 913d d72d c8be 80a2 113d
00000390: 86b2 2c3e 4b93 0b3f 1ce2 a0be 1e5c b63e
000003a0: 45be 3cbe ae0b a7be 6679 003e 314c 893e
000003b0: c41d e7bd b2c1 22bd c91e 95be 2c19 0b3e
000003c0: 75e7 483e b8c5 b8bd 53a1 6dbc 08dc 973d
000003d0: 8e62 503e 9d06 383e b810 9ebd 6526 bc3e
000003e0: 7665 ec3c 0649 143f 3e1b 253e bdae cf3e
000003f0: c8f3 a7bc 59a8 79bc ebf9 ec3e 9c59 fcbe

module.conv_layers.1.weight f4 [64, 64, 1, 1]
0.12990321 -0.3468187 -0.084348045 -0.28145862 -0.2022051 -0.09165543 0.19320878 0.2006999
-0.09715935 0.114053234 0.090266585 -0.24836491 -0.12552713 -0.16328105 -0.0044818562 0.19142118
-0.22770499 0.19803177 -0.21484016 0.4031022 -0.17765611 0.14728646 0.030497702 0.101978526
0.32375574 0.031265825 -0.1691251 -0.0070545184 -0.26415578 0.04141757 0.0039881594 -0.10344139
0.29649162 0.013603175 0.19142464 -0.082920864 0.17428406 0.1337624 0.12484305 0.25253683
-0.21572499 0.20028284 0.29520223 -0.1049822 -0.247849 0.0004932761 -0.064216405 -0.24005337
-0.2968496 -0.170089 0.107734 0.069910385 -0.21864973 0.0020329296 -0.15709363 0.33328342
0.10979386 -0.039000433 0.03773574 -0.2077542 0.04883528 0.4573821 0.15716948 -0.1294826
0.017208546 -0.123414636 -0.032514796 -0.06065228 -0.5259839 0.2921874 0.20055476 -0.12570544
0.04593969 -0.35197923 0.16746151 -0.07934428 -0.45929977 -0.23121758 -0.022180816 0.31750378
-0.23860064 0.002864069 -0.1796316 0.40457976 0.24833307 0.17708233 0.19305226 0.103937775
0.5001126 0.23400772 -0.18411416 -0.07570065 -0.07153248 0.112445556 0.2682619 -0.37784505
0.18152761 -0.09446466 -0.1010924 0.08069205 -0.02614232 0.023411902 -0.06030329 -0.1696677
-0.21937594 0.1194211 0.07080219 -0.00012880458 -0.013886479 0.011928042 0.028485069 0.23669825
0.069205426 -0.15440194 0.21090153 -0.0027593016 -0.03146872 0.35407838 -0.41261855 -0.11942342
-0.026536524 0.44545433 0.082537524 0.1259713 0.033752024 0.2085856 -0.01696847 -0.28706127
0.0835148 0.057332534 0.037362922 0.0052636117 0.42434978 -0.22612625 -0.03453211 0.07698019
-0.2753494 -0.14499815 -0.056565482 0.07053208 0.18650888 -0.29563448 0.08429658 -0.20262966
-0.20499463 -0.21689908 0.09897011 -0.43642327 -0.20259175 -0.07509673 0.16052404 -0.24918994
0.14323363 -0.00016496214 -0.12784691 0.127678 -0.01881659 0.23159887 -0.12141678 0.21979584
-0.1985372 -0.15837337 -0.31805453 0.39237294 -0.017190289 -0.06733991 -0.43644586 -0.14179249
-0.11896594 -0.09145021 0.16775534 0.060433354 0.09147664 0.11947059 -0.19440673 0.02016251
0.30909395 0.23553953 -0.27341858 0.25964653 -0.03489689 0.0036397076 -0.1031745 0.09450121
-0.28836337 -0.0203239 -0.05519831 -0.039550688 0.093869634 0.07159382 0.00927334 0.27145764
0.08374965 0.0006244973 0.24851938 -0.055273127 0.2835764 0.18107791 -0.18611535 0.0520141
-0.21020208 -0.051795904 0.12556538 0.18262391 0.23997167 0.21256623 0.19646525 -0.20582694
-0.21699288 0.15597911 -0.2082405 0.16936679 -0.063468 -0.15830767 0.0703816 0.11657696
-0.4033412 -0.20580748 0.16277158 -0.19742563 -0.0118768215 -0.09526607 0.048632316 0.24831724
-0.17092733 -0.3029235 0.046418693 -0.121770464 0.12890618 -0.03131178 -0.23648383 -0.10501094
-0.13886864 -0.19213308 0.008701404 -0.17575149 -0.020284519 0.21594633 0.24143375 0.14619824
0.025817795 0.3113156 0.03206625 -0.24853714 -0.031000165 0.04765702 0.34428903 -0.037787475
-0.18187806 -0.08687151 -0.33720326 -0.0038149524 0.010193597 -0.2687648 -0.34767464 0.31003657
00000000: 5905 053e 3892 b1be abbe acbd 581b 90be
00000010: db0e 4fbe d8b5 bbbd 86d8 453e 4684 4d3e
00000020: 7bfb c6bd be94 e93d b0dd b83d 5f53 7ebe
00000030: 2f8a 00be 2633 27be 89dc 92bb ea03 443e
00000040: 7f2b 69be d7c8 4a3e 0fff 5bbe 6963 ce3e
00000050: 7ceb 35be 43d2 163e 51d6 f93c 1eda d03d
00000060: 50c3 a53e 9810 003d 212f 2dbe 9729 e7bb
00000070: 6d3f 87be 78a5 293d 1baf 823b 14d9 d3bd
00000080: c0cd 973e dadf 5e3c d204 443e 6ad2 a9bd
00000090: 8577 323e 03f9 083e b7ad ff3d 824c 813e
000000a0: 03e7 5cbe f216 4d3e bf24 973e e800 d7bd
000000b0: 21cc 7dbe 334f 013a e483 83bd 8dd0 75be
000000c0: acfc 97be d02b 2ebe a5a3 dc3d 2d2d 8f3d
000000d0: b7e5 5fbe e63a 053b 27dd 20be 20a4 aa3e
000000e0: 9adb e03d ebbe 1fbd cb90 1a3d 84bd 54be
000000f0: 8107 483d fd2d ea3e 09f1 203e 1697 04be
00000100: f0f8 8c3c d0c0 fcbd 3c2e 05bd 866e 78bd
00000110: e2a6 06bf 9699 953e 3a5e 4d3e edb8 00be
00000120: 422b 3c3d 9f36 b4be 087b 2b3e 417f a2bd
00000130: 5729 ebbe 4dc4 6cbe 8bb4 b5bc db8f a23e
00000140: ba53 74be 1bb3 3b3b 59f1 37be 1425 cf3e
00000150: 064b 7e3e 1255 353e 7eaf 453e 54dd d43d
00000160: 6107 003f b89f 6f3e 6c88 3cbe f108 9bbd
00000170: 9f7f 92bd db49 e63d a059 893e e874 c1be
00000180: 60e2 393e b076 c1bd 8809 cfbd e041 a53d
00000190: 6b28 d6bc 51ca bf3c 9500 77bd 5fbd 2dbe
000001a0: 16a4 60be 0d93 f43d bd00 913d b70f 07b9
000001b0: 1d84 63bc d66d 433c 8559 e93c 0761 723e
000001c0: 93bb 8d3d 8b1b 1ebe 92f6 573e 66d5 34bb
000001d0: 58e5 00bd c349 b53e bd42 d3be 4494 f4bd
000001e0: 2063 d9bc 9712 e43e 6f09 a93d 9ffe 003e
000001f0: 903f 0a3d 7797 553e 7601 8bbc b2f9 92be
00000200: cf09 ab3d 85d5 6a3d dd09 193d 607a ac3b
00000210: 6044 d93e a48d 67be 8b71 0dbd caa7 9d3d
00000220: 99fa 8cbe 657a 14be 35b1 67bd 2073 903d
00000230: 2ffc 3e3e 675d 97be afa3 ac3d 267e 4fbe
00000240: 1dea 51be cb1a 5ebe d7b0 ca3d df72 dfbe
00000250: 3674 4fbe 50cc 99bd 6a60 243e a62b 7fbe
00000260: d6ab 123e b0f9 2cb9 4dea 02be 06be 023e
00000270: 4025 9abc 4128 6d3e 5ca9 f8bd 2912 613e
00000280: 564d 4bbe a12c 22be 0bd8 a2be 1be5 c83e
00000290: a6d2 8cbc 82e9 89bd d575 dfbe 0d32 11be
000002a0: 6aa4 f3bd 3f4a bbbd 0ec8 2b3e f788 773d
000002b0: 1b58 bb3d ffac f43d 8f12 47be d92b a53c
000002c0: 9041 9e3e 4631 713e 85fd 8bbe 64f0 843e
000002d0: 0bf0 0ebd 2988 6e3b 274d d3bd da89 c13d
000002e0: 5da4 93be 4f7e a6bc a017 62bd e7ff 21bd
000002f0: b93e c03d c89f 923d 35ef 173c 7ffc 8a3e
00000300: f084 ab3d 4eb5 233a dd7b 7e3e 1366 62bd
00000310: ed30 913e 7d6c 393e 0695 3ebe bd0c 553d
00000320: 373f 57be f127 54bd 3694 003e c301 3b3e
00000330: 22bb 753e f6aa 593e 302e 493e 4cc4 52be
00000340: 6233 5ebe fdb8 1f3e ff3c 55be 7d6e 2d3e
00000350: 83fb 81bd 681b 22be 3a24 903d e7bf ee3d
00000360: bd82 cebe 32bf 52be 98ad 263e f229 4abe
00000370: 0097 42bc db1a c3bd ae32 473d e046 7e3e
00000380: 9307 2fbe ca18 9bbe 8721 3e3d cb62 f9bd
00000390: fbff 033e c840 00bd d128 72be fa0f d7bd
000003a0: 9533 0ebe 89be 44be 5590 0e3c 33f8 33be
000003b0: b82b a6bc 0921 5d3e 693a 773e feb4 153e
000003c0: d77f d33c c264 9f3e e657 033d 8580 7ebe
000003d0: 0ff4 fdbc 0234 433d a746 b03e 0ac7 1abd
000003e0: 3e3e 3abe b1e9 b1bd e8a5 acbe 4804 7abb
000003f0: 0b03 273c 8a9b 89be 6902 b2be 1dbd 9e3e

module.conv_layers.2.weight f4 [64, 64, 1, 1]
-0.06818691 -0.16704537 0.19188242 0.29999432 -0.018024454 -0.1575922 -0.2754324 -0.041083667
0.081945114 0.03790669 0.027752625 0.24370417 0.0023737526 -0.10535509 -0.06367544 0.34880638
0.049453933 -0.04736018 0.31126687 -0.1357506 0.08285809 -0.24196833 0.15754716 -0.026789635
0.04005722 -0.052444175 0.1640482 0.08841046 0.11049678 -0.0057345442 0.15374799 0.10095711
0.009494757 0.11402562 -0.0027102856 0.12374795 0.09643301 -0.053708784 0.18595007 0.13314062
-0.36398688 -0.035134215 0.11216334 0.13202521 -0.0066007744 0.03495166 0.009189692 0.85107255
-0.23207821 -0.020923343 -0.23519102 0.26737845 0.2834643 0.5038597 -0.25889972 0.19113368
-0.17470889 -0.14641282 0.023834141 0.4845144 0.22433668 0.043285362 0.32845715 0.09511207
-0.1510743 -0.14844255 -0.114742555 -0.32690316 -0.22626992 -0.24964261 0.10114302 -0.05863081
-0.09639537 0.09166156 0.31501865 -0.2177163 0.09217659 0.10119169 -0.046713606 -0.23603322
-0.0959484 0.02606858 0.26655817 0.38211748 0.5011424 0.14230901 -0.3338014 -0.17672117
0.31930387 0.44278386 -0.32662687 -0.011727419 -0.14600511 -0.13870725 -0.12449839 0.16110274
-0.023191568 0.10838309 -0.17331406 -0.014572385 -0.1496188 -0.7577001 -0.10419418 0.334367
0.44035304 0.3296551 -0.118547864 -0.013531086 0.025061494 -0.2524417 0.19838105 -0.46990633
0.65846133 -0.13468729 -0.0025366133 -0.09148848 -0.9706496 0.57204723 0.36010683 0.5545181
0.10280061 -0.26307645 -0.04573004 -0.34255266 0.38478994 -0.06333957 0.27429444 0.10504596
-0.15916468 0.037624642 -0.019560048 0.5077212 -0.040035464 -0.055861346 0.13031216 0.25683135
-0.036384717 -0.0012930719 -0.29737598 -0.057656944 0.22054023 -0.025501648 -0.05220136 -0.09772969
-0.01669407 0.024970025 -0.039479263 -0.19495001 0.17220774 0.07373648 -0.029746156 -0.15504815
0.21096236 0.574305 0.011276907 -0.10194649 -0.027714923 -0.04173387 0.042713694 -0.12313639
0.17114039 0.14420322 -0.041381035 -0.081920296 -0.03505454 -0.33350918 -0.40651786 -0.37294763
-0.06157125 0.117545135 -0.035240836 -0.07564687 -0.07466006 -0.063168645 0.26967585 -0.028157819
0.21022181 0.0016008562 -0.39159822 0.21380818 -0.07456403 -0.0613069 0.45073825 -0.7586292
-0.11904205 0.009979396 -0.0513446 -0.19115187 -0.27027133 -0.22195442 -0.013758246 0.08581532
0.1397844 -0.1727415 -0.21810906 -0.0068275523 -0.1276842 -0.13841783 -0.13029326 -0.070338875
-0.18235217 -0.36446202 0.05389389 -0.23752493 -0.1611631 -0.18279321 0.07342883 0.22563636
0.18805149 -0.1668383 0.029250337 0.048449546 -0.015384091 -0.4139886 -0.100360304 -0.016351463
-0.10432529 -0.082355715 0.43324488 -0.114633076 -0.21494026 -0.095967196 -0.025806228 -0.17904341
-0.04318682 -0.015671551 0.011832385 -0.09440558 -0.12367572 0.16905046 -0.09645679 -0.020169714
0.054762736 -0.027944943 -0.05855632 -0.03172872 -0.2975977 -0.037410323 0.05321244 0.5540448
0.10950488 -0.09819622 0.493604 -0.28514338 -0.009107513 0.12730536 -0.024561413 0.49367404
0.35261577 0.4190728 -0.10883186 0.18969914 0.19711906 0.26824248 0.023307912 -0.09284904
00000000: 94a5 8bbd f10d 2bbe d37c 443e db98 993e
00000010: 05a8 93bc da5f 21be 7a05 8dbe 5947 28bd
00000020: d7d2 a73d 0c44 1b3d 7959 e33c 968d 793e
00000030: f690 1b3b 69c4 d7bd 4568 82bd c096 b23e
00000040: 3590 4a3d c0fc 41bd 5f5e 9f3e 3502 0bbe
00000050: 81b1 a93d 8cc6 77be 0b54 213e f075 dbbc
00000060: 0a13 243d b4cf 56bd 40fc 273e 8b10 b53d
00000070: 234c e23d d8e8 bbbb 1d70 1d3e 9ac2 ce3d
00000080: e68f 1b3c 4486 e93d 0c9f 31bb 916f fd3d
00000090: ac7e c53d befd 5bbd b269 3e3e 0456 083e
000000a0: 7d5c babe e5e8 0fbd e5b5 e53d 9e31 073e
000000b0: 4f4b d8bb 7929 0f3d 5d90 163c e4df 593f
000000c0: e9a5 6dbe 6e67 abbc ead5 70be d4e5 883e
000000d0: 3c22 913e f3fc 003f 818e 84be 8cb8 433e
000000e0: e3e6 32be 3eed 15be d13f c33c 4512 f83e
000000f0: 84b8 653e fe4b 313d 892b a83e 1eca c23d
00000100: 39b3 1abe 5301 18be 25fe eabd da5f a7be
00000110: 4db3 67be 50a2 7fbe 1224 cf3d dc26 70bd
00000120: f06a c5bd 0eb9 bb3d 204a a13e 06f1 5ebe
00000130: 14c7 bc3d 973d cf3d c456 3fbd b1b2 71be
00000140: 9880 c4bd c68d d53c 507a 883e e7a4 c33e
00000150: de4a 003f 74b9 113e 04e8 aabe 65f6 34be
00000160: cc7b a33e 91b4 e23e a33b a7be 5c24 40bc
00000170: 5d82 15be 4609 0ebe 03f9 febd 1ef8 243e
00000180: 3efc bdbc f4f7 dd3d 3e79 31be 03c1 6ebc
00000190: ac35 19be a2f8 41bf c263 d5bd 2732 ab3e
000001a0: f475 e13e 8ec8 a83e 39c9 f2bd 7db1 5dbc
000001b0: c34d cd3c 0a40 81be 6724 4b3e 9097 f0be
000001c0: ec90 283f 77eb 09be 4f3d 26bb 505e bbbd
000001d0: 7e7c 78bf b071 123f ec5f b83e e6f4 0d3f
000001e0: 2089 d23d f5b1 86be 6c4f 3bbd 1063 afbe
000001f0: 3003 c53e 2db8 81bd 5270 8c3e 5622 d73d
00000200: 11fc 22be 4c1c 1a3d 653c a0bc 04fa 013f
00000210: 3afc 23bd dece 64bd 8d70 053e 667f 833e
00000220: 2408 15bd 4b7c a9ba aa41 98be b029 6cbd
00000230: 4cd5 613e d5e8 d0bc 18d1 55bd 8126 c8bd
00000240: 01c2 88bc f08d cc3c 02b5 21bd faa0 47be
00000250: 3a57 303e 2703 973d 36ae f3bc f1c4 1ebe
00000260: 8406 583e a705 133f c7c2 383c 52c9 d0bd
00000270: 680a e3bc 22f1 2abd 8ef4 2e3d ee2e fcbd
00000280: 6d3f 2f3e 02aa 133e 297f 29bd d4c5 a7bd
00000290: 5995 0fbd b7c1 aabe 1c23 d0be fef2 bebe
000002a0: 2332 7cbd 81bb f03d b258 10bd bfec 9abd
000002b0: 60e7 98bd 905e 81bd f412 8a3e 3aab e6bc
000002c0: 6344 573e d2d3 d13a 907f c8be 88f0 5a3e
000002d0: 07b5 98bd f21c 7bbd 2ac7 e63e 8635 42bf
000002e0: 51cc f3bd 9f80 233c b74e 52bd 51bd 43be
000002f0: 0161 8abe 0548 63be 446a 61bc f1bf af3d
00000300: a423 0f3e 26e3 30be fb57 5fbe a9b9 dfbb
00000310: a6bf 02be 67bd 0dbe 996b 05be d40d 90bd
00000320: 87ba 3abe c49a babe d7bf 5c3d bc39 73be
00000330: f107 25be 252e 3bbe db61 963d 380d 673e
00000340: 9290 403e a9d7 2abe 679e ef3c 0873 463d
00000350: 8e0d 7cbc 50f6 d3be b489 cdbd 81f3 85bc
00000360: 7fa8 d5bd 1daa a8bd 46d2 dd3e bfc4 eabd
00000370: 4d19 5cbe 738a c4bd 9567 d3bc 2857 37be
00000380: aae4 30bd a061 80bc 9fdc 413c b657 c1bd
00000390: b249 fdbd 901b 2d3e 238b c5bd f53a a5bc
000003a0: e44e 603d cbec e4bc c0d8 6fbd f9f5 01bd
000003b0: ba5e 98be 913b 19bd 4af5 593d e1d5 0d3f
000003c0: 1844 e03d 1a1b c9bd aab9 fc3e 50fe 91be
000003d0: ae37 15bc 565c 023e 0435 c9bc d8c2 fc3e
000003e0: 0e8a b43e b690 d63e 3de3 debd 7e40 423e
000003f0: 94d9 493e 1457 893e 3cf0 be3c a327 bebd

module.conv_layers.3.weight f4 [64, 64, 1, 1]
0.00910512 -0.7034023 -0.936919 0.17567454 -0.26731595 0.04573896 0.25069097 0.31620422
-0.35458723 -0.035267793 -0.012592995 0.16729921 0.6690124 -0.029671302 0.16204429 0.6134572
0.29215565 -0.60447353 -0.17539285 -0.06550739 0.6540452 0.20756727 0.06259445 -0.015570136
0.122288704 0.030958511 0.16224976 0.051656738 -0.01907637 0.022455364 0.152587 0.1787033
-0.011367846 0.14740314 0.25939232 -0.054134846 -0.18273395 0.096359506 0.07613772 -0.05076642
-0.01593843 0.12042179 -0.58919114 -0.22415122 -0.06730454 -0.016625632 0.15896568 0.24253643
-0.43782195 0.07034276 0.59846663 -0.07590645 -0.58367765 -0.392801 0.16983646 -0.39777502
-0.06661165 -0.12919594 0.37706548 0.08194346 -1.0918189 -0.17224337 -0.73481965 0.017783927
0.20796184 -0.04070506 0.065195344 -0.1292903 -0.48528433 -0.06025854 -0.024151813 0.023527563
-0.027467469 0.13362117 0.10474858 -0.07321926 -0.37723112 -0.17332374 -0.10744785 -0.10854495
-0.015155773 0.032994177 -0.0026788672 -0.22196801 -0.26221064 -0.24522944 -0.12380705 0.092021726
0.015576666 0.03398107 -0.15502551 0.23597251 -0.11133689 0.09706903 0.3457834 -0.019900715
0.12220294 0.03893562 -0.26411965 -0.26259926 0.12255977 0.108935595 0.15913457 0.13058308
-0.10730674 -0.1829888 -0.30572733 0.3121662 -0.024254438 -0.34008092 -0.036650807 0.29891115
0.062377747 0.3191788 -0.09037464 0.14785597 -0.15413976 0.07750485 -0.132338 -0.35945415
0.20643784 -0.03399527 0.2843691 0.007684288 -0.22039756 0.013294724 0.3088913 -0.18140215
-0.1713945 0.17178005 -0.10484386 -0.2780367 0.5575036 -0.04746485 0.12018597 -0.2603678
0.01732032 0.28803742 0.0037274917 -0.20789884 0.10061573 0.16335201 0.22647399 0.0024188124
0.31401306 -0.026709966 -0.20594749 -0.5913795 -0.15292275 -0.10660615 -0.44950646 0.21658124
-0.0033728038 0.013026656 0.1279775 -0.28392956 0.063586734 0.062958695 0.0068463706 0.16880147
-0.099195115 -0.1444594 0.0001407086 0.2311435 -0.12394674 -0.10317059 0.33267096 -0.042340714
0.19198592 0.010906608 -0.23135157 -0.33832607 0.31322676 0.12501097 -0.04175288 0.100330286
0.3300452 -0.050806824 0.048000373 0.07528624 -0.37783843 -0.11949746 0.14335908 -0.23601389
-0.079195715 -0.28286254 0.0120546045 0.04951002 -0.11370277 0.064099625 -0.032195613 -0.2650429
0.36188468 0.14709748 -0.16297473 -0.051326483 0.079726346 -0.07190484 -0.010320768 -0.086869255
-0.19334646 0.05114695 -0.36498314 0.20354082 0.20953117 -0.10055077 0.113847665 0.02789695
-0.09580945 0.23296937 0.07768501 -0.20110936 -0.20238627 -0.13844669 0.15679894 -0.4524219
-0.1974373 -0.18664867 -0.12485337 -0.4078322 0.14687592 -0.051708184 -0.2024929 -0.05372725
0.33434358 -0.27944395 -0.027874451 -0.0828955 0.27249575 0.20128168 0.05701939 -0.12642758
0.070171684 0.37677348 -0.24225631 0.0051918365 0.009904245 -0.2567084 -0.11621332 0.45162115
-0.13500303 0.03823787 0.25724798 0.14797927 -0.051318675 -0.014689334 0.009787346 0.34478256
-0.06899065 -0.30528587 -0.18050274 0.05690006 0.26786056 0.16271642 0.18912353 0.012686492
00000000: a42d 153c 2c12 34bf ecd9 6fbf 07e4 333e
00000010: a3dd 88be c758 3b3d 915a 803e 85e5 a13e
00000020: 758c b5be f674 10bd d952 4ebc 7c50 2b3e
00000030: 6644 2b3f 3b11 f3bc f0ee 253e 880b 1d3f
00000040: 6d95 953e c7be 1abf 2f9a 33be bd28 86bd
00000050: 826f 273f 848c 543e 8531 803d e219 7fbc
00000060: 8072 fa3d b49c fd3c cd24 263e 0496 533d
00000070: 0c46 9cbc 50f4 b73c c43f 1c3e fffd 363e
00000080: 3440 3abc d9f0 163e 12cf 843e 80bc 5dbd
00000090: 9c1e 3bbe 2258 c53d 18ee 9b3d 73f0 4fbd
000000a0: 4f91 82bc b39f f63d 3bd5 16bf e687 65be
000000b0: f6d6 89bd 7a32 88bc e6c7 223e 785b 783e
000000c0: 332a e0be dd0f 903d 1c35 193f d774 9bbd
000000d0: e66b 15bf 361d c9be 9ce9 2d3e 2ba9 cbbe
000000e0: b06b 88bd f14b 04be ba0e c13e f9d1 a73d
000000f0: b9c0 8bbf 9160 30be 241d 3cbf 99af 913c
00000100: f3f3 543e 59ba 26bd 2385 853d ad64 04be
00000110: 3077 f8be a9d1 76bd 06da c5bc e0bc c03c
00000120: 7503 e1bc fdd3 083e 6c86 d63d fbf3 95bd
00000130: 7024 c1be c77b 31be 9e0d dcbd d14c debd
00000140: eb4f 78bc e724 073d ef8f 2fbb 954b 63be
00000150: 7940 86be 6d1d 7bbe 8d8e fdbd e375 bc3d
00000160: 4635 7f3c bc2f 0b3d 02bf 1ebe c7a2 713e
00000170: 9804 e4bd 21cc c63d 860a b13e d306 a3bc
00000180: 8945 fa3d f57a 1f3d b13a 87be 6973 86be
00000190: 9e00 fb3d a019 df3d 2cf4 223e 92b7 053e
000001a0: a3c3 dbbd 6a61 3bbe 4b88 9cbe 40d4 9f3e
000001b0: 3eb1 c6bc 161f aebe 281f 16bd e20a 993e
000001c0: cf7f 7f3d 676b a33e 5716 b9bd 8e67 173e
000001d0: d0d6 1dbe ddba 9e3d 9d83 07be 600a b8be
000001e0: 7164 533e a03e 0bbd d498 913e 7bcc fb3b
000001f0: e6af 61be 1dd2 593c 0027 9e3e 7cc1 39be
00000200: 0a82 2fbe 1ce7 2f3e 61b8 d6bd d45a 8ebe
00000210: 8eb8 0e3f 816a 42bd 1024 f63d ee4e 85be
00000220: 58e3 8d3c a479 933e ef48 743b 6fe3 54be
00000230: 9f0f ce3d c045 273e cce8 673e f084 1e3b
00000240: 52c6 a03e dcce dabc e6e3 52be a664 17bf
00000250: c897 1cbe 5354 dabd b625 e6be 79c7 5d3e
00000260: 420a 5dbb c16d 553c 890c 033e 375f 91be
00000270: c339 823d 7df0 803d 8557 e03b 4bda 2c3e
00000280: cf26 cbbd 2aed 13be 2d8b 1339 e2b0 6c3e
00000290: cad7 fdbd 1a4b d3bd d953 aa3e 756d 2dbd
000002a0: f597 443e a1b1 323c 6de7 6cbe 1339 adbe
000002b0: 425f a03e e002 003e 1105 2bbd f779 cd3d
000002c0: affb a83e d11a 50bd 0a9c 443d ac2f 9a3d
000002d0: 0a74 c1be 16bb f4bd b9cc 123e a0ad 71be
000002e0: 5d31 a2bd 5cd3 90be ad80 453c 05cb 4a3d
000002f0: ffdc e8bd aa46 833d 8cdf 03bd b4b3 87be
00000300: f348 b93e b9a0 163e d9e2 26be b83b 52bd
00000310: 9147 a33d d842 93bd 7018 29bc 82e8 b1bd
00000320: 9dfc 45be 777f 513d 12df babe 016d 503e
00000330: 578f 563e 90ed cdbd f728 e93d 2588 e43c
00000340: bf37 c4bd 868f 6e3e 5219 9f3d 9def 4dbe
00000350: 593e 4fbe f8c4 0dbe e78f 203e d8a3 e7be
00000360: 012d 4abe d420 3fbe 20b3 ffbd 62cf d0be
00000370: a466 163e f6cb 53bd 4c5a 4fbe 1b11 5cbd
00000380: 152f ab3e 4713 8fbe f658 e4bc 1ec5 a9bd
00000390: 9084 8b3e c91c 4e3e 2a8d 693d 3b76 01be
000003a0: 2cb6 8f3d 74e8 c03e 0a12 78be 4820 aa3b
000003b0: 6a45 223c 496f 83be 4001 eebd e33a e73e
000003c0: 3c3e 0abe 509f 1c3d 02b6 833e e187 173e
000003d0: 8833 52bd 88ab 70bc 1b5b 203c 5787 b03e
000003e0: f84a 8dbd 6e4e 9cbe b6d5 38be 0a10 693d
000003f0: 0525 893e 229f 263e 99a9 413e 01db 4f3c

module.conv_layers.4.weight f4 [64, 64, 1, 1]
0.33416548 -0.034082826 -0.037235867 0.12253578 -0.32336113 -0.07593054 0.25934836 0.2019841
-0.12261181 0.3110528 -0.09997285 0.23938912 0.1608149 0.17328985 0.20892198 0.21458453
0.21497723 0.12699018 -0.27119908 0.1292486 0.39457458 0.059739728 0.2014441 0.2263731
0.18728437 0.10754521 -0.06810908 0.21361633 -0.27755657 -0.014790091 0.048442103 0.22941825
0.23623544 -0.033168226 -0.20550889 -0.25654358 0.13862686 -0.00078636216 0.04402664 -0.27573404
0.12381831 0.24595319 -0.1084534 0.24578187 0.107815295 -0.065213755 0.050139725 0.28884777
0.15120631 -0.09411381 -0.16646262 -0.025865067 -0.14275785 0.1010479 -0.33059615 -0.1630853
-0.049803983 -0.19699857 0.24456428 0.25635576 0.028410295 0.3331994 -0.09755431 0.19373238
-0.024280557 0.07084 0.5831276 0.37474933 -0.5583507 -0.11174433 -0.16740373 -0.13671607
0.43580776 0.20875074 -0.3367525 0.02505255 -0.3845535 0.12893426 0.23697343 -0.020344948
0.1972205 -0.22650793 -0.23694187 0.33971134 1.4814367 -0.12411523 0.0014693879 0.7710885
-0.2662484 0.48115608 -0.017703291 -0.07877688 -0.17267695 0.47129133 0.08451227 -0.1226315
0.20166329 0.028453259 0.046633225 0.3435366 -0.2032964 -0.111708336 0.5805836 -0.0966493
-0.24872401 0.24462731 -0.5851315 -0.15844668 -0.028033473 0.581147 -0.032816943 0.11106981
-0.2747376 0.16344821 -0.22202237 0.056597758 -0.06420404 0.067959286 -0.3742744 0.2660565
0.0768672 -0.070174985 0.30510697 -0.12983471 -0.38471672 0.13762484 0.08297775 -0.1660751
0.16155927 -0.07319144 -0.25830224 -0.3301011 0.08308349 0.09316284 0.0023695044 0.007009608
-0.078725256 -0.1228149 -0.055587407 0.07263875 0.19421494 -0.112739444 -0.12520568 0.04801618
-0.3464556 -0.3545437 -0.073463716 0.11063406 0.03679021 0.28730372 0.077864304 -0.1673306
-0.15112558 -0.24575499 0.22082324 0.02409732 0.2680937 -0.010975405 0.0403372 0.11368877
-0.029922662 -0.11156265 0.15646042 0.081835784 -0.01511314 0.38010776 0.25939253 0.23655628
-0.10084356 -0.018156253 -0.109357335 -0.023802783 -0.2539913 -0.10719464 -0.16484818 -0.16866577
-0.04800398 -0.124090284 0.09198896 -0.11988664 0.017019728 0.015895478 -0.033117495 0.010980609
-0.03635973 0.015730202 -0.27532965 0.31703264 0.011271144 -0.110112034 -0.374741 -0.007992787
0.21255337 -0.13382195 -0.08913657 -0.24784927 -0.1793146 0.15788023 0.3547997 -0.26279348
-0.21215056 0.06500666 0.28093117 -0.10142664 0.0027227625 -0.20041466 -0.28638646 0.097921416
-0.3859426 -0.045195144 -0.12460764 -0.135858 0.14584646 0.25446525 -0.11748151 0.13128224
0.0049860156 -0.17191789 0.26431912 0.1486292 -0.55130076 0.04294509 -0.02484234 -0.020429354
0.14940202 -0.2145454 -0.11124099 -0.19739889 0.059414294 0.17888802 -0.13514173 -0.6004045
-0.13264629 0.110758364 -0.10371506 0.024786126 -0.154241 0.20102607 0.01534264 -0.15852134
0.11755127 0.31696638 -0.13676639 -0.062716104 0.12454482 0.17221257 -0.14917299 0.11853091
0.14933316 -0.008111912 0.022101345 0.46672678 -0.44194207 -0.15932566 -0.12372867 0.05258568
00000000: bd17 ab3e 6f9a 0bbd a384 18bd 0af4 fa3d
00000010: 978f a5be 7981 9bbd 4fc9 843e ebd4 4e3e
00000020: e71b fbbd 5042 9f3e 91be ccbd 6c22 753e
00000030: a9ac 243e e572 313e a5ef 553e 0cbc 5b3e
00000040: fe22 5c3e b709 023e 9bda 8abe bf59 043e
00000050: ae05 ca3e a5b1 743d 5d47 4e3e 5ace 673e
00000060: 79c7 3f3e aa40 dc3d c67c 8bbd 3dbe 5a3e
00000070: e51b 8ebe 2352 72bc 3a6b 463d 9eec 6a3e
00000080: b4e7 713e 68db 07bd ec70 52be ae59 83be
00000090: 33f4 0d3e df23 4eba 4755 343d 032d 8dbe
000000a0: 7494 fd3d 27db 7b3e d11c debd 3eae 7b3e
000000b0: 44ce dc3d ca8e 85bd 505f 4d3d dbe3 933e
000000c0: d4d5 1a3e bebe c0bd 2d75 2abe fae2 d3bc
000000d0: 1d2f 12be 34f2 ce3d e643 a9be d5ff 26be
000000e0: 43ff 4bbd feb9 49be 0f6f 7a3e 1041 833e
000000f0: b5bc e83c 1d99 aa3e 8eca c7bd c861 463e
00000100: 05e8 c6bc 9014 913d da47 153f 25df bf3e
00000110: 12f0 0ebf 36da e4bd e26b 2bbe 4cff 0bbe
00000120: 3222 df3e c1c2 553e d36a acbe 013b cd3c
00000130: 32e4 c4be 5807 043e 2aa9 723e 73aa a6bc
00000140: 2cf4 493e b2f1 67be e4a0 72be a5ee ad3e
00000150: b89f bd3f 2030 febd 7a98 c03a 0e66 453f
00000160: b651 88be 175a f63e 7e06 91bc c655 a1bd
00000170: 3ad2 30be 194d f13e c514 ad3d 3926 fbbd
00000180: d280 4e3e cf16 e93c 7b02 3f3d 07e4 af3e
00000190: ee2c 50be 57c7 e4bd 20a1 143f 11f0 c5bd
000001a0: 82b1 7ebe 957f 7a3e 2ecb 15bf d93f 22be
000001b0: 74a6 e5bc 0dc6 143f 0f6b 06bd 9278 e33d
000001c0: 68aa 8cbe f85e 273e d559 63be 0dd3 673d
000001d0: 687d 83bd 3d2e 8b3d e5a0 bfbe 8f38 883e
000001e0: 8d6c 9d3d e7b7 8fbd fb36 9c3e 64f3 04be
000001f0: 97f9 c4be 87ed 0c3e 3df0 a93d 970f 2abe
00000200: cb6f 253e 65e5 95bd 3140 84be 0303 a9be
00000210: ad27 aa3d 29cc be3d b049 1b3b dbb0 e53b
00000220: b53a a1bd 6186 fbbd 9faf 63bd a0c3 943d
00000230: 48e0 463e f0e3 e6bd eb35 00be 9dac 443d
00000240: a162 b1be c086 b5be 2574 96bd 1c94 e23d
00000250: 55b1 163d 7919 933e 5277 9f3d b658 2bbe
00000260: aac0 1abe 32a7 7bbe 7d1f 623e be67 c53c
00000270: 9443 893e 2fd2 33bc 9f38 253d a8d5 e83d
00000280: 5f20 f5bc f57a e4bd 2937 203e 8599 a73d
00000290: 1b9d 77bc 7c9d c23e 19cf 843e cf3b 723e
000002a0: 1287 cebd 6cbc 94bc bdf6 dfbd 0efe c2bc
000002b0: 260b 82be dd88 dbbd f6cd 28be b8b6 2cbe
000002c0: d29f 44bd 0c23 febd b564 bc3d 2087 f5bd
000002d0: f56c 8b3c 3c37 823c 36a6 07bd 03e8 333c
000002e0: f1ed 14bd a0dc 803c 02f8 8cbe 1a52 a23e
000002f0: 9baa 383c 6b82 e1bd 0dde bfbe 2ef4 02bc
00000300: 97a7 593e 9f08 09be 3c8d b6bd 33cc 7dbe
00000310: 3f9e 37be 5bab 213e 4ea8 b53e de8c 86be
00000320: ff3d 59be 3622 853d 36d6 8f3e c5b8 cfbd
00000330: 6070 323b 8039 4dbe 3fa1 92be 068b c83d
00000340: 459a c5be 8b1e 39bd 4a32 ffbd 5c1e 0bbe
00000350: c658 153e 4549 823e 259a f0bd da6e 063e
00000360: bb61 a33b 3e0b 30be d654 873e 4132 183e
00000370: 0c22 0dbf 31e7 2f3d 2a82 cbbc 765b a7bc
00000380: d8fc 183e cab1 5bbe 51d2 e3bd ef22 4abe
00000390: 675c 733d 6c2e 373e 9862 0abe 1cb4 19bf
000003a0: 6ed4 07be 48d5 e23d 9068 d4bd 460c cb3c
000003b0: 5af1 1dbe c7d9 4d3e b25f 7b3c 6b53 22be
000003c0: b8be f03d 6b49 a23e 7d0c 0cbe 4d71 80bd
000003d0: 5b11 ff3d 7e58 303e cec0 18be 55c0 f23d
000003e0: cbea 183e d3e7 04bc e10d b53c d0f6 ee3e
000003f0: 3b46 e2be 4426 23be 7565 fdbd 1564 573d

module.conv_layers.5.weight f4 [64, 64, 1, 1]
0.23300478 -0.075571306 -0.072789736 -0.0863427 -0.10258271 -0.09001014 -0.43808538 -0.046686538
0.099615 0.4497656 -0.67836756 0.45441377 -0.07582537 0.39052546 -0.19097896 -0.046303794
0.01117937 0.68794477 0.58318084 -0.2658502 -0.15699616 -0.069500476 -0.13019577 -0.47626227
-0.48879132 -0.19282402 0.08356444 -0.093791984 -0.509446 0.18952432 -0.09061168 -0.34117383
0.22972277 -0.23044531 -0.13930005 -0.021463936 -0.4151065 0.38565987 -0.15930863 -0.34707016
-0.1512555 -0.16995476 -0.028617209 0.6010001 -0.030724455 -0.33439627 -0.08612973 -0.30096707
0.11674741 0.018044434 0.22537415 -0.16814911 -0.022320898 0.3948967 0.45212796 -0.118319295
0.059466653 -0.22173454 0.8641622 0.24901067 -0.44253495 0.27391773 -0.27058762 0.02152772
-0.23448472 -0.32916722 0.35407022 -0.027292196 -0.27753532 -0.0038444446 -0.12718685 0.0057256063
-0.25268134 0.51283437 0.15039884 -0.15911295 -0.3192247 -0.12707904 -0.08749462 -0.05064546
-0.1372876 0.024403986 -0.062077172 -0.28869012 0.16405843 0.1183773 0.07713893 -0.04501439
-0.15291111 -0.28127673 0.18873468 0.04993291 -0.1022085 0.14204231 -0.16687524 0.038975663
-0.15590087 0.108467184 -0.33723614 -0.1771788 -0.37324825 0.033521354 0.07288583 0.045713868
0.019801723 -0.09883794 -0.20707235 -0.3436531 -0.1345445 -0.04637652 -0.43368924 -0.096848704
0.45453018 -0.23535496 0.23528945 0.08746232 0.100091174 -0.27656528 -0.117322125 0.44061473
-0.027566258 0.10961718 -0.17802511 -0.0398671 0.0091342665 0.4620113 -0.0964096 -0.1556013
-0.14049771 -0.40970597 0.15596691 -0.2359933 -0.33675566 0.10839215 0.078746416 -0.0005958918
-0.18258283 -0.10568864 0.7411946 0.5233755 -0.18115114 -0.273015 0.43603992 -0.22526467
0.12980397 0.2528536 -0.52058494 -0.06566069 -0.1883414 -0.14630088 -0.2661118 -0.3684087
0.16453028 0.12302473 0.17303854 0.068073004 -0.13405518 -0.3616589 -0.39889324 -0.5482474
0.062446896 0.027736159 0.08700078 0.0067074993 0.39287618 -0.16203675 -0.2990511 0.032526743
-0.19839147 -0.28084448 -0.1866374 0.2555156 0.5986322 -0.16231336 -0.069981694 -0.023246853
-0.14804594 -0.18844667 -0.08999648 0.17371196 0.25332156 0.040104233 0.1250143 0.085627146
-0.4132862 -0.11022668 0.6368144 0.16484074 -0.118653335 -0.1356077 -0.36944872 -0.16402228
0.025835298 -0.0012131691 0.34721088 -0.25018132 0.23256762 0.2402724 -0.09071485 0.4953158
-0.18212175 -0.15039515 0.16554616 0.021313798 -0.073460676 0.05599018 0.08165496 -0.08176188
-0.12903632 0.21884434 0.077575095 0.19853523 -0.09669479 -0.17557146 0.2322582 0.086878456
0.2169875 -0.0046564797 0.021741638 0.029019205 0.0087323105 -0.06800175 0.35616115 0.04302193
-0.1282413 0.0008258422 -0.16575187 0.18259124 0.39695892 -0.16130587 -0.01563231 -0.05311416
0.14679739 -0.14552455 -0.030862788 0.07719033 -0.13397288 -0.06302844 0.14255518 -0.26195726
0.044193134 0.008466447 -0.2670653 -0.17428184 0.029546207 -0.105516225 0.2408 -0.011576539
0.20026015 -0.07055206 -0.06693562 0.10978224 0.060405176 0.27053887 0.09529651 0.11185341
00000000: ce98 6e3e 21c5 9abd c912 95bd 71d4 b0bd
00000010: e216 d2bd 3c57 b8bd ba4c e0be 623a 3fbd
00000020: f302 cc3d ad47 e63e 7fa9 2dbf eca8 e83e
00000030: 554a 9bbd f4f2 c73e fd8f 43be 0ca9 3dbd
00000040: ad29 373c 261d 303f 574b 153f 841d 88be
00000050: 9ac3 20be 4456 8ebd 0a52 05be a6d8 f3be
00000060: db42 fabe a973 45be d523 ab3d 0316 c0bd
00000070: 0e6b 02bf aa12 423e 9e92 b9bd 56ae aebe
00000080: 723c 6b3e dbf9 6bbe aca4 0ebe 23d5 afbc
00000090: d788 d4be 3675 c53e cd21 23be 2eb3 b1be
000000a0: b9e2 1abe 9f08 2ebe a36e eabc 24db 193f
000000b0: dab1 fbbc fd35 abbe c964 b0bd 5b18 9abe
000000c0: 4419 ef3d ecd1 933c 7bc8 663e 482f 2cbe
000000d0: 51da b6bc e62f ca3e 517d e73e 6351 f2bd
000000e0: 4e93 733d 610e 63be bc39 5d3f a7fc 7e3e
000000f0: f193 e2be f23e 8c3e 768a 8abe e75a b03c
00000100: c31c 70be 9b88 a8be b148 b53e e293 dfbc
00000110: 1c19 8ebe 14f3 7bbb 453d 02be de9d bb3b
00000120: 735f 81be 1d49 033f 2702 1a3e 81ee 22be
00000130: 6b71 a3be 0221 02be 6130 b3bd 9d71 4fbd
00000140: 1f95 0cbe deea c73c a244 7ebd 31cf 93be
00000150: effe 273e cc6f f23d 04fb 9d3d 0261 38bd
00000160: bb94 1cbe 8103 90be aa43 413e 7386 4c3d
00000170: b152 d1bd 8a73 113e 58e1 2abe f2a4 1f3d
00000180: 7aa4 1fbe 0b24 de3d 37aa acbe 5c6e 35be
00000190: 651a bfbe b04d 093d 2b45 953d 773e 3b3d
000001a0: 3937 a23c 8c6b cabd c60a 54be 4df3 afbe
000001b0: 09c6 09be 4ef5 3dbd 840c debe 9d58 c6bd
000001c0: 2eb8 e83e e400 71be b8ef 703e 721f b33d
000001d0: 9afc cc3d f799 8dbe 9546 f0bd 4198 e13e
000001e0: a2d2 e1bc f97e e03d 374c 36be af4b 23bd
000001f0: e4a7 153c bf8c ec3e 6572 c5bd f255 1fbe
00000200: a2de 0fbe fbc4 d1be cab5 1f3e 3aa8 71be
00000210: 3d6b acbe b4fc dd3d cd45 a13d 9f35 1cba
00000220: fef6 3abe 4973 d8bd eebe 3d3f f0fb 053f
00000230: af7f 39be 9fc8 8bbe a040 df3e c8ab 66be
00000240: 55eb 043e 0776 813e 0e45 05bf 1d79 86bd
00000250: 91dc 40be e6cf 15be ce3f 88be 11a0 bcbe
00000260: a07a 283e 64f4 fb3d 0431 313e dc69 8b3d
00000270: c345 09be 5b2b b9be bc3b ccbe f159 0cbf
00000280: 51c8 7f3d f136 e33c 772d b23d 95ca db3b
00000290: 1127 c93e f6ec 25be 3a1d 99be c33a 053d
000002a0: 2227 4bbe d9ca 8fbe e01d 3fbe f1d2 823e
000002b0: f63f 193f 7935 26be 9052 8fbd 2f70 bebc
000002c0: 5b99 17be 2af8 40be 1350 b8bd 8ce1 313e
000002d0: 5db3 813e 5644 243d c003 003e 495d af3d
000002e0: 409a d3be 87be e1bd 4506 233f 03cc 283e
000002f0: 8500 f3bd bfdc 0abe 6228 bdbe 75f5 27be
00000300: 8ca4 d33c 3303 9fba a0c5 b13e c417 80be
00000310: 3526 6e3e f809 763e b5c8 b9bd 089a fd3e
00000320: 207e 3abe 3001 1abe ef84 293e 469a ae3c
00000330: 8d72 96bd f555 653d b73a a73d c672 a7bd
00000340: 1922 04be bb18 603e b1df 9e3d d24c 4b3e
00000350: eb07 c6bd 01c9 33be 18d5 6d3e 55ed b13d
00000360: f931 5e3e 6295 98bb 851b b23c afb9 ed3c
00000370: f711 0f3c 8044 8bbd c15a b63e c337 303d
00000380: b051 03be 557d 583a dcba 29be 33f9 3a3e
00000390: 333e cb3e 5e2d 25be 550f 80bc 3c8e 59bd
000003a0: 0e52 163e 6304 15be f5d3 fcbc f715 9e3d
000003b0: 3030 09be 0e15 81bd fcf9 113e 431f 86be
000003c0: dc03 353d dab6 0a3c c8bc 88be f076 32be
000003d0: e30a f23c e418 d8bd 4694 763e 86ab 3dbc
000003e0: ff10 4d3e 997d 90bd 8b15 89bd 83d5 e03d
000003f0: 6b6b 773d 1284 8a3e d12a c33d 6713 e53d

module.conv_layers.6.weight f4 [64, 64, 1, 1]
0.014430981 -0.18368492 0.46671125 0.12131291 0.11968608 0.11940097 -0.75274676 0.08670799
-0.19310471 -0.09565224 -0.31546265 0.21975243 -0.03169747 0.009634607 -0.10363607 -0.026978984
-0.5280654 -0.04100611 -0.54344565 -0.052174862 0.08532231 -0.28083336 -0.10680624 -0.33527327
-0.007509594 0.0009884039 0.3885873 0.05882695 -0.036095284 -0.08165812 -0.33772746 -0.10407349
0.09019259 0.09846954 1.0283059 0.06839756 -0.22428532 -0.08752736 -0.40420535 0.14664164
-0.15409587 -0.11467252 0.122867845 -0.09336531 -0.040580362 -0.059895013 0.014968375 -0.23224224
-0.08610564 0.10959382 0.41041192 -1.2096943 0.11556693 0.045279913 -0.61298 0.18447588
0.006054209 0.94648063 0.060939655 -0.16553709 -0.1302265 -0.117319465 -0.265711 -0.5863775
-0.17140865 0.25336707 0.23648645 0.031969562 -0.0076292963 0.010413044 -0.14888118 -0.026871514
-0.04647481 -0.02313122 -0.047566727 -0.03140135 -0.13355759 0.2369089 -0.1122635 0.021447975
0.0015581693 -0.20585302 0.043274354 0.07475954 -0.11938086 -0.15107925 0.134142 0.048137527
-0.11542208 0.36635596 0.028990394 -0.12913305 0.1257011 0.124974824 0.1847735 -0.075814866
-0.12971129 0.03547974 0.118536115 0.08106475 -0.07534538 -0.21383673 0.07211701 -0.23943189
0.22066836 -0.19752769 0.13685681 0.018438699 -0.21529475 -0.11016419 0.08290915 -0.045375314
-0.15584992 -0.2221557 -0.012254427 -0.0599199 0.017156811 -0.12234422 -0.09632304 0.0038524796
-0.16926652 0.056501895 0.1747189 0.029250754 -0.184693 -0.14524567 0.09679428 0.04954794
0.66890126 0.1237537 0.734361 -0.004384358 0.07863407 -0.28104 -0.60546225 0.4164493
-0.37398154 0.059573893 0.09984313 0.31490356 0.40221345 0.11037075 0.1385385 -0.1555245
0.42574495 0.11940211 -0.7077512 1.9040548 0.19800256 0.76729846 0.96157295 -0.35229993
-0.38694715 0.19694489 -0.059869263 0.009736617 0.103406884 0.20474729 0.2715251 -0.3914801
-0.19225432 -0.25094196 -0.5220046 0.11395306 -0.12681828 0.18465295 0.066314 0.02323387
0.47586074 0.7518294 -0.20302589 -0.18571447 -0.25902742 0.3936035 0.38601848 0.049933165
0.18179964 0.1415025 -0.1370503 -0.56730133 0.37504464 -0.13388306 -0.11060888 -1.0996159
0.02209212 -0.28060502 0.04337569 0.9052616 0.022261659 -0.22360027 0.18208496 -0.5717458
0.6700523 0.26245922 -0.27068925 -0.10803252 -0.038292054 0.024577294 -0.18277271 -0.108628176
-0.2887598 -0.21939072 -0.12975487 0.09112706 -0.008486342 -0.056303084 -0.31112888 0.19688751
-0.23910876 0.09514511 0.3925973 -0.019637058 0.02934019 -0.08739673 0.43061656 0.27152827
1.0838573 0.3114943 -0.1936079 -1.379848 -0.052132066 -0.14702389 0.3676036 0.2781744
1.152106 -0.2720997 0.4379291 -0.15753594 0.096191615 -0.09231171 0.36334696 0.059412815
0.0871081 -0.0786466 0.15625657 -0.024092356 0.053076353 -0.11275955 -0.08664637 -0.08647462
-0.11934154 0.033931002 0.16041073 0.11261082 0.03126806 -0.2163232 -0.19391787 0.30844948
-0.11629724 -0.28699398 -0.10092569 0.18127042 -0.12001643 0.12990685 -0.021237873 0.0333426
00000000: ec6f 6c3c e617 3cbe c7f4 ee3e e772 f83d
00000010: fa1d f53d 7f88 f43d 03b4 40bf f593 b13d
00000020: 3ebd 45be 52e5 c3bd 5284 a1be c806 613e
00000030: 35d5 01bd 78da 1d3c 263f d4bd 0803 ddbc
00000040: 4b2f 07bf 06f6 27bd 411f 0bbf 4fb5 55bd
00000050: 77bd ae3d 64c9 8fbe 3bbd dabd f0a8 abbe
00000060: 0a13 f6bb 558d 813a eaf4 c63e 87f4 703d
00000070: a6d8 13bd 5f3c a7bd 9dea acbe 7b24 d5bd
00000080: e5b6 b83d 66aa c93d 879f 833f 0514 8c3d
00000090: 0dab 65be 8b41 b3bd 01f4 cebe 3a29 163e
000000a0: 4fcb 1dbe 6dd9 eabd 23a2 fb3d 5036 bfbd
000000b0: 9837 26bd 7954 75bd ea3d 753c e9d0 6dbe
000000c0: 2758 b0bd ba72 e03d 8321 d23e 43d7 9abf
000000d0: 5bae ec3d 6e77 393d 42ec 1cbf 3fe7 3c3e
000000e0: 6362 c63b 8e4c 723f dc9b 793d 8e82 29be
000000f0: 185a 05be 3045 f0bd 460b 88be d61c 16bf
00000100: c085 2fbe 54b9 813e 8129 723e 84f2 023d
00000110: 2dff f9bb 799b 2a3c 4f74 18be a621 dcbc
00000120: 5f5c 3ebd af7d bdbc 54d5 42bd b49e 00bd
00000130: 52c3 08be 3f98 723e 68ea e5bd aab3 af3c
00000140: 7c3b cc3a 22cb 52be 7340 313d 881b 993d
00000150: f47d f4bd 85b4 1abe 855c 093e db2b 453d
00000160: 6962 ecbd 0293 bb3e 437d ed3c 743b 04be
00000170: cab7 003e cdf2 ff3d 4435 3d3e d344 9bbd
00000180: 09d3 04be 3453 113d 10c3 f23d 4705 a63d
00000190: ae4e 9abd 04f8 5abe 15b2 933d a22d 75be
000001a0: e3f6 613e b344 4abe 3124 0c3e c10c 973c
000001b0: 3a76 5cbe c39d e1bd 46cc a93d 77db 39bd
000001c0: 1f97 1fbe c97c 63be cbc6 48bc 926e 75bd
000001d0: 718c 8c3c 9b8f fabd 0445 c5bd e279 7c3b
000001e0: 3454 2dbe 886e 673d 83e9 323e 479f ef3c
000001f0: 2920 3dbe 48bb 14be 143c c63d c8f2 4a3d
00000200: 1d3d 2b3f 9472 fd3d 15ff 3b3f a9aa 8fbb
00000210: e60a a13d 7ae4 8fbe 93ff 1abf d838 d53e
00000220: 827a bfbe c103 743d 8e7a cc3d 0a3b a13e
00000230: ecee cd3e 0f0a e23d 09dd 0d3e d141 1fbe
00000240: 3efb d93e 1889 f43d 2f2f 35bf 11b8 f33f
00000250: 2fc1 4a3e ac6d 443f a529 763f a860 b4be
00000260: f01d c6be ecab 493e 7939 75bd 5586 1f3c
00000270: fdc6 d33d 46a9 513e 5705 8b3e 1470 c8be
00000280: 51de 44be 777b 80be 18a2 05bf 3960 e93d
00000290: a7dc 01be aa15 3d3e a2cf 873d f554 be3c
000002a0: 05a4 f33e e477 403f 05e6 4fbe ef2b 3ebe
000002b0: 3e9f 84be 6686 c93e 37a4 c53e b886 4c3d
000002c0: af29 3a3e 08e6 103e ea56 0cbe a93a 11bf
000002d0: da05 c03e a418 09be e986 e2bd 37c0 8cbf
000002e0: 89fa b43c 76ab 8fbe b5aa 313d 39bf 673f
000002f0: 155e b63c 78f7 64be 7b74 3a3e ef5d 12bf
00000300: 8c88 2b3f 0e61 863e c897 8abe 2740 ddbd
00000310: 21d8 1cbd 5256 c93c c528 3bbe 7378 debd
00000320: 53d8 93be f6a7 60be 76de 04be d3a0 ba3d
00000330: 4c0a 0bbc 109e 66bd 494c 9fbe e19c 493e
00000340: edd8 74be 70db c23d 8302 c93e e5dd a0bc
00000350: d75a f03c 0ffd b2bd c679 dc3e c105 8b3e
00000360: d6bb 8a3f 2e7c 9f3e 2641 46be dc9e b0bf
00000370: 6f88 55bd 6e8d 16be 8a36 bc3e e06c 8e3e
00000380: 3678 933f a750 8bbe 3e38 e03e 1a51 21be
00000390: 1c00 c53d ec0d bdbd 9d08 ba3e da5a 733d
000003a0: bb65 b23d 7811 a1bd b901 203e 555d c5bc
000003b0: 9766 593d 7bee e6bd a773 b1bd 9b19 b1bd
000003c0: 5669 f4bd 3cfb 0a3d b642 243e 80a0 e63d
000003d0: f012 003d d483 5dbe 6892 46be 17ed 9d3e
000003e0: 3f2d eebd e0f0 92be 21b2 cebd f49e 393e
000003f0: 2dcb f5bd 4d06 053e 0cfb adbc 4092 083d

module.conv_layers.7.weight f4 [64, 64, 1, 1]
-0.3616149 -0.20518942 0.276014 -0.19430964 -0.1367377 0.16511837 -0.16247506 0.2677427
-0.07772523 0.046362795 0.16885734 0.20410939 0.15084812 -0.19117849 -0.053376835 0.042715553
0.003562318 0.1183065 0.23380993 0.3663499 0.2364498 -0.047272477 0.029547174 -0.025664235
0.20369536 -0.093990065 0.35467026 -0.15244275 0.05316468 -0.43241823 -0.26655796 0.17537542
-0.23357408 0.0071613817 0.063623086 -0.0267826 -0.074988365 0.20479219 0.29891843 0.0038375345
0.06553764 0.09786114 0.31964967 -0.030467123 0.19365072 0.16895063 -0.2086901 0.02278906
-0.18377468 0.15106165 -0.22685638 0.06312838 0.07295042 -0.050190624 -0.06360188 -0.061493453
0.19416891 -0.039336305 0.08604459 0.05535279 0.053173866 0.14889656 0.17531319 0.1208799
-0.043874808 0.055878226 0.103897154 0.00060664536 1.3906764 0.11281568 0.17941114 -0.4516667
0.063560575 -0.26940998 0.34392494 0.13416722 -0.25781107 0.2299798 -0.046147224 -0.17607069
-0.31725574 0.056158952 0.06407961 -0.04560625 0.13777176 -0.08471008 0.5352968 0.12265426
0.10478539 -0.06845987 -0.19041342 0.13214423 -0.26428667 0.18899992 -0.4609497 0.32570285
0.056685235 0.12468267 -0.090135925 0.21866512 -0.12177379 -0.08807501 0.13492118 0.053714402
-0.17563917 0.49153656 -0.30478796 -0.016090486 -0.037577152 -0.5441417 0.17031425 0.31142607
-0.0005912146 -0.3386168 0.23099196 -0.10333472 0.29205605 0.15349261 0.3029925 -0.012104618
-0.12167811 -0.06014287 0.11681365 -0.10513137 -0.12639025 -0.031431817 0.069907404 1.0817745
-0.4166808 -0.3078102 0.008442046 0.17240089 0.13099937 0.03198731 0.26832965 -0.12265454
-0.1268592 -0.30410537 -0.03303605 0.12863699 0.33944306 -0.028082898 -0.13885908 0.24474859
0.056731734 -0.016458577 -0.11928168 -0.18440376 0.0413464 -0.106384814 0.00057364523 -0.2555092
-0.16768564 0.09041521 -0.10542068 -0.063818015 -0.12954511 0.20585981 -0.0389114 0.22949865
0.027169775 -0.13223396 0.057026874 0.033577282 -0.16407122 -0.18003629 -0.15417524 -0.27983338
-0.28983393 0.05107017 0.0032134925 -0.080563486 -0.071842454 0.024451992 -0.03747003 0.12963097
0.061727434 -0.006358893 -0.33832237 0.021602402 -0.23148829 -0.34115687 0.09896988 -0.2367594
-0.17215846 0.19459017 -0.11152288 0.08297297 0.22119655 0.093617626 -0.12707184 -0.17355685
-0.016888447 0.15018892 -0.28145036 -0.11788699 -0.42944172 0.04539257 -0.024297083 -0.03872013
-0.29428804 -0.019918885 -0.039640114 0.11613357 -0.08075284 -0.039677884 -0.088254996 0.07907365
-0.31110698 -0.21471298 0.3180681 0.14900982 0.88605684 0.20855516 -0.8073623 -0.067131825
-0.16628 -0.3531981 -0.12354753 -0.19665043 -0.15852511 -0.3483495 -0.0033987924 -0.2511611
0.11705146 0.08232156 -0.057973973 0.20360337 0.18173526 -0.02460077 -0.24774157 0.5535697
-0.11271314 0.05864224 0.015762957 0.07824454 -0.8894309 -0.17761467 -0.2270751 0.021496877
-0.4439129 0.05725404 -0.13612108 -0.78062165 0.13781057 -0.09768704 -0.21904577 0.18448606
-0.109108455 0.019002102 -0.84535134 -0.07915354 -0.18262856 0.333693 0.268538 -1.2118152
00000000: 9725 b9be 2d1d 52be b551 8d3e 1bf9 46be
00000010: f804 0cbe ca14 293e dd5f 26be 9215 893e
00000020: 682e 9fbd eae6 3d3d f0e8 2c3e 0d02 513e
00000030: ee77 1a3e 4bc4 43be aba1 5abd 81f6 2e3d
00000040: c775 693b ae4a f23d df6b 6f3e 3792 bb3e
00000050: e51f 723e c9a0 41bd ea0c f23c cd3d d2bc
00000060: 8495 503e dd7d c0bd 5797 b53e f419 1cbe
00000070: 35c3 593d ec65 ddbe 497a 88be 9d95 333e
00000080: 0b2e 6fbe 06aa ea3b d24c 823d 2f67 dbbc
00000090: 8093 99bd 0bb5 513e d60b 993e 257f 7b3b
000000a0: 9938 863d 6c6b c83d 1fa9 a33e 3096 f9bc
000000b0: 604c 463e 6501 2d3e dcb2 55be 1fb0 ba3c
000000c0: 6e2f 3cbe e8af 1a3e 0a4d 68be 7449 813d
000000d0: 0867 953d af94 4dbd b441 82bd 8fe0 7bbd
000000e0: 37d4 463e 1b1f 21bd 2538 b03d 9bb9 623d
000000f0: d7cc 593d 5778 183e 4d85 333e e28f f73d
00000100: 12b6 33bd 91e0 643d 08c8 d43d 4807 1f3a
00000110: af01 b23f e80b e73d 8eb7 373e dc40 e7be
00000120: 0c2c 823d 1bf0 89be ee16 b03e 2263 093e
00000130: d0ff 83be d37f 6b3e df04 3dbd e04b 34be
00000140: 586f a2be ee06 663d 2c3c 833d 9fcd 3abd
00000150: 0a14 0d3e 7a7c adbd 3609 093f 2832 fb3d
00000160: b999 d63d b034 8cbd bcfb 42be d150 073e
00000170: 9550 87be 3289 413e 9901 ecbe 86c2 a63e
00000180: c72e 683d a159 ff3d 2f99 b8bd c0e9 5f3e
00000190: 8964 f9bd ac60 b4bd c728 0a3e a203 5c3d
000001a0: c1da 33be aeaa fb3e 2b0d 9cbe 32d0 83bc
000001b0: 80ea 19bd df4c 0bbf dc66 2e3e 3d73 9f3e
000001c0: bdfb 1aba 2e5f adbe 2889 6c3e 27a1 d3bd
000001d0: 5f88 953e 2b2d 1d3e d521 9b3e 7352 46bc
000001e0: 5f32 f9bd 5f58 76bd ff3b ef3d 1e4f d7bd
000001f0: 726c 01be a6be 00bd 9d2b 8f3d 9677 8a3f
00000200: 3057 d5be 4c99 9dbe 8250 0a3c dc89 303e
00000210: b324 063e 2005 033d 8162 893e 4e32 fbbd
00000220: 61e7 01be b3b3 9bbe cf50 07bd 6ab9 033e
00000230: 7bcb ad3e 1b0e e6bc 1331 0ebe 609f 7a3e
00000240: 895f 683d 23d4 86bc f449 f4bd 57d4 3cbe
00000250: d85a 293d 48e0 d9bd ae60 163a 1ad2 82be
00000260: c9b5 2bbe 9c2b b93d cce6 d7bd 05b3 82bd
00000270: 79a7 04be eacc 523e 8f61 1fbd b201 6b3e
00000280: 2693 de3c 5768 07be 0395 693d 5588 093d
00000290: 4902 28be 6f5b 38be 1de0 1dbe 5246 8fbe
000002a0: 1d65 94be f42e 513d 7599 523b 78fe a4bd
000002b0: 2322 93bd 8b4f c83c 2d7a 19bd fbbd 043e
000002c0: e8d5 7c3d 435e d0bb 9738 adbe 85f7 b03c
000002d0: 440b 6dbe 1dac aebe b8b0 ca3d 0e71 72be
000002e0: 4f4a 30be a542 473e 1c66 e4bd bced a93d
000002f0: 5981 623e 99ba bf3d 1f1f 02be e3b8 31be
00000300: a459 8abc 20cb 193e 431a 90be bc6e f1bd
00000310: c9df dbbe 8fed 393d ad0a c7bc 0099 1ebd
00000320: ecac 96be ee2c a3bc ac5d 22bd 70d7 ed3d
00000330: bf61 a5bd 4785 22bd 09bf b4bd 5ef1 a13d
00000340: 6a49 9fbe b8dd 5bbe d2d9 a23e 0896 183e
00000350: 9fd4 623f 7c8f 553e 4caf 4ebf 697c 89bd
00000360: 4e45 2abe 62d6 b4be 7d06 fdbd bb5e 49be
00000370: 6854 22be de5a b2be 46be 5ebb 3098 80be
00000380: adb8 ef3d 3598 a83d 1e76 6dbd 677d 503e
00000390: cf18 3a3e 8e87 c9bc f7af 7dbe beb6 0d3f
000003a0: 26d6 e6bd d832 703d 5121 813c ac3e a03d
000003b0: beb1 63bf 9fe0 35be 6086 68be 381a b03c
000003c0: 8d48 e3be 3683 6a3d 5363 0bbe d2d6 47bf
000003d0: 371e 0d3e 2510 c8bd 894d 60be eae9 3c3e
000003e0: 4174 dfbd 4caa 9b3c f268 58bf 401b a2bd
000003f0: fb02 3bbe cfd9 aa3e d07d 893e c31c 9bbf
